best_model.pth (torch, 754338 bytes, 70 tensors)

z_embedding.weight f4 [1000, 64]
0	0x3dd706ef	0.10499369
1	0xbd0a028f	-0.033693846
2	0xbf8296e4	-1.0202298
3	0x3fec549c	1.8463321
4	0xbe49c531	-0.19704129
5	0xbac44134	-0.0014973045
6	0x3f5bb1b4	0.8581803
7	0xbf0bf642	-0.54672635
8	0xbe015273	-0.12629108
9	0xbd773f7b	-0.060363274
10	0xbd1a83b4	-0.03772326
11	0xbd97ce9b	-0.07412454
12	0x3f9102c4	1.1328969
13	0xbe788e63	-0.24273066
14	0x3ec7c13f	0.39014623
15	0xbefa68ab	-0.4890798
16	0x3f098070	0.53711605
17	0xbdb4bb2a	-0.08824761
18	0x3d60d594	0.054891184
19	0x3e91430a	0.2837146
20	0xbe9887da	-0.29791147
21	0x3bcd3d25	0.0062633925
22	0x3e8ed773	0.2789875
23	0x3c9b5891	0.01896313
24	0x3f8acd90	1.0843983
25	0xbd6aaef4	-0.057295755
26	0xbdc03723	-0.093855165
27	0x3f28ccf0	0.6593771
28	0x3d0bac9c	0.03410016
29	0x3b081644	0.0020765224
30	0xbe038df9	-0.12847127
31	0xbd90d92a	-0.07072671
32	0x3dc657e0	0.096847296
33	0xbb4b1efb	-0.0030993808
34	0xbdce452e	-0.10071789
35	0xbe81aa1e	-0.25325102
36	0x3d30325d	0.04301678
37	0x3e2c5a9e	0.16831443
38	0xbd221985	-0.03957512
39	0x3cbf5504	0.023355968
40	0xbfcd6eac	-1.6049399
41	0x3e39ea5e	0.1815581
42	0x3db8fe63	0.090328954
43	0x3cf1a226	0.029496264
44	0xbd9c94fd	-0.07645605
45	0x3ba2182d	0.0049467296
46	0xbea68643	-0.3252431
47	0xbede5121	-0.4342127
48	0xbc2b985d	-0.010473338
49	0x3d0fc637	0.03510114
50	0xbe104b63	-0.14091258
51	0x3e1164e7	0.14198647
52	0x3d89ec9b	0.06734582
53	0x3e82c84a	0.25543433
54	0xbce40fb0	-0.027839512
55	0x3f8e2bbc	1.1107097
56	0xbf808538	-1.0040655
57	0x3e25e8c0	0.16202068
58	0xbd7603fb	-0.06006239
59	0xbc846e52	-0.016165886
60	0xbe191f6a	-0.1495339
61	0xbc66c697	-0.014085433
62	0x3eb33f15	0.35009065
63	0x3d8b23a7	0.067939095
64	0x3d7d05fc	0.061773285
65	0xbd9714c9	-0.07377011
66	0xbe21c52c	-0.15797871
67	0x3d9d82e8	0.07690984
68	0x3db50289	0.08838374
69	0x3c8ca802	0.017169956
70	0x3e071d5c	0.13194793
71	0xbd1199d6	-0.0355471
72	0xbe652c9e	-0.22380301
73	0xbd873e40	-0.0660367
74	0xbd23a07e	-0.03994798
75	0xbd368201	-0.044557575
76	0x3f0d9594	0.55306363
77	0x3ea16b4c	0.31527174
78	0x3d620719	0.05518255
79	0xbe96f4a4	-0.2948352
80	0x3e754fb2	0.23956183
81	0xbe867e00	-0.26268005
82	0x3eb53341	0.35390666
83	0xbca9cb2b	-0.02072676
84	0xbf8c35ad	-1.095388
85	0x3c860326	0.016358923
86	0x3d96be6b	0.07360538
87	0xbdfbf843	-0.123032115
88	0x3f5bc5d4	0.85848737
89	0xbd48e905	-0.04905035
90	0x3edfe7e4	0.43731606
91	0x3f6d5750	0.92711353
92	0xbde2c702	-0.11073114
93	0x3b49eb8d	0.0030810565
94	0xbd1864b9	-0.03720543
95	0xbf13880f	-0.57629484
96	0x3e3d529d	0.18488546
97	0xbc107fa6	-0.008819496
98	0xbe4b661a	-0.19863167
99	0x3f0d26c1	0.5513726
100	0x3d177abb	0.03698228
101	0xbd90d718	-0.07072276
102	0xbd00bca4	-0.0314299
103	0xbc991f7e	-0.018691774
104	0xbe3b6fe7	-0.18304406
105	0x3e049d28	0.12950575
106	0x3ed97649	0.42473057
107	0x3cf4ad50	0.029867798
108	0xbdc02bd5	-0.0938336
109	0x3f520818	0.820436
110	0xbd9f34c8	-0.07773739
111	0xbdc52978	-0.0962705
112	0xbcdf860a	-0.027285594
113	0x3ebe9b92	0.37228066
114	0xbf805d88	-1.0028543
115	0x3fbff618	1.4996977
116	0x3dd81e77	0.10552686
117	0x3e9f8f4d	0.31164017
118	0xbd5a0f49	-0.053237233
119	0x3e07d575	0.13265021
120	0xbe2f6d1f	-0.1713147
121	0x3ea426d0	0.32060862
122	0xbce9d2d0	-0.028542906
123	0xbc87a345	-0.016557345
124	0xbb1f83db	-0.0024340067
125	0xbe3fb9c3	-0.18723206
126	0xbdb4460a	-0.088024214
127	0x3e514544	0.20436579
128	0x3df48782	0.119399086
129	0x3cb1c5e2	0.021700803
130	0x3d1847b0	0.03717774
131	0xbe3be03d	-0.18347259
132	0xbd7e4701	-0.062079433
133	0x3a9d7e98	0.0012015877
134	0xbbcd0d33	-0.006257677
135	0x3c18b0e1	0.009319515
136	0x3ce9fb00	0.028562069
137	0x3f781ed7	0.9692206
138	0x3e03b82c	0.12863225
139	0x3c34fa5f	0.011046021
140	0xbe8e4988	-0.27790475
141	0xbc8e9b30	-0.017407984
142	0xbc3db19c	-0.01157799
143	0x3d02ee64	0.03196563
144	0xbccabe0e	-0.024748828
145	0x3d0009de	0.03125941
146	0xbe6c65f6	-0.2308577
147	0xbf37bdae	-0.71773803
148	0x3d5da01d	0.054107774
149	0x3e23828c	0.15967768
150	0xbf59d592	-0.8509151
151	0xbba9e2aa	-0.005184491
152	0xbd6a4546	-0.05719497
153	0x3be60cff	0.007020592
154	0xbc0e7a4e	-0.008696152
155	0x3d4ebff4	0.05047603
156	0x3ed265d6	0.4109332
157	0xb9e51c5c	-0.00043699413
158	0x3ea2de10	0.31810045
159	0xbf69aaac	-0.9127605
160	0xbf18a70c	-0.59629893
161	0x3b2fc8a5	0.0026822474
162	0x3c85b230	0.016320318
163	0xbcd417c2	-0.025890235
164	0x3c8e3b05	0.017362127
165	0xbe3665c3	-0.17812257
166	0x3c14410a	0.00904871
167	0xbbd425ff	-0.006474256
168	0x3e034ea2	0.12822965
169	0xbd1eddbd	-0.038785685
170	0xbd4f5f95	-0.050628264
171	0xbe8746eb	-0.26421294
172	0x3bcb496b	0.0062038205
173	0xbd2f72dc	-0.042834148
174	0x3e0e15ea	0.13875547
175	0x3c6d4a53	0.014483052
176	0x3d8e10dd	0.0693681
177	0xbc03c8cd	-0.00804348
178	0x3d02f611	0.03197295
179	0xbeb33af3	-0.35005912
180	0xbd12e131	-0.03585929
181	0xbcde9636	-0.027171236
182	0x3c6fac39	0.014628463
183	0xbf26016e	-0.6484593
184	0x3cea51c0	0.028603435
185	0xbe31e519	-0.1737255
186	0x3bf6621d	0.0075190202
187	0x3c28cdc5	0.0103029655
188	0x3c9e834e	0.01934972
189	0x3c478a4d	0.01217897
190	0xbad1613e	-0.0015974415
191	0x3e42a1d8	0.19007051
192	0xbcd06c67	-0.025442315
193	0x3d3267d1	0.04355604
194	0x3ec23197	0.3792846
195	0xbd472cdb	-0.048626762
196	0xbe47b301	-0.19501878
197	0x3d0f8407	0.03503802
198	0xbd6a3c3d	-0.057186354
199	0xbd3d327c	-0.046190724
200	0x3dc19536	0.09452288
201	0xbdd4e916	-0.1039602
202	0x3e420869	0.1894852
203	0xbd191ff5	-0.037383992
204	0x3da560a1	0.08075071
205	0xbd424a09	-0.047433887
206	0xbd088f08	-0.03333953
207	0x3daae735	0.083448805
208	0xbe0e8530	-0.13917994
209	0x3d8b8d9f	0.068141215
210	0xbdaaca3c	-0.083393544
211	0xbdb2c7d4	-0.087295204
212	0x3e03e495	0.12880166
213	0xbba8ea98	-0.005154919
214	0xbe5b1c61	-0.21397544
215	0xbc6c000e	-0.01440431
216	0xbddeae4b	-0.108730875
217	0x3cbe3cbb	0.023222318
218	0xbc8f0cee	-0.01746222
219	0xbdf694b6	-0.12040083
220	0x3ec152d8	0.37758517
221	0x3c16c30e	0.009201778
222	0xbd1c38d7	-0.038140144
223	0xbe289252	-0.16462067
224	0xbd4a3bf3	-0.04937358
225	0x3bf0c785	0.0073480033
226	0x3d2ed5a5	0.042684216
227	0xbf15954c	-0.58430934
228	0xbeaee49d	-0.34158793
229	0xbd499511	-0.049214426
230	0x3e8dd8cb	0.27704462
231	0xbe550fc6	-0.20806798
232	0x3daeb03e	0.08529709
233	0xbf8bd29c	-1.0923648
234	0xbf62a99d	-0.8854006
235	0xbcc1c0fb	-0.02365159
236	0x3c40ae84	0.011760358
237	0xbec3c8e7	-0.38239214
238	0x3cc860d4	0.024460234
239	0x3d19d55e	0.037557
240	0xb98b191c	-0.00026530854
241	0x3e221c89	0.15831198
242	0x3deb2daa	0.11483319
243	0xbde4bc91	-0.11168779
244	0xbf96c328	-1.1778307
245	0xbd8d777a	-0.06907554
246	0x3d1d1942	0.038354166
247	0xbf88ae3f	-1.0678176
248	0x3e14955b	0.145101
249	0xbf2314eb	-0.63703793
250	0x3c714507	0.01472593
251	0xbe1edfd8	-0.15515077
252	0x3f0f45ac	0.55965686
253	0x3d05923b	0.03261016
254	0x3d910119	0.070802875
255	0xbd33efa4	-0.04392971

convs.0.bias f4 [64]
0	0xbd1f5d42	-0.038907297
1	0x36d7e604	6.4342767e-06
2	0x3669af02	3.4821574e-06
3	0x0983fec3	3.177668e-33
4	0x3c728960	0.014803261
5	0x082e8284	5.251464e-34
6	0xbcebb207	-0.028771413
7	0xb589718d	-1.0240343e-06
8	0x8741c34f	-1.4577102e-34
9	0x341442a0	1.3807812e-07
10	0x3ba5c3a1	0.005058721
11	0xbc9aa1b8	-0.018875942
12	0xbcba42d7	-0.02273695
13	0x0d42d171	6.003297e-31
14	0xbd1ab811	-0.037773196
15	0xbc4ffe07	-0.012694842
16	0x9571b016	-4.880847e-26
17	0xbc7b9934	-0.015356351
18	0x849471d9	-3.4899185e-36
19	0xbc897c3d	-0.016782874
20	0x08c0d4e1	1.1605627e-33
21	0x333b2e4e	4.3581444e-08
22	0xafec67a5	-4.3001794e-10
23	0xbd47a450	-0.048740685
24	0xbc8ca848	-0.017170087
25	0x87f04524	-3.6151824e-34
26	0xbd2c6f28	-0.042098194
27	0xbcba6c22	-0.02275664
28	0x8abbddc4	-1.8090864e-32
29	0x18fbeed2	6.5123126e-24
30	0x0a5e60b0	1.0707096e-32
31	0xba8b2be6	-0.0010617941
32	0xbc3872d6	-0.011257848
33	0x3cf4c808	0.029880539
34	0xbd390797	-0.045173254
35	0x3c4f6318	0.012657903
36	0xb366e052	-5.3755066e-08
37	0x123d94da	5.982136e-28
38	0xbcba1261	-0.022713842
39	0x085c4a80	6.6291416e-34
40	0xb47026a8	-2.2365805e-07
41	0xbd32fe70	-0.04369968
42	0x87634d71	-1.710034e-34
43	0x3ae57726	0.0017506822
44	0xbb498df5	-0.003075478
45	0x3cdf6062	0.027267639
46	0x2fbbf313	3.4187816e-10
47	0xbbe846d0	-0.0070885196
48	0xbd034a5b	-0.032053333
49	0x3c19d292	0.009388583
50	0x0ede0499	5.4731653e-30
51	0x3da76e18	0.081752956
52	0x8ba5262f	-6.361314e-32
53	0xb7b00eb5	-2.0987683e-05
54	0xbdabda76	-0.083912775
55	0x3adc957e	0.001682922
56	0x168aaac2	2.2402866e-25
57	0x32b3b773	2.0921766e-08
58	0x8b3c5f20	-3.6279047e-32
59	0x05f58902	2.3090018e-35
60	0x0931bb7b	2.1393753e-33
61	0x88e9de45	-1.4075433e-33
62	0x08b2c410	1.0759079e-33
63	0x80afa1b4	-1.612922e-38

convs.0.lin.weight f4 [64, 129]
0	0x39ff8ab9	0.00048740747
1	0x390c3ffd	0.00013375278
2	0x3cf8c4e5	0.030367324
3	0xbc8ef945	-0.017452845
4	0x3c271368	0.010197498
5	0xb81f1128	-3.7924532e-05
6	0xbd6cda73	-0.057825517
7	0x3b3d2e15	0.0028866578
8	0xba369dd6	-0.00069662684
9	0xb99a07d4	-0.00029379
10	0x37e99d5c	2.784904e-05
11	0xb80537a3	-3.1761487e-05
12	0xbdc00c19	-0.093773074
13	0x3c2a0772	0.010377752
14	0xbcc74cea	-0.024328668
15	0x3c9c22a3	0.019059485
16	0x3b570acf	0.003281284
17	0xb937bcf3	-0.00017522629
18	0x3a1ac996	0.00059046724
19	0x3b1cf428	0.002394924
20	0xbc9467dc	-0.01811593
21	0xb75caea8	-1.3153687e-05
22	0x3b5da339	0.0033819212
23	0x39769416	0.00023515554
24	0x3d0b9911	0.034081522
25	0xb86f3f14	-5.7040786e-05
26	0xb92ed862	-0.00016674542
27	0x3c64d2db	0.0139662875
28	0xb9dfc4b0	-0.00042680418
29	0xb8003438	-3.056621e-05
30	0x3aac92cb	0.0013166306
31	0x3b262cdd	0.002535633
32	0x3a27868a	0.00063905923
33	0xb8c13ae2	-9.213925e-05
34	0x3c2501f4	0.010071266
35	0x3bd39bf4	0.0064578
36	0x379323cb	1.7540433e-05
37	0x3ab0fdb9	0.001350335
38	0xb91ee24e	-0.00015152359
39	0xb93689c0	-0.00017408188
40	0xbd084249	-0.03326634
41	0x3a5cbcc4	0.0008420462
42	0x3adb1a04	0.0016716127
43	0x39fa75d6	0.0004777151
44	0xba63bce1	-0.0008687508
45	0x3bc25f57	0.0059317756
46	0x3c89fa64	0.016843028
47	0x3c6e17de	0.014532058
48	0xb8a7578a	-7.979486e-05
49	0xbb89f128	-0.0042096563
50	0x3cab1947	0.020886077
51	0xbd0a97b3	-0.033836078
52	0xb78ece44	-1.7023769e-05
53	0xbc338eab	-0.010959308
54	0xb6490cce	-2.9958787e-06
55	0xbc6dcf81	-0.014514805
56	0x3c7cd9e3	0.015432808
57	0x3b70f0e6	0.003676468
58	0xb915a74e	-0.00014272073
59	0xb836c94f	-4.3579665e-05
60	0xb9ce2159	-0.00039316228
61	0x38c3de2a	9.339706e-05
62	0xbb06293d	-0.0020471357
63	0x38f4360b	0.00011644893
64	0xb954e119	-0.00020301751
65	0xb801121a	-3.0772855e-05
66	0x387a94bd	5.9743168e-05
67	0x3734aba6	1.0768801e-05
68	0x3731c9ee	1.05970375e-05
69	0x39591be1	0.00020705118
70	0x3783b9c6	1.5702924e-05
71	0xb8154a5c	-3.559362e-05
72	0xb837893f	-4.375842e-05
73	0xb8b0e546	-8.4350395e-05
74	0x3896321d	7.161892e-05
75	0xb8defbb9	-0.00010632672
76	0xb87444e3	-5.823829e-05
77	0x390d44ab	0.00013472389
78	0x38ec622f	0.00011271645
79	0xb7dd3315	-2.636904e-05
80	0x37337cec	1.0698317e-05
81	0x3870476e	5.7286983e-05
82	0x382b7504	4.0878556e-05
83	0x38c63fb0	9.4532385e-05
84	0x38da6ac6	0.00010414938
85	0x38a054c0	7.6451804e-05
86	0x37a1dcae	1.9295458e-05
87	0x35b71739	1.3641321e-06
88	0x3500f213	4.803598e-07
89	0xb8640b0b	-5.436972e-05
90	0x3874d574	5.8372927e-05
91	0x3981d0da	0.00024760404
92	0x39105489	0.00013764402
93	0xb9516928	-0.00019970967
94	0xb8acf51d	-8.247255e-05
95	0xb8a88c4f	-8.036999e-05
96	0xb91948d5	-0.00014618349
97	0x38de3ab1	0.00010596717
98	0x3884ecb2	6.3383384e-05
99	0x3697531e	4.509827e-06
100	0xb7e6bc74	-2.7505892e-05
101	0xb9191d6b	-0.00014602176
102	0xb8b8bf39	-8.809422e-05
103	0x38b6200b	8.684405e-05
104	0xb786ef52	-1.6085487e-05
105	0xb82ed846	-4.1686253e-05
106	0xb946199c	-0.00018892292
107	0xb912faa4	-0.00014017016
108	0x38a7d302	8.002484e-05
109	0x3996498c	0.00028665026
110	0xb753acd2	-1.2616818e-05
111	0x3918f13b	0.00014585715
112	0xb91db7e6	-0.00015041194
113	0xb87787f7	-5.9016016e-05
114	0x39900213	0.00027467366
115	0xb73815bc	-1.0972315e-05
116	0x3929e522	0.00016202455
117	0x39183d30	0.00014518644
118	0x383a4c6b	4.4417025e-05
119	0xb8a34dca	-7.786935e-05
120	0xb955e91f	-0.00020400107
121	0x396ab3fd	0.0002238303
122	0x388075af	6.125436e-05
123	0x38076fff	3.2290813e-05
124	0x3783f6fe	1.5731432e-05
125	0x38df1918	0.00010638143
126	0xb8b57da5	-8.654156e-05
127	0xb8f96626	-0.00011892272
128	0xb998b984	-0.0002912992
129	0x34847bc2	2.4676962e-07
130	0xb50d59a3	-5.265703e-07
131	0xb58a5457	-1.0306347e-06
132	0x34b5ebdc	3.3885487e-07
133	0x35050f26	4.9568405e-07
134	0x3400867f	1.1969858e-07
135	0x354bfa8e	7.5988e-07
136	0xb45433c0	-1.9762865e-07
137	0xb59a94f2	-1.1517243e-06
138	0xb4d61da0	-3.988216e-07
139	0xb47c498a	-2.3496082e-07
140	0xb43c98a1	-1.756439e-07
141	0x360ecc7c	2.1278674e-06
142	0x35c45da5	1.4630392e-06
143	0x34e6aadc	4.2965155e-07
144	0xb60c1761	-2.0875234e-06
145	0x3595b90a	1.1155219e-06
146	0xb6058b6b	-1.9899696e-06
147	0x3629d3ac	2.5306172e-06
148	0xb3b7f244	-8.5656694e-08
149	0xb6ad474e	-5.1641027e-06
150	0x33db7725	1.02196545e-07
151	0x3510e988	5.3984013e-07
152	0xb51d7dd2	-5.867015e-07
153	0x3683861e	3.9197175e-06
154	0xb467432f	-2.1537993e-07
155	0x35fb392e	1.8717599e-06
156	0x366eb241	3.556852e-06
157	0xb55138b0	-7.794106e-07
158	0x328e1884	1.6542124e-08
159	0xb49dd820	-2.940078e-07
160	0xb627a740	-2.4982292e-06
161	0x35b453dc	1.3435451e-06
162	0xb386dd89	-6.280158e-08
163	0xb5bfa1a0	-1.4277648e-06
164	0x361dbf80	2.350629e-06
165	0x343b5935	1.7448185e-07
166	0xb4a1f8f3	-3.016972e-07
167	0xb451b3e4	-1.9530086e-07
168	0xb415d015	-1.3952406e-07
169	0xb58a1243	-1.0287116e-06
170	0x3543e8ba	7.298182e-07
171	0x35f72ecb	1.8416553e-06
172	0x3461523e	2.0984677e-07
173	0xb539f591	-6.9275217e-07
174	0x36a42e6e	4.892986e-06
175	0xb4a2623e	-3.0246332e-07
176	0xb54d8dc6	-7.657476e-07
177	0xb437c2f8	-1.7114132e-07
178	0x36158ec3	2.2285828e-06
179	0xb6a22594	-4.832351e-06
180	0x36b54bea	5.403058e-06
181	0x354e1d83	7.6783925e-07
182	0x35fdfca4	1.8923497e-06
183	0xb4a18326	-3.008401e-07
184	0x35770572	9.2022594e-07
185	0xb52db682	-6.4713106e-07
186	0x361499bf	2.214321e-06
187	0xb4637383	-2.1183045e-07
188	0xb3bc6c00	-8.774077e-08
189	0xb3118a6f	-3.3886348e-08
190	0xb583b11b	-9.811805e-07
191	0xb4bbc2bc	-3.4973152e-07
192	0x35cb2a8d	1.5137063e-06
193	0xbba0d053	-0.0049076467
194	0xb6b34664	-5.3428103e-06
195	0x36358fac	2.705473e-06
196	0x35b9cc27	1.384299e-06
197	0x361048da	2.1500077e-06
198	0xb5c6c1f9	-1.4808603e-06
199	0xb586d446	-1.0045558e-06
200	0x36015a46	1.9275044e-06
201	0xb64c6251	-3.0455597e-06
202	0x360cd70a	2.0986795e-06
203	0xb4a4b8de	-3.068189e-07
204	0xb58c815a	-1.0468459e-06
205	0x3639e964	2.7703e-06
206	0x3616048f	2.2354395e-06
207	0x349bf460	2.9048806e-07
208	0xb674db6d	-3.6486556e-06
209	0xb5d4a1d8	-1.5842334e-06
210	0xb64c163e	-3.0411315e-06
211	0xb5c31253	-1.4533965e-06
212	0x36ae800d	5.200511e-06
213	0xb66f9ce1	-3.570509e-06
214	0x363c37d9	2.804669e-06
215	0xb567c15d	-8.6335587e-07
216	0xb6203adb	-2.3876116e-06
217	0xb6770782	-3.6810238e-06
218	0x35766582	9.1789855e-07
219	0x35bc8c0d	1.4047852e-06
220	0x36194432	2.2838472e-06
221	0xb535dbf8	-6.774785e-07
222	0xb6232a28	-2.431343e-06
223	0xb5413b37	-7.198427e-07
224	0x3652307e	3.1320665e-06
225	0x36a8a586	5.0260596e-06
226	0x36535710	3.1492127e-06
227	0xb42f2369	-1.6311027e-07
228	0xb646ce8b	-2.9624523e-06
229	0xb62c22a8	-2.565017e-06
230	0xb61961c6	-2.2855688e-06
231	0xb5f694ba	-1.8371713e-06
232	0xb62cb1d9	-2.5733518e-06
233	0xb622364a	-2.4171482e-06
234	0xb640ea10	-2.8746472e-06
235	0x35fb1c2d	1.8709158e-06
236	0x35b553fc	1.3509994e-06
237	0xb62548c6	-2.4629276e-06
238	0x36070304	2.0118323e-06
239	0x3545d199	7.3693224e-07
240	0xb68b1bb0	-4.145746e-06
241	0xb6a6bd65	-4.969234e-06
242	0xb60654b0	-2.001685e-06
243	0x34ba1618	3.4661275e-07
244	0x35354e7c	6.7541964e-07
245	0xb666f364	-3.4414343e-06
246	0x34ef8c3e	4.461926e-07
247	0x367c5672	3.7601244e-06
248	0x34d5ff0e	3.9859918e-07
249	0xb6a07328	-4.7817775e-06
250	0x35e9e59c	1.7426678e-06
251	0xb4866603	-2.5033668e-07
252	0xb5a8e669	-1.2584034e-06
253	0xb5c02406	-1.4315599e-06
254	0x357c8039	9.4063904e-07
255	0xb65200fa	-3.1293007e-06

convs.1.bias f4 [64]
0	0x3cce0a1e	0.025151309
1	0x3daf05a9	0.085460015
2	0x3cda846f	0.026674477
3	0x3d642ee9	0.0557088
4	0x3d7035b7	0.058644976
5	0x3d48fd99	0.049069975
6	0x3d8f88a2	0.070084825
7	0x3d2883b7	0.041141238
8	0x3d2e5020	0.042556882
9	0x3d242682	0.040075786
10	0x3d7d29d1	0.061807457
11	0xbbf3672a	-0.0074280696
12	0x3d168f90	0.036758006
13	0x3d875bb5	0.066092886
14	0xbcf03381	-0.029321434
15	0x3d756bc4	0.059917226
16	0x3d96544b	0.07340296
17	0x3bec2607	0.0072066817
18	0x3c71aa55	0.014750083
19	0x3de2f66e	0.11082159
20	0x3dbb3683	0.09141257
21	0x3d1a9636	0.03774091
22	0x3d358b84	0.044322506
23	0x3cc5f9a8	0.024166897
24	0x3dbe846d	0.09302602
25	0x3d8a3501	0.06748391
26	0x3c71d3d8	0.01475998
27	0x3d5c1153	0.05372746
28	0x3d83e945	0.06440977
29	0x3cffbfe5	0.031219432
30	0x3d868a63	0.06569364
31	0x3c2e2431	0.010628746
32	0x3d8398dc	0.0642564
33	0x3bd0989b	0.0063658482
34	0xbc25b302	-0.01011348
35	0x3c7534d6	0.01496621
36	0x3c9c385b	0.019069841
37	0x3cc779a0	0.024349988
38	0x3cb7fe8a	0.02246024
39	0x3cf01690	0.029307634
40	0xbc15967e	-0.009130118
41	0x3dcc1fe0	0.09967017
42	0x3d81a986	0.06331162
43	0x3d382689	0.044958625
44	0x3c579a56	0.013159355
45	0x3d7cf59c	0.06175767
46	0xba0202a1	-0.0004959498
47	0xbafd08ca	-0.0019304988
48	0x3d315104	0.043290153
49	0xba836d6a	-0.0010027115
50	0x3d1909f7	0.03736302
51	0x3d4be9cf	0.049783524
52	0x3d720270	0.059084356
53	0x3d092021	0.033477906
54	0xba06b9a1	-0.0005139355
55	0x3d1bd8d8	0.038048595
56	0x3d82f162	0.06393696
57	0x3c78d62a	0.015187779
58	0x3cef9aca	0.029248614
59	0x3d934cb5	0.07192365
60	0x3d8cb9a0	0.06871343
61	0x3be51923	0.006991522
62	0xbc124254	-0.008926947
63	0x3c5cad7d	0.013469097

convs.1.lin.weight f4 [64, 64]
0	0x3cd8c952	0.026463185
1	0xb2fa4ef9	-2.9139743e-08
2	0x3967086d	0.00022033016
3	0x84a5e2cf	-3.8999604e-36
4	0x3e241aa4	0.16025788
5	0x118043b8	2.0236574e-28
6	0x3dad1784	0.08451751
7	0xb9089382	-0.00013024922
8	0x80001bb9	-9.945e-42
9	0xb68f54e6	-4.2716156e-06
10	0x3e263f8e	0.16235182
11	0x3c92f678	0.017939791
12	0x3db33183	0.08749678
13	0x9ec5d9d0	-2.0948271e-20
14	0x3dc6d514	0.0970861
15	0xbdaf2dce	-0.085536584
16	0xa2448044	-2.6630856e-18
17	0xbe200776	-0.15627846
18	0x8fc3b1d8	-1.9296987e-29
19	0xbd9b9ca8	-0.07598239
20	0x24201880	3.4715222e-17
21	0xb5368b60	-6.80031e-07
22	0x344edfb8	1.9266633e-07
23	0xbd5f67e2	-0.05454243
24	0xbe264993	-0.16239004
25	0x0008a937	7.95387e-40
26	0x3dd751a6	0.1051362
27	0x3de048f5	0.109514154
28	0xa19ae74d	-1.0496671e-18
29	0x9f132ad4	-3.1163887e-20
30	0x1b11eb93	1.2070237e-22
31	0xbb1d5d42	-0.0024011885
32	0xbca72e4f	-0.020407824
33	0xbddd7567	-0.10813408
34	0x3bcc187f	0.006228506
35	0x3da28cca	0.0793701
36	0x36d76e1b	6.4203173e-06
37	0x96eebe30	-3.8571e-25
38	0xbdfa0ff3	-0.12210073
39	0x862ad590	-3.2130347e-35
40	0x3a095c6c	0.0005239907
41	0xbd916624	-0.0709956
42	0x8553af7b	-9.953403e-36
43	0xbe2cad8a	-0.16863075
44	0xbcb92796	-0.022601884
45	0xbd213efa	-0.0393667
46	0xaa96b6cf	-2.6772202e-13
47	0xbdb17255	-0.08664385
48	0x3ce354f1	0.027750464
49	0x3df7ce6b	0.12099918
50	0x8f0197ac	-6.389402e-30
51	0x3e64e27d	0.22352023
52	0x102e58cf	3.4383865e-29
53	0xbc2da712	-0.010598915
54	0xbe04ed59	-0.12981166
55	0xbddeb4d5	-0.10874335
56	0x16f7f4de	4.0059535e-25
57	0x9b72ce06	-2.008434e-22
58	0x9de551f6	-6.070054e-21
59	0x80001ba7	-9.92e-42
60	0x934f6d1c	-2.6180868e-27
61	0x96cf27a8	-3.346768e-25
62	0x00035839	3.07155e-40
63	0x0e7777cf	3.0502786e-30
64	0xbcf244fd	-0.029573912
65	0x336ac6bf	5.466313e-08
66	0x32f091c9	2.8005973e-08
67	0x0b8186f6	4.989206e-32
68	0xbdd19a7b	-0.10234543
69	0x8d460b80	-6.1027303e-31
70	0xbcc87c84	-0.024473436
71	0xb90468aa	-0.00012627491
72	0x800bf7ac	-1.099038e-39
73	0xb0791e5d	-9.062882e-10
74	0xbd8c91ac	-0.06863722
75	0xbe121901	-0.1426735
76	0xbd99ea80	-0.075154305
77	0x0ec0eb1c	4.7558056e-30
78	0xbcc44191	-0.023957046
79	0x3e10f44f	0.14155696
80	0x208a78fc	2.345817e-19
81	0x3dcbf025	0.09957913
82	0x8e90d326	-3.570207e-30
83	0x3d1f21be	0.03885054
84	0x9802229e	-1.6819583e-24
85	0xaff5eff3	-4.4735735e-10
86	0x33970b4a	7.033539e-08
87	0x3c4f0568	0.012635566
88	0x3dd31ff3	0.10308828
89	0x82791a89	-1.8301246e-37
90	0xbcdb12e5	-0.026742408
91	0x3c481170	0.012211189
92	0x8c9b58f9	-2.393508e-31
93	0x1b80e83e	2.1325907e-22
94	0x8b5115ae	-4.0268246e-32
95	0xbd5e555c	-0.054280624
96	0x3d8e2486	0.0694056
97	0xbb4db8ce	-0.003139067
98	0xbe0ad50f	-0.13557838
99	0x3d336fca	0.043807782
100	0xb0c23717	-1.4131015e-09
101	0x1fa0721a	6.79514e-20
102	0x3d8da45d	0.069161154
103	0x9a9a0060	-6.369351e-23
104	0x3877256e	5.8924248e-05
105	0xbdac352b	-0.084085785
106	0x8ab4d3b1	-1.7412999e-32
107	0xbc615dc6	-0.0137552675
108	0x3dc098fb	0.09404179
109	0xbdc80f69	-0.09768564
110	0xa1e3eaaa	-1.5444233e-18
111	0x3d9203f7	0.071296625
112	0xbcf9ba2c	-0.030484281
113	0xbda881d0	-0.08227885
114	0x191e4cdc	8.18393e-24
115	0x3c06d88a	0.008230338
116	0x0f0b3d82	6.865075e-30
117	0xbb383db8	-0.002811296
118	0x3df09fbb	0.11749216
119	0x3dfc6847	0.12324577
120	0x1a3bdaec	3.8847537e-23
121	0x980fff64	-1.8611256e-24
122	0x8cc3fa9c	-3.0195337e-31
123	0x8e924ebc	-3.6067597e-30
124	0x99742db0	-1.2623731e-23
125	0x021737b3	1.1109713e-37
126	0x13635d5f	2.8697464e-27
127	0x02b02258	2.5880588e-37
128	0x3dab478a	0.08363254
129	0xafb9d46c	-3.380224e-10
130	0xa7d9e05e	-6.047286e-15
131	0x897a9380	-3.016201e-33
132	0xbd62cd9c	-0.055371866
133	0x1436432c	9.201899e-27
134	0xbb99edc1	-0.004697532
135	0x29243b88	3.646695e-14
136	0x00797f78	1.1157822e-38
137	0x232dfbd9	9.43168e-18
138	0xbdb14d39	-0.08657307
139	0xbd1b4f46	-0.037917398
140	0x3df61bf9	0.12017054
141	0x9232734c	-5.630901e-28
142	0xbd8ea10d	-0.06964312
143	0xbce087b6	-0.027408462
144	0x9fd6ebb2	-9.102245e-20
145	0x3d75f809	0.060050998
146	0x062b48de	3.221506e-35
147	0x3d240a3c	0.040048823
148	0x2550ace4	1.8099702e-16
149	0xa40a033b	-2.9926716e-17
150	0x1d21aaf1	2.1396547e-21
151	0xbcb8dc67	-0.022566034
152	0xbd2eb3c9	-0.042651925
153	0x20b8e72f	3.1323797e-19
154	0xbbe8ff38	-0.0071105026
155	0xbd0a46d9	-0.03375897
156	0xa00c26e7	-1.1871333e-19
157	0xa3b77dd9	-1.9894198e-17
158	0x0675e39c	4.62466e-35
159	0xbd02d7d4	-0.03194411
160	0xbbeac225	-0.007164257
161	0xbd83926b	-0.064244114
162	0xbd032c97	-0.032024946
163	0xbd797284	-0.060900226
164	0x9f476557	-4.2223715e-20
165	0xa05b077b	-1.8552497e-19
166	0xbc1cfec2	-0.009582223
167	0x0dca76a9	1.2477778e-30
168	0x253d4ffa	1.6420234e-16
169	0xbd11e34f	-0.03561717
170	0x8fbdef7e	-1.8729088e-29
171	0xbd38b6cb	-0.0450962
172	0x3da1668c	0.078808874
173	0x3cde7d3b	0.027159324
174	0x1f52cdd2	4.463948e-20
175	0x3cf07a16	0.02935509
176	0x3ce996f0	0.028514355
177	0xbd803de5	-0.062618054
178	0x8cc6881d	-3.058865e-31
179	0xbd0d5b5a	-0.034510948
180	0x0f2c0a51	8.4822416e-30
181	0xbad1ffc6	-0.0016021661
182	0xbd5ab6e4	-0.053397074
183	0xbd0c8b8c	-0.03431277
184	0x25899adf	2.3870656e-16
185	0x17bb67f7	1.2110836e-24
186	0x0117bdb6	2.787043e-38
187	0x850d70e7	-6.650525e-36
188	0x18ae4a4d	4.505297e-24
189	0xa41c5757	-3.3901088e-17
190	0x21823db2	8.825473e-19
191	0x00f1b258	2.2196332e-38
192	0x3d0ab465	0.033863444
193	0x954167dd	-3.9057973e-26
194	0xa3211b43	-8.7336e-18
195	0x966c0b4f	-1.9067497e-25
196	0x3c503c31	0.012709663
197	0x1629b6ca	1.3709389e-25
198	0x3d7d7fe0	0.06188953
199	0xa9863dd5	-5.9615216e-14
200	0x1c36ea8b	6.052189e-22
201	0x1d166fce	1.9910136e-21
202	0x3c935467	0.017984582
203	0x3d57c0d5	0.052674133
204	0xbd104870	-0.03522533
205	0xa2105dce	-1.9565299e-18
206	0xbde55e05	-0.111995734
207	0xbd32c79f	-0.043647405
208	0xa5335a54	-1.555638e-16
209	0x3d8c45db	0.068492614
210	0x8b973dc5	-5.8256025e-32
211	0xbd83287a	-0.06404205
212	0x80002055	-1.1599e-41
213	0x950dd8a7	-2.8645632e-26
214	0x91950ddc	-2.3516596e-28
215	0xbd8c8adc	-0.06862423
216	0xbd86893a	-0.06569143
217	0x00000f01	5.382e-42
218	0x3de6d68b	0.112713896
219	0xbcd481c3	-0.025940781
220	0x00013798	1.11779e-40
221	0x1d4c6a49	2.7054123e-21
222	0x0787ff47	2.046258e-34
223	0xbc93b3c8	-0.018030062
224	0xbd7da8b0	-0.06192845
225	0x3c73ea5b	0.014887418
226	0x3dab6b60	0.083700895
227	0xbd09a2d6	-0.033602558
228	0x282cff26	9.6032445e-15
229	0x08ba5c00	1.1216097e-33
230	0x3ca2e91c	0.019886546
231	0xa23ae243	-2.5327482e-18
232	0x2266a6cb	3.1259112e-18
233	0xbb9b6c6e	-0.0047431504
234	0xa578c3ef	-2.1576956e-16
235	0xbd9a9c36	-0.07549326
236	0xbd5b89ea	-0.053598322
237	0x3e1c80ea	0.15283552
238	0x20f34a84	4.1215112e-19
239	0xbce3dfe7	-0.027816726
240	0xbd2f30b8	-0.04277107
241	0x3e125e80	0.14293861
242	0x8bc7a285	-7.6896544e-32
243	0x3e225dca	0.1585609
244	0x88a028f7	-9.6392805e-34
245	0xbcff09f4	-0.031132676
246	0x3d59e9cb	0.053201478
247	0xbd41c3fe	-0.047306053
248	0x1a793b4f	5.1539902e-23
249	0x8cab5a56	-2.640109e-31
250	0x898b5bd2	-3.354938e-33
251	0x00001c25	1.0096e-41
252	0xa30f6515	-7.7734505e-18
253	0x80074167	-6.6631e-40
254	0x0000205f	1.1613e-41
255	0x80001b5c	-9.815e-42

convs.2.bias f4 [64]
0	0x3d950e70	0.07278144
1	0x3cf3b39d	0.029748732
2	0xbc1a08df	-0.009401529
3	0x3c1e3061	0.009655089
4	0xbd91754e	-0.07102452
5	0xbbb34292	-0.0054705823
6	0x3d0e7a7c	0.03478478
7	0xbe0fa6c5	-0.14028461
8	0x3c812df1	0.015768977
9	0x3d0b479e	0.034003846
10	0x3bdd478b	0.0067529134
11	0x3adf4343	0.0017033595
12	0x3a1ce0bb	0.0005984415
13	0xbd40b9fe	-0.047052376
14	0x3c96f4f8	0.018427357
15	0xbd40291c	-0.046914205
16	0xbcad2350	-0.021135002
17	0x3d19326f	0.037401613
18	0x3ccd49d6	0.025059622
19	0x3bed7004	0.0072460193
20	0x3ba61251	0.0050681015
21	0x3c913d66	0.017729472
22	0xbb89349f	-0.004187181
23	0xbb4c8f5e	-0.0031213383
24	0xbba322dd	-0.0049785213
25	0xbdbb4a4d	-0.09145031
26	0xbdd405ba	-0.10352655
27	0x3e2a6d1f	0.16643189
28	0xbcce72e1	-0.025201263
29	0x3a50c418	0.00079637906
30	0xbd9c00b9	-0.07617325
31	0x3d0f1517	0.034932222
32	0xbbb38e99	-0.0054796454
33	0x3c4a64bf	0.012353121
34	0x3d09413e	0.033509485
35	0x3b858c2c	0.0040755477
36	0xbda409d0	-0.08009684
37	0xbae0f4f2	-0.0017162843
38	0x3c9c5a07	0.019085897
39	0xba057143	-0.00050904247
40	0xbb4d58e3	-0.0031333498
41	0x3c24bee4	0.0100552775
42	0x3a7985f9	0.00095185597
43	0x3b0005df	0.001953475
44	0xb95bd188	-0.00020963524
45	0xbba94406	-0.0051655797
46	0x3b058e3b	0.0020378965
47	0xbb0a676b	-0.002111877
48	0xbd6b0fb3	-0.05738802
49	0x3c318a89	0.010836252
50	0xbc09df92	-0.00841512
51	0xbca21f71	-0.019790383
52	0x3d837c32	0.06420173
53	0x3d900a6e	0.07033239
54	0xbcb93d5d	-0.022612268
55	0xbdc5d93b	-0.09660574
56	0xbbd64d52	-0.006539979
57	0xba15362a	-0.000569197
58	0xbc9504ec	-0.018190823
59	0x3c9652e1	0.018350067
60	0xbdc94bac	-0.098288864
61	0xba19b83f	-0.00058639416
62	0x3d08f7f6	0.0334396
63	0x3cb89f6b	0.022536954

convs.2.lin.weight f4 [64, 64]
0	0xbdae1085	-0.084992446
1	0x3dfa2c14	0.122154385
2	0x3db814fa	0.08988376
3	0xbcf18477	-0.02948211
4	0x3dab77f3	0.08372488
5	0x3e0ad901	0.13559343
6	0xbd316620	-0.043310285
7	0x3de84f4f	0.11343252
8	0xbbbe8bd0	-0.005815007
9	0x3c781881	0.015142561
10	0x3dc4b58a	0.09604938
11	0xbdc9dc54	-0.098564774
12	0xbb63c614	-0.0034755515
13	0x3e45b3ae	0.19306824
14	0xbceb5cc7	-0.028730763
15	0x3dc89d57	0.09795635
16	0xbd363775	-0.04448648
17	0x3e1149e6	0.14188346
18	0xbc5df7bd	-0.013547835
19	0x3d4cb689	0.049978767
20	0x3d7a8b4e	0.061168008
21	0x3d92648d	0.07148085
22	0x3e2de100	0.16980362
23	0x3e33c9be	0.17557427
24	0x3e131ede	0.14367244
25	0x3aa9c6f7	0.0012952973
26	0x3d621ae0	0.05520141
27	0xbde0ea1e	-0.10982154
28	0x3d9fddac	0.078059524
29	0xbe075569	-0.13216175
30	0xbe221aaa	-0.15830484
31	0xbd452d1e	-0.04813873
32	0x3d5a13d0	0.05324155
33	0x3d26b6b2	0.040701576
34	0x3dde915c	0.10867569
35	0xbc776e3c	-0.0151019655
36	0x3dc456ee	0.09586893
37	0x3d9e1afa	0.07719989
38	0xbb948031	-0.004531883
39	0xbbf8e338	-0.007595446
40	0x3d4d6de0	0.050153613
41	0x3d17ef28	0.03709331
42	0x3de66e9f	0.11251568
43	0xbd5fd069	-0.054642115
44	0x3e39475c	0.18093628
45	0x3c28dc0b	0.010306369
46	0x3dc86de6	0.097865865
47	0xbc896737	-0.01677285
48	0xbaf183fb	-0.0018426174
49	0xbd76154b	-0.0600789
50	0x3d84dd6b	0.064875446
51	0x3d2b5086	0.04182484
52	0xbe267d76	-0.16258797
53	0x3dfc9be8	0.12334424
54	0x3e1b1c02	0.15147403
55	0x3e13b8cc	0.14425963
56	0x3dae09c9	0.0849796
57	0xbcf5d45a	-0.030008484
58	0xbbb9f5ae	-0.0056750393
59	0x3dc62ba1	0.0967629
60	0x3ddb6643	0.10712864
61	0x3e2dc08d	0.16967984
62	0x3dd92cdd	0.1060426
63	0x3bb95cf7	0.005656834
64	0x3d9cba6d	0.076527454
65	0xba86e245	-0.0010290822
66	0xbb4d0660	-0.0031284317
67	0x3c2d38df	0.010572641
68	0xbd4e5c08	-0.050380737
69	0x3da0c17a	0.07849403
70	0x3c9ff76b	0.019527158
71	0x3b197d1d	0.002342052
72	0xbcbdce8d	-0.02316978
73	0xbc9c1d87	-0.019057048
74	0xbc3c9baf	-0.011511727
75	0x3d9a0d06	0.07522015
76	0x3d80134a	0.06253679
77	0x3d47dab1	0.048792545
78	0x396d410d	0.00022626315
79	0xbabc6a84	-0.0014375006
80	0x3ad93405	0.0016571289
81	0x3d3535cd	0.04424076
82	0x3ba3e53f	0.0050016935
83	0x3c2cd168	0.010547973
84	0xbcc187ca	-0.02362432
85	0x3cb18206	0.021668445
86	0x3cd9d0ef	0.026588885
87	0x3db785ae	0.08961044
88	0x3c595c6c	0.013266664
89	0xbb81f017	-0.0039653885
90	0x3c043eb5	0.008071591
91	0x3d6827e7	0.05667868
92	0x3ab01da9	0.0013436574
93	0x3af33292	0.00185545
94	0xbd8097c4	-0.06278947
95	0x38dc115b	0.0001049365
96	0xbcc1738d	-0.02361467
97	0x388e201a	6.777067e-05
98	0xbd3126a0	-0.043249726
99	0x39805fca	0.0002448543
100	0xbbe19507	-0.0068842205
101	0xbc6eeb0a	-0.014582405
102	0xbdf505a3	-0.11963966
103	0x3d5027ad	0.050819088
104	0x3d1ad1dd	0.037797797
105	0x3b97de1d	0.0046346323
106	0xbc849277	-0.016183121
107	0x3d27600a	0.040863074
108	0xbd7d8e3a	-0.061903216
109	0x3c872204	0.016495712
110	0xbcf5245a	-0.02992456
111	0xbcfa84b6	-0.03058086
112	0xbbd269d2	-0.006421306
113	0xbb03c35b	-0.0020105455
114	0xbd3e5a37	-0.046472754
115	0x3bc5c490	0.006035395
116	0x3d5f45e6	0.05451002
117	0xbc1feda6	-0.00976125
118	0xbc843a9d	-0.01614123
119	0xbdba8580	-0.09107494
120	0xbab21b96	-0.0013588544
121	0x3db6cb3e	0.08925484
122	0xbbf77df9	-0.007552859
123	0xbc23ae3a	-0.009990269
124	0x3c82d280	0.015969515
125	0x3da59c60	0.08086467
126	0x3d58f28d	0.05296569
127	0x3931b218	0.0001694638
128	0x3dbae1eb	0.09125122
129	0xb7e481b5	-2.7240118e-05
130	0xbbd36c41	-0.006452114
131	0x3d1a5ed1	0.03768808
132	0x3d3c16e1	0.045920257
133	0xbdcd2da2	-0.100184694
134	0xbca84d9f	-0.020544825
135	0x3d80b196	0.06283872
136	0xbd91b6c8	-0.07114941
137	0xbc4e3f3d	-0.012588319
138	0xbc7a4b04	-0.015276674
139	0xbc2751ac	-0.010212343
140	0xbd349dad	-0.044095684
141	0xbcac90e8	-0.02106519
142	0xbd76b4de	-0.060231082
143	0xb9e2101e	-0.00043118087
144	0xbbb615d3	-0.005556801
145	0x3d891679	0.066937394
146	0x3ca127e2	0.019672338
147	0xbcadca08	-0.0212145
148	0xbd0f8cd9	-0.035046432
149	0xbd31ab7c	-0.04337643
150	0x3d94dfb6	0.07269232
151	0x3c8b113b	0.01697599
152	0xbcd2eee1	-0.025748672
153	0x3dc0da1a	0.094165996
154	0x3c0384ea	0.008027295
155	0x3cb436d6	0.021998804
156	0xbc26908a	-0.010166297
157	0x3d1f625a	0.038912155
158	0xbdd85563	-0.10563161
159	0xba84412c	-0.0010090224
160	0x3c193136	0.009350112
161	0xba017e91	-0.00049398193
162	0x3d2cf09d	0.042221654
163	0xbd70a1c4	-0.05874802
164	0xbb4d459e	-0.0031322013
165	0xbd0a8539	-0.033818457
166	0x3db277b6	0.08714239
167	0xbd624b76	-0.055247746
168	0x3b7c8197	0.003852939
169	0xbc6c47d3	-0.014421421
170	0x3ccecf13	0.025245225
171	0x3cf6540e	0.030069377
172	0xbd7806e9	-0.060553465
173	0xbd9af088	-0.07565409
174	0x3c4e1dbc	0.012580331
175	0x3c7ec4f9	0.015549892
176	0xbcd8060d	-0.026370073
177	0x3aa29d19	0.0012406438
178	0x3d8b19c6	0.06792025
179	0x3cfa758d	0.03057363
180	0x3cee05c8	0.029055491
181	0x3ca89879	0.020580517
182	0x3d5448f4	0.051827386
183	0x3d9784f3	0.07398405
184	0xbc3a75fc	-0.011380669
185	0x3a8a3cb0	0.0010546651
186	0x3cfdcf60	0.030982673
187	0xbd34f09f	-0.044174787
188	0xbd332943	-0.043740522
189	0xbd09b67b	-0.033621293
190	0x3d2f60e5	0.042817015
191	0xba0c1d7c	-0.00053449697
192	0x3c05ca88	0.008165963
193	0x3cac53fc	0.02103614
194	0x3ca301be	0.019898292
195	0xbd1cbb3d	-0.0382645
196	0xbdf10c0c	-0.11769876
197	0x3e152444	0.14564615
198	0x3d773a1c	0.06035815
199	0xbe288ec4	-0.16460711
200	0xbd880240	-0.06641054
201	0x3d3930fc	0.04521273
202	0x3b9e486f	0.004830412
203	0xbdabbb01	-0.083852775
204	0x3da0e0a3	0.07855346
205	0x3c56390d	0.013075125
206	0xbdad2eb5	-0.08456174
207	0x3d56775e	0.05235993
208	0x3c2d2e6c	0.01057015
209	0xbdedcddc	-0.1161153
210	0xbc6add7c	-0.014335033
211	0x3d1413e0	0.036151767
212	0x3dc9fbdd	0.09862492
213	0x3e169da7	0.14708577
214	0xbe0ee59f	-0.13954781
215	0xbdc39b45	-0.095511
216	0x3d3865fd	0.04501914
217	0xbdc49f38	-0.09600681
218	0x3d6fb698	0.058523744
219	0xbbc1f11e	-0.005918636
220	0x3ca073da	0.019586492
221	0xbdad367a	-0.08457656
222	0x3d95cd7c	0.07314584
223	0x3abf8bf4	0.0014613853
224	0x3d56b289	0.05241636
225	0x3a5cd68d	0.00084243045
226	0xbdd41275	-0.10355083
227	0xbe3b1234	-0.18268663
228	0xbcb8db59	-0.02256553
229	0x3c24af35	0.010051538
230	0xbd4e5ee3	-0.05038346
231	0x3d837131	0.06418074
232	0xbd9b0ee1	-0.07571197
233	0x3cd21950	0.025646836
234	0xbce346c7	-0.02774371
235	0x3d028e2e	0.031873874
236	0x3d87c64e	0.066296205
237	0x3db696fd	0.089155175
238	0xbc8c5d9c	-0.01713448
239	0xbd19a915	-0.037514765
240	0x3d174549	0.03693131
241	0x3b1d94e3	0.0024045042
242	0x3cebe65c	0.028796367
243	0x3b79d529	0.0038121438
244	0x3c8b9f46	0.01704372
245	0x3d72afeb	0.0592498
246	0xbdc5d369	-0.09659464
247	0xbd0e8ac6	-0.034800313
248	0x3d8f12c9	0.06986005
249	0xbe069780	-0.1314373
250	0x3b8e41fe	0.004341363
251	0x3d47977a	0.048728444
252	0x3c9381d5	0.018006245
253	0xbd6a404d	-0.05719023
254	0xbd21e65d	-0.039526332
255	0x3b8741a7	0.0041276994

lin1.weight f4 [64, 128]
0	0x3ba8d707	0.0051525864
1	0x3c4232c2	0.011852922
2	0xbcbb9f76	-0.022903185
3	0xbd56ef23	-0.052474152
4	0x3c551d6d	0.013007504
5	0x3aabebba	0.0013116517
6	0x3a33e20d	0.00068619923
7	0x3cf05f4f	0.029342322
8	0xbd73d62c	-0.059530422
9	0x3c9bc308	0.019013897
10	0x39dcb3a2	0.00042095507
11	0x37e41aca	2.7192193e-05
12	0x3a4f3d6a	0.0007905575
13	0x3d62b482	0.055347927
14	0xbc46f36d	-0.012142998
15	0x3c6459ac	0.013937395
16	0x37b8a65b	2.2011975e-05
17	0x3d42e581	0.047582153
18	0x39f826d1	0.00047331167
19	0xba44f8d6	-0.0007513886
20	0x3ac33082	0.0014891776
21	0x3b4bfb4d	0.0031125129
22	0xb98919ac	-0.00026149803
23	0xb8ed9be0	-0.000113300746
24	0xb9ea67cd	-0.00044709296
25	0x3e1162c5	0.14197834
26	0x3e12af93	0.14324789
27	0x3cfbea9f	0.030751524
28	0x3cca090a	0.024662513
29	0xba04a13b	-0.00050594256
30	0x3df1015f	0.1176784
31	0x3ae294a9	0.0017286736
32	0x3c3a134a	0.011357138
33	0xbc9000c4	-0.01757849
34	0x3c94d6f1	0.018168898
35	0x3aefaf22	0.0018286447
36	0x3cdccd38	0.026953325
37	0x38f73d9c	0.000117893534
38	0x3ab2f509	0.0013653348
39	0xba49d064	-0.0007698594
40	0xbc19a5eb	-0.009377937
41	0x3afc7141	0.0019259827
42	0x3942775b	0.00018545745
43	0x39cdec84	0.00039276865
44	0x3b3154c8	0.002705859
45	0x382ba43a	4.0922525e-05
46	0xbaaca7de	-0.0013172587
47	0xb8d15e58	-9.9834695e-05
48	0x3c6f2205	0.014595513
49	0xbaa2db71	-0.0012425018
50	0x3b85db8c	0.00408501
51	0xbacd85ff	-0.0015680193
52	0x3c8d19ab	0.017224154
53	0x3c58befe	0.01322913
54	0xbbad7c36	-0.005294348
55	0x3e03faca	0.12888637
56	0xbc0ec755	-0.008714517
57	0x39df4a0e	0.0004258905
58	0xb9fa83c7	-0.00047781898
59	0xbac9ebf1	-0.0015405399
60	0x3df0fe7a	0.117672876
61	0x39ce5fd5	0.00039362782
62	0x3b68d1f5	0.0035525535
63	0x3b85e50d	0.004086143
64	0x3d941fca	0.07232626
65	0x3acbe435	0.0015555682
66	0xb783a490	-1.5693047e-05
67	0xb1d85cae	-6.296964e-09
68	0x3d2a1fb4	0.04153414
69	0x3d49022c	0.049074337
70	0xb71652f8	-8.960014e-06
71	0x3d7a910c	0.061173484
72	0x39df375b	0.00042575118
73	0x36ae15cc	5.1881416e-06
74	0xbae67c8f	-0.0017584729
75	0x3d266658	0.040624946
76	0x3c3a63e1	0.011376352
77	0xbc2c9045	-0.010532443
78	0xb98f04d7	-0.0002727869
79	0xbd32538d	-0.04353671
80	0xbc9df48c	-0.019281648
81	0x3a767934	0.0009402216
82	0xb8ebfc9f	-0.000112527276
83	0xbc866a09	-0.016407983
84	0x3a2a9176	0.0006506661
85	0x3d9982e7	0.07495671
86	0x36c40481	5.8417795e-06
87	0x3d5d409f	0.054016706
88	0xb6466392	-2.9562257e-06
89	0xbd33df50	-0.04391414
90	0xbd60afcf	-0.054855164
91	0xbd7df9b0	-0.0620057
92	0xb83e492d	-4.536768e-05
93	0xb7751e2b	-1.4610162e-05
94	0xb6989120	-4.546848e-06
95	0xbb0790d2	-0.0020685685
96	0xbd0a365f	-0.03374326
97	0xb642f2fd	-2.904969e-06
98	0x3cd6f4d7	0.026239796
99	0xbda91a0e	-0.08256923
100	0x3d3d7b5b	0.04626022
101	0xbd881c67	-0.06646042
102	0x3b324561	0.0027201998
103	0x3d72d13f	0.059281584
104	0xbc4436b0	-0.011975929
105	0xb615a156	-2.229664e-06
106	0xb79c872d	-1.8659595e-05
107	0x36c104e6	5.7524185e-06
108	0x3c2cae70	0.010539636
109	0xbc4b1994	-0.012396235
110	0x35897106	1.024019e-06
111	0x36b8c90b	5.507032e-06
112	0x39b1ce7e	0.0003391392
113	0x3d65bfbb	0.05609105
114	0xb711a895	-8.681925e-06
115	0x3da09a42	0.07841922
116	0xbd77bf3a	-0.060485102
117	0x3d9fbdca	0.07799871
118	0x364bb179	3.035266e-06
119	0x3bced5c7	0.0063121053
120	0xbcbc88d6	-0.023014467
121	0x388d0554	6.7243964e-05
122	0x3bacfab1	0.005278908
123	0xbd79fbb7	-0.06103107
124	0x3cec2743	0.028827315
125	0xb6f97a2c	-7.435001e-06
126	0xbd19f6b3	-0.037588786
127	0x3d20a032	0.039215274
128	0xbdf9c3ff	-0.121955864
129	0x3cae0ee9	0.021247344
130	0xbbdd2da8	-0.0067498274
131	0xbcd82adf	-0.02638763
132	0x3cc03bf4	0.023466088
133	0xbd931c72	-0.0718316
134	0xbc3260f1	-0.01088737
135	0xbd5d9b2c	-0.05410306
136	0x3d8b698d	0.068072416
137	0xbb0669a2	-0.002050974
138	0xbb904027	-0.004402179
139	0x3cd18012	0.025573764
140	0x3d0194f3	0.03163619
141	0x3d4420d0	0.047882855
142	0xbd117134	-0.03550835
143	0xbcea91c9	-0.028633969
144	0x3ca2788f	0.019832877
145	0xbd17f020	-0.037094235
146	0xbca0dca9	-0.019636469
147	0xbca49465	-0.020090291
148	0x3c8e34a2	0.017359082
149	0x3c1b7fd9	0.0094909305
150	0xbbc10bde	-0.0058913073
151	0x3cb62ddc	0.022238664
152	0xbd0b67c6	-0.034034513
153	0x3d6e3657	0.05815729
154	0x3d13c67e	0.03607797
155	0xbdd5367d	-0.104107834
156	0xbd11afe5	-0.035568137
157	0x3b72988f	0.0037017202
158	0xbb8a2934	-0.0042163376
159	0x3c61efeb	0.013790111
160	0x3b986701	0.004650951
161	0xba1555fb	-0.0005696711
162	0xbdca38ee	-0.0987414
163	0x3cf46db9	0.029837476
164	0x3d935c60	0.071953535
165	0xbc0a0702	-0.008424522
166	0xbd4d077a	-0.05005596
167	0xbc2ea83a	-0.0106602255
168	0xbd190399	-0.037356947
169	0x3c8d05e9	0.017214732
170	0xbc8ec209	-0.017426508
171	0x3d4b098b	0.049569648
172	0xbd17913e	-0.037003748
173	0x3d61fa94	0.05517061
174	0xbcdf3651	-0.02724758
175	0x3c49b849	0.012312003
176	0x3ce1f246	0.027581345
177	0xbc677d03	-0.014128926
178	0xbd46714a	-0.048447885
179	0xbcc025d7	-0.023455543
180	0xbc02df2e	-0.0079877805
181	0xbcc06afb	-0.023488512
182	0xbd144094	-0.0361944
183	0xbd54022c	-0.051759884
184	0x3d39377d	0.045218933
185	0x3c4232dd	0.011852947
186	0xbc4451f1	-0.011982427
187	0xbc9abf93	-0.018890178
188	0x3d6b48d1	0.05744249
189	0xbd40f98b	-0.047112983
190	0xbd02e37f	-0.03195524
191	0xbd01e657	-0.03171381
192	0x3ae82d97	0.0017713782
193	0x3b5b69ec	0.0033479882
194	0xb73d1b60	-1.1271652e-05
195	0xb3bf17fd	-8.898494e-08
196	0x3ccf57c2	0.0253104
197	0x3d1ef0a2	0.038803704
198	0x3595e2fb	1.1167425e-06
199	0x3acdbf67	0.0015697301
200	0x37f5d34a	2.9304665e-05
201	0xb50fd6f4	-5.358445e-07
202	0xb645ffac	-2.9504108e-06
203	0xbcfdec48	-0.030996457
204	0xb93c0ca3	-0.00017933785
205	0x3d3a97b8	0.045554847
206	0xb81c0ac2	-3.7203317e-05
207	0x3c0cd201	0.008594991
208	0xbca25f64	-0.019820876
209	0x3d3ba310	0.045809805
210	0x38e6dc10	0.000110082445
211	0x3d4384ea	0.04773418
212	0x37835dc1	1.5660074e-05
213	0xbc0d83a1	-0.00863734
214	0xb50df815	-5.28876e-07
215	0xbc9edbd4	-0.019391932
216	0xb4ec4b96	-4.4013422e-07
217	0x3ada1ca0	0.0016640611
218	0x3c290ba0	0.010317713
219	0x3b0fed32	0.0021961448
220	0x3642f8e9	2.9053137e-06
221	0xb7523522	-1.2529346e-05
222	0x33d3574c	9.8413324e-08
223	0xb8ca9a1d	-9.6608164e-05
224	0xba02ba8f	-0.0004986906
225	0xb5fdec88	-1.8918809e-06
226	0xba93657e	-0.0011245457
227	0xbb9086df	-0.004410609
228	0xbb5a15f6	-0.003327725
229	0x3c18f4dd	0.009335724
230	0xbc2f3ae1	-0.01069519
231	0x3bc72346	0.006077203
232	0xb95dfcfd	-0.00021170448
233	0x353ab66d	6.9555864e-07
234	0x34c94f1a	3.7496721e-07
235	0x362abd4f	2.5442166e-06
236	0xb739966a	-1.106188e-05
237	0x379392cb	1.7592121e-05
238	0x3459f279	2.0297911e-07
239	0xb592c13e	-1.0934089e-06
240	0xbb063efd	-0.0020484321
241	0xbc0f2908	-0.00873781
242	0x34abd79f	3.2008117e-07
243	0x3b803a7b	0.0039132214
244	0x3bb9e0c3	0.0056725456
245	0x3c2abfe6	0.010421729
246	0x3413fa19	1.3781427e-07
247	0xba562413	-0.00081688276
248	0x3b92b3ac	0.004476985
249	0xb5d2c05c	-1.5702203e-06
250	0x3811535d	3.4648332e-05
251	0x3c24edc2	0.0100664515
252	0xbcf8c5c5	-0.030367741
253	0xb4625894	-2.1080115e-07
254	0x3a644fd5	0.00087094057
255	0x3c8dbad4	0.017301

lin1.bias f4 [64]
0	0x3d81c1bf	0.06335782
1	0xbc1b728d	-0.00948776
2	0xb9cdac8f	-0.00039229213
3	0xbbce0089	-0.006286685
4	0x3d48602c	0.04891984
5	0x3cfce8a1	0.030872645
6	0x3b0a74c4	0.0021126727
7	0xbb8f426f	-0.004371933
8	0xb996c3b9	-0.00028756054
9	0x3d07de12	0.033170767
10	0xbb1cca39	-0.0023924245
11	0xba10408c	-0.00055027823
12	0xbb17b1a7	-0.002314666
13	0x3d2bbe7d	0.04192971
14	0xba41e017	-0.0007395758
15	0xb9b4751b	-0.00034419526
16	0x3d1b66f9	0.03794
17	0xbb25a6f5	-0.0025276516
18	0xb8ad6b4a	-8.269267e-05
19	0xbb6aafad	-0.0035810277
20	0xbc8c6343	-0.017137175
21	0x3d2a4d8d	0.041577864
22	0xbaa6db07	-0.001273007
23	0xba6d21dd	-0.00090458785
24	0xbab73723	-0.0013978224
25	0x3d42fbca	0.047603406
26	0xbb26e417	-0.0025465542
27	0xbbef3cf0	-0.0073009655
28	0xbc27360a	-0.010205755
29	0xbb6ac0bc	-0.0035820445
30	0xba90f8bc	-0.0011060457
31	0xb9fc9417	-0.0004817552
32	0xbb3ef0b9	-0.002913518
33	0xba0af19d	-0.00053002854
34	0xbbf3f012	-0.00744439
35	0xbc5452e0	-0.012959212
36	0xbad7990c	-0.001644881
37	0xb828a754	-4.0210158e-05
38	0xbc1123cf	-0.008858635
39	0xbc8567d2	-0.016284857
40	0xbb235d5b	-0.002492747
41	0xbb226dc1	-0.0024784657
42	0xbaf92761	-0.0019008928
43	0xbb178883	-0.0023122139
44	0xbb162dee	-0.002291556
45	0x3bd0dab9	0.00637373
46	0xba9424c9	-0.0011302467
47	0x3d9b8ecd	0.075955965
48	0xbc9d0b8b	-0.019170543
49	0xbbd8b523	-0.00661339
50	0x3d89494e	0.06703435
51	0x3ca82281	0.020524265
52	0x3b5cbe4e	0.0033682766
53	0xb9a5e55f	-0.00031642147
54	0xbbcb7601	-0.0062091355
55	0xbafb561d	-0.0019175444
56	0x3d2efc8f	0.042721327
57	0x3d44adc0	0.048017263
58	0xb92216ce	-0.0001545802
59	0x3c173c46	0.009230679
60	0x3d1fb67b	0.038992386
61	0xbc286d45	-0.010279958
62	0xbbe18c81	-0.0068832044
63	0x3cef9247	0.029244555

lin2.weight f4 [1, 64]
0	0x3d8df716	0.069318935
1	0xbe535308	-0.20637143
2	0xbc01c9d3	-0.007921654
3	0xbd3bc12e	-0.045838527
4	0x3d8dedb7	0.06930106
5	0x3e3aad37	0.18230139
6	0xbdaca23e	-0.08429383
7	0xbe431e7c	-0.19054598
8	0xbd429855	-0.047508556
9	0x3e7216c5	0.23641498
10	0xbe154a4a	-0.1457912
11	0x3e429c3f	0.19004916
12	0xbe80314b	-0.25037608
13	0x3ded8302	0.115972534
14	0xbdf1e179	-0.118105836
15	0xbe0cb507	-0.13740931
16	0x3e52ce40	0.2058649
17	0xbe2ba4fe	-0.16762158
18	0x3e646a19	0.22306098
19	0xbe172747	-0.14761077
20	0x3e34d12f	0.17657922
21	0x3e23cd30	0.15996242
22	0x3e138f05	0.14410026
23	0xbe62d74a	-0.22152439
24	0xbdbf8d01	-0.09353066
25	0x3db382f8	0.08765215
26	0xbdd770fe	-0.105195984
27	0xbe26d926	-0.16293773
28	0xbe2b56ee	-0.1673238
29	0x3e321f1f	0.17394684
30	0xbd4c3d5f	-0.049863216
31	0xbd83f972	-0.06444062
32	0xbd75f559	-0.060048435
33	0x3e241fc1	0.16027738
34	0xbe4a6dd7	-0.19768463
35	0xbe49392d	-0.19650717
36	0xbda5f099	-0.08102531
37	0xbb30f9d2	-0.0027004373
38	0xbe233f8f	-0.15942214
39	0xbe03d050	-0.12872434
40	0xbda2fb3b	-0.07958075
41	0xbe661752	-0.22469833
42	0xbdc1dde0	-0.094661474
43	0x3e555921	0.20834781
44	0xbe162f0f	-0.14666389
45	0x3e31ec8b	0.1737539
46	0xbb44578a	-0.0029959404
47	0x3dcb7ceb	0.099359356
48	0xbe0ff0e0	-0.1405673
49	0x3d81c99f	0.06337284
50	0x3dad4774	0.08460894
51	0x3e53bad7	0.20676742
52	0x3e2f5201	0.17121126
53	0x3e7fb6dd	0.249721
54	0xbd7f08d2	-0.06226427
55	0x3da99d86	0.08281998
56	0x3db1db16	0.086843655
57	0x3e2bb29f	0.16767357
58	0xbe6403fa	-0.22267142
59	0x3e3eb4b9	0.18623628
60	0x3de7c2e4	0.11316469
61	0xbe5ef8b3	-0.21774559
62	0xbdf8edb9	-0.12154717
63	0x3da5634a	0.080755785
