best_model.pth (torch, 847053 bytes, 136 tensors)

z_embedding.weight f4 [1000, 48]
0.30912405 0.64989614 0.6226079 0.15481308 -0.8495353 1.1543682 0.043723173 -0.7508027
-1.4757743 0.8226642 -0.33230016 -1.1919068 0.8213153 -0.78241533 -1.0924164 1.2799435
1.591211 -0.56671715 -0.13437109 0.89188105 0.4583386 -2.0831397 -1.0101751 -0.40482232
1.2745941 0.82860124 -0.6756657 -1.4233166 1.0866234 1.7469624 0.3549656 -0.8343381
0.678447 -1.8139919 0.46527776 1.6335108 2.2430105 -0.9554105 1.1219168 0.22926985
-2.163954 -1.5733967 -1.0671867 -0.850655 -0.025759468 -0.8322265 -0.99487084 0.75226116
-0.18987507 -1.134383 0.13930096 1.4574997 0.33313638 0.21163884 1.9265295 -1.2257518
-1.192121 0.62140054 0.7954525 -0.18515393 1.3993052 0.5374677 0.6513367 0.15144908
0.6297349 -0.028407002 -1.288115 -1.339214 0.9912016 0.9926729 1.4751333 -0.368086
1.0892997 0.23888974 -0.48156878 0.40930438 -1.7753208 0.24089463 -0.54913294 -1.0596043
0.40256423 0.5427108 1.8168617 1.8364629 1.5430433 -0.4300484 2.2437892 -0.7136987
1.1041172 0.47447395 0.27975655 -0.026806746 1.181658 2.2025034 0.303615 1.4323833
-0.73401135 0.086474806 -0.4432182 0.24648724 -0.18456005 -0.03029966 -1.028155 1.1524097
-0.60363626 0.6473075 -0.68999106 0.3020616 0.6446591 -0.4377559 1.9508029 -0.11929999
-1.0780928 -1.4938482 -0.39429483 -0.7835529 0.71292335 -1.2944324 -0.00048819926 0.3056625
0.40243852 -0.90527093 -0.5807256 1.2352505 0.14059085 -0.35919496 0.3962366 0.94031155
-0.091046035 -0.06309689 -0.0526172 -0.4614453 0.35016355 -0.10027731 -1.0998061 0.020875938
1.4927065 -1.3249803 -0.0048131873 -0.4957219 1.3698562 1.6065838 -0.9463038 0.26910138
1.0766655 1.3963487 2.0527186 0.2936487 0.54942435 0.26263788 -0.029981334 -0.8193301
-0.48259234 -0.9776155 0.7334793 1.026033 1.2843622 -0.77936393 -1.6217918 0.32787043
1.7044483 -1.1624295 0.81686443 0.17950156 0.58155084 0.71817064 0.8894128 0.077402346
-1.0943909 -1.3898808 -0.78764355 -0.10498625 -0.84111303 -0.7493057 1.3512205 -0.14762138
0.25867248 -0.564532 -0.047261145 0.34133983 -0.08917967 0.5753284 0.42200062 0.07042192
0.9492717 -0.52225363 -0.23658165 -0.3727235 0.20976657 -1.5734805 -0.08825965 1.5652915
0.38463974 0.54176867 -0.52850384 1.1582121 -1.3015114 -1.8419386 0.6584637 -0.70650744
-1.0289711 -0.2617091 -1.0404788 1.2884711 1.3796288 0.12499894 0.7144719 0.5456144
-1.3821814 0.17808074 -0.62195 0.5927982 -0.8784454 1.2553394 -0.3837786 0.85606086
-1.4662073 1.0301263 -0.88027287 -1.3043216 -0.43999314 -0.05547834 -1.4800546 -0.027663298
0.3813168 0.046087325 -0.97482467 1.1807258 -1.2382584 -0.13319543 1.4177195 0.6047518
-0.36408138 1.0422983 0.3946996 -1.1848255 -1.6838139 -0.5944077 0.19389254 -0.3760357
3.171789 0.54804385 0.27605715 -0.3397104 -0.18662567 0.1405838 1.253847 0.18395755
0.70836294 1.0172547 1.1131321 0.92997754 1.075711 0.4440948 0.26860052 0.8521639
00000000: 8245 9e3e 985f 263f 3b63 1f3f 5287 1e3e
00000010: 257b 59bf 56c2 933f 1217 333d 9b34 40bf
00000020: 2ce6 bcbf 1f9a 523f 3f23 aabe 6790 98bf
00000030: b841 523f 5f4c 48bf 4dd4 8bbf 30d5 a33f
00000040: cdac cb3f 6014 11bf 9398 09be 5152 643f
00000050: 5bab ea3e 2952 05c0 6b4d 81bf df44 cfbe
00000060: e625 a33f 361f 543f 6df8 2cbf 3d2f b6bf
00000070: 7a16 8b3f 779c df3f 0dbe b53e 2f97 55bf
00000080: b4ae 2d3f e330 e8bf e338 ee3e e216 d13f
00000090: 7c8d 0f40 c895 74bf f89a 8f3f b7c5 6a3e
000000a0: 397e 0ac0 1065 c9bf 9399 88bf 87c4 59bf
000000b0: 8505 d3bc cc0c 55bf dbaf 7ebf 3094 403f
000000c0: 9c6e 42be 7633 91bf e9a4 0e3e 5a8f ba3f
000000d0: da90 aa3e dab7 583e 8598 f63f 6fe5 9cbf
000000e0: 6c97 98bf 1b14 1f3f c6a2 4b3f fe98 3dbe
000000f0: 6f1c b33f 7c97 093f 01be 263f 7815 1b3e
00000100: 4e36 213f cdb5 e8bc f4e0 a4bf 5d6b abbf
00000110: 63bf 7d3f d01f 7e3f 2bd1 bc3f c575 bcbe
00000120: 2c6e 8b3f 839f 743e 2f90 f6be 5890 d13e
00000130: b63d e3bf 15ad 763e fa93 0cbf 1da1 87bf
00000140: e61c ce3e 18ef 0a3f ed8e e83f 3711 eb3f
00000150: 7182 c53f 4e2f dcbe 3e9a 0f40 f5b4 36bf
00000160: b653 8d3f 40ee f23e 403c 8f3e d299 dbbc
00000170: 9240 973f d1f5 0c40 6d73 9b3e 5658 b73f
00000180: 2be8 3bbf b419 b13d 7fed e2be 2767 7c3e
00000190: 4ffd 3cbe fe36 f8bc 959a 83bf 2982 933f
000001a0: e887 1abf f2b5 253f 41a3 30bf d1a7 9a3e
000001b0: 6108 253f 8b21 e0be e9b3 f93f 8e53 f4bd
000001c0: f2fe 89bf 6b36 bfbf 03e1 c9be ec96 48bf
000001d0: 2582 363f f6af a5bf fff4 ffb9 cc7f 9c3e
000001e0: 6c0c ce3e d6bf 67bf 6faa 14bf b01c 9e3f
000001f0: 0cf7 0f3e 67e8 b7be 86df ca3e 42b8 703f
00000200: 5876 babd f138 81bd 2285 57bd 8f42 ecbe
00000210: a348 b33e 315e cdbd 72c6 8cbf 0404 ab3c
00000220: 0211 bf3f f498 a9bf f1b7 9dbb 43cf fdbe
00000230: 7357 af3f 8aa4 cd3f f740 72bf a8c7 893e
00000240: 2dd0 893f 8ebb b23f be5f 0340 1f59 963e
00000250: 13a7 0c3f 7978 863e 6a9b f5bc 9ebf 51bf
00000260: 5816 f7be 0245 7abf 4dc5 3b3f 0d55 833f
00000270: fb65 a43f 6584 47bf e096 cfbf a2de a73e
00000280: 5d2b da3f 7dca 94bf 071e 513f 42cf 373e
00000290: 84e0 143f 08da 373f 8fb0 633f 1f85 9e3d
000002a0: 0015 8cbf 9de7 b1bf 02a3 49bf 0803 d7bd
000002b0: 2f53 57bf 80d2 3fbf cbf4 ac3f 0f2a 17be
000002c0: b870 843e 2b85 10bf e794 41bd 18c4 ae3e
000002d0: d5a3 b6bd b948 133f 7710 d83e 5e39 903d
000002e0: 7803 733f 6ab2 05bf 7642 72be 9dd5 bebe
000002f0: 0ccd 563e cf67 c9bf 7ac1 b4bd 795b c83f
00000300: 80ef c43e 5ab1 0a3f 074c 07bf 4b40 943f
00000310: ed97 a6bf a5c4 ebbf 1491 283f acdd 34bf
00000320: 53b5 83bf bcfe 85be 692e 85bf 9fec a43f
00000330: ad97 b03f 72ff ff3d a1e7 363f 63ad 0b3f
00000340: 52eb b0bf cc5a 363e 1d38 1fbf 9fc1 173f
00000350: cce1 60bf f6ae a03f a17e c4be ce26 5b3f
00000360: aeac bbbf 2edb 833f 9059 61bf 03f4 a6bf
00000370: c846 e1be 413d 63bd 6e72 bdbf 249e e2bc
00000380: f53b c33e 10c6 3c3d 1c8e 79bf 0622 973f
00000390: 407f 9ebf 6264 08be d577 b53f 04d1 1a3f
000003a0: e068 babe 086a 853f 1116 ca3e 5da8 97bf
000003b0: 3787 d7bf 1a2b 18bf c48b 463e c087 c0be
000003c0: 97fe 4a40 9a4c 0c3f 5d57 8d3e 86ee adbe
000003d0: cd1a 3fbe 33f5 0f3e 0f7e a03f 5e5f 3c3e
000003e0: 4657 353f 6735 823f 1d7b 8e3f 0213 6e3f
000003f0: e6b0 893f 6560 e33e 0286 893e 6a27 5a3f

x_embedding.weight f4 [371, 48]
0.00425148 0.5958726 -0.14429113 -0.28014746 1.083555 -0.29415852 -0.36873385 2.2077112
-0.5557421 -0.01845881 -0.8180358 1.6521226 0.8169014 -0.01594296 -0.041344598 0.24412043
0.5059261 0.41786975 -0.039773673 -1.8615e-41 -0.72708905 -1.5875508e-24 -0.10161555 0.4321324
-0.6569037 0.005875884 -0.0870327 -1.8646158 -1.2231421 0.8835697 -1.3132269 0.42858428
0.042664934 0.06138108 0.22252537 0.6597784 1.0653838e-09 -0.0002901985 -0.68761283 -0.5695519
-0.74363214 0.6983161 -0.70170426 -0.46401873 0.00037256567 -0.3236756 -1.321921 0.127055
-0.5906631 0.6564833 0.013453947 -0.6281612 0.67885053 -4.0380232e-22 0.3293503 -0.4889097
-0.120428324 0.87494004 -2.1282344 -0.39889342 -0.27395114 0.7786822 -0.09090387 -0.28688988
-0.2965657 1.2196065 -1.2446554 -2.5792153 0.8437366 0.35528752 -0.9907717 -0.9729364
1.0507623 -1.8668641 -0.31200638 0.00075467204 0.58144164 4.7543e-41 -0.77175605 0.99353606
1.1624563 0.008401137 1.0764625 0.009666072 0.00017841489 -0.14697121 1.4518018 -0.30033895
-0.43315086 -0.28590432 0.76023334 0.2342727 -0.30819908 0.07214035 -0.058625463 -1.2964792
-0.0014665629 0.002623373 0.34854478 0.22795899 -1.0003116 -0.36250043 -1.7455343e-18 0.46290797
-4.6768306e-05 1.2386358 -0.38205624 -0.67613465 0.99699634 0.023906946 0.009141318 1.3620167
1.194445 -0.8416633 -0.043020584 0.7546798 -0.9123275 0.081682205 0.9141751 -0.64024633
-0.7714218 0.050484408 -0.8388052 -1.1575613 -0.46982476 1.126834 0.695436 0.22037722
0.4729202 -0.24211259 -0.06130383 -0.0151718855 -0.49346823 0.10109964 0.25874367 -0.36732918
-0.8129166 2.143101 -1.6349609 0.00063647615 1.1557357 0.054121535 2.9262075 -0.0011789572
-0.030672153 -0.040218435 -1.3319998 -0.2903851 0.28379625 -2.62898e-18 1.696857 0.3946501
-0.007559988 -4.9204e-41 0.18330674 -0.15806495 -3.7852582e-11 -2.6095243 -1.6963868 0.0013882291
-0.9711222 0.46163967 -0.00030428046 1.8091447e-05 -0.00038300146 5.699e-41 0.0011222083 0.795975
-1.8312511 0.7070544 0.26987585 0.001793624 -0.7965035 0.3054671 -0.8771895 -1.0397995
0.15897198 0.42055935 0.09729146 -0.12730747 0.4927347 -0.36619323 4.046045e-08 1.4510021
-0.027374193 -0.14141296 0.66941625 -0.0009931512 0.81820035 -1.3961226 -0.63962746 0.48268965
0.8807711 -1.9311922 0.46294 0.10021839 0.5976933 0.25204667 1.3133255 1.2535884
0.23006298 0.038959745 0.48269343 -1.4381875 -0.10063496 1.0214177 -0.5860348 -0.003635358
-0.6191474 -0.028039994 0.0023141617 0.08684111 0.0061145537 2.1286292 -0.9351682 -4.936e-41
0.64244807 0.96411395 0.33674097 -0.7455485 0.0052583693 5.478011e-06 -0.19289118 0.007403175
0.47179794 -0.6084955 -2.7279458 0.010012795 -1.1242447 -2.3076587 -0.09748655 -0.932902
1.1152323 0.04945772 0.3211056 -1.2943286 6.2839496e-07 -0.24690898 0.2625402 0.480719
0.44511634 0.485601 0.5505531 0.18822499 -0.7031134 -1.0767502 0.0038201306 0.6460629
-0.00217781 0.41548586 -0.05988981 0.00791701 0.15883069 0.76437587 0.6276559 -0.5689442
00000000: 0050 8b3b 1b8b 183f 0ec1 13be 7d6f 8fbe
00000010: eeb1 8a3f f29b 96be afca bcbe 244b 0d40
00000020: 1d45 0ebf ee36 97bc cb6a 51bf c178 d33f
00000030: 7320 513f cf9a 82bc f458 29bd b5fa 793e
00000040: 5f84 013f 06f3 d53e b8e9 22bd e433 0080
00000050: 8222 3abf 5ea9 f597 d01b d0bd 7540 dd3e
00000060: d72a 28bf 7d8a c03b 333e b2bd bbab eebf
00000070: ec8f 9cbf a031 623f d217 a8bf 666f db3e
00000080: 6dc1 2e3d ba6a 7b3d b1dd 633e 3de7 283f
00000090: dc6c 9230 c925 98b9 6507 30bf 27ce 11bf
000000a0: ad5e 3ebf d8c4 323f e4a2 33bf dd93 edbe
000000b0: eb54 c339 cfb8 a5be b534 a9bf b51a 023e
000000c0: b235 17bf 4a0f 283f f26d 5c3c 2ccf 20bf
000000d0: 26c9 2d3f 6215 f49b 9aa0 a83e 5f52 fabe
000000e0: 20a3 f6bd 12fc 5f3f fe34 08c0 c23b ccbe
000000f0: 5343 8cbe b757 473f cf2b babd 3be3 92be
00000100: 76d7 97be 111c 9c3f de50 9fbf dd11 25c0
00000110: 1fff 573f 3fe8 b53e 37a3 7dbf 5c12 79bf
00000120: 617f 863f 67f5 eebf 4dbf 9fbe 2fd5 453a
00000130: 5cd9 143f 8884 0000 ce91 45bf 6158 7e3f
00000140: 5ecb 943f eca4 093c 86c9 893f 725e 1e3c
00000150: e214 3b39 9f7f 16be a4d4 b93f 07c6 99be
00000160: f3c5 ddbe 0d62 92be a79e 423f 2fe5 6f3e
00000170: 45cc 9dbe 52be 933d 4121 70bd 08f3 a5bf
00000180: af39 c0ba e5ec 2b3b 7674 b23e 156e 693e
00000190: 360a 80bf a899 b9be 36cc 00a2 4602 ed3e
000001a0: 1629 44b8 9e8b 9e3f e09c c3be 2917 2dbf
000001b0: 273b 7f3f 80d8 c33c 77c5 153c 9056 ae3f
000001c0: 93e3 983f 3f77 57bf 5a36 30bd b232 413f
000001d0: 4c8e 69bf 0049 a73d 6107 6a3f 2fe7 23bf
000001e0: e67b 45bf bdc8 4e3d f0bb 56bf f82a 94bf
000001f0: df8c f0be 193c 903f 1808 323f 91aa 613e
00000200: 9922 f23e 5dec 77be ba19 7bbd 8093 78bc
00000210: dea7 fcbe 540d cf3d 0d7a 843e 9212 bcbe
00000220: 4d1b 50bf 9128 0940 6646 d1bf 31d9 263a
00000230: 26ef 933f 8bae 5d3d fc46 3b40 3d87 9aba
00000240: 2b44 fbbc 16bc 24bd f87e aabf 5bad 94be
00000250: be4d 913e 07fc 41a2 9c32 d93f 940f ca3e
00000260: c7b9 f7bb 2989 0080 c3b4 3b3e c7db 21be
00000270: 387a 26ae 7202 27c0 3423 d9bf 3df5 b53a
00000280: 779b 78bf 095c ec3e d587 9fb9 16c3 9737
00000290: 96cd c8b9 dd9e 0000 1017 933a 05c5 4b3f
000002a0: 7066 eabf 8401 353f 2b2d 8a3e 0918 eb3a
000002b0: a7e7 4bbf 2f66 9c3e 7e8f 60bf 2618 85bf
000002c0: 8dc9 223e 8e53 d73e bf40 c73d e45c 02be
000002d0: b947 fc3e ae7d bbbe bcc6 2d33 70ba b93f
000002e0: d83f e0bc 8fce 10be dd5e 2b3f a02c 82ba
000002f0: 9475 513f 25b4 b2bf a0be 23bf 1923 f73e
00000300: 377a 613f 4e31 f7bf 7906 ed3e 4d3f cd3d
00000310: 6e02 193f 430c 813e 0d1b a83f 9675 a03f
00000320: a195 6b3e 4194 1f3d 9823 f73e 8716 b8bf
00000330: b419 cebd d1bd 823f 6006 16bf 303f 6ebb
00000340: 7280 1ebf 21b4 e5bc 31a9 173b c0d9 b13d
00000350: 985c c83b 763b 0840 2f67 6fbf 9889 0080
00000360: 7a77 243f 2cd0 763f 5069 ac3e 44dc 3ebf
00000370: 664e ac3b c2cf b736 4485 45be 5596 f23b
00000380: 808f f13e 5cc6 1bbf aa96 2ec0 b50c 243c
00000390: 40e7 8fbf aeb0 13c0 07a7 c7bd aad2 6ebf
000003a0: efbf 8e3f 2e94 4a3d f467 a43e 8fac a5bf
000003b0: f9ae 2835 b5d5 7cbe ab6b 863e cd20 f63e
000003c0: 4ae6 e33e b2a0 f83e 0cf1 0c3f 0dbe 403e
000003d0: 3dff 33bf f3d2 89bf 285b 7a3b 6164 253f
000003e0: 97b9 0ebb 90ba d43e 044f 75bd 59b6 013c
000003f0: 83a4 223e 23ae 433f 0fae 203f 54a6 11bf

e_embedding.weight f4 [2, 48]
-1.1865427 1.7354306 -1.3079871 -0.11933518 0.003371362 5.346915e-13 0.14777243 -0.012759252
0.0051578716 -0.00016174637 1.3572665 -0.1946742 -0.14416921 0.034736358 -1.1658846e-06 0.09422737
-0.32840893 0.02188101 -0.37462065 0.006031157 0.5227038 -0.0109889405 -0.3526945 3.089935
-0.90289515 9.892454e-05 -0.059660453 -0.070924856 0.32514045 -0.85599 -1.2249174 -0.4114487
-0.15593807 0.819418 -0.71296376 -0.18841259 0.5943455 0.15173344 0.3124256 0.07436804
-0.49074236 -1.230746e-16 -0.687096 -0.15856557 -0.05561218 -0.2418196 0.36591947 1.4569829
-0.6654711 0.42458856 1.5708649 0.88979495 -0.9705244 -0.55412596 0.7416948 0.39353678
-1.546296 -0.8658729 -0.19928004 1.2417718 -0.44266355 1.5936406 0.20269492 -0.58930945
1.7341136 2.3618667 -0.8460738 -0.20593934 1.2972465 -1.2114161 1.0962332 -0.20345837
1.7429289 1.085246 0.199106 0.12256293 -1.6449797 -0.08397931 -0.026212502 0.51180494
0.6563346 -2.0761797 -3.2573082 -1.2352154 0.24930565 0.9462759 -2.0768082 -0.11111986
0.79478633 -0.81668925 0.63987035 -0.033082165 -0.63654286 1.9030286 1.455911 -0.6306588
00000000: a2e0 97bf 9722 de3f 1f6c a7bf 0166 f4bd
00000010: 12f2 5c3b 9580 162b a851 173e 2f0c 51bc
00000020: 5d03 a93b 769a 29b9 e9ba ad3f ac58 47be
00000030: 18a1 13be b647 0e3d 7d7b 9cb5 48fa c03d
00000040: 3725 a8be ce3f b33c 47ce bfbe 03a1 c53b
00000050: ebcf 053f f50a 34bc 6094 b4be 7fc1 4540
00000060: 2324 67bf b575 cf38 855e 74bd 0d41 91bd
00000070: cf78 a63e 2922 5bbf 18ca 9cbf 67a9 d2be
00000080: 3bae 1fbe 61c5 513f cb84 36bf 3bef 40be
00000090: 0727 183f 0360 1b3e 40f6 9f3e 454e 983d
000000a0: 9542 fbbe 36e5 0da5 86e5 2fbf 035f 22be
000000b0: 99c9 63bd 8f9f 77be cc59 bb3e 6a7e ba3f
000000c0: 505c 2abf ac63 d93e 1a12 c93f 9ac9 633f
000000d0: 4974 78bf 33db 0dbf b6df 3d3f a77d c93e
000000e0: 07ed c5bf d9a9 5dbf 1110 4cbe 61f2 9e3f
000000f0: cca4 e2be 6afc cb3f 428f 4f3e fcdc 16bf
00000100: 6ff7 dd3f d328 1740 4b98 58bf c3e1 52be
00000110: 2c0c a63f af0f 9bbf 5f51 8c3f 6457 50be
00000120: 4b18 df3f 57e9 8a3f 71e2 4b3e 4602 fb3d
00000130: b28e d2bf 58fd abbd 9abb d6bc a605 033f
00000140: 8b05 283f 21e0 04c0 bd77 50c0 8a1b 9ebf
00000150: fb49 7f3e 233f 723f 6dea 04c0 cf92 e3bd
00000160: 1e77 4b3f 8c12 51bf 8bce 233f 2a81 07bd
00000170: 79f4 22bf 7196 f33f 4b5b ba3f db72 21bf

h_embedding.weight f4 [48, 160]
-0.25442216 0.14417513 0.46877053 -0.11565339 -0.64107823 0.1756433 0.27149633 -0.48751494
-0.6176641 0.5596275 -0.6494531 -0.6760395 0.53217554 0.18355192 -0.33882618 -0.23886582
0.6532023 0.48424432 -0.34905335 -0.28365898 -0.121449985 0.28872746 0.4283796 -0.13737866
-0.5492036 0.29744455 0.42971373 -0.61737156 0.33298165 -0.5285287 0.32875806 0.21653593
0.17717947 0.10023654 -0.017337048 0.028477173 -0.3058659 -0.32790905 0.0774074 0.06080029
0.17309256 0.34301126 -0.57511556 0.29613438 0.6719349 -0.6005917 -0.15273559 -0.15998676
0.62368774 -0.11902526 0.15843311 0.6768256 0.19288361 -0.111665346 -0.2957115 0.27422115
-0.064822346 -0.026156418 -0.30304715 0.60539424 0.5768937 0.10961533 -0.1429917 -0.04337011
0.14742984 0.14735614 0.4581294 0.2144278 -0.5491739 -0.16110478 -0.07183474 -0.15704271
-0.47732618 -0.52680445 0.2920349 -0.08056108 -0.15564193 0.5589594 0.37933767 -0.22684158
-0.045931134 0.60404044 0.13530774 0.39899847 -0.12116478 0.37176862 0.18673483 -0.10332025
0.25687557 0.04901346 -0.17358893 0.4044041 -0.2325934 0.37064287 -0.035824187 -0.31985548
-0.022926006 0.017977439 -6.768087e-06 -0.4751846 0.013392151 -0.2230796 0.033623636 0.007770266
0.11343698 0.15944007 0.036000863 0.1662719 -0.52232677 -0.39263886 -0.33610234 0.21555622
0.53171915 -0.03373341 -0.10225289 0.45304197 0.0797528 0.4310119 -0.19393438 0.42670488
0.14886309 0.054932915 0.21088265 -0.111852415 0.44214448 -0.48791367 -0.46110666 0.51864594
-0.53422695 0.23680587 0.006683472 -0.22985548 0.11853782 -0.41531006 -0.18732703 -2.5742165e-05
0.54844373 0.05797385 -0.031467088 0.37859017 0.3325674 0.30481035 -0.21802577 -0.37514156
0.5254556 -0.036185905 -0.2846349 -0.55808794 0.23802836 0.13149473 -0.19386652 0.40890637
-0.26580736 0.41329417 0.17422073 -0.28345633 -0.3431267 0.07665372 0.15379511 0.20970361
0.13038461 0.13179287 -0.60284966 0.4567618 0.51516455 -0.35943627 -0.21388865 -0.1685244
-0.59554064 0.22166425 -0.43886596 0.6505592 -0.34665176 0.5951786 -0.5342669 0.32572812
0.6202705 -0.5068275 -0.5622878 -0.5000656 -0.11646018 -0.3535678 -0.4675335 -0.078093775
0.56536126 0.39019975 -0.026325192 -0.104298726 0.5115104 -0.62402177 -0.6764969 -0.36135903
0.32379454 -0.22669505 0.06844457 -0.48482153 0.63839066 0.47434667 -0.06673153 0.62752753
0.31555852 0.11082613 0.08131557 -0.22258526 -0.4463122 0.5334163 0.49589685 -0.018088602
0.035079107 0.55533993 0.6364393 0.3715754 0.24589828 -0.18150261 -0.3785544 -0.08120292
0.09667783 0.46346948 0.16890949 -0.6350824 0.5127817 0.5943936 0.076356895 -0.14886306
-0.5183304 0.593017 0.5467447 -0.44002357 -0.2989919 0.57002914 -0.41208717 -0.15755296
-0.25613815 0.14649391 0.01797888 -0.442734 -0.4642484 -0.5814915 -0.017164797 0.64693046
-0.34285575 0.16070478 -0.11798601 0.3906604 0.014055712 0.35187533 0.14622155 -0.037462547
-0.12906252 0.13960598 -0.41913587 -0.05349527 -0.3366455 0.02054031 -0.43024293 0.27831495
00000000: 9f43 82be a5a2 133e b102 f03e afdb ecbd
00000010: b41d 24bf d6db 333e 9101 8b3e 8f9b f9be
00000020: 3c1f 1ebf bf43 0f3f 8f42 26bf ed10 2dbf
00000030: a83c 083f 09f5 3b3e a07a adbe 3e99 74be
00000040: 4438 273f dfee f73e 1fb7 b2be c03b 91be
00000050: c5ba f8bd 16d4 933e 9254 db3e feac 0cbe
00000060: 9b98 0cbf a74a 983e 7003 dc3e 100c 1ebf
00000070: 927c aa3e a84d 07bf fa52 a83e 98bb 5d3e
00000080: 896e 353e d148 cd3d 6d06 8ebc f648 e93c
00000090: 759a 9cbe b2e3 a7be c587 9e3d ba09 793d
000000a0: 2d3f 313e 2c9f af3e c63a 13bf ed9e 973e
000000b0: ed03 2c3f 61c0 19bf b866 1cbe 92d3 23be
000000c0: 00aa 1f3f 84c3 f3bd 4a3c 223e 7144 2d3f
000000d0: 4883 453e cdb0 e4bd 7f67 97be b766 8c3e
000000e0: 94c1 84bd fc45 d6bc ff28 9bbe 1efb 1a3f
000000f0: 4eaf 133f 017e e03d 6b6c 12be dba4 31bd
00000100: d9f7 163e 87e4 163e f08f ea3e f692 5b3e
00000110: a996 0cbf a7f8 24be 181e 93bd cecf 20be
00000120: 1964 f4be a8dc 06bf 9985 953e 35fd a4bd
00000130: 9960 1fbe f717 0f3f 8c38 c23e 2949 68be
00000140: 4922 3cbd 65a2 1a3f 1d8e 0a3e 8749 cc3e
00000150: 3d25 f8bd 7558 be3e 6a37 3f3e 9199 d3bd
00000160: 3285 833e 56c2 483d 4cc1 31be 0e0e cf3e
00000170: f72c 6ebe e7c4 bd3e 62bc 12bd 19c4 a3be
00000180: 52cf bbbc 6c45 933c 6d19 e3b6 654b f3be
00000190: c16a 5b3c fb6e 64be f0b8 093d b79d fe3b
000001a0: a651 e83d 4244 233e a475 133d 2e43 2a3e
000001b0: 35b7 05bf f607 c9be 9b15 acbe c5ba 5c3e
000001c0: bf1e 083f 0b2c 0abd f769 d1bd 1ef5 e73e
000001d0: 7055 a33d 97ad dc3e bc96 46be 1079 da3e
000001e0: 916f 183e 5601 613d 9ff1 573e e112 e5bd
000001f0: c360 e23e d2cf f9be 2c16 ecbe fbc5 043f
00000200: 19c3 08bf 3d7d 723e 0701 db3b 3c5f 6bbe
00000210: f5c3 f23d 85a3 d4be a8d2 3fbe e1f0 d7b7
00000220: cf66 0c3f fd75 6d3d a2e3 00bd 92d6 c13e
00000230: 4646 aa3e 1a10 9c3e 2642 5fbe 8e12 c0be
00000240: 4284 063f ac37 14bd aabb 91be dade 0ebf
00000250: b5bd 733e 8ea6 063e f284 46be 2d5c d13e
00000260: e717 88be 4b9b d33e eb66 323e 3021 91be
00000270: 4eae afbe a0fc 9c3d 777c 1d3e 8bbc 563e
00000280: 8b83 053e b6f4 063e 5b54 1abf afdc e93e
00000290: d3e1 033f 0808 b8be a005 5bbe a991 2cbe
000002a0: 5a75 18bf f4fb 623e 0ab3 e0be 0c8b 263f
000002b0: 577c b1be a05d 183f b7c5 08bf d6c5 a63e
000002c0: 0cca 1e3f 72bf 01bf 18f2 0fbf 4d04 00bf
000002d0: ad82 eebd d706 b5be 8d60 efbe a1ef 9fbd
000002e0: 84bb 103f 43c8 c73e eea7 d7bc 929a d5bd
000002f0: 58f2 023f e4bf 1fbf e72e 2dbf 0d04 b9be
00000300: 66c8 a53e bf22 68be ab2c 8c3d 873a f8be
00000310: 926d 233f 91dd f23e 8aaa 88bd a5a5 203f
00000320: e390 a13e cff8 e23d c788 a63d 64ed 63be
00000330: 0883 e4be f88d 083f 31e6 fd3e 8c2e 94bc
00000340: 1caf 0f3d c22a 0e3f b0ed 223f 213f be3e
00000350: c2cc 7b3e d2db 39be e2d1 c1be b74d a6bd
00000360: 07ff c53d df4b ed3e 9cf6 2c3e c394 22bf
00000370: a945 033f 2e2a 183f 0161 9c3d 8f6f 18be
00000380: 4db1 04bf f6cf 173f 76f7 0b3f c54a e1be
00000390: 7715 99be 6eed 113f 17fd d2be 9055 21be
000003a0: 8a24 83be 8002 163e 7248 933c 08ae e2be
000003b0: f7b1 edbe a0dc 14bf 309d 8cbc 3c9d 253f
000003c0: ca8a afbe cb8f 243e a6a2 f1bd a404 c83e
000003d0: ee49 663c 0129 b43e 1abb 153e 5472 19bd
000003e0: f728 04be dff4 0e3e fa98 d6be db1d 5bbd
000003f0: cd5c acbe 2744 a83c cd48 dcbe 4c7f 8e3e

h_embedding.bias f4 [48]
0.0029921369 -0.003981258 -0.0014894936 0.002005815 0.0038755834 0.0036585464 0.00078985206 -0.0009928878
0.0035346206 -0.0035000485 -0.0010813412 0.0009891916 -0.003365211 0.0010693024 -0.0054062577 -0.0028085047
0.0029877212 0.00037153676 0.0020214436 0.0011520793 -0.000588615 0.0036462848 -0.0051814164 1.2486442e-05
-0.0025886705 0.0012171778 -0.0023072532 0.0018199931 -0.0019225512 0.0013333777 -0.003368138 0.0012784717
0.0028056942 0.0037819524 0.006370277 -0.0018506245 -0.0057914 0.0030861197 -0.0014228539 0.00520727
-0.0025770443 0.0020851751 -0.0094651375 -0.0027544692 -0.0009931262 -0.00047705366 -0.00083892967 0.0031228804
00000000: ba17 443b 3675 82bb 1d3b c3ba fe73 033b
00000010: 80fd 7d3b 39c4 6f3b 130e 4f3a c923 82ba
00000020: 18a5 673b 1261 65bb cabb 8dba c3a7 813a
00000030: df8a 5cbb d627 8c3a fa26 b1bb e40e 38bb
00000040: a5cd 433b d2ca c239 327a 043b 5e01 973a
00000050: 494d 1aba 82f6 6e3b dfc8 a9bb dc7c 5137
00000060: afa6 29bb b689 9f3a 4935 17bb d68c ee3a
00000070: 1dfe fbba bbc4 ae3a fbbb 5cbb 6492 a73a
00000080: bddf 373b a2da 773b c2bd d03b a790 f2ba
00000090: c9c5 bdbb 7f40 4a3b 0e7f baba bfa1 aa3b
000000a0: a1e3 28bb 6fa7 083b aa13 1bbc 5384 34bb
000000b0: c92b 82ba 0f1d fab9 9eeb 5bba 3da9 4c3b

initial_layer_norm.weight f4 [48]
1.0047312 0.9998712 1.0006324 1.0003045 0.9992052 1.0021805 0.997684 0.9964634
0.99886537 0.99369526 0.9944762 0.99338996 0.99239856 0.9988732 0.9988455 0.9985772
0.9904821 0.99602544 0.99833274 1.0019381 1.0034331 1.0062048 0.99977857 1.0018018
1.003837 1.0035834 1.0046127 1.0003241 0.99377257 1.0063151 0.99856657 1.000078
1.0023762 0.9968319 1.0023803 0.9976032 0.9949424 1.0043964 1.0058639 0.9977277
1.0047197 0.9959946 1.0021967 0.9955062 0.99409485 0.99553376 0.9974109 1.0017955
00000000: 089b 803f 8ff7 7f3f b914 803f fa09 803f
00000010: e9cb 7f3f 7347 803f 3868 7f3f 3a18 7f3f
00000020: a4b5 7f3f d062 7e3f fe95 7e3f ce4e 7e3f
00000030: d50d 7e3f 27b6 7f3f 57b4 7f3f c1a2 7f3f
00000040: 3c90 7d3f 86fb 7e3f bc92 7f3f 823f 803f
00000050: 7f70 803f 52cb 803f 7df1 7f3f 0b3b 803f
00000060: bb7d 803f 6c75 803f 2697 803f 9f0a 803f
00000070: e167 7e3f efce 803f 0fa2 7f3f 8e02 803f
00000080: dd4d 803f 6030 7f3f ff4d 803f ec62 7f3f
00000090: 8cb4 7e3f 1090 803f 26c0 803f 156b 7f3f
000000a0: a89a 803f 81f9 7e3f fb47 803f 7fd9 7e3f
000000b0: 007d 7e3f 4ddb 7e3f 5256 7f3f d63a 803f

initial_layer_norm.bias f4 [48]
0.0020060893 -0.00039149553 -0.00052635773 0.0030082106 0.003840019 0.00617421 -0.0027842752 0.00038829
0.003465807 0.000100656296 6.045163e-05 -0.00030519307 -0.0024320453 0.0017116689 -0.0045292955 -0.00093407003
0.001415586 -0.0005979988 0.0014168032 0.0017712807 0.00087661424 0.0035097688 -0.0043623983 0.0020378872
-0.0012135997 0.0035095564 -0.0038135932 0.0028697841 0.0002993533 0.0041354145 -0.0045931563 0.0024398293
0.0012511237 0.0039401525 0.0055476185 0.0012905891 -0.00028507982 0.0074683335 -0.0045426064 0.008247606
-0.0014886477 -0.0018933607 -0.006840249 -0.002169483 0.0011332807 -0.0014984297 -0.00028128157 0.0035212694
00000000: 9878 033b a441 cdb9 45fb 09ba 6625 453b
00000010: d4a8 7b3b 0751 ca3b 6378 36bb 6793 cb39
00000020: 9822 633b 7017 d338 728d 7d38 5202 a0b9
00000030: f362 1fbb 145a e03a 7c6a 94bb 61dc 74ba
00000040: 2f8b b93a 05c3 1cba 07b4 b93a 512a e83a
00000050: 96cc 653a 2604 663b 73f2 8ebb 138e 053b
00000060: a611 9fba 9600 663b 7aed 79bb fd12 3c3b
00000070: 85f2 9c39 5f82 873b 3082 96bb 8be5 1f3b
00000080: bffc a33a 651c 813b ccc8 b53b fc28 a93a
00000090: c476 95b9 ecb8 f43b 25da 94bb f820 073c
000000a0: ba1e c3ba a52a f8ba 2b24 e0bb e32d 0ebb
000000b0: 978a 943a f566 c4ba f978 93b9 19c5 663b

layers.0.attention.Q.weight f4 [48, 48]
0.027113134 -0.92069316 -0.020692425 -0.08337866 0.11432188 0.85755986 -0.24781135 -0.8072096
-0.17975359 0.8928944 -0.5599047 0.804802 -0.9820983 0.45912203 -0.520129 -0.56183606
0.83831966 -0.6935894 0.9034019 -0.601051 0.84260195 0.6671375 0.5994445 -0.89673674
-0.36085856 0.21577221 -0.40149817 -0.6027277 -0.7180297 0.93368 -0.19417632 -0.21715719
-0.20368202 0.68035865 -0.74549687 -0.81108016 -0.3001957 0.0016474247 -0.6479412 -0.47068304
-0.2859446 -0.92042804 -0.35429916 0.7925819 -0.5252671 0.8383588 -0.024755115 0.1904507
-0.5525427 0.45510286 0.16812812 0.97755355 0.6396988 0.983162 -0.26019678 0.345606
0.21381347 0.680577 -0.8093066 0.84267724 0.40906447 -0.850903 -0.45805657 0.18721037
0.067174084 0.16641143 -0.88997203 0.23266023 0.70070505 -0.58932096 0.96739423 0.29316434
0.3032867 0.9435942 0.94913536 -0.82959193 -0.4278427 0.3921525 -0.4217787 5.72572e-05
-0.8572288 -0.18525063 -0.9436501 0.7428317 0.50647026 -0.71909314 0.17023158 -0.21898654
-0.68636864 0.16394249 0.12081987 0.08584803 0.51153713 -0.4415954 -0.5192315 0.78037554
-0.82505083 -0.8066107 -0.29328963 0.500047 0.4292277 -0.30364013 -0.08984723 0.21864885
0.5382688 -0.07614771 0.3084592 -0.06704022 0.77759427 0.93628466 -0.6925836 -0.83237654
-0.24284397 0.8293344 0.12780702 0.5300192 0.3509171 -0.15682763 -0.5711836 -0.5302019
-0.006744059 0.5382031 -0.08318264 0.28781825 0.6931296 0.3782495 0.01282247 -0.61621666
-0.5687155 -0.2349145 0.74287295 -0.6887626 0.8530836 0.78999734 0.6899652 -0.29185992
0.030339079 0.7308223 0.8371167 -0.5758738 -0.36376992 -0.16652645 0.071257755 0.75313073
-0.34780246 -0.962078 -0.14381483 -0.013272918 -0.41421008 0.4529261 -0.11161336 -0.29584238
-0.24601008 0.6008018 -0.027169261 0.9041881 -0.08183518 0.2830628 -0.6940523 0.84084463
-0.55549353 -0.0035793367 0.19750589 0.55815697 0.90770954 -0.77508515 0.88104194 -0.570256
0.9335955 0.09983416 0.593313 0.8964875 0.5822371 0.55118585 -0.16355543 -0.6896794
0.6893279 -0.9275027 0.38249463 0.2524566 0.7977462 -0.5018286 -0.00211751 -0.05633259
-0.8627947 0.32811144 -0.49792525 0.9476928 0.91877913 -0.37568054 0.09624646 -0.6041963
0.932007 -0.49387956 -0.23137467 0.7149299 -0.9765453 -0.8781344 0.7223223 0.01606707
-0.039965943 0.0664608 -0.1453225 -0.10491711 0.15323733 0.19275069 -0.054887775 -0.4922527
0.32014138 0.23297033 -0.5483672 0.55683047 0.0582502 -0.13445407 -0.29603735 -0.5547247
-0.53291476 -0.7747774 -0.5519417 0.8330213 -0.78822625 0.36815557 -0.03736489 0.6009207
0.43377215 0.31223235 0.07077431 0.84673774 -0.59954923 0.27879474 -0.14309913 0.1910187
0.44075313 -0.80869406 -0.098377824 -0.74581635 0.94760734 -0.65496916 -0.8301594 -0.9205862
0.77412677 -0.85628104 -0.6627253 -0.708679 0.040777504 -0.10707936 0.5174928 -0.5603795
-0.9037939 -0.6909207 0.5801767 -0.56887585 -0.14812759 -0.8641231 0.19424485 -0.85262865
00000000: 5d1c de3c 8cb2 6bbf 2983 a9bc 6ec2 aabd
00000010: 9721 ea3d 0b89 5b3f 42c2 7dbe 4aa5 4ebf
00000020: 5311 38be ba94 643f ea55 0fbf 8107 4e3f
00000030: cb6a 7bbf 0b12 eb3e 2d27 05bf 7dd4 0fbf
00000040: 1e9c 563f 138f 31bf 5945 673f 7ade 19bf
00000050: c3b4 573f 86c9 2a3f 3275 193f 8a90 65bf
00000060: 74c2 b8be 64f3 5c3e 2b91 cdbe 5d4c 1abf
00000070: cbd0 37bf a705 6f3f 28d6 46be 745e 5ebe
00000080: 0592 50be fc2b 2e3f e2d8 3ebf f3a2 4fbf
00000090: 40b3 99be 66ee d73a 79df 25bf 5efd f0be
000000a0: 5567 92be 2ca1 6bbf b366 b5be a6e6 4a3f
000000b0: e877 06bf af9e 563f 3dcb cabc 8205 433e
000000c0: 7073 0dbf 3e03 e93e c729 2c3e f340 7a3f
000000d0: 4dc3 233f 81b0 7b3f 8338 85be 45f3 b03e
000000e0: ebf1 5a3e 4b3a 2e3f b82e 4fbf b2b9 573f
000000f0: e670 d13e c7d4 59bf 6486 eabe 13b4 3f3e
00000100: 9192 893d c267 2a3e 35d5 63bf 7c3e 6e3e
00000110: 6861 333f bddd 16bf 26a7 773f a319 963e
00000120: 6548 9b3e 648f 713f 89fa 723f 2360 54bf
00000130: 330e dbbe 36c8 c83e 61f3 d7be 7327 7038
00000140: 5973 5bbf 57b2 3dbe 0e93 71bf 382a 3e3f
00000150: 09a8 013f 7d16 38bf 3051 2e3e 023e 60be
00000160: dbb5 2fbf 8ae0 273e 6870 f73d 18d1 af3d
00000170: 19f4 023f cb18 e2be 5bec 04bf b1c6 473f
00000180: 8836 53bf 0a7e 4ebf 0f2a 96be 1503 003f
00000190: bcc3 db3e b876 9bbe d301 b8bd 7ce5 5f3e
000001a0: fccb 093f 55f3 9bbd 5dee 9d3e 624c 89bd
000001b0: 6b10 473f 5ab0 6f3f 294d 31bf a116 55bf
000001c0: 17ac 78be 424f 543f d8df 023e 57af 073f
000001d0: 68ab b33e 6c97 20be 1739 12bf 50bb 07bf
000001e0: 44fd dcbb aec7 093f a95b aabd ea5c 933e
000001f0: f170 313f eba9 c13e 5615 523c 60c0 1dbf
00000200: 5797 11bf 6d8d 70be ec2c 3e3f bf52 30bf
00000210: b063 5a3f 443d 4a3f 8fa1 303f aa6e 95be
00000220: a989 f83c 2c17 3b3f 484d 563f 776c 13bf
00000230: 0d40 babe e985 2abe 96ef 913d 2dcd 403f
00000240: 2a13 b2be be4a 76bf 3244 13be a776 59bc
00000250: 5813 d4be eee5 e73e 8c95 e4bd a778 97be
00000260: 11ea 7bbe 26ce 193f 1292 debc df78 673f
00000270: 3499 a7bd 9bed 903e 69ad 31bf 9841 573f
00000280: d334 0ebf 4e93 6abb fc3e 4a3e 60e3 0e3f
00000290: a75f 683f fb6b 46bf f78b 613f 4cfc 11bf
000002a0: 1d00 6f3f da75 cc3d 5ce3 173f 3480 653f
000002b0: 7e0d 153f 841a 0d3f 137b 27be d48e 30bf
000002c0: cb77 303f d170 6dbf 56d6 c33e fe41 813e
000002d0: 1839 4c3f d777 00bf ecc5 0abb 00bd 66bd
000002e0: 1de0 5cbf 39fe a73e 0ff0 febe ff9b 723f
000002f0: 1c35 6b3f 3359 c0be dd1c c53d 9cac 1abf
00000300: 0398 6e3f c8dd fcbe 7bed 6cbe a505 373f
00000310: dffe 79bf 6bcd 60bf 1dea 383f 179f 833c
00000320: 54b3 23bd 9a1c 883d 6ccf 14be c8de d6bd
00000330: 3fea 1c3e 7060 453e 01d2 60bd 8c08 fcbe
00000340: 92e9 a33e c68f 6e3e cb61 0cbf 718c 0e3f
00000350: c397 6e3d 54ae 09be 3592 97be 7002 0ebf
00000360: 1a6d 08bf d057 46bf 0d4c 0dbf e240 553f
00000370: 32c9 49bf e37e bc3e ed0b 19bd f0d5 193f
00000380: 6217 de3e ebdc 9f3e 1ff2 903d cec3 583f
00000390: 0f7c 19bf 2fbe 8e3e 9488 12be 689a 433e
000003a0: 65aa e13e 9306 4fbf 507a c9bd d2ed 3ebf
000003b0: 6596 723f 0fac 27bf 5485 54bf 8aab 6bbf
000003c0: 2c2d 463f 3c35 5bbf 5ea8 29bf fd6b 35bf
000003d0: 5006 273d 6c4c dbbd 687a 043f 0875 0fbf
000003e0: 095f 67bf 2ee0 30bf 7686 143f d9a1 11bf
000003f0: c2ae 17be 2c37 5dbf 1fe8 463e df45 5abf

layers.0.attention.K.weight f4 [48, 48]
-0.82486755 0.75020325 0.4230891 0.838838 0.44941965 -0.8420708 0.24700834 -0.8963762
-0.085072435 -0.33407965 0.8571697 -0.021607598 -0.5623663 -0.43121693 -0.48549038 -0.32562685
0.5720667 0.6146997 -0.9864047 0.23817243 -0.5571132 0.72749496 0.3541614 -0.4010003
-0.74209684 0.25690112 -0.77706134 -0.8754934 0.97645956 -0.87443656 -0.14508046 -0.111557506
0.9078423 0.78576946 0.32935655 -0.108661 0.76936644 0.850033 0.9755482 0.111707285
0.40875053 0.6833586 0.634743 0.025316251 0.08096731 0.95129496 -0.7192235 -0.34450763
-0.36687317 -0.9199116 0.6036645 0.8863012 0.37082973 0.44059628 0.47881338 0.29617018
0.3398976 0.59115255 0.45474315 0.65062153 -0.28638864 -0.46878105 -0.48297969 -0.13037452
-0.8692973 -0.88494843 0.10163947 -0.90093106 0.36816984 -0.31637135 -0.59410936 -0.25017455
0.13008071 0.46858364 -0.009350215 -0.37953997 0.041967463 0.17209192 0.44013628 0.4648293
0.48903692 0.86662257 -0.6300397 0.013196028 0.17895694 -0.040508438 0.17987654 -0.40067053
-0.29568228 -0.59376913 0.26850742 0.23997612 0.1653117 0.9544297 0.47945455 0.36215425
0.102629274 0.62093204 -0.6201791 -0.22497556 0.5786598 0.91911566 -0.3247242 -0.6595142
0.63167214 -0.5725507 0.9775476 0.6112424 -0.6421923 -0.61659646 0.9395658 -0.79113257
0.025007531 0.75743043 -0.07849894 -0.6276585 -0.29244503 -0.5439238 0.738388 0.006985092
-0.8012547 0.82439786 -0.6415225 -0.35333413 -0.1478503 0.9421564 0.07188007 0.9073989
-0.77355164 -0.7493485 0.09657472 -0.80094486 -0.21337888 0.5235948 0.8330287 0.9227979
-0.75831807 -0.5325985 0.20524757 0.2767926 -0.18439874 0.82519186 0.41278663 -0.118761234
0.61152726 0.59939575 0.32401943 0.055371694 -0.21814613 -0.5422955 0.264092 -0.15701774
-0.53874105 -0.7688313 0.1807147 -0.5530493 -0.110544376 -0.25156692 0.8006917 0.44842076
0.8524035 -0.62839156 -0.528574 -0.5027203 0.11451392 -0.18603626 -0.8961711 0.17187174
-0.09342425 0.6435646 0.7909284 0.13999447 -0.9132943 0.99229985 0.7172368 0.06295739
0.16017124 0.81428134 -0.8348258 0.29294452 0.8100373 0.2911503 -0.19342369 0.29376188
-0.24367413 0.97808814 -0.039186873 -0.21245083 0.43210706 0.8613437 -0.095283695 -0.2128729
-0.29896587 0.7452268 0.9500769 0.29199526 -0.40698266 -0.27002683 -0.56754184 0.52106
0.36073932 0.5023624 0.13073613 0.647482 0.16653319 0.7336796 -0.8533371 0.67872584
-0.6959744 -0.26380232 -0.6049686 0.10705081 0.6641026 0.47658393 -0.6541793 0.4588177
0.8674259 -0.34978768 -0.25593013 -0.52999085 0.40398487 -0.83461267 0.81050295 0.77608985
0.2624285 0.7841136 0.7832166 0.887035 -0.6050548 -0.6457586 -0.00137126 -0.93167543
0.50002146 0.5358594 -0.69936883 -0.3114602 0.51470226 0.14357013 0.9030296 0.7332915
-0.5175279 -0.5957708 -0.36914936 0.9581191 -0.54759324 0.19045103 -0.17602184 0.2598949
0.216152 0.38371873 0.3888171 0.44553736 -0.3359329 0.17565975 -0.59393907 -0.12570287
00000000: 852a 53bf 520d 403f 229f d83e 16be 563f
00000010: 551a e63e f491 57bf c1ef 7c3e e978 65bf
00000020: 753a aebd 7d0c abbe 796f 5b3f 6b02 b1bc
00000030: 3df7 0fbf 77c8 dcbe 3292 f8be 90b8 a6be
00000040: f772 123f f65c 1d3f 0585 7cbf 79e3 733e
00000050: f89e 0ebf 1c3d 3a3f a554 b53e e94f cdbe
00000060: 0ffa 3dbf 8b88 833e 7eed 46bf 5620 60bf
00000070: 41f9 793f 13db 5fbf f98f 14be 4378 e4bd
00000080: 5a68 683f 3028 493f 6ca1 a83e a989 debd
00000090: 33f5 443f c39b 593f 87bd 793f cac6 e43d
000000a0: c047 d13e 97f0 2e3f 847e 223f 0764 cf3c
000000b0: 30d2 a53d 1188 733f 081f 38bf 4e63 b0be
000000c0: cdd6 bbbe 547f 6bbf c289 1a3f a3e4 623f
000000d0: 65dd bd3e d695 e13e 0727 f53e 9ea3 973e
000000e0: 0f07 ae3e c655 173f 18d4 e83e 228f 263f
000000f0: 88a1 92be 1204 f0be 1d49 f7be e680 05be
00000100: 458a 5ebf fb8b 62bf 5b28 d03d 6ba3 66bf
00000110: c280 bc3e 6dfb a1be 8d17 18bf e116 80be
00000120: e133 053e 32ea ef3e a531 19bc 1053 c2be
00000130: 13e6 2b3d dd38 303e 8b59 e13e 1bfe ed3e
00000140: 0c63 fa3e fada 5d3f 484a 21bf 2734 583c
00000150: 7d40 373e 2dec 25bd 8e31 383e b024 cdbe
00000160: ab63 97be 4101 18bf ce79 893e 4dbc 753e
00000170: 7847 293e 8155 743f 117b f53e 486c b93e
00000180: 4c2f d23d 67f5 1e3f 0fc4 1ebf fe5f 66be
00000190: 0c23 143f 2a4b 6b3f 4042 a6be ecd5 28bf
000001a0: 44b5 213f af92 12bf 8f40 7a3f 627a 1c3f
000001b0: b766 24bf 44d9 1dbf 6287 703f aa87 4abf
000001c0: 98dc cc3c f6e6 413f 0dc4 a0bd 3aae 20bf
000001d0: 5bbb 95be 973e 0bbf ff06 3d3f 33e3 e43b
000001e0: 071f 4dbf bd0b 533f d23a 24bf 36e8 b4be
000001f0: 1266 17be 2931 713f dc35 933d 4b4b 683f
00000200: 7b07 46bf 4ed5 3fbf f8c8 c53d b90a 4dbf
00000210: fe7f 5abe 4f0a 063f 5e41 553f 7c3c 6c3f
00000220: 2221 42bf 6058 08bf 6b2c 523e c2b7 8d3e
00000230: 06d3 3cbe c63f 533f c558 d33e 1739 f3bd
00000240: 0d8d 1c3f 0072 193f e0e5 a53e 6ecd 623d
00000250: b361 5fbe e1d3 0abf 1137 873e 42c9 20be
00000260: efea 09bf 21d2 44bf 460d 393e a494 0dbf
00000270: 1765 e2bd 61cd 80be 22fa 4c3f 6897 e53e
00000280: 1e37 5a3f 45de 20bf a050 07bf 47b2 00bf
00000290: 4686 ea3d 4a80 3ebe 786b 65bf 25ff 2f3e
000002a0: 3755 bfbd a6c0 243f 497a 4a3f b65a 0f3e
000002b0: a8cd 69bf 5d07 7e3f d59c 373f ceef 803d
000002c0: ee03 243e be74 503f 25b7 55bf d3fc 953e
000002d0: 9b5e 4f3f a711 953e dc10 46be f567 963e
000002e0: b685 79be fc63 7a3f 6a82 20bd b68c 59be
000002f0: 233d dd3e 0581 5c3f 1924 c3bd 5afb 59be
00000300: 0e12 99be 2fc7 3e3f 3d38 733f 6780 953e
00000310: 0860 d0be f540 8abe 6c4a 11bf 3064 053f
00000320: d3b2 b83e d29a 003f b1df 053e 61c1 253f
00000330: ad87 2a3e 6dd2 3b3f 4d74 5abf fac0 2d3f
00000340: 612b 32bf 1911 87be 39df 1abf 743d db3d
00000350: a102 2a3f cf02 f43e 4b78 27bf 27ea ea3e
00000360: a00f 5e3f 5f17 b3be 4609 83be 7bad 07bf
00000370: 1bd7 ce3e 2da9 55bf 1f7d 4f3f d3ad 463f
00000380: 075d 863e abbb 483f e280 483f ba14 633f
00000390: dfe4 1abf 7050 25bf dabb b3ba 4882 6ebf
000003a0: 6801 003f 152e 093f d609 33bf b677 9fbe
000003b0: 87c3 033f 0c04 133e f32c 673f feb8 3b3f
000003c0: b57c 04bf 6f84 18bf 2501 bdbe 4b47 753f
000003d0: 122f 0cbf 9805 433e 123f 34be f210 853e
000003e0: f356 5d3e c876 c43e 0913 c73e 791d e43e
000003f0: 66ff abbe 26e0 333e 640c 18bf 41b8 00be

layers.0.attention.E.weight f4 [48, 48]
0.47421214 -0.71622455 -0.5197711 -0.77003247 -0.86731243 -0.92424965 0.8991805 -0.29178816
-0.68614453 -0.49824506 -0.50682604 0.75648814 0.120254986 0.14961399 -0.6549016 -0.842436
-0.99072284 0.7883636 -0.6113514 -0.5578103 -0.42335573 -0.89989907 0.7219722 0.29143977
-0.5441058 -0.54419726 -0.22250126 0.6250788 -0.7944653 -0.719205 0.8676594 0.117379285
0.030238293 -0.9571553 0.5405126 -0.5599244 -0.5244658 -0.45744616 0.64240783 -0.8986032
0.3499525 0.52108186 -0.7493825 0.21323927 0.5519251 0.5029524 -0.39164418 -0.36360073
-0.86145186 0.019427536 -0.9566539 0.2664458 -0.07932215 -0.36310765 -0.6033395 0.3111133
-0.74723464 0.048012275 0.6134496 -0.7657666 -0.41805196 0.7672915 0.38788372 -0.8724324
-0.368647 -0.4077783 -0.71678305 0.6522715 0.8936202 -0.104610376 0.53380764 0.21126723
0.0032857764 0.52163047 -0.4351603 0.6585521 -0.73531646 -0.04089882 -0.22645846 0.5013656
-0.36530766 -0.77301186 -0.9541917 -0.8636218 -0.7416259 -0.30914044 0.63288856 0.63922566
-0.01569939 0.44206178 0.51665956 0.41765177 0.3288529 -0.1680699 -0.54706115 0.8943462
0.4140344 0.5378077 0.5433855 -0.018675132 0.61385125 0.17501855 -0.2399895 -0.7932887
0.81261075 0.63404596 -0.28709885 -0.85981774 -0.31565273 0.4121722 -0.64812285 -0.27928695
0.013021539 -0.5205683 0.7459961 0.801219 0.51907945 -0.08556398 -0.17548408 -0.9334173
-0.7854939 0.991969 0.6551592 0.2154239 0.64344466 0.43126386 0.12205281 0.7823753
-0.7205608 -0.96932364 -0.18030299 0.571955 0.3467289 -0.45936716 0.77611977 0.30893937
-0.6420091 -0.0316642 0.52864593 0.40856847 -0.7550746 0.8116891 0.07451403 -0.7777177
-0.2535732 -0.1066798 -0.79980534 0.95920604 0.47040787 0.7261431 0.4491435 -0.5173634
-0.806013 -0.32693586 0.38995633 0.7113553 -0.19659685 -0.4562337 -0.22002782 0.35978523
-0.40735266 0.2691158 -0.44259453 -0.81223243 0.12235554 0.8838049 0.100467026 -0.09327565
0.96434826 -0.5431444 0.60112244 -0.09112507 0.09292391 0.8678051 0.69225824 -0.67066497
-0.9015422 0.10881562 0.5847829 -0.040764797 0.50361574 -0.5796116 0.77337617 0.6847541
-0.5952217 -0.7318451 0.12637648 -0.017998097 0.48756394 0.64908934 -0.9377437 -0.06938172
-0.5471081 0.2013363 0.55557346 0.6267738 -0.9173917 0.77338725 0.4974763 -0.8451748
0.0006567063 0.19285122 -0.49515858 0.8323117 0.29889897 0.472275 0.8457038 0.23204924
0.05933584 -0.34012416 -0.52236074 -0.33762205 0.52380574 -0.64877236 0.9729879 -0.9211602
0.5254639 0.16699992 -0.21738084 0.02637529 -0.2541032 -0.91437656 -0.39592215 0.62587917
-0.5220926 0.64069813 0.6738785 -0.6490103 -0.6956578 0.629506 0.9260172 -0.6459777
-0.30817333 0.13382348 -0.6022017 -0.25489107 0.8447728 -0.7529281 0.6690703 0.9220438
-0.6195103 0.47791043 0.83701074 0.2669848 0.12418989 -0.23008755 0.66861063 0.587486
-0.98190093 0.077547334 -0.10831658 0.88561594 0.59655136 0.8903964 0.34833515 0.91174483
00000000: efcb f23e 7e5a 37bf b80f 05bf d920 45bf
00000010: 3008 5ebf a09b 6cbf b130 663f 4265 95be
00000020: 2ba7 2fbf fa19 ffbe 5abf 01bf 35a9 413f
00000030: 3f48 f63d 6934 193e a2a7 27bf e3a9 57bf
00000040: 03a0 7dbf 32d2 493f 8681 1cbf a8cc 0ebf
00000050: 15c2 d8be c95f 66bf 2cd3 383f 9837 953e
00000060: 854a 0bbf 8350 0bbf 5fd7 63be 2a05 203f
00000070: 1462 4bbf d21d 38bf ed1e 5e3f 8d64 f03d
00000080: 4cb6 f73c 2108 75bf 095f 0a3f 3557 0fbf
00000090: 6443 06bf 6236 eabe d774 243f dc0a 66bf
000000a0: f92c b33e 9f65 053f 88d7 3fbf 655b 5a3e
000000b0: f74a 0d3f 7dc1 003f 9685 c8be e029 babe
000000c0: 1c88 5cbf 7f26 9f3c 45e7 74bf 956b 883e
000000d0: a773 a2bd 3fe9 b9be 7574 1abf 3e4a 9f3e
000000e0: c54a 3fbf 85a8 443d 080b 1d3f 4809 44bf
000000f0: e80a d6be 376d 443f b298 c63e bb57 5fbf
00000100: 4dbf bcbe 51c8 d0be 187f 37bf 44fb 263f
00000110: 4bc4 643f f73d d6bd 9ea7 083f 7056 583e
00000120: 2e56 573b 9389 053f 55cd debe df96 283f
00000130: b33d 3cbf 8585 27bd bae4 67be 7f59 003f
00000140: 9b09 bbbe 1be4 45bf e845 74bf 5116 5dbf
00000150: 32db 3dbf a847 9ebe fc04 223f 4ba4 233f
00000160: 029c 80bc ec55 e23e cd43 043f 74d6 d53e
00000170: 685f a83e 841a 2cbe 330c 0cbf dff3 643f
00000180: 51fc d33e c4ad 093f 501b 0b3f 97fc 98bc
00000190: 5b25 1d3f 1038 333e cfbf 75be f814 4bbf
000001a0: 4207 503f d650 223f 9ffe 92be 041d 5cbf
000001b0: 3c9d a1be 3c08 d33e 61eb 25bf b3fe 8ebe
000001c0: 4b58 553c f743 05bf 9af9 3e3f b01c 4d3f
000001d0: 64e2 043f 2b3c afbd 19b2 33be 70f4 6ebf
000001e0: 2116 49bf aef1 7d3f 83b8 273f 1598 5c3e
000001f0: cab8 243f 9ece dc3e d3f6 f93d bf49 483f
00000200: ac76 38bf 9825 78bf 59a1 38be a56b 123f
00000210: 7386 b13e 2c32 ebbe c9af 463f 4d2d 9e3e
00000220: b55a 24bf 52b2 01bd 5755 073f e32f d13e
00000230: 924c 41bf dbca 4f3f d09a 983d 8218 47bf
00000240: 59d4 81be f07a dabd 0bc0 4cbf 878e 753f
00000250: 4dd9 f03e 84e4 393f 23f6 e53e ee71 04bf
00000260: de56 4ebf 2364 a7be 5ba8 c73e 621b 363f
00000270: af50 49be 7797 e9be f94e 61be c535 b83e
00000280: 8790 d0be 8cc9 893e c09b e2be 77ee 4fbf
00000290: 8b95 fa3d 0a41 623f a8c1 cd3d 4e07 bfbd
000002a0: 87df 763f 830b 0bbf 29e3 193f c89f babd
000002b0: e44e be3d 7a28 5e3f d637 313f b3b0 2bbf
000002c0: 78cb 66bf b9da de3d 55b4 153f fdf8 26bd
000002d0: f6ec 003f 6d61 14bf fbfb 453f 0b4c 2f3f
000002e0: 7360 18bf 335a 3bbf d668 013e bf70 93bc
000002f0: fba1 f93e b82a 263f f90f 70bf 0118 8ebd
00000300: 470f 0cbf 1a2b 4e3e 103a 0e3f 3f74 203f
00000310: 2fda 6abf b5fc 453f 37b5 fe3e 605d 58bf
00000320: d026 2c3a ca7a 453e 6d85 fdbe 6112 553f
00000330: 4909 993e 07ce f13e 0b80 583f 519e 6d3e
00000340: 230a 733d c124 aebe 6fb9 05bf ccdc acbe
00000350: 2218 063f f215 26bf bc15 793f 28d1 6bbf
00000360: cd84 063f 0702 2b3e 1599 5ebe fe10 d83c
00000370: d119 82be 9514 6abf 4fb6 cabe 9e39 203f
00000380: dca7 05bf cb04 243f 4d83 2c3f 8a25 26bf
00000390: a116 32bf 4e27 213f 770f 6d3f cb5e 25bf
000003a0: e5c8 9dbe 0609 093e e429 1abf 1581 82be
000003b0: 0843 583f e5bf 40bf 3148 2b3f 100b 6c3f
000003c0: 3a98 1ebf adb0 f43e 5646 563f 3bb2 883e
000003d0: 4557 fe3d 129c 6bbe 112a 2b3f 7c65 163f
000003e0: dc5d 7bbf 23d1 9e3d 15d5 ddbd bab7 623f
000003f0: 97b7 183f 05f1 633f fc58 b23e 1c68 693f

layers.0.attention.V.weight f4 [48, 48]
0.7772275 0.8941097 -0.37784672 -0.18497518 -0.74084216 -0.25641948 0.5549601 0.5968158
-0.2421995 -0.8704448 -0.35372216 -0.20108193 0.39529642 -0.3241162 0.9791564 0.026632873
0.35140654 -0.0035121043 0.3777574 0.76333857 0.927661 -0.08524091 0.3273302 -0.0824747
0.91100574 -0.2567995 0.57370293 0.269647 0.6260034 -0.0615418 -0.54465276 -0.42119363
0.21246737 -0.7496846 0.7420982 0.6903923 -0.12721391 0.32302883 0.19861275 -0.2348627
0.07677695 -0.8281915 -0.6294411 -0.17664719 -0.08789592 0.9161733 0.15688743 -0.90548974
-0.8927444 -0.53565186 -0.9293224 0.62864447 -0.3608086 -0.9367249 -0.13509178 0.9735226
-0.81616175 0.76649356 0.4454994 -0.6054437 0.5637345 0.26464158 0.1294262 0.9361713
0.38469157 0.39100122 -0.95309895 -0.050273433 -0.77753633 -0.2882153 0.51089644 0.5822362
-0.3948533 0.32940415 -0.6204092 -0.37289324 -0.51508296 0.4644916 -0.17525801 -0.024494583
0.3657519 -0.0036037334 -0.6561685 0.00066373695 0.28362992 -0.41510183 -0.6188868 0.4811819
0.9852263 0.09624938 -0.9514368 -0.97280484 -0.54902786 -0.7585894 -0.8968781 -0.9062549
-0.6306614 -0.471398 -0.7537239 -0.76825273 0.9655717 -0.42736334 0.48291093 -0.66411895
-0.62512976 -0.039404806 0.08654429 -0.02920008 0.2212822 0.48821995 0.36180544 -0.3620741
0.9076993 0.7159362 0.7388722 0.37311053 0.85699654 -0.030107444 0.33155313 0.6318383
-0.16940802 -0.12750773 -0.026610289 -0.6572153 0.92890865 -0.66692746 0.27813792 0.7451213
-0.9479769 0.1500272 0.06648946 -0.38992107 -0.45154268 -0.9826899 0.8810442 -0.28386262
0.14099433 -0.85010475 -0.50262517 0.31745407 0.89483523 0.23109171 0.5593009 -0.6296061
0.5274811 -0.92784476 0.5580309 0.38353488 -0.40524495 0.86665726 -0.48738325 0.16752835
0.012229383 0.9201503 -0.5906986 -0.0975944 -0.2711949 -0.91305953 -0.76889646 -0.98157316
-0.68876266 -0.5064731 0.435437 0.78145033 -0.52665323 -0.99142796 0.92441344 -0.34018728
-0.13718797 0.8798877 0.15430146 -0.8604329 0.77645487 -0.046865158 -0.90406907 -0.903761
-0.9321478 -0.21156606 0.68411684 -0.30652964 0.27123323 0.8841885 0.03790701 -0.81111085
0.9337385 0.14076695 0.9081509 0.47452778 0.5859803 -0.3163071 0.949398 -0.48947123
0.35759926 -0.049419567 -0.42992815 0.5609795 0.50411916 -0.2052076 -0.6425218 -0.650474
0.0038192829 -0.56577015 0.95439345 -0.81479096 0.8825557 -0.2781785 0.03892517 0.15339014
0.41915235 -0.050055273 0.28599313 -0.5104913 -0.9370898 0.64276725 -0.6232853 0.12802225
0.86285 0.6567123 -0.15528193 0.25595075 0.30075717 -0.70262784 -0.51439095 -0.67272425
-0.5160461 0.31589857 -0.6175993 0.04190433 -0.634903 0.5453656 0.7085285 0.42392352
0.6331952 -0.44475883 0.8595366 -0.9661867 -0.34642917 -0.5531556 -0.7232992 -0.667718
-0.3897315 -0.17863676 0.65629894 0.4066528 -0.3121726 -0.87429035 -0.401967 -0.8944596
-0.63710546 0.290841 -0.953525 -0.70880276 -0.2651117 0.7321876 -0.10640298 -0.47152612
00000000: 62f8 463f 60e4 643f 2075 c1be 226a 3dbe
00000010: d5a7 3dbf 6a49 83be dd11 0e3f ecc8 183f
00000020: 2503 78be 78d5 5ebf 121b b5be 6ce8 4dbe
00000030: 4b64 ca3e 8ff2 a5be fea9 7a3f 2f2d da3c
00000040: 8feb b33e 552b 66bb 6b69 c13e 286a 433f
00000050: 317b 6d3f c992 aebd d397 a73e 7fe8 a8bd
00000060: ac37 693f 397b 83be 32de 123f 2c0f 8a3e
00000070: c241 203f 4113 7cbd 5d6e 0bbf b1a6 d7be
00000080: 0c91 593e 54eb 3fbf 26fa 3d3f 8dbd 303f
00000090: 5d44 02be 0964 a53e 2461 4b3e d97f 70be
000000a0: 3c3d 9d3d 5c04 54bf 0d23 21bf 00e3 34be
000000b0: c702 b4bd 558a 6a3f 19a7 203e 2dce 67bf
000000c0: e68a 64bf 7b20 09bf 13e8 6dbf d8ee 203f
000000d0: e8bb b8be 34cd 6fbf 8055 0abe c738 793f
000000e0: faef 50bf ec38 443f 7f18 e43e 5cfe 1abf
000000f0: e750 103f 1a7f 873e 4d88 043e eca8 6f3f
00000100: 4bf6 c43e 5031 c83e 4bfe 73bf 84eb 4dbd
00000110: 9f0c 47bf f590 93be 1cca 023f 6e0d 153f
00000120: 362a cabe a9a7 a83e 23d3 1ebf ddeb bebe
00000130: 7adc 03bf d8d1 ed3e d676 33be dda8 c8bc
00000140: d543 bb3e 9d2c 6cbb a9fa 27bf a2fe 2d3a
00000150: f137 913e 3a88 d4be 5e6f 1ebf 795d f63e
00000160: ca37 7c3f 651e c53d 5d91 73bf bd09 79bf
00000170: 178d 0cbf ea32 42bf ce99 65bf 5200 68bf
00000180: 0773 21bf 145b f1be 0df4 40bf 36ac 44bf
00000190: b52f 773f 5ecf dabe 1a40 f73e b303 2abf
000001a0: 8108 20bf ef66 21bd 223e b13d 0235 efbc
000001b0: cd97 623e f7f7 f93e 903e b93e c761 b9be
000001c0: fb5e 683f 9847 373f ba26 3d3f 5808 bf3e
000001d0: 2064 5b3f e3a3 f6bc 55c1 a93e 28c0 213f
000001e0: 4c79 2dbe 6391 02be d2fd d9bc 433f 28bf
000001f0: f5cc 6d3f c2bb 2abf 1868 8e3e 45c0 3e3f
00000200: 9dae 72bf bba0 193e a02b 883d bca3 c7be
00000210: 9a30 e7be 9191 7bbf 1d8c 613f 7156 91be
00000220: d160 103e 77a0 59bf 0bac 00bf 5789 a23e
00000230: ec13 653f 4ea3 6c3e 582e 0f3f de2d 21bf
00000240: 0009 073f 3c87 6dbf 1ddb 0e3f af5e c43e
00000250: 447c cfbe 40dd 5d3f 4c8a f9be 8d8c 2b3e
00000260: c05d 483c f88e 6b3f 0638 17bf 93df c7bd
00000270: 0fda 8abe 45be 69bf 66d6 44bf 6148 7bbf
00000280: c052 30bf 39a8 01bf 99f1 de3e 210d 483f
00000290: bfd2 06bf 39ce 7dbf 5ca6 6c3f 072d aebe
000002a0: 017b 0cbe 5240 613f 3401 1e3e 5545 5cbf
000002b0: bfc5 463f aef5 3fbd 1271 67bf e25c 67bf
000002c0: 3da1 6ebf c6a4 58be 4822 2f3f 74f1 9cbe
000002d0: 15df 8a3e 2d5a 623f 6244 1b3d f6a4 4fbf
000002e0: 7d09 6f3f 3625 103e 947c 683f 4ef5 f23e
000002f0: ce02 163f 01f3 a1be bf0b 733f f99b fabe
00000300: 4017 b73e 2c6c 4abd 8b1f dcbe 5a9c 0f3f
00000310: f40d 013f f121 52be 4f7c 24bf 7785 26bf
00000320: ef4c 7a3b 50d6 10bf 2153 743f 2496 50bf
00000330: 2cef 613f 6a6d 8ebe 0070 1f3d 4e12 1d3e
00000340: 239b d63e c206 4dbd b16d 923e 8faf 02bf
00000350: 1ee5 6fbf 658c 243f a08f 1fbf 4418 033e
00000360: bde3 5c3f 4c1e 283f 3a02 1fbe fa0b 833e
00000370: d8fc 993e 6bdf 33bf 20af 03bf a837 2cbf
00000380: 991b 04bf 75bd a13e fd1a 1ebf e0a3 2b3d
00000390: 0189 22bf 149d 0b3f 2062 353f 810c d93e
000003a0: 1519 223f 6eb7 e3be 970a 5c3f 0358 77bf
000003b0: 2a5f b1be 9b9b 0dbf 232a 39bf 91ef 2abf
000003c0: e38a c7be 8eec 36be 3503 283f cc34 d03e
000003d0: 16d5 9fbe 7ed1 5fbf 9ece cdbe 4efb 64bf
000003e0: 5819 23bf 1de9 943e 371a 74bf 1974 35bf
000003f0: b9bc 87be a670 3b3f cee9 d9bd df6b f1be
