best_model.pth (torch, 505826 bytes, 74 tensors)

z_embedding.weight f4 [1000, 48]
000000 a3 f7 29 3f bf cd 4e 3e f9 5e d6 3d 3e 86 77 3f
       0.6639349 0.20195673 0.10467333 0.9668921
000010 24 1e b4 bd 37 25 b1 bf e6 23 05 c0 df 5e 42 bf
       -0.08794811 -1.3839482 -2.080316 -0.7592601
000020 d1 85 67 3f 78 bc 9d 3e a7 d3 c9 3e 4d c7 d7 3f
       0.9043856 0.30807853 0.3941929 1.6857697
000030 bb e8 16 bf 95 de 1b 3f 8f 70 d5 3e 13 ff fe bf
       -0.5894887 0.6088651 0.41687438 -1.9921592
000040 f4 ea 05 be ae 4e 8d 3f df 6c db bf ad 29 dc 3f
       -0.13077909 1.1039636 -1.71426 1.7200218
000050 84 1e 59 3f bf 04 73 bf a7 51 bb 3c 13 f8 5a 3d
       0.8481219 -0.94929117 0.022866083 0.05345924
000060 93 bc 53 bf eb de df 3f c0 d2 98 be ef 68 8d 3e
       -0.82709616 1.7489904 -0.2984829 0.2761912
000070 ea 06 dd bf 9c e5 b0 bf 13 0c 92 be fa 1e af 3f
       -1.7267735 -1.3820071 -0.28524837 1.3681328
000080 5e d1 52 bf db 0f 7b 3d 4a b9 33 be 4b 3f 35 3f
       -0.8235072 0.061294418 -0.17551151 0.707997
000090 ff c1 7d 3f 40 03 40 3f 45 73 e9 3f 20 9c 3f bf
       0.9912414 0.7500496 1.8238302 -0.748476
0000a0 88 62 39 3f ed 9d 41 3f 79 9d 87 3e c9 a7 8a 3b
       0.7241597 0.756316 0.2648733 0.0042314273
0000b0 d5 85 ca bf 9e 90 21 bf 48 8a b1 3e 44 49 97 3f
       -1.5822092 -0.63111293 0.34675813 1.1819234
0000c0 24 15 0c bf 8c 48 e9 be c2 ed 1c 3e 80 6f 9f bf
       -0.5471976 -0.4556316 0.15325072 -1.2455902
0000d0 a2 f9 67 bf a0 79 75 3f 43 98 6b bf e1 72 06 3e
       -0.90615284 0.9588871 -0.9202921 0.1312976
0000e0 6f 12 0b 3e 9b 9e a3 3e 81 5a b4 bd 15 6f 21 bf
       0.1358125 0.31956944 -0.08806325 -0.6306012
0000f0 8d 72 87 bd 80 e2 cb 3e eb cb f3 3e dc d5 4b bf
       -0.06613646 0.39821243 0.47616515 -0.796232
000100 8f 36 2a 3e 5a 09 48 3e 04 20 e9 be 18 17 34 3f
       0.16622375 0.19534817 -0.45532238 0.7034774
000110 56 3d 4a bd 36 e8 20 3f 94 86 a1 bf 2b e2 c0 bf
       -0.0493749 0.62854326 -1.2619195 -1.5069021
000120 5c 37 b5 3f 35 42 7f bf f6 ce 68 bf e8 ef c4 bf
       1.4157519 -0.997104 -0.909408 -1.5385714
000130 94 fe 8d be c3 75 dd 3e 3a 1b cb bf b9 1a b1 3d
       -0.2773329 0.43253908 -1.5867684 0.08647675
000140 9b a4 20 bf cc 5b 3b bf 4c 48 87 3f 8b ac 82 3e
       -0.6275117 -0.73186946 1.0568938 0.25522265
000150 8b 0b dd 3d 2a 63 f0 3e 90 ee d9 3f 7b fc b8 bf
       0.10793217 0.46950656 1.7025928 -1.4452051
000160 0b bf 1c be 6f 73 14 3f 73 cd 14 3f a0 2e b1 be
       -0.15307252 0.5798864 0.5812599 -0.34605885
000170 02 01 d3 3c 03 a8 3f bf f1 f2 40 bf 30 82 88 bf
       0.025757316 -0.7486574 -0.753707 -1.066473
000180 72 bc da 3e 18 1d 8e be 6a 8a 0b bf 5a 0c a8 be
       0.42721897 -0.27756572 -0.5450808 -0.32821923
000190 44 25 a3 3e 7c 53 db 3e 94 64 e7 bf 24 5b 9b bf
       0.3186437 0.4283713 -1.8077569 -1.2137189
0001a0 b7 30 8a 3e e2 9f 32 be e9 6c d8 3f f6 68 2b 3e
       0.2699029 -0.17443803 1.6908237 0.16739258
0001b0 8f d6 11 bf b5 69 c3 3e a1 f4 4c be 55 81 63 3f
       -0.56968015 0.38166586 -0.20015194 0.8886922
0001c0 15 2d 1d 3f 23 2e ba bf 3c 0c 78 bd ed 7c a0 3e
       0.61396915 -1.454533 -0.060558543 0.3134531
0001d0 0a a4 2e 3e b4 eb 73 3f c9 d8 a4 be ee 20 d1 be
       0.17054763 0.9528153 -0.32196644 -0.40845436
0001e0 25 45 dc bd da 5d 1f bf bc 0c 46 bf b8 75 35 3f
       -0.10755376 -0.6225258 -0.7736318 0.7088275
0001f0 77 1d 94 3e c5 da 18 3f 93 1c fb be 97 b6 d5 3b
       0.2892873 0.59708816 -0.49045238 0.0065220105
000200 29 a2 84 3f 4f 70 07 bf 92 89 09 3f c9 e2 39 3f
       1.0361987 -0.52905744 0.5372554 0.7261167
000210 71 06 cf 3f d2 cd 59 bf 16 0f 5f 3e 96 ad cd 3e
       1.6173841 -0.8507968 0.21783099 0.40171498
000220 8d e2 41 bf 68 f7 00 bf 2f 74 0f 40 48 e7 8c 3e
       -0.75736314 -0.5037751 2.2414663 0.27520204
000230 08 80 8f 3f 3c c9 34 3e b7 c6 47 be ac 40 1b be
       1.1210947 0.1765489 -0.19509397 -0.15161389
000240 04 22 42 c0 fa a4 e5 3e 6d 54 ba bf a2 4f c4 3f
       -3.0333261 0.4485243 -1.4557015 1.5336802
000250 93 8f c4 be d1 7f 5b 3c 97 a8 d5 3e 2f c5 9f 3e
       -0.38390788 0.013397173 0.41730186 0.31205127
000260 c0 db b2 bf 7c af 17 bd 04 6a 05 bf 2e 06 57 3e
       -1.3973312 -0.03703259 -0.5211489 0.20998451
000270 cd 35 50 be d6 aa 88 bf d0 6c 17 bf af f3 f0 bf
       -0.20333023 -1.0677135 -0.5915041 -1.8824366
000280 91 70 b9 3f e5 04 86 bf e2 6f 4f 3e d5 8b 05 3e
       1.4487478 -1.0470244 0.20257524 0.13041623
000290 13 4e dc 3f 8c 9f 85 3f 83 79 d1 be be bb ab 3f
       1.7211326 1.0439315 -0.4091302 1.3416669
0002a0 bc e3 0c 3e 5f fd a3 3e ba 91 3e 3f 9d a7 11 3f
       0.13758749 0.32029244 0.7444111 0.5689638
0002b0 0c e9 09 40 a0 e7 a0 bf 34 d0 9d bf 58 8b e6 be
       2.154849 -1.2570686 -1.2329164 -0.45028186
0002c0 34 f8 4c 3f b4 69 8b bf 1a 09 d3 3e 6d 04 e7 be
       0.8006623 -1.0891633 0.4121788 -0.45120564
0002d0 ac 82 4e be 89 c0 bf be d9 8e b9 bc b0 d0 3f 3e
       -0.20167035 -0.3745158 -0.022651123 0.18731952
0002e0 fc ac 94 bd 09 6a 25 3e 3a 0d 5c 3f 55 26 c4 3f
       -0.07259557 0.1615373 0.8595768 1.5324198
0002f0 be 93 13 3e 33 f9 52 3f 74 5c a1 3e dc f7 7e be
       0.14411828 0.824115 0.3151585 -0.24899238
000300 b0 21 93 bf b5 5e 70 be c4 d7 a6 3e e8 6a d8 3f
       -1.1494656 -0.23473628 0.3258649 1.6907625
000310 f6 62 dd 3e 22 3c 81 3f 7e 0b db 3e 4b 6e ba 3f
       0.43239564 1.0096476 0.42782205 1.4564909
000320 0f 20 75 3f 3d 51 ad 3f e6 2e 12 bf ed 2d 47 bf
       0.9575204 1.3540417 -0.5710281 -0.7780445
000330 e2 b2 e7 3e ae 17 9a bf 8d cd bd 3f 68 07 87 3e
       0.45253664 -1.2038476 1.4828354 0.26372838
000340 42 ba c8 bf 40 6b 38 3f c0 07 36 bf 92 10 6a 3f
       -1.5681841 0.7203865 -0.71105576 0.91431534
000350 f8 cc 19 3f 11 f2 3c 3f 68 1f 79 bf d8 da 39 3f
       0.6007838 0.73806864 -0.9731355 0.72599554
000360 cd e2 97 bf 78 89 ac be 83 5e 15 bf b9 47 c1 bd
       -1.1866089 -0.3369863 -0.5834734 -0.09437508
000370 dd 46 df 3e 96 b1 5b 3f 83 18 c1 3e 92 bc 05 3f
       0.43608752 0.8581785 0.37714013 0.5224086
000380 50 c9 85 be 97 31 6b bf d5 c9 af be 3b fe 9a be
       -0.26130152 -0.91872543 -0.34333673 -0.30272087
000390 f1 86 92 be 78 f8 98 bf f8 aa 1d 3e e2 1c dc be
       -0.28618577 -1.1950827 0.1539725 -0.42990786
0003a0 e4 33 3b bf 63 c9 86 bf a5 c1 e7 3e a0 78 34 bf
       -0.73126054 -1.0530208 0.45264927 -0.7049656
0003b0 6c ee a1 bf fd c6 02 3f 08 a5 41 bf 6b a9 09 be
       -1.2650886 0.5108488 -0.7564244 -0.13443534
0003c0 56 0f a3 bf 9e 35 cd 32 68 59 db 0d fe 58 84 ba
       -1.2739055 2.3889523e-08 1.3518441e-30 -0.0010097323
0003d0 6a 89 00 80 c5 7f 3f 3f 64 89 00 00 dd 5d a7 9d
       -4.9295e-41 0.74804336 4.9286e-41 -4.4301584e-21
0003e0 1b 8c 00 00 28 89 00 80 00 b8 a4 b5 3e 89 00 00
       5.026e-41 -4.9202e-41 -1.2272503e-06 4.9233e-41
0003f0 e1 88 00 80 ce 88 00 00 57 04 15 a1 8b 22 fd bd
       -4.9103e-41 4.9076e-41 -5.0488907e-19 -0.12360104

convs.0.bias f4 [48]
000000 3b 21 f5 bc 30 1e 50 bd 47 d4 06 bd b7 d4 a4 3b
       -0.029923072 -0.05081004 -0.032917287 0.0050302404
000010 b2 53 9d bc ff f1 1c bd 56 fd 9b bb 88 4d 0a bc
       -0.019204948 -0.038316723 -0.0047604246 -0.008441336
000020 18 17 8e 3a 39 1f f3 bb 03 a4 b0 bc cd 62 10 bd
       0.0010840623 -0.0074194935 -0.021562582 -0.035250474
000030 33 de 05 3c fa 5e 2d bd b2 df 5d bd 08 16 7f bc
       0.008170652 -0.042326905 -0.05416841 -0.0155692175
000040 e1 2e 44 bd 3a 1c 9e bc df d4 7e bd eb 44 b1 bc
       -0.04789627 -0.019300569 -0.06221473 -0.021639308
000050 dc 62 a0 bc 74 0b 98 bc 11 61 23 bc ce ca 46 bc
       -0.01957839 -0.018560149 -0.009971873 -0.012133313
000060 1d d0 16 bc b0 4b 49 bd 29 f1 13 bd 35 d8 d4 bc
       -0.0092048915 -0.049144447 -0.03611866 -0.025982002
000070 6f 00 a4 bc 96 3b e6 bc 77 1c 0a bc e6 0f ac bc
       -0.020019738 -0.028104585 -0.008429638 -0.021003675
000080 39 cd 09 bd d1 56 d8 bc d5 3b 23 bd 9c 01 39 bd
       -0.03364298 -0.026408585 -0.039851982 -0.04516755
000090 10 1e 47 bd c1 75 bb bc 2f 6e 49 3a ab 52 b5 bb
       -0.048612654 -0.022883298 0.000768396 -0.0055335364
0000a0 46 c7 ec bc 3a 3b ee bc 3c 15 be bc d0 d2 1e bd
       -0.028903615 -0.029080976 -0.023203485 -0.038775265
0000b0 a1 b0 dc bc a1 2c 7f bc a5 a7 14 bd 0e da 37 bd
       -0.026939692 -0.015574605 -0.03629269 -0.044885688

convs.0.lin.weight f4 [48, 113]
000000 ff df 2d 3e 97 3c b1 3c bf 46 c6 bd 25 fb 0a 3c
       0.16979979 0.021635337 -0.096814625 0.008482729
000010 ba bf 9f 3d b1 02 b0 ba 7f c8 24 be 09 e8 2c 3e
       0.07800241 -0.0013428536 -0.16092108 0.1688539
000020 05 f7 00 3e 4d f3 94 bd 1f d4 19 bd 97 ca 34 3d
       0.1259423 -0.072729684 -0.03755581 0.044138517
000030 d0 3e a4 3d cc 1b 26 bd 2d 2d 89 3d d3 02 96 3d
       0.08019793 -0.040553853 0.0669807 0.073247574
000040 99 5b 0d be 27 67 55 3d 33 f0 59 3d b0 15 e7 bb
       -0.13804473 0.052100327 0.053207587 -0.007052146
000050 04 53 a7 bd 6e f5 eb 3d 22 8f 94 3d 77 5d 5c 3e
       -0.08170131 0.115214214 0.07253863 0.21520029
000060 38 b6 1a 3d 34 98 0b be c4 aa f9 bd cc 3c d4 bd
       0.037771434 -0.1363228 -0.12190774 -0.103631586
000070 74 2b 6b 3d 6a 17 02 be bc f1 bd 3d ea 4d 99 3d
       0.057414487 -0.12704244 0.09274623 0.07485564
000080 ec 93 b8 bb 69 e7 29 3b 11 2d 34 be cf 4e 1b be
       -0.005632868 0.0025925285 -0.17595316 -0.15166782
000090 b1 d4 f0 bd 22 ab 9c bd 1a 18 35 be e4 49 0c be
       -0.11759318 -0.076498285 -0.17684975 -0.13700062
0000a0 5c 77 1c be b1 9c 3a 3e a4 eb 2e be 81 42 1e 3e
       -0.15279907 0.18223836 -0.17082077 0.15455057
0000b0 ee 2d 0e 3e f0 23 e3 3c b7 61 54 bc 81 04 bf bd
       0.13884708 0.027727097 -0.01296275 -0.09327031
0000c0 08 75 89 3c 9e 70 19 bd a7 e6 01 3c 78 c1 68 3d
       0.016779438 -0.037460916 0.007928527 0.05682513
0000d0 1c da 06 3e c8 47 ae 3d 23 15 8b bd 0b 9d c4 bd
       0.1316914 0.08509785 -0.06791141 -0.09600266
0000e0 22 8b de bd 74 de fb bc 68 74 cc 3d 02 4d e6 3d
       -0.10866381 -0.030745722 0.0998314 0.11245157
0000f0 99 5a 4d 3b 8f f8 a1 3d 32 d0 66 3c c8 4b cd 3c
       0.0031334518 0.07908737 0.014087724 0.02506055
000100 ff 57 f1 bd f8 c9 0e 3d 52 47 22 bd 26 51 8c 3d
       -0.11784362 0.03486058 -0.039618798 0.06851415
000110 bb 5f 17 3e 6c ac 25 3e 77 b2 24 3e 44 56 74 bd
       0.14782612 0.16179055 0.16083704 -0.05965258
000120 97 74 88 bd bd f6 8f 3d 8a 3a 26 3e 30 20 ea 3d
       -0.06662863 0.070294835 0.16233268 0.114319205
000130 af 08 ae 3d 5f df d8 3d f1 1b 14 3e 5c 9b 8a 3d
       0.0849775 0.1058948 0.14463784 0.06767914
000140 74 19 1b 3e 1f b4 25 be 3e f9 10 3d af c7 17 3e
       0.15146428 -0.16181992 0.035393946 0.14822267
000150 7a 02 e1 bb d3 93 e9 3d bb 5e cc 3d 01 5e 4c bd
       -0.0068667503 0.11405148 0.09979006 -0.049894337
000160 17 44 a2 bd b6 4a 15 3e 9b e7 b9 bd 14 34 d4 bd
       -0.07923143 0.14579281 -0.09077378 -0.103614956
000170 87 2f c8 3d 48 7f 05 3e 75 bc 26 bc 69 5d dc 3d
       0.0977469 0.13036835 -0.010176768 0.10760004
000180 e7 af 4a bd 07 20 bc bc 6a 6b e3 3d 6f 98 d7 bd
       -0.04948416 -0.02296449 0.11104472 -0.10527121
000190 25 5e f3 bc 9d 73 07 bc f0 81 18 be c2 da d9 3c
       -0.029707978 -0.00826731 -0.14893317 0.02659357
0001a0 6b ca de bd e9 ae eb bd e7 00 92 bc 5a 71 d0 bd
       -0.10878452 -0.11507971 -0.017822696 -0.1017787
0001b0 7e 12 47 ba c5 dd 9d bd 62 9f 5c bd 18 ae 7f 3d
       -0.0007594003 -0.07708315 -0.053862937 0.062421888
0001c0 36 2a 2a be 29 ba 0a be f9 87 05 be ce 91 31 3e
       -0.16617665 -0.13547577 -0.1304015 0.17340776
0001d0 bb e3 a4 bd 40 3d 2a be 45 2e 62 bd a3 3a f0 bd
       -0.08051249 -0.16624928 -0.055219907 -0.11729934
0001e0 f1 1b 3b 3e 54 6d 0c 3e c4 84 36 3d 47 00 05 3e
       0.18272378 0.1371358 0.04456021 0.12988387
0001f0 a8 4b d4 3d 6b 3b 1c 3e 47 64 59 3d ec 4b 25 be
       0.10365993 0.15257041 0.053074148 -0.16142243
000200 b8 fe c5 bd 30 dd 18 3d ec dc 13 bb 2c fc dd 3c
       -0.09667724 0.037320316 -0.00225621 0.027097784
000210 1d 5d bc bd d4 3b 4a bd 75 5a 32 3e 90 b4 cd 3d
       -0.091974474 -0.049373463 0.17417319 0.10044205
000220 69 28 93 bd 13 0d 15 be 1a 19 9e bd db a8 34 3e
       -0.07185442 -0.14555769 -0.077196315 0.17642538
000230 1f ac 01 3e 4e 3d a6 bd 35 25 b0 3d c4 45 91 3d
       0.12663315 -0.08117162 0.08600847 0.07093385
000240 09 42 a3 bd 8d 16 2b be ad 24 1b be c1 5f 26 be
       -0.079715796 -0.16707821 -0.1515071 -0.16247465
000250 9a 24 33 be 87 33 89 3d 33 2e 17 3e 2a 06 9b bd
       -0.17494431 0.06699281 0.14763717 -0.07569535
000260 55 50 79 bd 8f 2c a2 3d 4c 2b 6b bd bd ff 80 3d
       -0.060867626 0.07918655 -0.057414338 0.06298778
000270 f8 83 1b be f8 bc af bc 19 68 11 bd 70 97 48 be
       -0.15187061 -0.021452412 -0.035499666 -0.19589019
000280 81 f6 06 be 5f 9f 02 be b1 9e b8 bd 14 70 7c 3d
       -0.13179971 -0.12756108 -0.09014643 0.061630324
000290 8f fd 0d 3e 46 01 15 3c 8e 81 27 3a c5 b4 05 3e
       0.13866256 0.009094542 0.00063898496 0.1305724
0002a0 dc 50 2d 3b 3d 92 a0 bd 0a 40 d0 bd d3 da 07 3e
       0.00264459 -0.07840393 -0.101684645 0.13267069
0002b0 75 3b f4 bc 9e da 1d be 0c 0b 0e 3d 0f 9f cb bd
       -0.029813508 -0.15415427 0.034678504 -0.099424474
0002c0 4d f4 8a 3d fd 7f d6 bb 46 9f c3 3d 47 7f 0b 3d
       0.06784878 -0.006546019 0.09551863 0.034056928
0002d0 e0 45 e0 bc ba c3 29 be e5 ef e8 3d 53 30 1e bd
       -0.027377069 -0.1657857 0.11373881 -0.038620304
0002e0 65 83 8f 3d 21 64 d6 3d 57 88 17 be 69 6b 9f 3d
       0.070074834 0.10468317 -0.14798103 0.07784159
0002f0 e2 1f f5 bc 01 18 95 bd c8 55 fa 3d 51 df ce bd
       -0.02992243 -0.07279969 0.12223393 -0.10101188
000300 f6 c9 8e 3d 76 1e ad 3d f7 43 6c 3d 8c c4 ef bd
       0.06972115 0.084530756 0.057682004 -0.1170741
000310 d9 1a 43 bd 9d b8 23 3c a6 6c 1f 3e f7 d7 ea bd
       -0.047633026 0.009992746 0.1556879 -0.11466973
000320 d9 13 2c be 0c 34 aa 3d c2 c6 0c bd 84 27 81 bd
       -0.16804446 0.083107084 -0.034369238 -0.06306365
000330 3d 12 60 bd b8 9d 2d 3e 77 03 2c 3d c2 43 da 3c
       -0.054704893 0.16954696 0.04199549 0.026643638
000340 11 45 bb 3d 58 63 7c bc d2 99 c8 bd 30 bb c5 bc
       0.09144033 -0.015404545 -0.09794964 -0.02413711
000350 b6 11 09 be 26 76 2f 3d 3a ec 64 3d 46 86 05 3e
       -0.13385662 0.042837285 0.055889346 0.13039503
000360 57 0b 6f bd 14 2f 41 3d f1 25 0d 3c 4f 3b 99 3d
       -0.058360424 0.047164038 0.008615003 0.07482015
000370 96 d8 08 be b0 95 4e 3c a9 68 d2 bd d3 3a 5f 3d
       -0.13363871 0.0126089305 -0.102738686 0.05449946
000380 82 6e fe 3d 72 f3 c8 3d ab f6 ab bd 0a 15 e7 bd
       0.124234214 0.098120585 -0.083966576 -0.1128331
000390 d8 b1 8a bd 5e cb 35 3d 23 35 1b 3e 6a 4a f4 3d
       -0.06772202 0.0443834 0.15156989 0.11928256
0003a0 b3 5b 42 be 69 54 82 bd d1 e3 ea bd 79 45 5b 3c
       -0.18980293 -0.06363756 -0.11469234 0.013383263
0003b0 a2 46 7a 3e b9 99 36 3c 75 27 00 be 39 5e 18 3e
       0.24441007 0.011145049 -0.12515052 0.14879693
0003c0 96 24 96 bc 5c 72 98 3d 43 19 85 3d 71 a9 ee 3d
       -0.018327992 0.07443687 0.06498959 0.11653412
0003d0 06 1e ac bd ea f9 85 bc 79 cd 06 3d 35 da 9f 3d
       -0.08404164 -0.01635452 0.032910798 0.078052916
0003e0 3e c4 f9 3c d5 37 9b bd d8 3c 0a be 44 df 1d be
       0.030489083 -0.075790085 -0.13499773 -0.154172
0003f0 2a 67 0f 3e d4 bc 36 3d bb 72 19 3e 24 52 20 be
       0.14004198 0.044613674 0.14985172 -0.15656334

convs.1.bias f4 [48]
000000 aa 3f 8c bb 4a e8 c4 bc 3d 61 b4 39 46 11 36 bc
       -0.0042800503 -0.024036545 0.00034404724 -0.011112517
000010 61 2b ee bc a1 b9 ca bc 40 50 27 bc 39 89 29 bc
       -0.029073419 -0.024746718 -0.010212004 -0.010347658
000020 9c df 70 3c a3 48 f7 bc dc 03 02 bc 00 db 73 bd
       0.01470175 -0.030186003 -0.00793549 -0.059535027
000030 58 48 50 3c 5c 8f 22 bc 37 b8 f2 bb 49 0a 3a bd
       0.012712561 -0.009921875 -0.007407214 -0.045419965
000040 76 f0 19 3c 4f c6 cd bc a4 ca 96 bc dd 00 44 bc
       0.009395709 -0.025118975 -0.018407173 -0.011963096
000050 2b 73 4a bc d3 ad 18 bb ae 5d 94 3b 91 bc 58 3b
       -0.01235656 -0.0023296967 0.004527769 0.0033071379
000060 2c 2a d9 b9 0b a5 80 bc 3a d0 7a 3c e7 41 c3 3b
       -0.00041420886 -0.015703699 0.015308434 0.005958784
000070 3d 00 79 bc 15 0e 53 bb 9e 79 c3 bc 60 3c 45 3c
       -0.015197811 -0.0032204438 -0.023861703 0.01203832
000080 9d c1 b9 bc dd cc 4f bd 02 8b 2f bc 4e 11 ee bb
       -0.02267533 -0.050732482 -0.010714294 -0.0072652465
000090 10 87 88 bc 98 d6 62 bc 28 13 86 bc 58 fc 06 bc
       -0.016665965 -0.013845108 -0.016366556 -0.008238874
0000a0 d1 db ab bc b6 18 42 bc fe 7a b1 bb c5 81 ba bc
       -0.02097884 -0.011846712 -0.005416273 -0.022766957
0000b0 4b e1 67 bd 57 12 81 b9 60 4f 6e bc 5f 4a 9d 3c
       -0.05661134 -0.00024618462 -0.014545292 0.019200502

convs.1.lin.weight f4 [48, 48]
000000 0a d6 ac bb 34 c6 48 be b1 bb 24 3e db 4b 1e 3c
       -0.005274539 -0.19606858 0.16087224 0.00966164
000010 23 46 75 bd a9 42 85 bd d8 1d 9d bc a4 89 1c be
       -0.05988134 -0.06506855 -0.01917927 -0.1528688
000020 69 58 5a 3e 59 cd 89 bd 1c c3 c6 3d 12 96 75 bd
       0.21322788 -0.0672862 0.09705183 -0.05995757
000030 24 0c e1 3a 82 5f 4d bd 4e bc f8 bd 1b 64 02 3e
       0.0017169756 -0.05013991 -0.12145291 0.127335
000040 4d 6b 4b be 44 6d 7f 3e e8 27 e4 3d 48 ba 5b 3e
       -0.19865151 0.24944025 0.11140424 0.2145778
000050 62 76 26 3e 17 d9 68 be 61 58 c5 3d 02 b1 fe bd
       0.16256097 -0.22739063 0.096359976 -0.12436105
000060 3b 8d 0c be 62 54 5b be 90 3f 84 be f9 94 10 be
       -0.1372575 -0.21418908 -0.25829744 -0.14119329
000070 55 8d 03 be 4c f1 40 be da 21 7c 3d c9 d8 82 3d
       -0.12846883 -0.18842047 0.06155572 0.06389005
000080 eb f0 8a 3d 94 6d 14 be c0 22 69 bc 5e f3 9f 3d
       0.06784233 -0.14494926 -0.014229476 0.078100905
000090 0c a0 d5 bb 1c 4f 80 3e 3d 4a fc 3d 53 ca 53 3d
       -0.006519323 0.25060356 0.12318847 0.051706623
0000a0 e0 a0 e3 3d 2d 1b 3a 3e 87 e7 d3 bd d5 0f c2 3d
       0.11114669 0.18174429 -0.10346895 0.09475676
0000b0 60 ac 07 be 5d 59 84 3c b4 43 2c be c9 8b 3f 3e
       -0.1324935 0.016155893 -0.16822702 0.18705668
0000c0 b8 4f 0b be 04 d6 3a be ad 63 f8 3d a8 3e 2c bd
       -0.13604629 -0.18245703 0.12128387 -0.04205194
0000d0 a8 40 cb bd eb e4 5e be 24 26 6a be 21 60 0d be
       -0.099244416 -0.21767013 -0.22866112 -0.13806202
0000e0 8a 67 00 39 b5 98 00 be cd 86 ea 3c 37 61 27 3e
       0.00012245603 -0.12558253 0.028628731 0.16345678
0000f0 7a c0 46 3e 6e f0 eb ba 29 82 27 bd de 3d 8d 3b
       0.19409361 -0.0018000731 -0.040895615 0.0043103537
000100 24 a7 19 3e 8e df b3 3d 27 7a bf 3c f9 ff d5 3d
       0.15005165 0.08782874 0.023373676 0.104492135
000110 ed 59 65 be 27 1b 35 be cd 8e e6 bd ae ef c1 bd
       -0.22397585 -0.17686139 -0.11257706 -0.094695434
000120 d3 78 40 be 40 b8 83 3b 35 8b 15 be 43 23 30 3d
       -0.18796091 0.004019767 -0.14603885 0.04300238
000130 22 ae e8 3d b8 9f e3 bd aa 6e 80 3c ae 01 0d 3e
       0.11361338 -0.11114448 0.015677769 0.13770172
000140 6a 40 88 3d 0e a9 ec bc ac 9a 30 3e 43 44 1e 3e
       0.06652911 -0.028889205 0.17246503 0.15455727
000150 e7 86 d7 3d 33 69 06 3e 61 17 f1 bd bd 64 0d be
       0.105237775 0.13126068 -0.11772037 -0.1380796
000160 ce 10 34 3d 5c dc 3b 3c 45 48 9d bd 09 f2 9b 3d
       0.04396134 0.011466112 -0.076798 0.07614524
000170 15 0f 57 3e 7f 0f 14 bd 69 19 ec bd d9 ca 6b be
       0.21001847 -0.03614759 -0.11528284 -0.23026599
000180 96 ab c1 3c 12 bc 0e be 49 19 21 3e 6f 25 b2 3c
       0.023641389 -0.1393893 0.15732302 0.021746365
000190 17 a6 a3 bc 40 6e 8c bc 20 98 cb 3c 40 d1 3b 3c
       -0.019976659 -0.017142415 0.024852812 0.011463463
0001a0 ce b7 82 3e d2 8d 0d 3e 19 01 01 be b9 4f 2e 3d
       0.25530857 0.13823631 -0.12598075 0.0425565
0001b0 11 11 98 3d 7c dd 0f be 9f 54 a0 bd e5 f5 42 be
       0.0742513 -0.14049333 -0.0782864 -0.19039114
0001c0 47 95 53 be 0e 98 7b bd 6f bb 0b be c0 f2 2d 3e
       -0.20662414 -0.061424308 -0.13645719 0.16987133
0001d0 26 8f 0d 3e cf 3c de bc cf 70 44 3e a7 f6 b2 3b
       0.13824138 -0.027128605 0.19183658 0.005461532
0001e0 da bf d3 3d 23 48 f0 3d 97 87 69 be 60 c6 24 3e
       0.10339327 0.11732509 -0.2280563 0.16091299
0001f0 82 eb 1b be e3 14 b3 bd 62 37 82 bd 8a d0 37 3e
       -0.15226558 -0.08744218 -0.0635822 0.17950645
000200 40 28 13 be 6a 4c a8 bd d8 77 21 3e 40 63 bb bd
       -0.14370823 -0.082177 0.15768373 -0.0914979
000210 1a 5f 38 be c0 3b 6e 3e f0 36 18 bd c4 07 1a 3e
       -0.18005028 0.2326498 -0.037161767 0.15042025
000220 0a 9e 57 3c 46 9c 21 be a1 01 4d be c6 9f 0e 3e
       0.013160238 -0.1578227 -0.20020153 0.13928136
000230 63 8c 31 be ed 80 6c 3d 2c 9b 84 bc ef 5e a9 bd
       -0.1733871 0.05774014 -0.016187273 -0.0827006
000240 8e fb 14 be 18 9f 9d 3d 7a 7f 04 3e a4 5f 37 3d
       -0.14549085 0.0769636 0.12939253 0.044768944
000250 a0 13 cb 3d e7 8b 34 3e 8d d8 88 bd 50 1c 1c bd
       0.099158525 0.17631494 -0.06681929 -0.03811294
000260 af d8 2a bd a0 d9 d7 3d fa 2e c6 3d 5b 74 20 3e
       -0.04171055 0.105395555 0.09676929 0.15669386
000270 63 fe 47 be fc 5a e8 3b 68 49 12 3e 21 06 a1 bd
       -0.19530635 0.0070909243 0.14285815 -0.07862497
000280 e8 1c 42 3e 09 52 08 be 02 ae 33 3e 62 82 2e be
       0.1895634 -0.13312544 0.17546847 -0.17041925
000290 8e f5 cc 3c c0 43 d6 bd 04 fc e6 bd f3 a1 66 be
       0.025019433 -0.10462141 -0.11278537 -0.22522716
0002a0 cf 54 fc bc 1d d6 1f 3d 5e 7c bd 3d c5 b7 42 3d
       -0.030802159 0.039022554 0.09252237 0.047538538
0002b0 7f 59 de bc 5d 12 77 3d 33 ec 00 be 26 30 b8 bd
       -0.027142284 0.060320247 -0.12590103 -0.089935586
0002c0 dd 18 03 be ca f7 46 be 31 11 0b be b2 08 24 bd
       -0.12802453 -0.19430462 -0.13580777 -0.040047355
0002d0 09 0d 5e be 23 00 47 bd fb 27 a3 bd f7 93 66 3c
       -0.2168466 -0.048584115 -0.0796661 0.0140733635
0002e0 f5 51 70 be 6a 00 11 3c ae ed 2b 3e 2b 92 dd bd
       -0.23468764 0.008850196 0.16789886 -0.10818895
0002f0 0e e5 0a 3e 86 37 5c 3d 94 1c 30 be 5e 34 ad 3d
       0.1356394 0.05376389 -0.17198402 0.08457254
000300 bd c3 86 bd e8 7f 9e bc 69 db 24 be 59 1d 45 be
       -0.06580303 -0.0193481 -0.16099323 -0.19249476
000310 7d e7 77 3d af e5 44 3e 08 aa d7 bd b1 09 03 be
       0.0605235 0.19228242 -0.10530478 -0.12796666
000320 87 55 61 3e 74 45 2f 3e 57 e1 dc 3c 3d 27 e8 bd
       0.22005282 0.17116338 0.02696292 -0.11335609
000330 d3 13 da bd da fd 5e bd 79 01 66 3c 38 b2 e0 3d
       -0.106483124 -0.05444131 0.014038437 0.109714925
000340 7b d0 07 bd 49 43 bd 3d 61 69 24 3d 39 ff 81 bd
       -0.033157807 0.09241349 0.04013956 -0.06347508
000350 52 33 cd 3d dd 5b 2a 3e 9d 71 21 3e f5 b9 40 be
       0.10019554 0.16636606 0.15765996 -0.18820937
000360 b5 d3 18 be 17 73 31 bd 14 b0 46 bc 76 9b 67 bd
       -0.1492451 -0.04332265 -0.012126941 -0.056544743
000370 4a 7e de 3c d3 8a 5a be d7 0a a4 bd 0a 8f 36 bd
       0.027159829 -0.2134202 -0.0800988 -0.044570006
000380 8a 8f 56 be cb a9 3f bd 37 f0 21 be c1 69 d7 3d
       -0.20953193 -0.046792787 -0.15814291 0.10518218
000390 79 cb 3c 3e 37 22 4b be 27 48 83 3d a9 1b 0b bc
       0.18436994 -0.1983727 0.06410246 -0.008490481
0003a0 81 61 3f be 61 8f 3e 3e d1 aa 70 bd fa a8 0d be
       -0.18689539 0.18609382 -0.058756653 -0.1383399
0003b0 97 5b 44 3e e6 f8 27 bd d0 3e 61 be 2e 6f 15 be
       0.19175564 -0.041008852 -0.21996617 -0.14593193
0003c0 dd 4b 4e bc d8 2e b6 3d 92 73 b5 3d b6 6a 2d 3e
       -0.012591329 0.088956535 0.08859934 0.16935238
0003d0 8c fc 23 be c2 52 23 3e f8 4d a8 3d 82 36 7e 3d
       -0.16014308 0.15949538 0.08217996 0.0620637
0003e0 44 c3 f0 bd bc 0e a7 3d db 2f 80 bd 88 90 74 be
       -0.11755994 0.08157107 -0.06259128 -0.2388326
0003f0 93 0e 1b 3e ab 3f 09 3e 8a 84 aa 3d 88 bf 7a be
       0.15142278 0.13403194 0.08326061 -0.24487126

convs.2.bias f4 [48]
000000 6f 24 ea 3d ab cb bd 3c a3 c7 1c 3e 5c 17 f9 bd
       0.114327304 0.023168406 0.1531053 -0.121626586
000010 ad 93 ad 3d b7 1f 3c bc d2 43 09 3e 98 7d 4b 3d
       0.084754325 -0.011482171 0.13404778 0.049680322
000020 8d 44 72 3d 42 77 b4 bc 5e 0b c7 3d 33 d4 b0 3d
       0.059147406 -0.022029523 0.09718965 0.08634224
000030 29 9d 56 3b 27 0a e6 3c 06 db 52 3d c7 5b 27 3e
       0.0032747483 0.028081013 0.05147841 0.16343604
000040 a0 71 c2 3b ac 58 4e 3d 97 45 f3 bd 97 2d 0c bd
       0.0059339553 0.050377533 -0.118785076 -0.034223165
000050 e9 f5 00 bd 17 bc c7 bd 8e 7e 3a bd 64 8d ec 3c
       -0.03148452 -0.09752672 -0.04553085 0.028876014
000060 bb 18 13 bd 5f 11 c1 3c 84 e7 cd bd 6b b2 c3 3d
       -0.035912257 0.023567853 -0.10053924 0.09555515
000070 31 38 c7 3c 6e d9 ad 3c 19 79 10 3e 0f 6b 73 bb
       0.024318786 0.021221843 0.14108695 -0.003714267
000080 28 1b b2 3d d1 f3 57 3c 4f be 9a 3d 91 f6 9c 3d
       0.08696586 0.013180689 0.0755583 0.07664216
000090 48 df eb 3a 8d 55 1f bc 14 57 c8 bd c0 b3 fe 3c
       0.001799562 -0.009724987 -0.09782234 0.03109157
0000a0 27 cf c0 3d 61 a9 0d 3e 64 68 2e 3d 29 79 96 3d
       0.09414511 0.13834144 0.042580023 0.07347328
0000b0 00 3b 20 be 2a 88 47 be c1 e8 8d 3d 12 70 6c ba
       -0.15647507 -0.19485536 0.0692916 -0.00090193853

convs.2.lin.weight f4 [48, 48]
000000 1d 48 e2 bd de 47 77 bd f0 fa 1b be 10 84 57 3e
       -0.11048911 -0.060371272 -0.15232444 0.21046472
000010 29 40 d8 bb 02 0f 4c be 98 6b d2 bd 3a 4e ba 3c
       -0.0065994454 -0.199276 -0.10274428 0.02274238
000020 6e 63 e9 bd c0 72 ab bd d6 f2 66 3e 2d 93 fa ba
       -0.11395918 -0.08371496 0.22553572 -0.0019117348
000030 50 f1 05 3e 1f f1 8e 3d af 1e 05 be 35 7f ec bc
       0.13080335 0.06979584 -0.12999986 -0.02886925
000040 46 f3 1a be 9a 4b a5 bd 9b 84 49 3e 4f ad c6 bd
       -0.15131864 -0.080710605 0.19679491 -0.09701025
000050 85 52 3e be 21 2d bd 3c 9e 88 e1 bb a1 1c 38 3e
       -0.18586166 0.023092808 -0.006882741 0.17979671
000060 5f e0 f8 bd 6a 11 4e 3b 52 1d d4 bd 89 9a 00 3e
       -0.121521704 0.0031443485 -0.10357155 0.1255895
000070 e6 f7 3a 3e 51 ce 11 3e 56 6c ae bd da 50 4a 3e
       0.18258628 0.1423886 -0.08516757 0.19757405
000080 9f 98 2b 3e 55 7c ef bc 30 8e 7b 3c fc 81 d3 3c
       0.16757439 -0.02923409 0.015353724 0.025818817
000090 0c a5 c1 3d 8e e0 53 3e 75 61 15 3e f8 82 12 3c
       0.09455308 0.2069113 0.14587958 0.008942358
0000a0 60 bb b8 bc 1f 5b e6 3d 5d d5 67 3e a7 80 80 3e
       -0.022550285 0.11247849 0.22639985 0.25098154
0000b0 54 77 86 3d 63 e7 fa 3c dc d9 73 3e be 6c 13 be
       0.06565729 0.030627912 0.23813576 -0.1439695
0000c0 6c 86 06 be e5 95 9b bc 4b 1f 4a be 2d e6 c0 bd
       -0.13137215 -0.018992374 -0.197385 -0.094189025
0000d0 19 b9 53 3e a4 ad 32 3e cc 65 af bb d1 c2 52 3e
       0.20676078 0.17449051 -0.0053527113 0.20582129
0000e0 f4 58 a4 3d 28 1b e1 3c 5b ec c2 bd ac 80 a2 bd
       0.08024779 0.02747877 -0.095177375 -0.079346985
0000f0 91 73 1b 3b 27 fd f5 3d 2b 52 a6 bd 7a ae 3c 3e
       0.0023720006 0.120111756 -0.08121141 0.18425933
000100 eb 44 01 3d 1c 99 eb 3d 73 2a d5 3b 2e 20 ad bc
       0.031559866 0.11503813 0.0065053045 -0.021133509
000110 82 04 c7 bd 5d 45 30 3d b0 45 6c 3e c3 2e 14 3b
       -0.09717657 0.0430349 0.23073459 0.002261088
000120 57 dd 4c 3d 30 07 14 be 0f b6 a6 bc 48 60 70 bd
       0.050015774 -0.14455867 -0.020350484 -0.05868557
000130 98 e3 13 3e 83 8f 45 be c1 0a 12 be 6a 50 9b bd
       0.14442289 -0.19293027 -0.14261915 -0.07583697
000140 7c 6b 51 3c 5b 7f db bc 92 19 ec 3d a5 57 42 bd
       0.012781974 -0.026794126 0.11528315 -0.047446866
000150 e5 f2 55 3e 9a 0b 9d bd 72 f1 0e 3e 8b d8 3a bd
       0.20893438 -0.076682284 0.13959292 -0.045616668
000160 dd ad d6 bd 98 c2 12 3e 90 69 5a 3d 48 fb 15 3d
       -0.104823805 0.14332044 0.05332333 0.036616594
000170 61 2a 4d bd 82 c6 29 be 34 83 87 bd 2d 64 2f be
       -0.050089244 -0.16579631 -0.06616822 -0.17128058
000180 65 bb 9c bd 5e c8 15 be 74 59 e5 3a 35 6b 25 be
       -0.0765293 -0.14627215 0.0017497973 -0.16154177
000190 a2 36 37 be 92 a4 1a 3e 1b 03 65 bd 3b bc 5c 3e
       -0.17891935 0.15101841 -0.055911165 0.21556179
0001a0 39 0b a0 bc 16 20 08 3e 22 ca 1a 3d 6d 89 2c be
       -0.019536601 0.1329349 0.037790425 -0.16849299
0001b0 83 e8 50 3e 08 34 66 bd 8e e1 07 bd 61 60 ae 3d
       0.20401196 -0.056201965 -0.03317409 0.085144766
0001c0 e5 d0 45 bd a6 8d 13 3d 69 89 5f bd 4b 2a 11 be
       -0.04829492 0.03602376 -0.054574404 -0.1417629
0001d0 7d 37 e7 bd 64 2e 61 3e c5 93 b4 3d 7d 02 5c 3e
       -0.112898804 0.21990353 0.08817247 0.21485324
0001e0 e3 6b ae bd 33 62 66 bd 8b f6 6f 3e f9 d9 1e bd
       -0.085166715 -0.056245994 0.23433892 -0.038782094
0001f0 bc 31 bf 3d 62 e0 2c 3e e5 4d 03 be 0b 2a 07 be
       0.09335658 0.1688247 -0.12822683 -0.13199632
000200 5d ca 23 3e d6 ab 63 3d 61 37 6a be 2d 0f 7c 3e
       0.15995164 0.055583797 -0.22872688 0.24615164
000210 c3 21 d4 bd 66 b3 86 3e 23 ec 4d be 63 48 1e 3e
       -0.10358002 0.26308745 -0.2010961 0.15457301
000220 4d 7a 1f 3e e5 d3 00 be 6a ab 5b 3d f2 6a aa bd
       0.15573998 -0.12580831 0.05363027 -0.083211794
000230 e0 bf 7f bc 6a 85 3f 3e ba f2 4c bc 28 08 79 3e
       -0.015609711 0.18703237 -0.012509042 0.24319518
000240 ca ba e1 3a a4 95 3d 3e fb db a3 bd cb 8d 48 3e
       0.0017221805 0.18514115 -0.08000942 0.1958534
000250 e3 e2 13 3e f1 e4 23 3e 6f 2f c4 bd 34 81 3d bd
       0.14442019 0.16005303 -0.0957936 -0.046265796
000260 70 5f 1c 3d 20 6f a8 bd 9f c5 e1 3d b3 c0 1f be
       0.038176954 -0.082243204 0.11024021 -0.15600853
000270 ee b9 22 be 62 29 89 3d ef 89 f3 3d 6e 5f 44 be
       -0.15891239 0.06697346 0.11891543 -0.19177029
000280 4e 92 2d 3e 56 88 cb 3d b6 4d 16 3c ec bb d4 3c
       0.16950342 0.099381134 0.009173801 0.025968514
000290 12 79 7f be 1d 44 b1 bd 7a 4d 26 bc 99 35 50 3b
       -0.24948528 -0.0865557 -0.010150308 0.0031770228
0002a0 d6 a3 a3 bc 7c e5 6c bd 5b 50 73 be 1a f7 f1 bd
       -0.019975584 -0.05783604 -0.23761122 -0.11814709
0002b0 82 34 5f be 35 69 2e be f6 ee d7 bd f6 a1 46 3e
       -0.21797374 -0.17032321 -0.10543625 0.1939772
0002c0 04 48 bb 3d 24 36 85 3d 1f a2 8f bd fc 1f a9 3d
       0.09144595 0.06504467 -0.07013344 0.08258054
0002d0 52 ea 34 bd 7e cf 22 3e de 81 84 bd d8 fd 75 bd
       -0.044168778 0.15899464 -0.06470083 -0.060056537
0002e0 03 40 b4 3d f7 09 26 be 4d 88 44 bd 9e 39 3e bd
       0.08801272 -0.16214739 -0.04798155 -0.046441667
0002f0 fa 95 80 bd db b5 e1 3c 8c 15 21 bd 28 8c 50 3d
       -0.06278606 0.027552536 -0.03932719 0.050914913
000300 1a 8c 10 3e d3 87 1b 3e 12 d5 74 3e 7e 7f c2 3c
       0.14115945 0.15188532 0.23909405 0.023742434
000310 23 b1 db bd 92 4e f5 3c ef 96 54 3d db 84 2a be
       -0.107271455 0.029944692 0.051901754 -0.16652243
000320 22 b8 34 be a8 79 2c be 62 3f 1e 3e cd 06 34 3e
       -0.17648366 -0.16843283 0.15453866 0.1758072
000330 23 cb fe bc ab a0 17 3d 80 b0 ad 3d f5 bc 72 bd
       -0.031102723 0.03701846 0.0848093 -0.059262235
000340 4f 16 5f 3d fb 6e 97 bd 66 48 60 bc 77 f0 04 be
       0.054464635 -0.07394215 -0.013689136 -0.12982355
000350 55 6b 6b 3e f6 1c fd bd fc 86 64 3d d3 11 26 3e
       0.22990163 -0.123590395 0.055792794 0.16217737
000360 54 03 8a 3d 4b 7a 25 3e f0 b2 25 3e f5 17 7e 3d
       0.06738916 0.16159932 0.1618154 0.062034566
000370 19 52 05 be 08 e5 ca 3d a1 bc b5 3d 06 16 d3 3d
       -0.13019599 0.099069655 0.08873869 0.10306935
000380 8d ad c7 3d aa 9c d4 3d 6f 5d 47 be da 15 3e 3e
       0.09749899 0.10381444 -0.19469236 0.18563023
000390 94 2a 23 be 5d e8 0c 3e 49 b6 09 3d 2c 44 3e 3e
       -0.15934211 0.13760515 0.033621106 0.18580693
0003a0 3b 40 ff bd 60 33 2c be 41 53 30 be 61 25 38 bd
       -0.12463423 -0.16816473 -0.17219259 -0.044957522
0003b0 f3 9f e7 3c af cc cf 3c 7c 2b 14 be cd bf 43 3d
       0.028274512 0.025366155 -0.14469713 0.047790337
0003c0 79 e2 37 be bb 6e aa 3d 38 e0 50 3e eb 7b 8b 3d
       -0.17957486 0.083219014 0.20398033 0.06810745
0003d0 9a d3 2e 3d b9 96 92 bd 6b 9f cc 3d 25 60 11 3b
       0.042682268 -0.07157654 0.09991344 0.002218255
0003e0 bb a8 a4 bd bf af 61 3b 75 23 51 bc 6b 43 db bb
       -0.08039995 0.0034437028 -0.012764801 -0.0066913865
0003f0 cc 3d e6 3d e6 56 f4 ba 01 be 2f 3e fd 1d 06 3e
       0.112422556 -0.001864162 0.17162324 0.13097377

input_normalizer.weight f4 [113]
000000 d3 34 7d 3f 00 10 6e 3f 87 90 7c 3f 2f 03 6d 3f
       0.9890873 0.92993164 0.9865803 0.9258298
000010 dc b1 71 3f c7 34 6a 3f 3d e7 72 3f 8b 37 74 3f
       0.94412017 0.9148678 0.9488409 0.9539725
000020 55 28 78 3f b6 49 6d 3f 70 48 7d 3f c9 d5 6b 3f
       0.9693654 0.926906 0.98938656 0.92123085
000030 05 18 66 3f 9b b4 72 3f a4 5d 65 3f 7d 38 77 3f
       0.898804 0.9480683 0.8959601 0.9657057
000040 cb 85 82 3f 5a 9d 7b 3f 47 68 6e 3f 11 77 6a 3f
       1.019708 0.98286974 0.93127865 0.9158793
000050 b6 72 74 3f 57 bc 74 3f f8 6d 6d 3f 9d 10 72 3f
       0.95487535 0.95599884 0.92745924 0.945566
000060 6d aa 73 3f 51 2e 6d 3f 23 6b 78 3f 91 2d 74 3f
       0.95181924 0.926488 0.9703848 0.9538203
000070 91 6b 7b 3f 84 ac 6b 3f 7c de 80 3f f7 d9 71 3f
       0.9821101 0.9206011 1.0067897 0.9447321
000080 ca 07 84 3f d7 c2 76 3f e9 d1 75 3f e4 ec 6f 3f
       1.0314877 0.9639105 0.9602342 0.9372084
000090 12 d1 7c 3f c9 d6 7d 3f 21 b3 75 3f 2d 1f 6d 3f
       0.98756516 0.9915586 0.95976454 0.92625695
0000a0 ea 5f 87 3f 10 6c 6c 3f 14 07 86 3f 5c aa 77 3f
       1.0576146 0.9235239 1.047091 0.9674432
0000b0 f8 7f 83 3f 48 35 7a 3f 6b 77 71 3f 1f 29 72 3f
       1.0273428 0.9773755 0.9432284 0.94593996
0000c0 51 0d 65 3f 53 1e 5a 3f ee da 5f 3f 4d b5 5e 3f
       0.89473444 0.8520252 0.87443435 0.86995393
0000d0 37 48 5c 3f 22 78 5c 3f ce 8b 5f 3f ae ba 5b 3f
       0.8604769 0.8612081 0.873227 0.85831726
0000e0 a4 2f 5b 3f c2 89 60 3f 0f 64 5d 3f d7 f8 5f 3f
       0.8561957 0.877102 0.864808 0.87489074
0000f0 71 e4 5d 3f a5 da 5a 3f ea 74 5a 3f 4c f7 5c 3f
       0.866767 0.85489875 0.85334647 0.86314845
000100 51 2b 5b 3f 4d 86 5a 3f 1e 94 5a 3f 0e 2b 5d 3f
       0.8561297 0.85361177 0.8538226 0.8639382
000110 48 10 5c 3f c6 40 5e 3f 65 94 5d 3f 05 18 5a 3f
       0.85962343 0.86817586 0.8655456 0.851929
000120 24 bd 5e 3f e1 06 60 3f 87 b7 62 3f 31 18 5b 3f
       0.87007356 0.87510496 0.8856129 0.8558379
000130 6f 6a 58 3f b8 95 5d 3f 22 98 5a 3f 08 90 5e 3f
       0.84537405 0.8655658 0.85388386 0.86938524
000140 fc 63 5c 3f 6c 1b 5f 3f 0f 82 60 3f a9 d9 5f 3f
       0.86090064 0.8715122 0.87698454 0.874415
000150 92 98 5a 3f 58 00 5f 3f 37 29 5c 3f 85 78 5d 3f
       0.85389054 0.871099 0.8600039 0.86512023
000160 43 60 5d 3f ab 88 5d 3f 29 59 5c 3f 1c 7d 5a 3f
       0.8647501 0.86536664 0.8607355 0.8534715
000170 25 75 60 3f 54 ba 5a 3f 2c 17 5b 3f 68 a1 59 3f
       0.8767875 0.85440564 0.8558223 0.8501191
000180 56 5f 5d 3f 02 f1 5b 3f 95 1e 5d 3f b0 8c 5c 3f
       0.86473596 0.85914624 0.8637479 0.8615217
000190 2d 4e 5e 3f ec b9 5e 3f 3f 22 60 3f 17 09 5f 3f
       0.86838037 0.87002444 0.87552255 0.87123245
0001a0 e9 cb 5d 3f c4 25 5c 3f 99 98 5e 3f 0f ee 5e 3f
       0.8663927 0.85995126 0.86951596 0.87082
0001b0 ad 47 5d 3f b5 34 5b 3f 23 91 5c 3f fd 0a 5a 3f
       0.86437494 0.856273 0.8615896 0.85173017
0001c0 aa d8 5d 3f
       0.8665873

input_normalizer.bias f4 [113]
000000 5c 2f 82 3c 5b 1f 12 3d 93 0a 30 3d 9c 86 b3 bc
       0.015891723 0.035674434 0.042978834 -0.021914773
000010 0c cc c0 3c 9e 39 61 bb 6e ee 2c 3d a0 9a 51 bd
       0.023534797 -0.0034366618 0.04221957 -0.051172853
000020 c8 a8 36 bd 9c 66 96 3c 7f 7c aa bc ed 68 d2 3c
       -0.044594556 0.018359475 -0.020811317 0.025684798
000030 ae 85 00 3c f0 1c 94 bc 9d ab 5a bc c5 e4 bc bb
       0.007844372 -0.018080205 -0.01334658 -0.005764576
000040 49 27 a8 bc 16 61 fc 3c 90 8a 8a bc 57 9a 9b bc
       -0.020526545 0.030808013 -0.016911775 -0.018994493
000050 bc b4 d2 bc aa c5 4c bd 04 2d f7 bc 60 55 2b 3a
       -0.025720946 -0.049993195 -0.030172832 0.0006535854
000060 96 a2 21 3d 9e ec e7 3c 99 02 e5 bc 78 82 e5 3c
       0.039461695 0.02831107 -0.02795534 0.028016314
000070 b7 c6 8f 3c 2a 11 5f bc d0 b3 12 ba d3 f6 6b 3d
       0.01755081 -0.013614932 -0.0005596252 0.057608437
000080 21 3a 3b bc 93 83 b0 3c 2d 7a 00 bd c2 98 73 3d
       -0.011427433 0.021547114 -0.031366516 0.059471853
000090 db be 10 bc b2 dc 34 bb f0 f9 0f 3c 7a 84 d3 bb
       -0.008834566 -0.0027597365 0.008787617 -0.0064550014
0000a0 bd 01 b8 3c 51 6d 85 3d b9 9a b9 3c de f2 2b 3d
       0.022461766 0.06514991 0.022656785 0.041979663
0000b0 0e 79 82 bc e4 be 47 bd 11 9e 02 3c 7d db 1b bd
       -0.015926864 -0.04876603 0.007972256 -0.038051117
0000c0 9a fd 4e 3c 63 ad ee 3c 30 d6 ad bc 3e eb 8e 3d
       0.0126337055 0.029135412 -0.021220297 0.06978463
0000d0 8c 07 01 bb c7 38 a8 ba ad 78 79 bd 00 0a 8a b9
       -0.0019688336 -0.0012834304 -0.0609061 -0.00026328862
0000e0 d7 bb 4f 3c ac 83 3d 3d 86 68 ba 3b 20 14 30 3c
       0.012679062 0.04626815 0.0056887297 0.010746986
0000f0 d8 63 d8 3c 08 d3 49 bd f3 55 aa 3c 21 13 80 bc
       0.026414797 -0.04927352 0.020792937 -0.015634121
000100 0f 55 c9 3a 4c 72 63 bc e3 ba 2b 3d 96 7a e4 3c
       0.0015360432 -0.013882231 0.041926276 0.027890485
000110 e4 9d e9 3c 74 54 33 3b 89 9f ac 3c 8f c3 06 bd
       0.02851767 0.002736357 0.021072166 -0.032901343
000120 75 66 07 bd 99 6b 8c bc 49 a4 bf bb 4d e0 3a 3c
       -0.033056695 -0.01714115 -0.0058484417 0.011406017
000130 34 6c 27 3d 05 c7 2f 3b 06 ae bc bc 79 c9 31 3d
       0.040874675 0.0026821506 -0.0230322 0.04340503
000140 fc fd 50 3d f9 f2 22 3d 5a 40 5a 3d 5c 6f 32 3d
       0.05102347 0.039782498 0.053284027 0.04356323
000150 64 8a 23 bd fb 1b 4b bc c1 6d 5a 3c 6c 40 ea 3c
       -0.0399269 -0.012396808 0.013331831 0.028595172
000160 f9 98 16 3d 4c 39 91 3c 9a b5 29 bd b8 6a 55 bc
       0.03676698 0.017727517 -0.041432954 -0.013025932
000170 3a f2 7d bd 09 92 e1 3c 52 ef 8d 3d 59 ba 30 bc
       -0.061998583 0.027535455 0.06930412 -0.010786616
000180 87 4b 11 3a c1 14 79 3d ad 5f 2e 3d 95 75 25 3d
       0.00055425655 0.060810808 0.042571712 0.040395338
000190 0c dc 31 bd 84 68 8b bd f4 4f cc bc 95 50 14 3d
       -0.043422744 -0.06807044 -0.024940468 0.03620966
0001a0 db 3a 0a 3c 27 b6 9f 3b c2 70 2c 3d 52 e8 1a 3d
       0.008436884 0.004874009 0.04209972 0.037819214
0001b0 e7 c1 20 3c 70 a2 f8 3b f1 ef 6f bb 17 c8 89 bc
       0.009811855 0.0075877234 -0.0036611522 -0.016819043
0001c0 8d fa 74 3d
       0.059809256

input_normalizer.running_mean f4 [113]
000000 9a e6 27 bf 87 9e 1e 3e e6 40 a5 be d0 ce 85 3f
       -0.65586245 0.15490161 -0.32276076 1.0453739
000010 be c5 07 3e e4 c3 1a be 2c 17 30 bf b3 a4 32 3e
       0.13259026 -0.15113789 -0.6878536 0.1744564
000020 9d 6e b9 3e 86 ec d9 3e f1 ea 29 be 2f 3d f6 3e
       0.36217204 0.42563266 -0.1659353 0.48093554
000030 1f aa bc be f5 ab 72 be 5b 2d b3 3e db 7c 8d bf
       -0.36848542 -0.23698409 0.3499554 -1.1053728
000040 7d 1d 76 be fc 04 79 3e 2d 88 37 bf 1f 61 6d 3f
       -0.24034686 0.24318308 -0.7169216 0.9272632
000050 4c 3c 4f 3f 72 5e 82 bd 7e 9c 8f be cb a8 cb 3e
       0.8095138 -0.0636567 -0.28049082 0.39777216
000060 96 9c 24 bf 36 6a 35 3f 81 06 63 be c9 d4 ab 3e
       -0.6430143 0.7086519 -0.2217045 0.3356078
000070 80 d3 fa bd 75 c9 3e bf cf 98 83 be 14 fd 03 3f
       -0.12247372 -0.7452615 -0.2570252 0.5155804
000080 f2 49 a6 be ad 92 a1 be 35 aa 16 3d 42 05 7f 3e
       -0.3247829 -0.31557217 0.036783416 0.2490435
000090 a5 4c b4 3e eb 55 15 3e 9a c1 66 3f b7 b5 9a be
       0.35214725 0.14583556 0.9013916 -0.30216762
0000a0 6c af 8e 3e 3b 8f ee 3d 20 8b c4 3e 4b ec 1d 3e
       0.2786821 0.11648413 0.38387394 0.1542217
0000b0 76 a9 73 bf 7d 86 cf 3a 13 b7 4e 3e 9f bd e0 3e
       -0.9518045 0.0015832927 0.20187025 0.4389467
0000c0 64 61 28 43 fb dc 2f bb cf 20 9a bb a8 69 02 3b
       168.38043 -0.0026834595 -0.004703618 0.0019899402
0000d0 72 74 54 3b 61 3e 42 bc 40 6d cc 3b 87 08 7b 3b
       0.003241804 -0.011855693 0.0062386096 0.0038304643
0000e0 19 86 1d ba f7 11 5f 3a 6f c0 ea bb 7f 89 da bb
       -0.0006009057 0.0008509452 -0.007164053 -0.006669223
0000f0 e6 a9 54 b9 a5 ba 0e 3c 64 45 c6 b8 85 d5 46 3a
       -0.00020281188 0.008711492 -9.454301e-05 0.00075849175
000100 cd c0 62 bb 1f 77 0c bb cd 13 34 3b ab a8 0d 3a
       -0.0034599782 -0.0021433306 0.0027477622 0.00054038566
000110 8f 29 da 3b 83 63 08 bc ca 83 e1 3b 46 79 94 3a
       0.006657786 -0.008324507 0.0068821656 0.0011327646
000120 29 be ce 3b f4 8a 3a ba 58 cb f2 bb 2c 13 6a 3b
       0.00630929 -0.00071160425 -0.0074094944 0.0035716994
000130 b8 7f 01 3b f3 a0 08 bc 86 c2 a4 3a 62 8a 98 3b
       0.0019759964 -0.0083391545 0.001257018 0.0046551684
000140 55 ba c7 3b 65 cc 14 bb 0b 06 b9 3b ad 07 fd bb
       0.0060952106 -0.0022704836 0.0056464723 -0.0077218623
000150 61 a7 ba bb b9 ff dc 3b 0d d3 b5 bb 46 82 76 3b
       -0.0056962227 0.0067443517 -0.005548841 0.003761427
000160 fc 6a 2a 3b 80 84 3e 3b 1f f3 f3 3a 06 1a 15 bb
       0.002600371 0.0029070675 0.0018611884 -0.0022751107
000170 bb 8e 6f 3b cd 23 22 ba b2 88 d2 bb 46 f7 c9 ba
       0.003655358 -0.00061851443 -0.0064249868 -0.0015408776
000180 47 0c de ba 61 1a 20 3c 9b 32 81 3b 7a ba 42 bb
       -0.0016940915 0.009771914 0.0039428 -0.00297132
000190 16 75 9d bb 91 0b f5 b9 71 12 82 ba c0 c1 48 3c
       -0.0048052175 -0.0004673866 -0.0009923709 0.012253225
0001a0 66 5b cb 3a b2 e6 c3 b7 2d c3 fd 3b 20 e1 73 bb
       0.001551491 -2.3353237e-05 0.007744214 -0.0037213042
0001b0 91 e7 69 3b 12 65 4d 3a 94 72 c5 3b 97 a7 53 3a
       0.0035691003 0.000783519 0.0060256217 0.0008073984
0001c0 80 6d 20 bc
       -0.009791732

input_normalizer.running_var f4 [113]
000000 dc 8c fc 3f 25 56 0c 3e cf 8d ea 3e 06 de f7 3e
       1.9730487 0.13704737 0.45811316 0.48411578
000010 1c c9 d6 3e 6d 65 9a 3f 5f c5 b1 3f af 10 48 3f
       0.4195031 1.2062203 1.3888358 0.7815046
000020 eb 08 65 3f 67 e2 72 3e c6 8b 99 3e 18 c8 8a 3f
       0.8946673 0.23719178 0.2998945 1.0842314
000030 a7 59 b9 3e d0 d7 20 3f e2 9f ea 3e 08 40 97 3f
       0.36201212 0.62829304 0.45825106 1.1816416
000040 a7 57 8f 3f 27 76 63 3f e7 42 5e 3f d1 52 54 3f
       1.1198624 0.8885216 0.86820835 0.8293887
000050 5d bf a4 3e 3b 88 41 3f e6 10 62 3e 62 8e e9 3e
       0.3217725 0.75598496 0.22076759 0.45616442
000060 b7 de ad 3e 2a d7 5c 3f f3 eb 9e 3e 99 7c 62 3e
       0.3395898 0.86265814 0.3103939 0.22117843
000070 fb 46 0b 40 b5 53 4d 3f 08 0f d5 3e 87 ab 20 3f
       2.1762073 0.8020585 0.4161303 0.6276173
000080 32 87 d7 3e 4d f9 bd 3e 07 f5 08 3e 4f 8a b7 3e
       0.42095333 0.37104264 0.1337472 0.3584771
000090 d7 cf d0 3e bd 19 3d 3f 8c 15 2c 3f 1a 17 98 3e
       0.4078357 0.738674 0.6722038 0.29705125
0000a0 1c 0c e0 3e 90 ca f9 3e 3a c3 2b 3e 5c a4 12 3f
       0.4375924 0.48787355 0.16773692 0.5728204
0000b0 e7 a1 03 3f e3 e5 d6 3e 68 62 9d 3e 30 54 f0 3e
       0.5141892 0.41972265 0.3073914 0.4693923
0000c0 75 4e 22 45 1f 12 ff 3e d1 27 ff 3e 08 cd fe 3e
       2596.9036 0.49818513 0.49835065 0.497658
0000d0 55 3c 00 3f a0 7e ff 3e 95 99 00 3f 1b 57 ff 3e
       0.5009206 0.49901295 0.5023435 0.49871144
0000e0 45 ca ff 3e 1c 49 00 3f ea 3c 00 3f 4d 0b ff 3e
       0.49959007 0.50111556 0.5009295 0.4981331
0000f0 b5 4a ff 3e 2d 03 00 3f 2e ec 00 3f b5 66 00 3f
       0.49861684 0.50004846 0.5036038 0.5015672
000100 12 c5 ff 3e 38 53 00 3f ab fc 00 3f da 2a 01 3f
       0.4995504 0.5012698 0.5038554 0.5045601
000110 50 ff ff 3e fa 4e 00 3f e3 db ff 3e c0 b5 ff 3e
       0.49999475 0.5012051 0.49972448 0.49943352
000120 e1 64 00 3f 75 04 fe 3e 32 14 00 3f 10 b8 fe 3e
       0.5015393 0.49612775 0.50030816 0.49749804
000130 81 b9 ff 3e 6d 87 ff 3e f0 f6 ff 3e 58 93 00 3f
       0.49946216 0.4990801 0.49993086 0.5022483
000140 21 78 ff 3e 31 42 00 3f 44 08 01 3f 6c 9d 01 3f
       0.4989634 0.50101 0.5040324 0.5063083
000150 47 59 fd 3e c3 4c 00 3f e4 53 00 3f 49 26 ff 3e
       0.49482176 0.5011713 0.50128007 0.49833897
000160 c3 9e fd 3e a8 2c ff 3e 8a e9 ff 3e fd a1 00 3f
       0.49535188 0.49838758 0.49982864 0.50247175
000170 3d 5c ff 3e 26 db 00 3f 8b 15 ff 3e f8 b2 ff 3e
       0.4987506 0.50334394 0.49821123 0.4994123
000180 81 15 00 3f 60 5f 00 3f f7 0a 00 3f 3a cb fd 3e
       0.5003281 0.5014553 0.5001673 0.49569112
000190 b7 4f 00 3f e3 0d 00 3f c7 00 fd 3e f8 e1 ff 3e
       0.50121635 0.5002119 0.49414656 0.49977088
0001a0 1e ca 00 3f 76 80 00 3f 6e 9f ff 3e e2 02 01 3f
       0.50308406 0.50196016 0.49926323 0.50395024
0001b0 c5 36 00 3f 30 0b 00 3f a9 47 ff 3e 9d 27 00 3f
       0.5008357 0.5001707 0.4985936 0.50060445
0001c0 6a d6 00 3f
       0.5032717
