best_model.pth (torch, 529317 bytes, 158 tensors)

z_embedding.weight f4 [1000, 32]
-1.279107 -2.8321373 1.8824768 -0.88501006 -0.93545336 0.054112 -0.7341671 -0.6924892
0.0970719 -0.2149302 -1.4544711 -0.2963045 0.30523744 0.042529583 0.9996638 0.15239641
2.1668396 -0.6526496 0.31482816 0.663189 -0.46252808 -1.3612496 -0.5449722 -0.39235923
-0.41753447 1.4207045 0.27284124 1.5729032 0.8852438 -0.9587251 -0.67103815 0.59104127
0.24820118 0.7374402 1.3671132 0.39093482 -0.54278505 -0.30397904 0.29396668 -1.6242042
1.2524948 -0.88389456 -0.2513051 0.4948333 -0.33342642 -1.1885531 0.08299177 -0.27526563
-0.7127941 -0.8252069 -0.39079392 1.1788609 -0.45293447 -0.05305171 0.45086992 1.7393115
1.0879242 0.8763228 -0.4796803 -0.18959394 -1.241098 -0.46490338 0.22729751 -1.3321012
0.67349744 -0.28388342 0.77837336 -0.19048797 2.154103 -0.62699425 0.7791891 0.09208472
0.86004335 0.98047435 -0.6040918 -0.18962997 -0.66556716 -0.07253999 0.4046845 0.6221831
2.2198777 0.29621798 1.4645358 -0.41398245 -0.10632147 -0.24080327 -0.20285504 -0.40916923
0.51592493 1.5080566 -1.5790124 0.35858464 -0.8505659 0.5991222 -0.31386277 0.5574822
0.23419502 0.74091214 -1.1651694 -0.9733805 -0.81343913 1.0813967 0.7361109 -0.46775845
0.5137707 -0.07507952 -0.054954886 1.2030537 -0.769677 -0.78656864 0.03207824 -0.014246696
-0.7421235 0.10634842 0.7272928 -0.5342098 0.85166556 -0.6252564 0.15649365 0.72461915
-0.67958206 -1.3941236 0.19887139 0.6525393 -0.472626 0.107090525 0.7511168 0.4993703
1.3155367 -0.2027082 1.5443577 -0.99523884 0.101182856 0.21955745 -0.56183237 0.6689219
-0.19153073 1.2194039 0.20566827 0.13551728 0.7178068 -0.241425 0.51910514 0.8657868
-1.1125402 -1.9044268 -0.66497344 1.9115776 -0.5598253 0.3242894 -1.0451461 -0.8755105
1.171877 0.4878747 -0.18240204 -0.35041273 -0.14946444 -0.75074023 -0.9321827 -0.63764775
-0.5314108 0.2766762 0.6485515 0.8672607 1.3532673 -0.61890787 -0.6310081 0.58112854
0.3854806 -0.7129194 0.23896736 -1.7639135 -0.31639683 -0.15496826 -0.031808056 -0.7904998
1.3587291 0.5223912 -1.0074172 0.317296 -0.32771283 0.5750836 1.2757055 -0.73960584
-0.41664273 1.1132032 0.24218707 -0.28451875 0.46630087 -1.3668783 -0.34949312 -0.8344388
0.7273162 0.014449321 1.8711109 1.2481519 -1.12823 -1.1661316 -0.24191456 0.28909802
1.0327209 -1.3759441 0.22147797 0.5675281 0.5512105 0.986937 1.0489087 1.1577034
-1.4036947 0.9626363 -0.060176454 -0.64545256 -0.63155913 1.2134188 -0.5601062 0.48404464
2.781579 0.3807395 -0.55196875 0.75289315 -0.72474414 0.36935437 0.95534205 -0.29254547
-1.1565819 -0.40660557 0.94195557 1.7152734 0.17210558 1.1858689 0.397798 2.1074548
-0.66601557 -0.8252431 -0.28887457 0.040408205 -0.6278181 0.78986216 1.1417936 -0.0001273634
-0.6554746 -0.3219588 1.5544457 -0.1123089 -0.17016162 -0.16526397 -0.59441876 -0.21827707
-0.6624208 -0.49440026 -0.59615624 -0.5249633 1.3099597 -0.44722515 -0.53422785 0.12395573
00000000: c7b9 a3bf bd41 35c0 00f5 f03f 0590 62bf
00000010: df79 6fbf 8ba4 5d3d 60f2 3bbf f946 31bf
00000020: a2cd c63d aa16 5cbe 1c2c babf 39b5 97be
00000030: 1548 9c3e 8033 2e3d f7e9 7f3f ce0d 1c3e
00000040: 80ad 0a40 0b14 27bf 2831 a13e c1c6 293f
00000050: 7bd0 ecbe 6d3d aebf 4c83 0bbf 4fe3 c8be
00000060: 14c7 d5be a5d9 b53f d9b1 8b3e e454 c93f
00000070: 569f 623f 026f 75bf 28c9 2bbf 7b4e 173f
00000080: 7328 7e3e e2c8 3c3f 91fd ae3f 9c28 c83e
00000090: f6f3 0abf 24a3 9bbe cd82 963e ece5 cfbf
000000a0: c051 a03f ea46 62bf 10ab 80be ca5a fd3e
000000b0: deb6 aabe 8222 98bf 97f7 a93d 9eef 8cbe
000000c0: ad79 36bf c240 53bf 2416 c8be eae4 963f
000000d0: 07e7 e7be c04c 59bd 6cd8 e63e c2a1 de3f
000000e0: 1a41 8b3f b156 603f a898 f5be ea24 42be
000000f0: 4ddc 9ebf d107 eebe aec0 683e 4b82 aabf
00000100: 546a 2c3f 2b59 91be 7a43 473f 470f 43be
00000110: d3dc 0940 b282 20bf f078 473f ea96 bc3d
00000120: cd2b 5c3f 5e00 7b3f c3a5 1abf 5c2e 42be
00000130: 9c62 2abf d98f 94bd cf32 cf3e 6447 1f3f
00000140: 7a12 0e40 e2a9 973e e975 bb3f 82f5 d3be
00000150: 12bf d9bd 2295 76be 3bb9 4fbe a17e d1be
00000160: a813 043f 0008 c13f 141d cabf 6898 b73e
00000170: b0be 59bf 1360 193f 9fb2 a0be 27b7 0e3f
00000180: d2d0 6f3e 6bac 3d3f 4524 95bf 772f 79bf
00000190: 8c3d 50bf 356b 8a3f c471 3c3f 097e efbe
000001a0: 7a86 033f 4bc3 99bd 6018 61bd aafd 993f
000001b0: 8d09 45bf 905c 49bf 7964 033d f96a 69bc
000001c0: cefb 3dbf 33cd d93d dc2f 3a3f f9c1 08bf
000001d0: c106 5a3f ce10 20bf df3f 203e a480 393f
000001e0: 17f9 2dbf a472 b2bf f1a4 4b3e d10c 273f
000001f0: 09fc f1be 4752 db3d 3149 403f 77ad ff3e
00000200: 8263 a83f bd92 4fbe 83ad c53f f9c7 7ebf
00000210: f538 cf3d abd3 603e 3fd4 0fbf 773e 2b3f
00000220: a220 44be 6d15 9c3f b49a 523e 0bc5 0a3e
00000230: 30c2 373f 1d38 77be 13e4 043f 34a4 5d3f
00000240: b867 8ebf 42c4 f3bf b33b 2abf 93ae f43f
00000250: b650 0fbf 4309 a63e 59c7 85bf 7521 60bf
00000260: 1100 963f b6ca f93e 9ac7 3abe 4c69 b3be
00000270: 350d 19be 8330 40bf 87a3 6ebf e23c 23bf
00000280: 8a0a 08bf 81a8 8d3e 7907 263f cc04 5e3f
00000290: dd37 ad3f bf70 1ebf bf89 21bf d7c4 143f
000002a0: b75d c53e e381 36bf dcb3 743e ebc7 e1bf
000002b0: c4fe a1be 00b0 1ebe 2a49 02bd 325e 4abf
000002c0: d6ea ad3f 6ebb 053f 0cf3 80bf 9f74 a23e
000002d0: fac9 a7be ae38 133f 514a a33f cf56 3dbf
000002e0: 3252 d5be 717d 8e3f e3ff 773e 71ac 91be
000002f0: fdbe ee3e def5 aebf c3f0 b2be c89d 55bf
00000300: 6531 3a3f d8bc 6c3c 9080 ef3f 71c3 9f3f
00000310: d769 90bf cd43 95bf 73b8 77be a804 943e
00000320: 3330 843f f01e b0bf 1fcb 623e 8649 113f
00000330: 221c 0d3f e7a7 7c3f a442 863f a02f 943f
00000340: 45ac b3bf 556f 763f 967b 76bd 613c 25bf
00000350: dcad 21bf 4f51 9b3f 1f63 0fbf b3d4 f73e
00000360: 6405 3240 4af0 c23e d34d 0dbf 9bbd 403f
00000370: d588 39bf 041c bd3e 4c91 743f 85c8 95be
00000380: e00a 94bf 9b2e d0be 0024 713f 148e db3f
00000390: 723c 303e 8dca 973f 2eac cb3e 8ae0 0640
000003a0: ff7f 2abf 2243 53bf 5ee7 93be 1383 253d
000003b0: b0b8 20bf 6834 4a3f 4b26 923f da8c 05b9
000003c0: 2fcd 27bf c9d7 a4be 14f8 c63f 3502 e6bd
000003d0: d93e 2ebe f53a 29be d42b 18bf 0684 5fbe
000003e0: 6994 29bf 0822 fdbe b29d 18bf ff63 06bf
000003f0: c2ac a73f b2fa e4be 28c3 08bf 80dc fd3d

x_embedding.weight f4 [371, 32]
-0.3600413 0.87070286 -0.3213565 1.101179 0.27597842 -0.40332812 -0.49954042 -2.246123
1.0578845 -0.9246218 -0.47387943 -0.43901068 0.4766016 -0.9328062 -0.65315026 -1.5036997
0.12524517 -1.0502827 -0.11479747 -0.73209906 0.349076 0.71026313 0.17096344 0.17760459
2.1441183 0.15853453 -0.65884966 -0.4569245 -0.38520485 -0.70531464 -0.011447409 -0.8212027
-0.084913336 -0.6978843 0.4210838 1.2265991 -0.4287349 0.4704693 0.9174481 0.07145151
-0.30657125 -0.7344811 0.07040894 0.56493634 0.42384738 0.050159954 -0.50677544 -1.0584712
-0.20737325 -1.8303295 -1.917656 1.272109 -0.15738279 0.37177777 -0.6326061 0.88540363
-0.11003181 1.1003187 -0.90341276 -0.43562195 -0.27970585 -0.08263488 -0.10806028 0.03733697
-0.09596974 -0.08975429 0.24655049 0.56229264 -0.5632184 0.7326473 -0.00028720754 4.9481e-41
-0.023894599 0.09032801 0.00063912 2.7455603e-29 1.8814816e-08 -1.0893437 -0.73358506 -0.050897557
0.017107323 0.17452462 -0.0013909538 0.13070053 -0.022889107 4.9082e-41 -4.9064e-41 0.020663032
-0.7729419 -0.20295072 0.26476306 -0.42766252 -0.6150754 0.002501912 4.9083e-41 9.265298e-08
0.6610116 -0.34927103 3.5973404e-05 0.22427046 0.47752368 0.007410877 0.01484383 -0.12122281
0.36841652 0.14833963 -0.07093727 0.11119793 -7.4903837e-06 -0.007984067 0.050245244 0.017439365
8.834839e-05 -0.018942965 -0.49105233 -0.0059613436 -7.259988e-05 -1.3552005 -2.4891996 -0.10102597
-0.00013605454 0.3801453 1.2655787 -0.3752898 -0.02178824 -0.7601158 0.9941983 0.17691806
0.0001538015 8.438896e-05 0.669098 -0.06775093 -0.1240437 0.6381045 7.5548756e-05 -0.4306789
-0.0002127887 0.11124085 -0.00022249887 0.00015021632 -7.778129e-05 -0.029270392 0.93457097 0.15325636
-0.0012280911 1.6239561 1.7706592 0.026758162 0.67630136 -0.00040689408 0.0011333734 -0.00021521244
1.0073669 0.33670962 -0.038979318 -0.016126668 0.1862218 -0.5473953 0.013050627 0.8736471
-0.00043771468 -5.1440362e-05 -0.38395375 0.4689414 0.0048889066 8.254047e-05 -0.6105117 1.3770876
-1.5649874 -0.43620145 -0.5139753 0.00013526113 0.11358883 -0.37469953 -0.0019081412 0.00030093224
0.0003140148 0.007419136 -0.0017267613 -0.003240947 -1.0775617 0.14287177 0.13006005 -0.00053793675
-0.9886262 0.00022366665 -0.15050428 0.00050086936 0.48800915 0.9915988 2.1619737 0.4776486
0.4024766 -1.1087176 -0.16497621 -0.37504444 -0.0011048771 -0.47203234 0.00023317058 1.4681222
1.3129842 -0.0010267403 -0.3084838 -0.0021475754 -4.109194e-05 -0.26157746 -1.2734236 0.78423727
-0.262134 -0.5113035 -0.9666028 0.00735253 0.0006889513 -0.04428037 -0.009708534 0.37582824
0.4227179 0.018835993 -0.061936844 0.8841587 0.00086895726 0.0007227111 -0.3324938 0.4969572
-5.0172e-41 1.5237275e-10 4.935e-41 0.699054 -0.4625742 0.26244858 -0.51242346 -0.009182436
-4.9166e-41 -0.60130364 -0.07013999 0.07373398 0.27454415 4.9306e-41 0.06706746 0.55708534
1.3226585 4.9124e-41 0.65856737 -0.5434188 -1.5895548e-05 -4.9285e-41 6.2726976e-12 -0.31827593
-2.0507758e-05 -6.2981044e-13 0.8050467 0.42780244 -1.858841e-16 1.5265055 4.9176e-41 -0.5056017
00000000: 5557 b8be 62e6 5e3f d788 a4be 6ff3 8c3f
00000010: 0b4d 8d3e 0681 cebe c3c3 ffbe 7bc0 0fc0
00000020: c268 873f 04b4 6cbf 53a0 f2be 02c6 e0be
00000030: 2005 f43e 63cc 6ebf db34 27bf 3b79 c0bf
00000040: 4540 003e aa6f 86bf f01a ebbd d86a 3bbf
00000050: 17ba b23e ced3 353f 0a11 2f3e fadd 353e
00000060: 3c39 0940 e056 223e 5faa 28bf 02f2 e9be
00000070: 9239 c5be 808f 34bf ea8d 3bbc 573a 52bf
00000080: 0be7 adbd 8ca8 32bf 4c98 d73e 3301 9d3f
00000090: 2483 dbbe 5ae1 f03e e1dd 6a3f 2b55 923d
000000a0: e8f6 9cbe f406 3cbf 9032 903d ab9f 103f
000000b0: 8602 d93e 8674 4d3d 09bc 01bf fc7b 87bf
000000c0: a759 54be 3d48 eabf c075 f5bf 78d4 a23f
000000d0: f428 21be a859 be3e 79f2 21bf d0a9 623f
000000e0: 5c58 e1bd 3ed7 8c3f 0f46 67bf d709 dfbe
000000f0: 9b35 8fbe 7a3c a9bd b54e ddbd a7ee 183d
00000100: c88b c4bd 19d1 b7bd bb77 7c3e 69f2 0f3f
00000110: 152f 10bf c68e 3b3f 5894 96b9 ef89 0000
00000120: 9bbe c3bc e4fd b83d 9e8a 273a 6937 0b10
00000130: 389e a132 9d6f 8bbf 3bcc 3bbf f579 50bd
00000140: a824 8c3c 95b6 323e aa50 b6ba 5cd6 053e
00000150: f081 bbbc d288 0000 c588 0080 8545 a93c
00000160: 85df 45bf 50d2 4fbe 068f 873e 95f6 dabe
00000170: 9575 1dbf 1ef7 233b d388 0000 84f8 c633
00000180: 0e38 293f a7d3 b2be 26e2 1638 28a7 653e
00000190: fc7d f43e f1d6 f23b 8933 733c aa43 f8bd
000001a0: 17a1 bc3e 58e6 173e 8f47 91bd bebb e33d
000001b0: e855 fbb6 9bcf 02bc f5cd 4d3d 00dd 8e3c
000001c0: ae47 b938 472e 9bbc 366b fbbe 6057 c3bb
000001d0: c440 98b8 3677 adbf 0c4f 1fc0 b4e6 cebd
000001e0: dda9 0eb9 68a2 c23e 7cfe a13f fc25 c0be
000001f0: 407d b2bc f396 42bf c883 7e3f 022a 353e
00000200: c745 2139 faf9 b038 024a 2b3f 00c1 8abd
00000210: a00a febd d15a 233f ee6f 9e38 f281 dcbe
00000220: 0820 5fb9 3ed2 e33d 964e 69b9 6383 1d39
00000230: 831e a3b8 76c8 efbc 0b40 6f3f 3cef 1c3e
00000240: e6f7 a0ba cbdd cf3f f6a4 e23f ef33 db3c
00000250: 1622 2d3f 6654 d5b9 b38d 943a a6aa 61b9
00000260: 66f1 803f 3465 ac3e c7a8 1fbd 131c 84bc
00000270: edb0 3e3e 1922 0cbf 4cd2 553c 56a7 5f3f
00000280: 127d e5b9 abc1 57b8 9695 c4be 1619 f03e
00000290: 1f33 a03b 9419 ad38 7f4a 1cbf 6844 b03f
000002a0: 8251 c8bf cc55 dfbe e393 03bf e2d4 0d39
000002b0: 43a1 e83d 9ed8 bfbe 981a faba 71c6 9d39
000002c0: 5aa2 a439 391c f33b 7f54 e2ba 1166 54bb
000002d0: 8bed 89bf fa4c 123e 762e 053e 5304 0dba
000002e0: 9b16 7dbf 0f88 6a39 cb1d 1abe c64c 033a
000002f0: 56dc f93e 6bd9 7d3f c75d 0a40 5b8e f43e
00000300: 6a11 ce3e 75ea 8dbf 86ef 28be d305 c0be
00000310: 86d1 90ba 39ae f1be 407f 7439 6eeb bb3f
00000320: de0f a83f b093 86ba 97f1 9dbe 56be 0cbb
00000330: 225a 2cb8 7bed 85be 8bff a2bf c6c3 483f
00000340: 6d36 86be c9e4 02bf 4873 77bf 7eed f03b
00000350: bd9a 343a 555f 35bd 8b10 1fbc 8f6c c03e
00000360: 7b6e d83e f14d 9a3c 7db1 7dbd 3958 623f
00000370: bcca 633a 5274 3d3a a13c aabe 2d71 fe3e
00000380: dc8b 0080 1e89 272f 9189 0000 34f5 323f
00000390: 87d6 ecbe a95f 863e 2f2e 03bf ee71 16bc
000003a0: 0e89 0080 09ef 19bf 8ea5 8fbd d701 973d
000003b0: 0d91 8c3e 7289 0000 aa5a 893d 259d 0e3f
000003c0: e04c a93f f088 0000 df97 283f 7f1d 0bbf
000003d0: 6e57 85b7 6389 0080 70b3 dc2c 10f5 a2be
000003e0: 1308 acb7 a046 31ab 8a17 4e3f ec08 db3e
000003f0: 4d4f 56a5 8864 c33f 1589 0000 1d6f 01bf

e_embedding.weight f4 [2, 32]
0.43909994 -1.31446 1.1749432 0.0100257695 2.1654964e-08 -0.9223178 -1.6833521e-19 -0.16356638
0.0008080643 0.12260114 -0.7727862 0.56579655 0.20642659 0.0135923205 -2.7023983e-09 -4.942e-41
-0.6029877 1.1177026e-05 0.1555431 0.9148161 -1.3112067e-06 -1.5084969 -0.8430451 -1.9338571
0.27256024 -0.2658895 0.5359296 4.9106e-41 -0.37192646 -0.036133684 -0.0015394872 -0.22406617
-0.16234058 1.2417924 1.3410081 0.53541553 1.0119448 -0.072515205 -1.210165 1.0644088
-0.8942005 0.44419974 -0.2627977 0.6336783 -0.16561872 1.549245 0.86290723 -1.105818
0.028869174 0.032617453 -0.54623646 -1.2044109 0.435239 -0.38126644 -0.9524583 0.26489094
-1.5468668 0.051670082 -1.6398205 1.7995496 -0.86065906 0.61754197 -0.6266876 0.49783862
00000000: b5d1 e03e 3a40 a8bf 8a64 963f 2043 243c
00000010: c503 ba32 051d 6cbf 32bc 46a0 f27d 27be
00000020: 47d4 533a 4e16 fb3d 51d5 45bf 0bd8 103f
00000030: 7e61 533e 53b2 5e3c 18b5 39b1 c389 0080
00000040: 675d 1abf f684 3b37 b146 1f3e 6331 6a3f
00000050: b8fc afb5 6d16 c1bf ced1 57bf a188 f7bf
00000060: 048d 8b3e ab22 88be af32 093f e388 0000
00000070: 256d bebe ea00 14bd 9ec8 c9ba 9a71 65be
00000080: 9c3c 26be 0ef3 9e3f 27a6 ab3f fe10 093f
00000090: 6887 813f da82 94bd b0e6 9abf 8c3e 883f
000000a0: 53ea 64bf 266e e33e 6c8d 86be be38 223f
000000b0: f497 29be a94d c63f 7de7 5c3f 728b 8dbf
000000c0: 0c7f ec3c e199 053d 27d6 0bbf 232a 9abf
000000d0: a5d7 de3e 5b35 c3be 4fd4 73bf c99f 873e
000000e0: bbff c5bf 02a4 533d a3e5 d1bf a457 e63f
000000f0: 2754 5cbf 3b17 1e3f 996e 20bf b4e4 fe3e

h_embedding.weight f4 [32, 128]
-0.37344944 0.2118228 0.6636041 -0.1675248 -0.9096894 0.24502407 0.3697814 -0.67782015
-0.8658563 0.77765393 -0.93087184 -0.9579488 0.7304519 0.25807825 -0.47761592 -0.337869
0.92549074 0.6853254 -0.4856185 -0.39542592 -0.17769985 0.40629038 0.60198444 -0.18814091
-0.7841713 0.42115247 0.6086167 -0.8798233 0.48529437 -0.75122494 0.46237147 0.3134385
0.2517301 0.14821172 -0.028794276 0.02976088 -0.43700302 -0.47347155 0.095855616 0.09694213
0.24323733 0.4830295 -0.81769925 0.41825655 0.94473296 -0.8551286 -0.21847992 -0.22542551
0.8765673 -0.15618429 0.23002112 0.94865894 0.26624796 -0.15257604 -0.4289882 0.39437377
-0.09408468 -0.053278476 -0.42809516 0.85845536 0.81621224 0.15278748 -0.18309768 -0.062405042
3.517287e-15 5.1173133e-06 0.071402915 0.13375726 -0.36984494 -0.160086 -0.00018962625 -0.12578735
-0.39761838 -0.4600368 0.10910424 -0.012328557 -0.07037587 0.31238008 0.10145417 -0.02632866
-0.026671793 0.3350628 0.0027474442 0.21326637 -0.0072658705 0.15749048 0.14993337 -0.06804493
0.150128 0.041938335 -0.13346033 0.27393708 -0.1860437 0.116075896 -0.02575208 -0.02749325
-0.07303315 0.08994061 -0.031634696 -0.36808625 0.00010051403 -0.13226257 0.13350278 -5.2218e-41
0.117321424 0.09327171 0.14351289 0.1338159 -0.4121456 -0.2612991 -0.277434 0.24540098
0.5637333 -0.011357255 -0.13019337 0.42570195 0.14021079 0.461494 -0.09587666 0.3115912
0.0069719283 0.048945993 0.10638746 -0.08417143 0.11920329 -0.38099942 -0.40830022 0.48778194
-0.94596857 0.3972167 0.010522842 -0.42786714 0.42303634 -0.7131511 -0.35075787 -0.08668249
0.8511307 0.12070734 -0.06190509 0.6600172 0.5503262 0.5945418 -0.5124595 -0.6109405
0.9276821 -0.06014593 -0.5137162 -0.8531349 0.39031798 0.19823416 -0.4644964 0.7743813
-0.6663344 0.654777 0.41634524 -0.4801725 -0.55462134 0.13230616 0.29011068 0.3995016
0.17495728 0.19465868 -0.84221715 0.6615611 0.73324084 -0.48856643 -0.29958037 -0.24637994
-0.85014766 0.3068439 -0.6137491 0.9167832 -0.49321514 0.83421284 -0.7681906 0.45630887
0.8800799 -0.7329179 -0.8030831 -0.70476246 -0.16625343 -0.5046714 -0.6516078 -0.11155747
0.8093971 0.55908996 -0.04230572 -0.13776395 0.7293322 -0.8752881 -0.9565556 -0.51316726
0.0033395751 -0.00036792582 -4.9323e-41 -0.40344635 0.49671456 0.4238994 -0.0007139375 0.5938402
0.26840034 0.07574375 0.010344987 -0.06509178 -0.24250714 0.29852304 0.2525543 0.0016771249
0.018443521 0.31821987 0.3149232 0.18601708 0.03690979 -0.067305915 -0.22467116 -0.045011695
0.06864822 0.36425617 0.13367087 -0.5680874 0.4130911 0.34425032 0.04874428 -0.00804304
-0.30713743 0.42273664 0.37539247 -0.2827117 -0.0035937806 0.30459148 -0.374049 -2.1768534e-13
-0.21049225 0.06666437 0.011967782 -0.35350412 -0.25786993 -0.32868606 -0.0112315575 0.6336472
-0.22036122 0.04853153 -0.065293185 0.29704157 0.0010673989 0.3224508 0.014865438 0.0016534853
-0.0009948859 0.13450487 -0.20648374 -0.030600319 -0.030457275 0.013547558 -0.2292533 0.17370051
00000000: c434 bfbe 13e8 583e f5e1 293f 9f8b 2bbe
00000010: 68e1 68bf 97e7 7a3e fd53 bd3e 9f85 2dbf
00000020: c2a8 5dbf 5414 473f 9e4d 6ebf 223c 75bf
00000030: e5fe 3a3f d522 843e 138a f4be 2afd acbe
00000040: f6ec 6c3f 7c71 2f3f fda2 f8be 4475 cabe
00000050: f3f6 35be 4b05 d03e a71b 1a3f 03a8 40be
00000060: 73bf 48bf 4ca1 d73e 4ece 1b3f 1a3c 61bf
00000070: 8178 f83e 4750 40bf f4bb ec3e 037b a03e
00000080: c5e2 803e d0c4 173e f9e1 ebbc 17cd f33c
00000090: dcbe dfbe dd6a f2be f34f c43d 9889 c63d
000000a0: 3513 793e a54f f73e bd54 51bf b925 d63e
000000b0: 05da 713f b5e9 5abf 33b9 5fbe f2d5 66be
000000c0: b766 603f c6ee 1fbe a88a 6b3e 50db 723f
000000d0: a751 883e e53c 1cbe 57a4 dbbe 5ceb c93e
000000e0: 78af c0bd 883a 5abd 4a2f dbbe bbc3 5b3f
000000f0: 49f3 503f 5274 1c3e f57d 3bbe 6e9c 7fbd
00000100: 7e72 7d27 63b5 ab36 b13b 923d aaf7 083e
00000110: 515c bdbe 96ed 23be 69d6 46b9 66ce 00be
00000120: a394 cbbe f289 ebbe 0b72 df3d b7fd 49bc
00000130: 3921 90bd 48f0 9f3e 34c7 cf3d 34af d7bc
00000140: ce7e dabc 5a8d ab3e 770e 343b 8062 5a3e
00000150: 8a16 eebb 2f45 213e 2288 193e 245b 8bbd
00000160: 28bb 193e 88c7 2b3d d3a9 08be 7b41 8c3e
00000170: 3d82 3ebe 33b9 ed3d 07f6 d2bc 8639 e1bc
00000180: 6792 95bd c832 b83d 6293 01bd cd75 bcbe
00000190: 0fcb d238 d76f 07be f4b4 083e 9091 0080
000001a0: 3746 f03d 3d05 bf3d 0bf5 123e 0907 093e
000001b0: c004 d3be ffc8 85be d40b 8ebe 654a 7b3e
000001c0: d350 103f c813 3abc 6951 05be 9bf5 d93e
000001d0: 6b93 0f3e f148 ec3e fb5a c4bd e288 9f3e
000001e0: c674 e43b 987b 483d abe1 d93d 1262 acbd
000001f0: db20 f43d 5b12 c3be ba0c d1be 8ebe f93e
00000200: ff2a 72bf fd5f cb3e 0068 2c3c 6711 dbbe
00000210: 3898 d83e 1291 36bf 8996 b3be 9786 b1bd
00000220: b4e3 593f 6935 f73d 3190 7dbd e3f6 283f
00000230: 2ee2 0c3f e433 183f 8c30 03bf 9966 1cbf
00000240: 937c 6d3f 945b 76bd e882 03bf 0c67 5abf
00000250: c2d7 c73e e5fd 4a3e 79d2 edbe da3d 463f
00000260: e494 2abf 779f 273f 342b d53e 2bd9 f5be
00000270: aafb 0dbf 447b 073e 6389 943e 798b cc3e
00000280: 0028 333e 9b54 473e 8b9b 57bf 115c 293f
00000290: acb5 3b3f 6125 fabe 9962 99be 064b 7cbe
000002a0: 47a3 59bf a51a 9d3e a91e 1dbf 4eb2 6a3f
000002b0: b286 fcbe f98e 553f 24a8 44bf 51a1 e93e
000002c0: eb4c 613f 82a0 3bbf db96 4dbf 506b 34bf
000002d0: 573e 2abe 2532 01bf c5cf 26bf 3e78 e4bd
000002e0: a634 4f3f 8520 0f3f c348 2dbd fe11 0dbe
000002f0: 84b5 3a3f e212 60bf d4e0 74bf ee5e 03bf
00000300: c6dc 5a3b 2be6 c0b9 7e89 0080 8590 cebe
00000310: 5f51 fe3e 5809 d93e 8927 3bba e905 183f
00000320: c56b 893e 8a1f 9b3d 057e 293c d74e 85bd
00000330: cb53 78be 03d8 983e cc4e 813e f9d2 db3a
00000340: de16 973c b7ed a23e 9d3d a13e 437b 3e3e
00000350: b82e 173d afd7 89bd 3210 66be 2f5e 38bd
00000360: 7097 8c3d c97f ba3e 04e1 083e 2d6e 11bf
00000370: ad80 d33e 9441 b03e 15a8 473d f4c6 03bc
00000380: 1e41 9dbe f070 d83e 7133 c03e 97bf 90be
00000390: a285 6bbb 6af3 9b3e 5a83 bfbe 8717 75aa
000003a0: 488b 57be 5487 883d 8414 443c 7efe b4be
000003b0: 8707 84be 8a49 a8be 9104 38bc b436 223f
000003c0: 5fa6 61be ffc8 463d 6fb8 85bd d515 983e
000003d0: f7e7 8b3a 4518 a53e 2b8e 733c c3b9 d83a
000003e0: d566 82ba a5bb 093e 7970 53be 85ad fabc
000003f0: 8981 f9bc 94f6 5d3c 61c1 6abe 8cde 313e

h_embedding.bias f4 [32]
0.00074457773 0.001590369 0.0032823624 0.0008540756 0.00012270827 0.0028385692 -0.015879259 -0.006872354
-0.0061268155 -0.01674219 0.008816631 0.0018948262 0.009945039 -0.0027410218 0.010593201 0.0006354713
-0.001366565 0.00887723 -0.00856402 0.0034767042 0.012426172 -0.011205813 0.014402888 0.0013213799
0.0008935982 0.0056550438 -0.015484453 -0.010424118 0.0020990942 -0.0067927344 0.0016203912 0.005672161
00000000: c42f 433a ee73 d03a e71c 573b 0be4 5f3a
00000010: 40ab 0039 4a07 3a3b 3815 82bc 7c31 e1bb
00000020: 74c3 c8bb eb26 89bc a173 103c d15b f83a
00000030: 84f0 223c b7a2 33bb 1b8f 2d3c c295 263a
00000040: 501e b3ba cd71 113c 1a50 0cbc 6bd9 633b
00000050: 2597 4b3c 9698 37bc 17fa 6b3c 2732 ad3a
00000060: 5c40 6a3a f24d b93b 81b2 7dbc ebc9 2abc
00000070: f590 093b 9695 debb 4e63 d43a 89dd b93b

initial_layer_norm.weight f4 [32]
0.997743 0.9908561 1.0068158 0.99208593 0.9989063 0.9928721 1.0033398 0.9974528
0.98572737 0.99900365 1.0014706 0.99297494 1.0078827 1.0010598 0.9936689 0.99907994
0.9908966 0.9998417 0.9951161 0.99257857 0.9921621 0.99987876 0.9996185 1.0042536
0.99395496 0.99311465 1.0055311 1.0095034 0.9966927 1.0029261 0.9960931 0.9911005
00000000: 166c 7f3f bfa8 7d3f 57df 803f 58f9 7d3f
00000010: 53b8 7f3f de2c 7e3f 706d 803f 1159 7f3f
00000020: a158 7c3f b4be 7f3f 3030 803f 9b33 7e3f
00000030: 4d02 813f ba22 803f 1661 7e3f b4c3 7f3f
00000040: 66ab 7d3f a0f5 7f3f eebf 7e3f a119 7e3f
00000050: 56fe 7d3f 0ef8 7f3f ffe6 7f3f 628b 803f
00000060: d573 7e3f c33c 7e3f 3eb5 803f 6837 813f
00000070: 4127 7f3f e25f 803f f5ff 7e3f c3b8 7d3f

initial_layer_norm.bias f4 [32]
0.007228888 0.0006371871 0.004175803 -8.830333e-05 -0.0028387732 0.0016995716 -0.012468224 -0.006800182
0.0037328734 -0.0082170665 0.0028359822 -8.664987e-05 0.0103001855 0.00028032647 0.005640752 -0.005134748
-0.003002685 0.0018671697 -0.0039752596 0.0028843314 0.00558963 -0.011212604 0.01318564 0.005013156
0.0025392242 0.005906952 -0.014028441 -0.0009114882 0.004260032 -0.007522471 -0.00072966237 0.0021570218
00000000: 4fe0 ec3b e708 273a 2dd5 883b 7d2f b9b8
00000010: b60a 3abb 29c4 de3a 8647 4cbc 10d4 debb
00000020: 39a3 743b e0a0 06bc e3db 393b cbb7 b5b8
00000030: 1cc2 283c c8f8 9239 0fd6 b83b 6341 a8bb
00000040: b2c8 44bb d2bb f43a e542 82bb 0d07 3d3b
00000050: 3729 b73b 12b5 37bc 9508 583c 6745 a43b
00000060: 1d69 263b 1b8f c13b 8cd7 65bc f0f0 6eba
00000070: bd97 8b3b 0f7f f6bb d046 3fba d25c 0d3b

layers.0.attention.Q.weight f4 [32, 32]
0.011961425 -0.87039083 -0.015740806 -0.024903052 0.06930943 0.770257 -0.12545478 -0.71721345
-0.09676337 0.7932055 -0.36065656 0.6194588 -0.9667419 0.23987873 -0.33133426 -0.4599197
0.73422974 -0.6285607 0.8248422 -0.4556984 0.7120169 0.50402564 0.48724052 -0.803527
-0.27414465 0.14740305 -0.34388098 -0.45702726 -0.585811 0.87106615 -0.09633622 -0.14591816
-0.32887548 0.9979316 -1.0998614 -1.1631197 -0.42013714 -0.00021619955 -0.9395924 -0.6957689
-0.40221718 -1.3474191 -0.5106939 1.1468354 -0.8008469 1.223042 -0.035494205 0.28694597
-0.8188794 0.6714795 0.23910338 1.4304953 0.93388957 1.4185098 -0.3716185 0.5116173
0.3244539 0.9944943 -1.1924565 1.2178048 0.60720533 -1.2415497 -0.67788225 0.2740442
0.066202134 0.22292514 -1.2059356 0.29557118 0.95294195 -0.79092133 1.2834226 0.39022544
0.39932567 1.2420648 1.2236061 -1.0148739 -0.5965814 0.49137506 -0.54827464 -0.008055055
-1.1441813 -0.2653204 -1.2447923 0.99994767 0.6683946 -0.9498042 0.22801268 -0.2761366
-0.9477785 0.21011862 0.18072523 0.10645868 0.6853749 -0.58834034 -0.6944165 1.0713348
-0.80517596 -0.81258243 -0.28396785 0.38525206 0.37232277 -0.26402304 -0.07140144 0.20132953
0.43981078 -0.063467704 0.22043234 -0.033876013 0.78542906 0.88427585 -0.62761635 -0.86238724
-0.18697958 0.95220125 0.1061864 0.47900707 0.23613302 -0.11453615 -0.5605346 -0.42246082
-0.010285758 0.5200974 -0.09724609 0.23923488 0.6329018 0.3397432 0.012971674 -0.61630505
-0.8727341 -0.36753035 1.1096805 -1.0256747 1.2841059 1.1772387 1.0501828 -0.45030153
0.05596048 1.0844239 1.2524906 -0.8313063 -0.5654498 -0.22754978 0.12751001 1.1371008
-0.51118195 -1.4710088 -0.20902503 -0.026430232 -0.61334556 0.6711989 -0.17438132 -0.4366646
-0.36978754 0.89975804 -0.044091064 1.3383796 -0.12276899 0.42490077 -1.0326427 1.2846438
-0.8227105 -0.0015573831 0.2898096 0.81898427 1.3439171 -1.1281768 1.2727922 -0.8256721
1.3428895 0.12793848 0.8448483 1.2452134 0.8438445 0.79009295 -0.22530635 -1.0156168
1.0034885 -1.375625 0.54688686 0.3736281 1.1377096 -0.72967243 0.01281364 -0.07664284
-1.2633363 0.4743755 -0.73884845 1.3718799 1.3558966 -0.5395425 0.12655821 -0.8964317
1.3018407 -0.7010603 -0.3286139 0.9365114 -1.3564999 -1.2233672 0.97665054 0.0316465
-0.06664647 0.094880745 -0.18462905 -0.12889677 0.21897766 0.2360317 -0.07429171 -0.6900375
0.42868915 0.34573495 -0.75976413 0.77682495 0.08939427 -0.1763197 -0.42168635 -0.7856535
-0.7515194 -1.0747739 -0.81443965 1.1592761 -1.0838306 0.5158199 -0.056671157 0.83931077
0.54808384 0.38877964 0.09417334 1.0560294 -0.77615076 0.36166626 -0.17657477 0.24115984
0.5650475 -1.0178522 -0.122624665 -0.8483617 1.3019868 -0.76999956 -1.0397694 -1.2409941
0.9888701 -1.1923631 -0.8428055 -0.9166954 0.040220056 -0.13058484 0.67520124 -0.6671393
-1.2410028 -0.90544784 0.80021584 -0.703758 -0.18783341 -1.1149254 0.26172432 -1.1335741
00000000: daf9 433c efd1 5ebf ddf2 80bc 7c01 ccbc
00000010: 1af2 8d3d 902f 453f 3877 00be 4d9b 37bf
00000020: e02b c6bd 840f 4b3f faa7 b8be da94 1e3f
00000030: 667c 77bf c5a2 753e a5a4 a9be 987a ebbe
00000040: 7bf6 3b3f 5be9 20bf dc28 533f 4d51 e9be
00000050: bd46 363f d307 013f 9777 f93e f2b3 4dbf
00000060: b05c 8cbe d3f0 163e 2b11 b0be 7aff e9be
00000070: b6f7 15bf 31fe 5e3f ed4b c5bd 926b 15be
00000080: 5e62 a8be 7278 7f3f 42c8 8cbf 1be1 94bf
00000090: 371c d7be a0b3 62b9 2189 70bf e91d 32bf
000000a0: 69ef cdbe 3b78 acbf d6bc 02bf 81cb 923f
000000b0: 4d04 4dbf a48c 9c3f 5f62 11bd 95ea 923e
000000c0: 15a2 51bf 15e6 2b3f 84d7 743e 781a b73f
000000d0: 6313 6f3f bb91 b53f c844 bebe 5af9 023f
000000e0: d21e a63e 2e97 7e3f 6aa2 98bf 07e1 9b3f
000000f0: cf71 1b3f 1aeb 9ebf b189 2dbf 854f 8c3e
00000100: fc94 873d 7d46 643e 195c 9abf 1b55 973e
00000110: 01f4 733f d279 4abf 3147 a43f a1cb c73e
00000120: 6a74 cc3e fbfb 9e3f 209f 9c3f 63e7 81bf
00000130: 8fb9 18bf 8395 fb3e ba5b 0cbf 59f9 03bc
00000140: 8874 92bf 13d8 87be 5b55 9fbf 92fc 7f3f
00000150: e91b 2b3f 5e26 73bf 287c 693e c761 8dbe
00000160: 9da1 72bf 5629 573e 0910 393e 0207 da3d
00000170: bb74 2f3f 799d 16bf 48c5 31bf 8021 893f
00000180: 0320 4ebf 6705 50bf 3c64 91be c23f c53e
00000190: 17a1 be3e 072e 87be eb3a 92bd 5429 4e3e
000001a0: e12e e13e 5bfb 81bd 04b9 613e 93c1 0abd
000001b0: e111 493f e75f 623f 77ab 20bf 69c5 5cbf
000001c0: 9377 3fbe 76c3 733f 4178 d93d 6a40 f53e
000001d0: dbcc 713e ee91 eabd 327f 0fbf c94c d8be
000001e0: 9985 28bc 1a25 053f f528 c7bd fdf9 743e
000001f0: da05 223f d2f2 ad3e 2587 543c 2bc6 1dbf
00000200: 816b 5fbf f02c bcbe 030a 8e3f 4f49 83bf
00000210: 955d a43f c2af 963f 646c 863f ec8d e6be
00000220: d136 653d 67ce 8a3f 9d51 a03f 7dd0 54bf
00000230: 51c1 10bf cf02 69be fc91 023e 858c 913f
00000240: d2dc 02bf 044a bcbf a80a 56be 3784 d8bc
00000250: 3704 1dbf b1d3 2b3f 0491 32be 8192 dfbe
00000260: cb54 bdbe 8b56 663f d598 34bd 0650 ab3f
00000270: 4f6e fbbd 988c d93e a32d 84bf 356f a43f
00000280: 289d 52bf 1b21 ccba ed61 943e f4a8 513f
00000290: 7a05 ac3f 1968 90bf dbea a23f 3f5f 53bf
000002a0: cee3 ab3f 4e02 033e fa47 583f 2763 9f3f
000002b0: 3106 583f 8843 4a3f b5b6 66be bbff 81bf
000002c0: 5072 803f 7b14 b0bf c700 0c3f 2f4c bf3e
000002d0: 78a0 913f d0cb 3abf 4df0 513c ecf6 9cbd
000002e0: 01b5 a1bf 58e1 f23e 2c25 3dbf c399 af3f
000002f0: 058e ad3f 751f 0abf 7a98 013e 8c7c 65bf
00000300: b7a2 a63f b078 33bf 1540 a8be 36bf 6f3f
00000310: caa1 adbf 4c97 9cbf c505 7a3f c39f 013d
00000320: f27d 88bd d650 c23d 660f 3dbe 84fd 03be
00000330: ae3b 603e 4bb2 713e 4126 98bd 4ca6 30bf
00000340: 257d db3e 2c04 b13e e77f 42bf 00de 463f
00000350: 5814 b73d 278d 34be 46e7 d7be 9620 49bf
00000360: 9363 40bf 3192 89bf 1e7f 50bf 2963 943f
00000370: f6ba 8abf c60c 043f 0420 68bd 12dd 563f
00000380: 394f 0c3f 200e c73e f4dd c03d f92b 873f
00000390: d1b1 46bf 522c b93e 04d0 34be 9bf2 763e
000003a0: f4a6 103f fb48 82bf a422 fbbd 3b2e 59bf
000003b0: 81a7 a63f b11e 45bf 2a17 85bf e5d8 9ebf
000003c0: 9726 7d3f 5b9f 98bf 1ac2 57bf 8dac 6abf
000003d0: c9bd 243d 08b8 05be fdd9 2c3f a4c9 2abf
000003e0: 2ed9 9ebf 6ecb 67bf f2da 4c3f 7c29 34bf
000003f0: 6757 40be e0b5 8ebf bb00 863e f518 91bf

layers.0.attention.K.weight f4 [32, 32]
-0.7637758 0.6653003 0.3583681 0.7343461 0.341955 -0.74096674 0.16707289 -0.9404327
-0.03031631 -0.21232623 0.7496515 -0.0106122205 -0.5534469 -0.28448048 -0.33601022 -0.2760336
0.48959512 0.52250975 -0.9146821 0.1651425 -0.4088929 0.5981248 0.24327439 -0.29700696
-0.7698437 0.16773507 -0.6931114 -0.8121039 0.93339705 -0.77498674 -0.09626352 -0.0880682
1.3713272 1.1836418 0.497412 -0.15703826 1.1521953 1.2585698 1.4608492 0.16632529
0.5915068 1.0347015 0.9413997 0.029097825 0.1244105 1.4276019 -1.0587779 -0.52356297
-0.5461251 -1.3764267 0.9044477 1.3441637 0.55342835 0.655263 0.7197432 0.43416238
0.51826364 0.87100434 0.6671639 0.97785145 -0.4349873 -0.6872378 -0.73572695 -0.18690172
-1.1782966 -1.1925744 0.14649738 -1.1474674 0.4800022 -0.41525248 -0.7904479 -0.33743814
0.1685479 0.5964225 -0.0055159796 -0.4634087 0.06818587 0.2273311 0.5806164 0.640937
0.64790004 1.1784598 -0.81236845 0.01659471 0.21951328 -0.048645418 0.23845138 -0.53912526
-0.41119164 -0.79479915 0.3531241 0.3088217 0.22040436 1.2740622 0.62630254 0.48339513
0.084640995 0.64566857 -0.65383583 -0.17130435 0.5798068 0.9367057 -0.28653204 -0.7461398
0.5398178 -0.56474257 0.96649384 0.5196216 -0.7045044 -0.5533629 0.932369 -0.8660172
0.017908199 0.7963323 -0.06289557 -0.613602 -0.23011838 -0.4934386 0.72110844 0.0055789407
-0.9360904 0.8289169 -0.6339156 -0.3248905 -0.11178384 0.9866865 0.04523963 0.9727677
-1.1410283 -1.1074579 0.13434006 -1.1592128 -0.31977344 0.7580021 1.2187828 1.3950856
-1.0709491 -0.76402944 0.30677038 0.3930121 -0.26066887 1.1900767 0.61850536 -0.1890037
0.90421444 0.8982767 0.47740123 0.073492445 -0.32811955 -0.7693064 0.38018867 -0.2183855
-0.81048584 -1.1340512 0.2725844 -0.81887513 -0.17440146 -0.3749968 1.168828 0.6525131
1.2583462 -0.92681754 -0.8087762 -0.74132437 0.17727403 -0.26074192 -1.3189646 0.26496297
-0.14575563 0.9492076 1.1352113 0.20919383 -1.381018 1.4380264 1.0574994 0.09246206
0.2469032 1.214731 -1.2178849 0.42418784 1.173509 0.44074696 -0.28057098 0.43804422
-0.36746365 1.4269712 -0.051193353 -0.3158683 0.638903 1.2753493 -0.15364446 -0.30783466
-0.42233342 1.054621 1.3386102 0.3695165 -0.55245054 -0.35117584 -0.77529305 0.77304935
0.4655586 0.6894981 0.17313948 0.8381795 0.241951 0.97892576 -1.1306455 0.95471984
-0.9727752 -0.37494925 -0.8128407 0.14428839 0.89175904 0.6507132 -0.9119246 0.6438186
1.2917825 -0.47182363 -0.35849264 -0.70584214 0.56832385 -1.1390358 1.1154608 1.1008528
0.327172 0.9849265 1.067331 1.0511748 -0.756937 -0.7756895 -0.0076244506 -1.2702788
0.5610291 0.62095535 -0.8302087 -0.33697942 0.70630467 0.15651964 1.0780802 0.9922885
-0.6263366 -0.7122376 -0.42041913 1.2128937 -0.6293199 0.2077277 -0.21027297 0.30318472
0.30346304 0.46706936 0.4530219 0.52427626 -0.4020297 0.19837372 -0.7150266 -0.1681911
00000000: d086 43bf 1f51 2a3f 067c b73e 1bfe 3b3f
00000010: ba14 af3e ffaf 3dbf 2815 2b3e 33c0 70bf
00000020: e959 f8bc 0c6c 59be 29e9 3f3f e1de 2dbc
00000030: b2ae 0dbf 6da7 91be 8809 acbe 4754 8dbe
00000040: 36ac fa3e 33c3 053f 9b28 6abf 1e1b 293e
00000050: 695a d1be b51e 193f ec1c 793e 4c11 98be
00000060: 7a14 45bf bec2 2b3e c06f 31bf 0be6 4fbf
00000070: 1cf3 6e3f 8865 46bf cf25 c5bd 1a5d b4bd
00000080: a687 af3f 9381 973f c9ac fe3e a3ce 20be
00000090: 237b 933f d118 a13f 1bfd ba3f 2d51 2a3e
000000a0: fd6c 173f 1971 843f 92ff 703f 905e ee3c
000000b0: efca fe3d a9bb b63f 0986 87bf 3908 06bf
000000c0: dbce 0bbf c02e b0bf e289 673f 8e0d ac3f
000000d0: 7bad 0d3f 51bf 273f 1741 383f 884a de3e
000000e0: edac 043f 24fa 5e3f 41cb 2a3f 7954 7a3f
000000f0: a8b6 debe d1ee 2fbf 9a58 3cbf 2a63 3fbe
00000100: 6cd2 96bf 47a6 98bf 6903 163e 36e0 92bf
00000110: d9c2 f53e f99b d4be cb5a 4abf b1c4 acbe
00000120: d297 2c3e 25af 183f 64bf b4bb e843 edbe
00000130: 09a5 8b3d 7cc9 683e 47a3 143f 7214 243f
00000140: c7dc 253f c5d7 963f 61f7 4fbf a1f1 873c
00000150: 17c8 603e 6b40 47bd 992c 743e 1d04 0abf
00000160: b687 d2be f577 4bbf afcc b43e e11d 9e3e
00000170: aeb1 613e 7814 a33f 5d55 203f 917f f73e
00000180: 4258 ad3d 894a 253f c961 27bf 686a 2fbe
00000190: 386e 143f f2cb 6f3f 54b4 92be 0503 3fbf
000001a0: 8031 0a3f f892 10bf 246c 773f ec05 053f
000001b0: 665a 34bf 31a9 0dbf bcaf 6e3f 4eb3 5dbf
000001c0: 37b4 923c 6fdc 4b3f 65cf 80bd 0515 1dbf
000001d0: 27a4 6bbe fca3 fcbe 909a 383f 8ccf b63b
000001e0: 9fa3 6fbf e633 543f 4b48 22bf 0c58 a6be
000001f0: edee e4bd 7d97 7c3f 314d 393d 4e07 793f
00000200: 370d 92bf 2ec1 8dbf 7190 093e 1661 94bf
00000210: 58b9 a3be 6d0c 423f 1301 9c3f 2a92 b23f
00000220: dc14 89bf 6f97 43bf 0211 9d3e e238 c93e
00000230: 6476 85be 6f54 983f 5e56 1e3f 308a 41be
00000240: 997a 673f 76f5 653f ef6d f43e 3583 963d
00000250: 49ff a7be 44f1 44bf 17a8 c23e 73a0 5fbe
00000260: 007c 4fbf 9728 91bf 2f90 8b3e cda1 51bf
00000270: 4c96 32be 95ff bfbe 289c 953f 190b 273f
00000280: 7d11 a13f ea43 6dbf f50b 4fbf 6fc7 3dbf
00000290: 5387 353e f77f 85be d5d3 a8bf 3aa9 873e
000002a0: f740 15be 45ff 723f 9b4e 913f e836 563e
000002b0: 33c5 b0bf 4011 b83f 245c 873f c05c bd3d
000002c0: 31d4 7c3e 4e7c 9b3f a7e3 9bbf 262f d93e
000002d0: 8b35 963f 96a9 e13e 00a7 8fbe 5547 e03e
000002e0: 3224 bcbe fea6 b63f 1fb0 51bd 7db9 a1be
000002f0: 268f 233f a53e a33f f954 1dbe 819c 9dbe
00000300: 163c d8be d2fd 863f 9457 ab3f 4431 bd3e
00000310: 666d 0dbf 52cd b3be 9b79 46bf 90e6 453f
00000320: b25d ee3e f382 303f 7a4b 313e ef92 563f
00000330: 01c2 773e e19a 7a3f feb8 90bf 8568 743f
00000340: cc07 79bf 59f9 bfbe 5416 50bf 56c0 133e
00000350: 524a 643f 2495 263f e473 69bf 4cd1 243f
00000360: 2159 a53f de92 f1be 598c b7be 12b2 34bf
00000370: ac7d 113f edcb 91bf 6bc7 8e3f bfe8 8c3f
00000380: 1783 a73e 2524 7c3f 4d9e 883f e58c 863f
00000390: a0c6 41bf 9693 46bf 87d6 f9bb 7f98 a2bf
000003a0: 9a9f 0f3f eef6 1e3f 8f88 54bf 9188 acbe
000003b0: 62d0 343f af46 203e 88fe 893f 9e06 7e3f
000003c0: 9857 20bf 3455 36bf 2d41 d7be 1a40 9b3f
000003d0: 1c1b 21bf 92b6 543e cc51 57be 073b 9b3e
000003e0: 825f 9b3e b723 ef3e 7df2 e73e f836 063f
000003f0: d6d6 cdbe 7b22 4b3e fc0b 37bf 4a3a 2cbe

layers.0.attention.E.weight f4 [32, 32]
0.5997575 -1.0773051 -0.775306 -1.0985786 -1.2964532 -1.0520583 1.3575587 -0.43701318
-1.0094488 -0.711309 -0.6886504 1.0901916 0.15118533 0.22357644 -0.99165875 -1.2549239
-0.8351293 0.5763412 -0.87790453 -0.84232813 -0.5928708 -1.259876 1.0805402 0.37544736
-0.8006183 -0.31675717 -0.33098775 1.0131859 -1.166288 -1.0782068 1.3252453 0.16678686
0.040413305 -1.4373654 0.8119036 -0.8164426 -0.79016304 -0.5440566 0.9512859 -1.3795162
0.52423334 0.75239843 -1.0529647 0.32921147 0.72635895 0.77220297 -0.56943923 -0.56113946
-0.66314334 0.005834667 -1.4117233 0.39581338 -0.10778869 -0.533824 -0.91628724 0.44367763
-1.1364032 0.03012972 0.9467907 -1.1562941 -0.63695467 1.1342518 0.5954077 -1.2719136
-0.45763475 -0.60689956 -1.0730505 0.94706905 1.3188376 -0.10522042 0.79691964 0.3193863
0.0054924744 0.72673607 -0.6077225 1.0600271 -0.9129504 -0.064871304 -0.36256883 0.7533168
-0.03664051 -0.5386764 -1.3596545 -1.2841835 -1.0750656 -0.430856 0.93314546 0.8666705
-0.023007363 0.21543117 0.78281516 0.67738146 0.487031 -0.24199109 -0.789278 1.2695781
0.46499622 0.8080326 0.8109053 -0.013100383 0.8944256 0.14265426 -0.35767823 -1.151808
1.1583403 0.85303354 -0.37491456 -1.1890016 -0.36822882 0.6218699 -0.94396996 -0.42170948
-0.00021594328 -0.19617786 1.0238296 1.1775272 0.70579106 -0.1261646 -0.25874406 -1.1701086
-1.1659735 0.86472464 0.99752575 0.35862425 0.9111962 0.6211671 0.16750887 1.0843143
-0.9332507 -1.4416143 -0.26599234 0.822005 0.53699905 -0.5061436 1.1457883 0.4726873
-0.9545536 -0.04163848 0.71628886 0.62269056 -0.9781431 1.2283396 0.12090187 -1.1728237
-0.0023780926 -0.008377626 -1.1732455 1.4316592 0.683045 1.0398781 0.6594665 -0.71083146
-1.2142615 -0.14466546 0.612227 1.0773861 -0.2952204 -0.6625198 -0.3607352 0.53471446
-0.5593857 0.39566112 -0.6685974 -1.2333657 0.17426403 1.1030412 0.14723521 -0.14032927
1.4427872 -0.8035896 0.91233695 -0.17352559 0.13528629 1.4137894 1.1697778 -1.0363264
-0.74273497 0.023970993 0.8709035 -0.051401526 0.7652811 -0.85278726 1.171524 1.0196716
-0.91698235 -0.60529596 0.18919896 -0.024925517 0.74872595 0.94930285 -1.3999904 -0.097621016
-0.72989345 0.3112438 0.8386036 0.9168385 -1.3686973 0.9131459 0.7472625 -1.2942268
-0.00079163525 0.28459764 -0.7102071 1.2244781 0.3953865 0.71529204 1.3414236 0.3495951
0.00065209763 -0.09043728 -0.7684222 -0.5261355 0.7537343 -0.9320236 1.451034 -1.2927043
0.78644437 0.079580314 -0.35965437 0.048900735 -0.37982917 -1.4145079 -0.65313333 0.9216318
-0.74507 0.97424376 1.0238074 -0.9642559 -1.1088744 0.81989527 1.4071862 -1.0282172
-0.4721543 0.20140317 -0.8837923 -0.41951948 1.1976708 -1.1485568 1.007527 1.413225
-0.3632715 0.30507195 1.2591461 0.4154283 0.17963462 -0.3506568 1.0321703 0.8796229
-1.5052277 0.056503154 -0.17914036 1.3644224 0.91618776 1.340242 0.5795888 1.3703138
00000000: b589 193f 22e5 89bf 747a 46bf 399e 8cbf
00000010: 2ef2 a5bf d9a9 86bf 7cc4 ad3f 31c0 dfbe
00000020: 9e35 81bf 5918 36bf 654b 30bf 668b 8b3f
00000030: 54d0 1a3e 39f1 643e 59dd 7dbf 59a1 a0bf
00000040: 09cb 55bf 198b 133f 5abe 60bf d1a2 57bf
00000050: 61c6 17bf 9e43 a1bf 244f 8a3f a33a c03e
00000060: 52f5 4cbf ff2d a2be 3a77 a9be 13b0 813f
00000070: ed48 95bf ae02 8abf a3a1 a93f 2dca 2a3e
00000080: 6c88 253d 97fb b7bf ead8 4f3f 6202 51bf
00000090: 2048 4abf 4b47 0bbf 7987 733f fd93 b0bf
000000a0: 2834 063f 2f9d 403f 8cc7 86bf 688e a83e
000000b0: a9f2 393f 18af 453f c5c6 11bf d6a6 0fbf
000000c0: c3c3 29bf bc30 bf3b 59b3 b4bf 0da8 ca3e
000000d0: 51c0 dcbd b1a8 08bf cd91 6abf b729 e33e
000000e0: a975 91bf 9ad2 f63c e060 723f 7201 94bf
000000f0: 760f 23bf 2a2f 913f a46c 183f 11ce a2bf
00000100: 1a4f eabe c55d 1bbf b859 89bf 1e73 723f
00000110: accf a83f ce7d d7bd ed02 4c3f 9a86 a33e
00000120: 37fa b33b 600b 3a3f b493 1bbf f8ae 873f
00000130: 1eb7 69bf 3fdb 84bd 9fa2 b9be 5fd9 403f
00000140: 5c14 16bd b2e6 09bf 2909 aebf 2060 a4bf
00000150: c09b 89bf 2899 dcbe 9fe2 6e3f 1ede 5d3f
00000160: f079 bcbc fd99 5c3e 9366 483f df68 2d3f
00000170: 215c f93e 83cc 77be 1f0e 4abf 8981 a23f
00000180: fc13 ee3e 39db 4e3f 7d97 4f3f fda2 56bc
00000190: 13f9 643f f513 123e 9a21 b7be 726e 93bf
000001a0: 7f44 943f 6860 5a3f cdf4 bfbe 3431 98bf
000001b0: 7d88 bcbe de32 1f3f 04a8 71bf 4eea d7be
000001c0: d56e 62b9 d9e2 48be d90c 833f 36b9 963f
000001d0: b9ae 343f 4b31 01be 1a7a 84be 1ec6 95bf
000001e0: 9f3e 95bf 985e 5d3f d95d 7f3f 999d b73e
000001f0: 2744 693f cf04 1f3f 7287 2b3e d0ca 8a3f
00000200: 85e9 6ebf d186 b8bf 2630 88be eb6e 523f
00000210: c578 093f a192 01bf 31a9 923f 1204 f23e
00000220: a05d 74bf 1c8d 2abd b55e 373f a668 1f3f
00000230: 9667 7abf 3b3a 9d3f 669b f73d 161f 96bf
00000240: c6d9 1bbb 4f42 09bc e92c 96bf 9c40 b73f
00000250: 0adc 2e3f ba1a 853f ccd2 283f 0df9 35bf
00000260: ec6c 9bbf 2f23 14be e9ba 1c3f cae7 893f
00000270: 2127 97be e69a 29bf 49b2 b8be 0ce3 083f
00000280: e733 0fbf 1894 ca3e 3329 2bbf edde 9dbf
00000290: 4572 323e 7430 8d3f d4c4 163e 7ab2 0fbe
000002a0: 40ad b83f 0cb8 4dbf ea8e 693f b1b0 31be
000002b0: 7d88 0a3e 0df7 b43f 47bb 953f 58a6 84bf
000002c0: e123 3ebf d15e c43c 88f3 5e3f 688a 52bd
000002d0: 76e9 433f 4450 5abf 80f4 953f 9984 823f
000002e0: 5bbf 6abf adf4 1abf 5fbd 413e 9930 ccbc
000002f0: 81ac 3f3f 8305 733f e332 b3bf 87ed c7bd
00000300: 4cda 3abf 595b 9f3e baae 563f eeb5 6a3f
00000310: 7931 afbf eec3 693f 984c 3f3f 39a9 a5bf
00000320: be85 4fba c8b6 913e 22d0 35bf b3bb 9c3f
00000330: 1970 ca3e 611d 373f c5b3 ab3f 21fe b23e
00000340: 88f1 2a3a 2e37 b9bd 51b7 44bf d1b0 06bf
00000350: bbf4 403f 1999 6ebf 7bbb b93f 5677 a5bf
00000360: 6b54 493f 01fb a23d 9e24 b8be 234c 483d
00000370: f878 c2be 980e b5bf bf33 27bf 10f0 6b3f
00000380: e8bc 3ebf 0a68 793f 1f0c 833f 7ad9 76bf
00000390: 99ef 8dbf a8e4 513f ad1e b43f 9f9c 83bf
000003a0: 35be f1be a23c 4e3e 3640 62bf 42cb d6be
000003b0: 474d 993f e903 93bf a5f6 803f 8fe4 b43f
000003c0: b9fe b9be 6432 9c3e b32b a13f 05b3 d43e
000003d0: 23f2 373e 4a89 b3be 281e 843f f72e 613f
000003e0: 4dab c0bf da6f 673d 9270 37be 65a5 ae3f
000003f0: 488b 6a3f 0d8d ab3f ee5f 143f 7166 af3f

layers.0.attention.V.weight f4 [32, 32]
1.1689569 1.3464984 -0.5739318 -0.27219573 -1.112074 -0.4061983 0.84568465 0.9062873
-0.34684002 -1.3216366 -0.5136121 -0.30301458 0.5978868 -0.45792717 1.4736284 0.041749444
0.526115 -0.008662923 0.5587073 1.1459746 1.3793594 -0.11631831 0.49877113 -0.13686755
1.3747379 -0.3849016 0.8669729 0.4011053 0.9406049 -0.092066854 -0.8254759 -0.6407799
0.33233494 -1.1331948 1.1354028 1.0279511 -0.18194887 0.48271745 0.29049712 -0.36414927
0.10286892 -1.2352623 -0.9303803 -0.2690183 -0.13023643 1.3525755 0.24141955 -1.3725773
-1.3513323 -0.8033228 -1.3860333 0.9579569 -0.53770185 -1.418913 -0.20812753 1.4614395
-1.2346678 1.1653105 0.66183794 -0.9091603 0.85503894 0.38914526 0.20626639 1.4061037
0.58172375 0.59664196 -1.4595298 -0.07136298 -1.1750561 -0.42656755 0.7727884 0.8941813
-0.5751251 0.49859914 -0.94199353 -0.5711273 -0.7793895 0.69526476 -0.27168617 -0.036126718
0.54894507 -0.008211876 -0.98664343 0.010290152 0.4386096 -0.6360432 -0.9392149 0.7492589
1.5085199 0.14232434 -1.4412078 -1.4758159 -0.8239495 -1.1492954 -1.3613858 -1.386698
-0.9395308 -0.7047067 -1.1489743 -1.1614243 1.4513345 -0.6346802 0.7024884 -1.0029197
-0.9392427 -0.06310937 0.12991294 -0.03326764 0.35481372 0.72739047 0.5496102 -0.5448359
1.3565687 1.0994306 1.0884944 0.5587908 1.2909112 -0.03957082 0.50421727 0.94727653
-0.26122636 -0.18987055 -0.047334194 -0.9969325 1.3910829 -1.0023942 0.43713397 1.1315656
-1.4260598 0.22241707 0.106119394 -0.58432245 -0.6672176 -1.4721856 1.3297865 -0.4337737
0.21763171 -1.2919161 -0.7584098 0.4799344 1.3579665 0.3300252 0.8242218 -0.9711367
0.80707026 -1.3884699 0.8408073 0.58783805 -0.6159516 1.2977351 -0.7492986 0.25806934
0.006566015 1.3980794 -0.8936868 -0.15552163 -0.41516638 -1.3886064 -1.1532469 -1.4915006
-1.0495292 -0.76423776 0.6489903 1.1740286 -0.7815009 -1.4984887 1.4116414 -0.5093396
-0.20555303 1.3427236 0.23116115 -1.3014566 1.1651211 -0.0627842 -1.3620243 -1.3696922
-1.3995466 -0.3283929 1.0255896 -0.46688733 0.40422055 1.3438954 0.077488534 -1.2263318
1.4261216 0.20533296 1.3575939 0.73097175 0.8784588 -0.47969893 1.4238088 -0.749404
0.5582445 -0.07106091 -0.64477134 0.8470392 0.7478362 -0.31755897 -0.9872164 -0.98865074
-0.0042714826 -0.8664122 1.4454716 -1.203592 1.3464566 -0.42193013 0.06333211 0.2446458
0.6182426 -0.059982352 0.4255456 -0.76526815 -1.4040458 0.958076 -0.9308593 0.19453122
1.2953441 0.99974805 -0.22275813 0.3813929 0.43755654 -1.039276 -0.7644801 -1.0255009
-0.7748749 0.48038685 -0.9451589 0.06496643 -0.9652543 0.8375315 1.0676433 0.6406136
0.9464603 -0.6705624 1.2870716 -1.437947 -0.5227419 -0.83659136 -1.0993074 -1.0145195
-0.59517473 -0.26649395 0.9881147 0.61109114 -0.46175796 -1.3122078 -0.6031161 -1.3680102
-0.97459036 0.44237667 -1.4514718 -1.0658852 -0.39625221 1.1026682 -0.16777389 -0.71495557
00000000: 61a0 953f 0f5a ac3f 32ed 12bf 3d5d 8bbe
00000010: 7158 8ebf 39f9 cfbe ca7e 583f 7202 683f
00000020: 0495 b1be 632b a9bf 157c 03bf ba24 9bbe
00000030: 1c0f 193f 6e75 eabe db9f bc3f 7701 2b3d
00000040: 79af 063f efee 0dbc 7107 0f3f 4caf 923f
00000050: d98e b03f 4b38 eebd ee5e ff3e 0227 0cbe
00000060: 69f7 af3f d311 c5be f0f1 5d3f ad5d cd3e
00000070: 7ccb 703f 8c8d bcbd 6352 53bf 270a 24bf
00000080: ce27 aa3e 870c 91bf e154 913f e793 833f
00000090: ce50 3abe be26 f73e 0abc 943e c671 babe
000000a0: f1ac d23d 131d 9ebf 672d 6ebf c4bc 89be
000000b0: b35c 05be 3221 ad3f b036 773e 9db0 afbf
000000c0: 75f8 acbf 90a6 4dbf 8a69 b1bf aa3c 753f
000000d0: d4a6 09bf f19e b5bf 621f 55be 7310 bb3f
000000e0: 9809 9ebf e528 953f 366e 293f bbbe 68bf
000000f0: d5e3 5a3f 0c3e c73e 7f37 533e 35fb b33f
00000100: d9eb 143f 87bd 183f dfd1 babf c126 92bd
00000110: 3d68 96bf 1067 dabe 76d5 453f 11e9 643f
00000120: 663b 13bf 6348 ff3e 7d26 71bf 6635 12bf
00000130: 1286 47bf dffc 313f 731a 8bbe 9cf9 13bd
00000140: aa87 0c3f 1b8b 06bc aa94 7cbf 0798 283c
00000150: 7091 e03e bad3 22bf 6370 70bf 6ecf 3f3f
00000160: 2e17 c13f 79bd 113e 7f79 b8bf 89e7 bcbf
00000170: 5bee 52bf 1d1c 93bf e441 aebf 527f b1bf
00000180: 1785 70bf a967 34bf 9711 93bf 8da9 94bf
00000190: 54c5 b93f 677a 22bf 48d6 333f ac5f 80bf
000001a0: 3672 70bf 7c3f 81bd e607 053e a643 08bd
000001b0: 25aa b53e 4336 3a3f 41b3 0c3f 5e7a 0bbf
000001c0: 0ba4 ad3f 24ba 8c3f c953 8b3f ea0c 0f3f
000001d0: 943c a53f 0315 22bd 6214 013f b780 723f
000001e0: 76bf 85be 6d6d 42be 80e1 41bd f836 7fbf
000001f0: 010f b23f 744e 80bf 06d0 df3e 24d7 903f
00000200: 2189 b6bf 4dc1 633e 2055 d93d 2896 15bf
00000210: c6ce 2abf 9470 bcbf 7236 aa3f 9617 debe
00000220: d9da 5e3e 825d a5bf 2527 42bf f6b9 f53e
00000230: d9d1 ad3f 10f9 a83e 3300 533f 6a9c 78bf
00000240: 289c 4e3f 62b9 b1bf 263f 573f 8e7c 163f
00000250: 01af 1dbf 2f1c a63f 08d2 3fbf aa21 843e
00000260: ba27 d73b 44f4 b23f a8c8 64bf 1041 1fbe
00000270: b090 d4be dbbd b1bf 989d 93bf 7ee9 bebf
00000280: f956 86bf 16a5 43bf 3a24 263f 9246 963f
00000290: 7110 48bf 7ace bfbf aab0 b43f 1464 02bf
000002a0: 7e7c 52be 5ede ab3f 82b5 6c3e 2196 a6bf
000002b0: b022 953f 0195 80bd d056 aebf 1352 afbf
000002c0: 5824 b3bf 1d23 a8be 8546 833f db0b efbe
000002d0: fff5 ce3e c404 ac3f 4fb2 9e3d 71f8 9cbf
000002e0: 278b b63f ce42 523e a3c5 ad3f f720 3b3f
000002f0: ade2 603f 199b f5be 5e3f b63f f1d8 3fbf
00000300: 1de9 0e3f 6288 91bd bc0f 25bf 90d7 583f
00000310: 3172 3f3f 1797 a2be 37ba 7cbf 3718 7dbf
00000320: cbf7 8bbb 31cd 5dbf 3705 b93f 4d0f 9abf
00000330: b158 ac3f 3a07 d8be 44b4 813d 6e84 7a3e
00000340: 2645 1e3f 0eb0 75bd 1de1 d93e 9de8 43bf
00000350: c6b7 b3bf 7844 753f cc4c 6ebf 3133 473e
00000360: d6cd a53f 7def 7f3f b51a 64be ee45 c33e
00000370: 6907 e03e ff06 85bf f8b4 43bf 9d43 83bf
00000380: 345e 46bf 44f5 f53e eff5 71bf 1f0d 853d
00000390: e81a 77bf 7768 563f 89a8 883f 41ff 233f
000003a0: 394b 723f faa9 2bbf c3be a43f a60e b8bf
000003b0: 6ad2 05bf da2a 56bf 1bb6 8cbf c6db 81bf
000003c0: 5f5d 18bf e571 88be 16f5 7c3f 7870 1c3f
000003d0: 8a6b ecbe 6df6 a7bf d165 1abf f51a afbf
000003e0: c17e 79bf 327f e23e d4c9 b9bf ed6e 88bf
000003f0: 92e1 cabe 3b24 8d3f ebcc 2bbe 5407 37bf
