best_model.pth (torch, 676849 bytes, 170 tensors)

z_embedding.weight f4 [1000, 36]
00000000: 0eaa 523f a1fd 523e b436 083e 8514 853f
00000010: cecd 73bd cad4 dabf 2e77 25c0 ea50 6bbf
00000020: 598b 7c3f f8ae 983e b5cc ea3e 6a35 0b40
00000030: 87eb 17bf d348 313f 63c4 d73e 294d 09c0
00000040: cf21 17be cd59 a03f 7f7d 04c0 643e fb3f
00000050: 84a6 613f 885a 9bbf 8fca bebc c82e 2b3d
00000060: 41a7 62bf 0574 0540 1762 aabe b51f 7d3e
00000070: 4ed0 09c0 433d bebf b61d 9cbe f2e4 cc3f
00000080: 217f 7ebf f2dc 8b3d 8578 25be 1ccf 4b3f
00000090: 5a37 943f 433f 5b3f 7bf6 0540 b0d1 4cbf
000000a0: 5cff 523f 7ec3 583f 350d 793e 0738 133c
000000b0: ea53 e2bf bf3c 2bbf 4e10 c83e 6b7c ac3f
000000c0: c124 2ebf 5592 f9be 3be9 103e c061 bcbf
000000d0: a42b 77bf 2859 9a3f 9255 90bf 80b6 093e
000000e0: 3963 fa3d 01cf b83e 865f e0bb df08 48bf
000000f0: 35e2 82bd 1d7a df3e 3e33 193f dfab 62bf
00000100: 8528 753e bbe4 813e a336 f1be 8c6c 523f
00000110: 9e18 aabd 681f 3b3f 889f aebf 8e3c e0bf
00000120: 9638 c03f 7754 90bf 64b0 71bf be67 cebf
00000130: 77d8 93be 0066 f43e 5050 cdbf 187c 783d
00000140: f5d4 1cbf 7ea3 39bf bcc5 893f 5d54 803e
00000150: b981 d73d 870b d43e 7f29 ea3f 59db b9bf
00000160: 34e0 39be f577 1d3f 6ec7 1e3f b154 c0be
00000170: d5d4 643d 08fc 3abf 903e 3dbf a0ef 8dbf
00000180: d306 5f3f a6c6 61be a746 e7be 45cd 0cbf
00000190: 469c f73e f91a 4e3f 1fdd 12c0 581b cbbf
000001a0: 1d9a 133f 1298 6ebd 78cf dc3f b608 4c3e
000001b0: 43d6 74bf cc3f 373f c0ed b3be 3ef5 923f
000001c0: 95ee 2f3f 83ae ddbf e712 80be 0c36 333f
000001d0: 503e cd3d 4a20 b93f f83a 10bf aa1e 0cbf
000001e0: 5acc 68be 698c 79bf 95c5 8abf 990c 583f
000001f0: 8336 bf3e 4f27 873f 8e4b d6be 9ed6 133e
00000200: 503b 8e3f 6d07 17bf 647d 283f 7e92 7e3f
00000210: 56ea fe3f 6b03 62bf 954c d53e f45f 253f
00000220: 1a2e 20bf f63a 4cbf 104c 1340 475b bb3e
00000230: 1cc3 953f 7457 0a3e 2edb 52be b558 8abe
00000240: 6242 61c0 c631 f63e 640c c9bf 01d0 d23f
00000250: 2e32 bbbe 086b 6abb c6f7 0a3f 7986 aa3e
00000260: 9a58 ddbf 7c46 d1bc 21a3 13bf d584 7d3e
00000270: 2211 6ebe d784 90bf 42ab 24bf 1860 01c0
00000280: 1130 cb3f 44c3 90bf 0ef2 2e3e 1cc6 373e
00000290: 929d ed3f 22e8 8f3f e888 dfbe 2985 b43f
000002a0: 24ba 1f3e 4234 cd3e 9377 533f 93a1 0e3f
000002b0: 305d 2440 54ae acbf 2f7a a3bf e761 e4be
000002c0: c1b6 743f 5491 93bf 25f0 ca3e 3588 dcbe
000002d0: 875c 59bc fe91 b7bd 8189 0080 3f54 0b3b
000002e0: fa88 0000 f9ee 1b3c 7435 243f f2cf c53f
000002f0: e741 b339 b469 193f 1872 b23d 4e45 c8bc
00000300: 9a64 84bf 1aa0 a2bc 3083 e43d a6b2 ca3f
00000310: 08a1 453e 4f25 693f 3bda 6a3e 6c15 be3f
00000320: abfe 3e3f 2645 a23f a5a0 acbe 4e4b 1fbf
00000330: 3ac9 6f3e fb7c 84bf 431c b33f 4824 a73d
00000340: 12e9 c5bf 9815 003f 577e 09bf d4c9 4b3f
00000350: c45c b73e c46a 0f3f bd6f 3dbf 5b1c fc3e
00000360: cda8 9fbf 782f b3be 8867 20bf f91f 96bd
00000370: da9d 0b3f 21f3 813f e075 b93e 6309 143f
00000380: 0443 84be c8f2 80bf 0e4d cebe d198 99be
00000390: fc7e b0be 1219 adbf 1e90 1f3e 06a1 f0be
000003a0: 5dbf 52bf ce5e a1bf db9a e63e e461 38bf
000003b0: d16a aabf 224d 083f a59a 56bf 123b 33be
000003c0: adb1 f9bf e8ab 053f 57f5 d63e 253b 16bf
000003d0: fbb6 9d3e 109c b23f 6c78 7d3e 27ce e8be
000003e0: 5dae 923e 4459 2e3d 1877 03bf 46a0 b6be
000003f0: 2f2b 323d e588 0000 d8f1 47be ca25 00bf
0.8229073 0.20604564 0.13302118 1.0396887 -0.059522443 -1.7096188 -2.5853992 -0.9192034
0.9865013 0.2982099 0.45859304 2.1751351 -0.5934376 0.69251746 0.4214202 -2.1453345
-0.1475899 1.2527405 -2.0701597 1.9628415 0.8814471 -1.2137003 -0.023289947 0.04179266
-0.8853646 2.0852063 -0.33277962 0.24719127 -2.153339 -1.4862446 -0.30491418 1.6007369
-0.99412733 0.06829251 -0.16159256 0.796129 1.1579392 0.85643405 2.093169 -0.8000746
0.824209 0.846733 0.24321444 0.008985526 -1.7681859 -0.66889566 0.3907494 1.3475469
-0.6802483 -0.48744455 0.1415147 -1.4717331 -0.96550965 1.2058458 -1.1276114 0.13448524
0.122259565 0.3609543 -0.006847325 -0.78138536 -0.06390802 0.43647853 0.59843814 -0.88543504
0.23941238 0.2536982 -0.47111997 0.8219688 -0.083054766 0.730948 -1.3642435 -1.751848
1.5017269 -1.1275777 -0.94409776 -1.612541 -0.28876087 0.4773407 -1.6040134 0.06066522
-0.61262447 -0.72515094 1.0763469 0.25064364 0.105227895 0.41415045 1.8293914 -1.4520065
-0.18151933 0.61511165 0.62023056 -0.37564614 0.055867035 -0.7304082 -0.7392359 -1.1088753
0.8711979 -0.22048435 -0.4517109 -0.55000716 0.48361415 0.80509907 -2.2947462 -1.586772
0.57657033 -0.058250494 1.7250814 0.19925198 -0.9563944 0.7158172 -0.35142326 1.1481092
0.6872342 -1.7318882 -0.2501442 0.70004344 0.10021651 1.4462979 -0.5633998 -0.5473429
-0.22734204 -0.97479874 -1.0841547 0.8439422 0.37346277 1.0558871 -0.4185452 0.14437339
1.1111851 -0.58995706 0.6581633 0.9944228 1.9915264 -0.88286465 0.4165999 0.6459954
-0.62570345 -0.7977747 2.3015175 0.36593077 1.1700168 0.13509923 -0.20591423 -0.27020803
-3.5196767 0.4808485 -1.5706906 1.6469728 -0.36561722 -0.0035769362 0.5428432 0.3330572
-1.7292664 -0.025546305 -0.5767079 0.24757703 -0.23248723 -1.129054 -0.6432382 -2.02149
1.5874044 -1.130959 0.17084524 0.17946666 1.8563712 1.1242716 -0.4365914 1.4103137
0.15598351 0.40078932 0.8260433 0.5571529 2.5681877 -1.3490701 -1.2771662 -0.44605944
0.9559136 -1.1528726 0.3963634 -0.43072668 -0.013266689 -0.08963393 -4.9327e-41 0.0021259931
4.9138e-41 0.009517425 0.64144063 1.5454085 0.00034190642 0.59926915 0.08713168 -0.02444711
-1.0343201 -0.019851733 0.111578345 1.5835769 0.1929971 0.91072553 0.22934811 1.4850287
0.7460734 1.2677352 -0.33716312 -0.6222428 0.23416606 -1.0350641 1.3993 0.08161217
-1.5461752 0.5003295 -0.53708404 0.7960484 0.35812962 0.56022286 -0.73998624 0.49240384
-1.2473389 -0.34997153 -0.62657976 -0.07330317 0.5453774 1.0152322 0.36222744 0.57826823
-0.2583238 -1.0074091 -0.40293163 -0.29999402 -0.3447188 -1.3523276 0.1558232 -0.4699785
-0.8232325 -1.2607057 0.4504002 -0.7202437 -1.3313848 0.53242695 -0.8382972 -0.17503002
-1.9507347 0.52215433 0.41984054 -0.58684 0.30803666 1.3953876 0.24752969 -0.45469782
0.28648654 0.0425656 -0.513536 -0.35669154 0.043498214 4.9109e-41 -0.1952585 -0.5005766

x_embedding.weight f4 [371, 36]
00000000: 954c 033f 1ac2 fb3f 39e5 0180 c5e2 a6be
00000010: debe 32bd 056a 8cbd 8e0f 3b3f 5a3e 8a3f
00000020: 3565 053e f125 773f 2935 f4bd 9899 9cbf
00000030: f2e7 ef3f 4b7b d13e ccc0 423e cc57 4f3d
00000040: db1a 123f dd9f 043e df20 0bbd 8349 d9be
00000050: bea1 253f dda9 f7bf 3355 5a3c 95f5 10c0
00000060: ec12 30bf 4ab1 90be ce4a 533f 9150 aebe
00000070: a930 6f3f e518 bbbd 06a9 2b3e dc5c d73c
00000080: 671c 33bf ecd2 b2bf 50ee 2ebd 7c59 3d3f
00000090: b623 d93f 051c b53f c447 30bf feb2 31c0
000000a0: 43ab ecbd 2af0 d3bd 9104 a5bc a44d 85bf
000000b0: 98cd df3d 4cc0 c938 cf5a cc3f 56c6 ac3e
000000c0: 185a 143f 09b9 043f 8046 10bf 0963 b0bb
000000d0: 04b4 98bf 3bbc 82bd a3d5 8fbe 50b7 56be
000000e0: b124 f3bd f3f9 1940 1f36 a33e 5817 93bf
000000f0: 3ee3 d0b4 8b03 883e 690b 5b3f 19b6 923f
00000100: b5f5 a4be 13c7 853f 1275 a4bf 8050 4bbf
00000110: 232a 90bf 6ada e23e 3b19 9ebf d0eb e5bf
00000120: 9599 9b3e 47e1 3a3d c8d3 f9be 5ddc bebe
00000130: 8b28 b5b2 4012 35bf 3bee 393f 185e cb3c
00000140: 8a8d 0dbb e062 c8b6 29ce 003d a181 ddbf
00000150: 549e 06c0 dfd0 3cbd 2f2b 173f 252a 07bf
00000160: 787b b73c 908b 1bbf dda9 013f 166c e7bd
00000170: 55cd 713e 4ee8 6e3f b40e cd3f 1000 08be
00000180: 4103 65bf 303c 523f 31c3 ac3f bb05 ed3e
00000190: e6b6 f8ba c526 de3a 52d9 54bf 3615 7337
000001a0: 0bb9 3d1b 24fb 67bf aa2a 073e 6366 89bf
000001b0: 8255 293f a2ea f43f 1f2b a3bf 7f47 93bb
000001c0: 5fa8 93be 4767 3cbe 6a93 b93f 2cf6 a33d
000001d0: 9798 afbe cd38 3abe 5da7 92bf d4d3 e5be
000001e0: 79fd a33f def8 392b 4ec8 10ba 3989 0000
000001f0: 5cf2 59bf c291 d0be 4201 e83e 08e3 8e3e
00000200: f74c 9cbf e289 0080 8d60 723f d083 f53e
00000210: efbf 8332 b2ef d73a 5536 2b3f fa3c cbbe
00000220: 63a7 b63f 3368 daae 9943 ca3a 26b3 663e
00000230: e5f6 1d3f 8a67 0ebe 7d61 3dbf 0dbf 193f
00000240: c049 793f f0a1 0b3b 0a6a e0be 264d 943e
00000250: 03b1 9cba 1cc1 5cbd a1ca 1d20 32a4 b93d
00000260: 608d 02be ddf2 18bf de7e d73d 4bad a0bf
00000270: c2de b83e e780 83be 2225 0a3b e774 ebbc
00000280: d871 913e 4d64 cbbf d64f 939a cb83 ea3f
00000290: 97f0 a83d 34d0 1d3f 2e7b e9be 32a7 4ebe
000002a0: 24ba 02bf c5ff 3cbf a02b d02a 7957 9abf
000002b0: 12f7 ffba 763e 503e 5ae5 273f 8c42 90bf
000002c0: d1dd 1b34 2f84 b23e 6efe 0a3e f1d3 babf
000002d0: ca44 553c dde5 4e3e ab2d 093e 7932 3329
000002e0: dfd5 c1bf 9f5b 6dbe 448b c93c 7231 633f
000002f0: aa93 082d 1a34 3dbe e2f7 163f b942 6ebd
00000300: 1287 c3be 68be d23e f1f8 09bf 6b49 273f
00000310: ae09 143f 4289 5d3f 9088 113f 70b0 17bf
00000320: 2ff1 fbbf 667a 32bf 4426 b9be 6668 143f
00000330: 6348 633f c6b7 403f a4a4 573f a01f 88bf
00000340: 5b5e 673f b6df 043f 33b2 83b4 1039 373f
00000350: 06f3 863f df88 0080 878a 0080 782e 67be
00000360: 7674 c5bf 1fac febd 8054 f13e 833c 643f
00000370: 49ff 95bf 5146 75bc d975 cbbc d180 493f
00000380: c74d e53f b645 afbf bf47 263f a50e 6bbd
00000390: fc3c 8bbb 708a 0080 f75a dfbe dccc 1a9e
000003a0: 2857 a1bf da89 0080 ad26 aabf 54bf f7bd
000003b0: 3872 ac3f 3aa9 773e eb29 2c3b 03a7 b933
000003c0: abdc 81bf 12f2 9a3d 098f 8a3f 0a38 be3f
000003d0: 72e8 a9be 1564 9a3e d075 c9bf 99d5 3b3f
000003e0: 17e9 64be 0ba3 eebe bc88 0080 f7c0 06bf
000003f0: df74 2b3c c3a7 8e3d 0489 0080 9d3a 88bf
0.5128873 1.966861 -1.74065e-40 -0.32594886 -0.043639056 -0.06856159 0.7307061 1.0800278
0.13026889 0.9654227 -0.11924202 -1.2234373 1.8742659 0.40914378 0.19018859 0.05062084
0.5707223 0.12951608 -0.033966895 -0.42438897 0.64699924 -1.9348713 0.013325977 -2.2649891
-0.6877887 -0.2826026 0.8253602 -0.34045842 0.93433625 -0.09135608 0.16763696 0.026289396
-0.69965214 -1.3970618 -0.04270774 0.7396467 1.6964023 1.4149176 -0.68859506 -2.7765498
-0.11556103 -0.10348542 -0.020143779 -1.0414319 0.10927886 9.620245e-05 1.5965213 0.33745068
0.5794997 0.5184484 -0.56357574 -0.0053828997 -1.1929936 -0.06383558 -0.2809268 -0.20968366
-0.11872233 2.4058807 0.3187723 -1.1491499 -3.890836e-07 0.26565203 0.85564286 1.1461822
-0.3221871 1.0451378 -1.2848227 -0.7941971 -1.1262859 0.44307262 -1.235145 -1.7962589
0.3039061 0.045624997 -0.4879439 -0.372775 -2.108961e-08 -0.7073097 0.72629136 0.02482514
-0.0021599256 -5.971975e-06 0.03144661 -1.7305185 -2.1034136 -0.046097632 0.5905027 -0.5279868
0.022397742 -0.6075983 0.50649816 -0.11299913 0.23613484 0.9332322 1.6020112 -0.13281274
-0.8945809 0.8212309 1.3497068 0.46293435 -0.0018975406 0.001694881 -0.83144104 1.4488867e-05
1.5693504e-22 -0.90617585 0.13199869 -1.0734371 0.661461 1.9134104 -1.2747535 -0.004494607
-0.28839394 -0.18398772 1.4498112 0.08005938 -0.34296104 -0.1818573 -1.1457325 -0.44888175
1.2811729 6.6070576e-13 -0.0005523012 4.9226e-41 -0.85135436 -0.40736204 0.4531346 0.27907586
-1.2210988 -4.9463e-41 0.94678575 0.47952127 1.5337688e-08 0.0016474633 0.6687978 -0.3969496
1.4269832 -9.932002e-11 0.0015431523 0.22529277 0.61704856 -0.13906685 -0.7397688 0.60057145
0.9737816 0.002130624 -0.438309 0.2896511 -0.0011954609 -0.0538951 1.3365462e-19 0.09064521
-0.12749243 -0.5974558 0.10522245 -1.2552885 0.3610745 -0.25684282 0.0021079262 -0.028742267
0.28407168 -1.5889984 -6.092676e-23 1.832147 0.08249014 0.6164582 -0.4560179 -0.20180967
-0.5106528 -0.73827773 3.6978493e-13 -1.2057945 -0.0019528589 0.20336327 0.6558434 -1.1270308
1.4516196e-07 0.34866473 0.1357362 -1.4595929 0.013016889 0.20204873 0.13396327 3.9789762e-14
-1.5143393 -0.23179482 0.02460254 0.8874732 7.763493e-12 -0.18476906 0.5897199 -0.0581691
-0.38188988 0.41160893 -0.5389548 0.653464 0.5782727 0.86537564 0.56849 -0.592536
-1.9682978 -0.69718015 -0.36162007 0.579718 0.8878233 0.75280416 0.84235597 -1.0634651
0.9037835 0.51903856 -2.4530308e-07 0.71571445 1.0542915 -4.91e-41 -4.9694e-41 -0.2257632
-1.5426166 -0.12435173 0.4713478 0.89154834 -1.1718532 -0.014970378 -0.024836468 0.78712183
1.7914361 -1.3693149 0.64953226 -0.057387013 -0.0042492133 -4.9662e-41 -0.43624088 -8.195056e-21
-1.2604723 -4.9452e-41 -1.3293053 -0.1209704 1.3472357 0.24185649 0.0026270102 8.645113e-08
-1.0145468 0.075657025 1.0824901 1.4860852 -0.33185154 0.30154482 -1.5739079 0.733728
-0.22354542 -0.46608767 -4.9051e-41 -0.5263819 0.010464876 0.06965592 -4.9152e-41 -1.0642887

e_embedding.weight f4 [2, 36]
00000000: 1685 983f 43bd 2d3f c1a0 b33d f933 18bf
00000010: 6abd c9be df5b 7e3f 3f4e 85be e668 9cbe
00000020: 9a4e aebd 68ba 80bf f379 b4be bae0 a23e
00000030: fc50 cabf ad01 90bf 73cc 243f 51f2 cc3e
00000040: 2009 d2bf 2395 483f 192f 303f 4c69 c9bf
00000050: 4db5 43bd 7f8d 1dbf 5325 273e bed9 88be
00000060: 446f 1bbe de77 063e 756e 373d 9424 503f
00000070: 5b69 ce3e 89d6 4abf e8fd c83c 6bf9 fcbe
00000080: 6248 593f d643 353f e900 3fbf a43e b0be
00000090: 633b a3bf 6699 1a3f 06c8 953f c12a 5abf
000000a0: 8a57 04bd 492c 7abe 1bf4 993f 2a5d 9abe
000000b0: 0eda 893e 95c9 8ebf bc48 3d3e 36bd e8be
000000c0: 4c13 a73f b112 64bf 0377 52bf 01de 8abe
000000d0: 0e0a 0b40 b2f7 f73d 19ff 9b3f f552 203e
000000e0: fdbb d23f 08c0 06c0 9cef 34bd 0e78 26bd
000000f0: d462 e1be f330 d1be a8cb 20bf b52f ccbe
00000100: efa6 8b3e 1dad c93e 2ae4 383f 5ecc c13f
00000110: c164 963f 7d10 b63f 19b4 ca3e 066b 183f
1.1915615 0.67866915 0.08770896 -0.59454304 -0.39402324 0.99358934 -0.2603626 -0.3054878
-0.08511086 -1.0056887 -0.3524929 0.31812078 -1.5805964 -1.1250511 0.64374465 0.40028623
-1.6409035 0.78352565 0.68821865 -1.5735259 -0.047780324 -0.6154403 0.16322832 -0.26728624
-0.15179163 0.13131663 0.044783074 0.81305814 0.40314755 -0.79233605 0.024535134 -0.4940904
0.8487607 0.70806634 -0.74610764 -0.3442279 -1.2752498 0.6039032 1.1701667 -0.8522149
-0.032310046 -0.24430956 1.202762 -0.30149204 0.26924175 -1.1155268 0.18484777 -0.45456856
1.3052764 -0.8909102 -0.8221285 -0.271225 2.1724887 0.12107791 1.2187225 0.15656646
1.646362 -2.1054707 -0.04417382 -0.040641837 -0.44020712 -0.40857658 -0.62810755 -0.39880148
0.27275798 0.39389887 0.7222315 1.5140493 1.1749498 1.4223782 0.3959053 0.59538305

h_embedding.weight f4 [36, 72]
00000000: c6d0 b4bd a9e6 753d f572 293e f821 35bd
00000010: f73c 5ebe 5065 683d e6a4 c73d 8e34 22be
00000020: 1edd 60be 8e80 4b3e 9bf8 64be a1e4 72be
00000030: e56f 473e 2aa1 773d b644 fdbd 434f 9cbd
00000040: 94a0 6a3e 225c 343e edd6 f3bd 1f46 cfbd
00000050: 64b6 10bd 307e cd3d 9cae 203e b4f8 32bd
00000060: 818f 2fbe bab0 b43d c1ca 1f3e 6067 5ebe
00000070: 519b f43d 5245 39be 6bfa f93d 9bec 9a3d
00000080: 5143 943d bf50 1d3d ccc5 4bbc c6c8 28bb
00000090: 69dd d5bd 2112 dcbd a0a0 cf3c cac3 e73c
000000a0: ccc2 803d e748 dc3d b45c 4bbe aac2 cd3d
000000b0: 8ef6 683e 5990 59be cd78 50bd ce56 5bbd
000000c0: 1669 593e 1855 2bbd 874b 743d e7f7 6c3e
000000d0: 6371 843d a811 35bd 575a e0bd 5797 b53d
000000e0: 1267 d8bc 924b 99bc 3186 e3bd da62 4b3e
000000f0: 2826 493e b5d0 053d 1822 55bd 6780 30bc
00000100: f7c9 423d 9d4b 4e3d b542 253e 5ad5 a53d
00000110: b273 44be 3188 5ebd 1207 e0bc 97b9 39bd
00000120: 6f90 3cbe 7b85 4bbe d91d a43d c020 7fbc
00000130: 71a0 7cbd 09df 413e 57fc 073e 4af7 91bd
00000140: 6d22 f6ba bcd2 5c3e 5894 f73c 8c08 fc3d
00000150: 619a 06bd f15a fb3d 57d9 643d 11a2 a4bc
00000160: 8ff2 cc3d 2948 1abb aa29 35bd 087d 073e
00000170: 7e03 a6bd 4ed8 033e 8995 92bc 656d c2bd
00000180: a09e 80bd 7e76 523d 9d85 d3bc 46a6 29be
00000190: 155f 4f3c f3f0 bebd abe6 783d 19a0 d8bb
000001a0: f2f8 533d 98c7 5d3d 91b2 903d 3d76 d23d
000001b0: 280c 5dbe be5a 2cbe efbb 20be 4987 c73d
000001c0: 9c2c 643e 4fb2 b2bc f63e c8bd d7ab 483e
000001d0: bc60 9b3d 6582 313e e915 eebd 9c7f 413e
000001e0: ba9d 953d b9c2 d73c cf63 ca3d ac98 45bd
000001f0: 1523 253e d1d7 3bbe 03a1 4dbe 8368 5a3e
00000200: db68 64be 1a32 cf3d 68f9 48bb 759e c7bd
00000210: 9dd6 de3d 987d 32be e870 bbbd b256 c5bc
00000220: 6faa 593e 55c5 ec3c fa20 bcbc 2322 303e
00000230: 1820 0a3e db7b 0a3e 2edd 01be c167 17be
00000240: a9bf 763e 1e25 c5bc 68d4 debd f1ed 6fbe
00000250: 3d99 c93d e14b 953d 6e72 cabd 4a84 423e
00000260: 873d 25be 5d15 0c3e 95aa db3d 780e fcbd
00000270: 3010 09be 6008 303d 0117 b33d ad36 d73d
00000280: b69c a93c d8b2 1d3d 56e0 49be 868d 163e
00000290: bbc9 173e c4a8 e7bd e55f 9fbd 3546 abbd
000002a0: 7441 62be 1d70 9a3d 0021 22be 3681 503e
000002b0: 3e6c f0bd d297 683e 9fd8 45be c88f df3d
000002c0: bf0f 4c3e 0f58 20be a412 51be c5b6 35be
000002d0: 78ba 46bd 147d 00be 35a4 23be 1ee6 81bc
000002e0: 862c 4c3e 6798 0f3e 1f67 18bc b546 1bbd
000002f0: c896 313e abf5 62be a9be 6bbe fcae 06be
00000300: 80e8 e33d 9a80 98bd 3e72 b13c f1ac 1fbe
00000310: 3e24 543e 7410 1e3e 68d3 d4bc 55b9 603e
00000320: 9770 ef3d deba 393d b379 a03c 9c6c b0bd
00000330: dfb3 0ebe 15f2 3c3e a3bf 283e 1ff2 6ebc
00000340: b705 ecb9 d1d7 2e3e 32d9 5b3e 6fc8 073e
00000350: a80b b43d 4ab5 86bd 99f4 0abe 3c71 01bd
00000360: ce89 3b3d 9f78 1d3e ed8b 983d 1f9d 70be
00000370: e63e 343e 357f 643e af48 a23c ce99 8bbd
00000380: 439a 36be f0d3 343e e9d1 4c3e 0c18 09be
00000390: 2365 02be 25be 563e 04cb f1bd 6292 9abd
000003a0: b1bb eebd f3a8 3c3d 4b19 12bb 9883 11be
000003b0: c8e0 36be 0a2d 4dbe d881 e7bc 7e71 4b3e
000003c0: 1d58 1bbe 552f a33d 5e13 4ebd c727 f23d
000003d0: eadc 88b8 048a ff3d 922d d73c d479 06bb
000003e0: 58c5 91bd 0d57 7c3d 08e4 20be 6564 98bc
000003f0: 324c ebbd 0ee5 273c d711 15be 1617 d43d
-0.08828883 0.060034428 0.16547759 -0.04422185 -0.21702944 0.056737244 0.09748249 -0.1584036
-0.2195935 0.19873258 -0.2236046 -0.23720028 0.19476278 0.060456432 -0.12366621 -0.076323055
0.22912818 0.17613271 -0.11906228 -0.101207964 -0.03533019 0.10033834 0.15691608 -0.043694213
-0.17144586 0.088227704 0.15604688 -0.21719122 0.11943687 -0.1809285 0.122059666 0.0756466
0.07239402 0.038407084 -0.012437295 -0.0025754436 -0.10442621 -0.10745645 0.025345147 0.028291602
0.062871546 0.107560925 -0.19859582 0.10046895 0.22750303 -0.2124647 -0.050896455 -0.05354958
0.21231493 -0.0418292 0.05964234 0.23141442 0.06466939 -0.04420629 -0.10954731 0.088667564
-0.026416335 -0.018712793 -0.11109579 0.19861928 0.19643462 0.03266974 -0.052034467 -0.010772801
0.04755589 0.05036508 0.16138728 0.08097334 -0.1918476 -0.0543291 -0.027347121 -0.045343008
-0.18414472 -0.19875138 0.080135055 -0.015571773 -0.061676446 0.18932737 0.13279854 -0.07127245
-0.001877857 0.21564764 0.030222103 0.12306318 -0.03286207 0.12273205 0.055871334 -0.02009681
0.10007202 -0.0023541546 -0.044229187 0.1323129 -0.08106135 0.12875482 -0.01789357 -0.094935216
-0.06280255 0.051382534 -0.025820548 -0.16567335 0.012656947 -0.09323301 0.060766857 -0.006610882
0.051751085 0.054145426 0.07065309 0.102764584 -0.21586668 -0.1683149 -0.15696691 0.097426005
0.22282642 -0.02181354 -0.09777634 0.19596802 0.0758681 0.17334898 -0.11625273 0.18896335
0.073054746 0.026337968 0.09882318 -0.048241302 0.16126664 -0.18344046 -0.20080952 0.2132893
-0.22305624 0.10116978 -0.0030666236 -0.0974702 0.10880778 -0.17430723 -0.091523945 -0.024089191
0.21256422 0.028902689 -0.022964943 0.17200522 0.13488805 0.1352381 -0.1268203 -0.14785673
0.2409655 -0.02406555 -0.10880357 -0.23430611 0.09843681 0.072898634 -0.09885107 0.18995777
-0.16136752 0.13680024 0.10725895 -0.12307447 -0.13385081 0.042976737 0.08744622 0.105084755
0.020704608 0.038500637 -0.19714484 0.14702424 0.14823048 -0.11311486 -0.07781962 -0.08363
-0.22095281 0.07540915 -0.15832901 0.2036179 -0.117393956 0.22714165 -0.19320916 0.10916096
0.19927882 -0.15658592 -0.20417267 -0.17745502 -0.048517674 -0.12547714 -0.15980609 -0.015856799
0.1993886 0.1402298 -0.00930193 -0.03790923 0.17342675 -0.22164027 -0.2302195 -0.13152689
0.1112833 -0.07446404 0.02166092 -0.15593316 0.2071695 0.15435964 -0.025979713 0.21945699
0.11691397 0.045344226 0.01958928 -0.086144656 -0.13935803 0.18451722 0.16479354 -0.014584093
-0.00045017686 0.17074515 0.21469572 0.13260053 0.08791286 -0.06577547 -0.13569869 -0.03160213
0.045785718 0.15378045 0.07448564 -0.23497437 0.17602119 0.2231415 0.019810049 -0.06816445
-0.17832284 0.17658973 0.2000195 -0.1338808 -0.12733893 0.20970972 -0.118063 -0.075474516
-0.11656893 0.04605956 -0.0022292908 -0.14210355 -0.17859185 -0.20036712 -0.028260157 0.19867513
-0.15170331 0.07968012 -0.05031144 0.11823993 -6.526134e-05 0.12477496 0.026266847 -0.0020519393
-0.071177185 0.061606456 -0.15711987 -0.01860256 -0.114891425 0.010247482 -0.14557587 0.10355966

h_embedding.bias f4 [36]
00000000: a2d6 f7bb 2107 14bc 413d b1bc 9504 843b
00000010: 1dc4 94bc a4ba 853c 931e 883c 7046 1cbc
00000020: 8e6b 82bb 28bc f9ba 1afc c03b dfc4 06bb
00000030: a54e 203a 0ef5 6fbb 911d cdbb b534 883a
00000040: ab4d 463c 9236 983b 5374 8a3c f721 153b
00000050: c17c bd3b ec58 d0ba e624 4abc 9a8b ab3b
00000060: 80af 6abb 72ae 1d3c e65e 793b 99df 303c
00000070: 1dd1 aa3b e5d5 2dba 2498 81bc 1c12 17bb
00000080: 95fc 30bc d2bf ab3b 2bb4 373b 6637 d43b
-0.007563428 -0.009034903 -0.021635653 0.0040288665 -0.01815992 0.016324349 0.016616141 -0.009538278
-0.0039801067 -0.0019053267 0.005889428 -0.0020564122 0.00061152346 -0.003661457 -0.006259628 0.0010391684
0.012103478 0.004645177 0.01690117 0.002275584 0.005782694 -0.0015895641 -0.012337899 0.0052351477
-0.0035810173 0.009624111 0.0038050949 0.010795497 0.0052129165 -0.0006631299 -0.015819617 -0.0023051566
-0.010802408 0.0052413726 0.0028030972 0.0064763306

initial_layer_norm.weight f4 [36]
00000000: 4078 7a3f d2b4 7a3f c330 7b3f 8798 7c3f
00000010: 0252 823f 7415 7b3f 1d52 7d3f 543d 7b3f
00000020: a228 793f 0819 7f3f 9718 7e3f c409 7d3f
00000030: a9cf 7d3f 2e1f 7a3f 2f8d 7c3f 2dae 7e3f
00000040: 985b 7a3f e666 7c3f 6131 7c3f ddf6 7b3f
00000050: c3ec 7f3f f232 7b3f ee37 7c3f 50b6 813f
00000060: b7ca 783f bd76 7a3f 40d6 793f 4e74 7d3f
00000070: b6f9 7c3f 8970 7d3f 7660 803f f954 7d3f
00000080: c996 7f3f 8ec4 7d3f 2c5b 803f b16c 7d3f
0.97839737 0.9793216 0.9812128 0.9867024 1.0181277 0.9807961 0.9895342 0.98140454
0.97327626 0.9964757 0.9925627 0.98843026 0.9914499 0.97703826 0.9865293 0.9948452
0.9779601 0.9859451 0.98512846 0.9842356 0.99970645 0.9812461 0.9852284 1.0133762
0.9718432 0.9783743 0.97592545 0.9900559 0.9881853 0.9899984 1.0029438 0.98957783
0.99839455 0.99128044 1.0027823 0.98993975

initial_layer_norm.bias f4 [36]
00000000: 48fe 113b e283 cdbb 69d8 dabc cba9 613c
00000010: 42b9 81bc ba1a 713c d425 203c 79c9 3dbc
00000020: 657f 9dbb 4ccd b43a 341c 083c a656 973a
00000030: ef16 f7ba c9e8 873b e288 9cba df5b 0eb9
00000040: b4b8 c53b 7458 08b9 859c c13b cf6c b5bb
00000050: 7aff 173b ba1b d13b fe7f 24bc 66ca a73b
00000060: c136 163b 0bb6 da3b a5d4 1d3b b284 dc3b
00000070: e292 f43b b9f9 70bb 2761 b0bc 0931 44bc
00000080: 7bcc 0fbc f518 563b e1d0 0b3b ca5d 2d3b
0.0022276808 -0.006271825 -0.02671452 0.013773392 -0.015835408 0.014715845 0.009774644 -0.011583679
-0.0048064464 0.0013794093 0.008307505 0.0011546209 -0.0018851439 0.004147623 -0.001194265 -0.000135764
0.006033981 -0.00013002922 0.005908551 -0.0055366526 0.0023193047 0.006381479 -0.010040281 0.0051205633
0.002292082 0.0066745332 0.0024083045 0.0067296857 0.007463799 -0.003676994 -0.0215307 -0.0119745815
-0.008776779 0.0032668684 0.0021334218 0.0026453608

layers.0.attention.Q.weight f4 [36, 36]
00000000: 0513 d839 3d21 43bd 4bbf a8ba 43c7 80bb
00000010: f0df d13b 080c 6b3d 3fd4 a6bb 3b49 44bd
00000020: c1a1 48bc 11e8 893d b015 5bbc c898 3f3d
00000030: f804 c1bd efa6 df3c ba31 48bd e2e7 c2bc
00000040: 1abc b43d eedf 51bd 60a2 8c3d 2ebb c2bc
00000050: de44 713d e499 1e3d 8780 8c3c 0a86 f3bd
00000060: 77e9 a5bb 2ecf 863c a83a 51bc f12a 19bd
00000070: 521f 23bd 6413 793d dcda e9bb 1cc3 b3bb
00000080: 4474 41bb b16d 7e3c 5bf6 2bbd 0f8c a4bd
00000090: 98d5 e4bc 25eb 613b a3f9 d2bd f62d 85bd
000000a0: 01b9 37bd bb79 04be 5c90 3dbd 3ce0 de3d
000000b0: 911f bfbd b1ff e83d e8a2 43bb 3943 e73c
000000c0: d5d2 c2bd 574d 933d fb68 043d c360 183e
000000d0: 5052 f23d a12a 273e 8a0f f1bc 0eea 213d
000000e0: 1f6a 003d 12fe cb3d e21a e3bd 5031 2e3e
000000f0: b269 403d 9f57 20be a94b 93bd a7e4 b63c
00000100: 25e7 463c 8745 a53c 5504 1ebe dcbb e23c
00000110: a71b b23d 0247 5cbd a1f2 183e 332a 403d
00000120: 1728 903d ee20 6b3e 2243 7b3e d5d1 67be
00000130: a1a5 01be ae22 d43d 1f06 dfbd 633f 15bc
00000140: 6598 7abe b427 58bd 84ac 6ebe f7c7 413e
00000150: 7277 153e 3444 50be d4c7 143d 049d 78bd
00000160: 4250 4abe fc48 313d dba1 bb3c 8b11 0c3d
00000170: 52d4 063e 928b d6bd 8b7f f1bd e266 6a3e
00000180: 1d78 57be 707d 55be 0346 98bd 20d2 0b3e
00000190: 5ba3 c93d 0704 aabd babf 3dbc 6255 6c3d
000001a0: 9ad9 093e 24a6 86bc c38f ba3d 53e6 0dbc
000001b0: b579 3e3e 3d43 633e 8a56 3bbe 6e52 66be
000001c0: ce7e 93bd ce18 5f3e ef13 0c3d 90d0 053e
000001d0: b636 ad3d 37f6 33bd 006d 0dbe 17d5 0ebe
000001e0: 2c21 af3b c45b 093e 49b1 05bd d020 983d
000001f0: b215 393e 2a24 ce3d 4aab ea39 c5e2 1cbe
00000200: 31c2 1abe 47ec 60bd 586f 3e3e eb48 39be
00000210: abac 513e 20c8 5f3e 438d 3f3e 96aa 91bd
00000220: 36df 273b bccd 343e 0b63 6e3e 0fa2 13be
00000230: 6aa0 b4bd 5ac2 13bd 2944 e33c ccd7 573e
00000240: b602 bebd a4ca 86be 2bb2 20bd 65e0 de3a
00000250: e9b3 e6bd 8427 ff3d 24b2 0dbd c6d8 a0bd
00000260: b0cf 81bd af54 2f3e d543 2cbc 490f 813e
00000270: 0cc5 f7bc 39f1 b13d fec7 43be 6854 753e
00000280: 3f7f 1cbe c0c8 63ba d796 713d f760 1b3e
00000290: a371 843e c455 66be 104c 743e af39 2ebe
000002a0: 5c4a 843e 13aa ac3c 6496 293e 1a9f 7a3e
000002b0: 189d 2c3e 1a59 243e 3f82 55bd 2e90 42be
000002c0: f3da 433e 99f8 81be 9b32 cf3d 1b40 883d
000002d0: 9be6 683e 14ec 0cbe efa4 583b 4752 83bc
000002e0: 27df 7fbe 7b56 bc3d 31c9 0ebe 9ac6 893e
000002f0: 9a68 8a3e c33f e1bd 209a d43c 14cf 37be
00000300: e90c 8d3e 3b65 14be 522e 88bd 290a 4f3e
00000310: 64b8 91be da4c 81be ec50 573e ca92 ce3b
00000320: af08 07bc 39e1 903c f187 22bd a4dd f0bc
00000330: 3b4f 3d3d 091a 643d f5fb 5dbc d477 15be
00000340: fc78 ba3d 405e 8e3d 968c 20be 3058 273e
00000350: 0872 963c 1fbf 1ebd 0f2e b3bd f107 2fbe
00000360: 13d2 13be 2c88 4fbe 99d7 21be 196b 743e
00000370: d5ca 65be 5803 d63d 42ad 8ebc 1b6a 2b3e
00000380: 0b4d fd3d 2614 a03d bfaf 763c 0c96 6a3e
00000390: 1303 33be 7b60 a33d e41f 36bd e150 663d
000003a0: d7ba 063e 9300 60be 3d11 b1bc fed3 58be
000003b0: 1cb8 893e d5d2 44be fcf6 6ebe bd45 87be
000003c0: b726 5e3e 72cb 76be 382c 36be ef96 4ebe
000003d0: 821e 493c 3241 e4bc 2831 153e 2805 1ebe
000003e0: c312 72be e452 40be 9974 1d3e 04bb 21be
000003f0: bd91 e3bc 87ff 32be b80a 5c3d bca0 41be
0.000412129 -0.04763912 -0.0012874393 -0.003930004 0.0064048693 0.05738452 -0.0050912197 -0.0479214
-0.012245596 0.06733716 -0.01337187 0.046776563 -0.09424776 0.02730128 -0.048875548 -0.023792211
0.0882494 -0.051238947 0.06866908 -0.023770895 0.058903567 0.03872098 0.01715113 -0.118908
-0.0050632316 0.016456213 -0.012770332 -0.037394468 -0.03982479 0.060809508 -0.007136686 -0.0054859053
-0.0029518763 0.015529082 -0.04198299 -0.080345266 -0.02793388 0.0034472432 -0.10301521 -0.06502907
-0.044854168 -0.12937061 -0.04628025 0.10882613 -0.09332193 0.11376894 -0.0029851738 0.028230296
-0.09512869 0.07192486 0.03232668 0.14880662 0.11832106 0.16324855 -0.029426355 0.039529853
0.031351205 0.099605694 -0.11089112 0.17010999 0.0469758 -0.15658425 -0.071921654 0.022325827
0.01214007 0.020174755 -0.1543134 0.027677469 0.086966805 -0.053778656 0.14936306 0.046915244
0.070388965 0.2296178 0.24537328 -0.22638638 -0.12660839 0.10358177 -0.108898394 -0.009109351
-0.24472196 -0.05277224 -0.23307997 0.18923937 0.14596346 -0.20338517 0.036323383 -0.060696617
-0.19757178 0.043282494 0.022904327 0.034196418 0.13166931 -0.1047584 -0.11791905 0.22890809
-0.21041913 -0.20848632 -0.07435229 0.13654375 0.09845611 -0.083015494 -0.011581356 0.057698615
0.13461915 -0.016436644 0.091094516 -0.008660871 0.18601115 0.22193618 -0.18294731 -0.22492382
-0.072019204 0.21786806 0.034198698 0.13067842 0.08457701 -0.04393598 -0.13811111 -0.13948475
0.0053445306 0.13413912 -0.032639775 0.074281335 0.18074682 0.100654915 0.00044759578 -0.1532088
-0.1511314 -0.05491283 0.18597162 -0.18094222 0.20476024 0.21853685 0.18706231 -0.07112615
0.0025615222 0.17656606 0.2327997 -0.14417289 -0.08819659 -0.03607402 0.027742462 0.21078414
-0.09277861 -0.26326478 -0.039232414 0.0017004131 -0.11264784 0.12458709 -0.034593716 -0.07853846
-0.06338441 0.17122148 -0.010514219 0.25206974 -0.030245326 0.08688588 -0.1911926 0.2395798
-0.15282916 -0.0008689277 0.058981743 0.15173708 0.25867948 -0.22493654 0.2385714 -0.17014192
0.25837982 0.021077191 0.16561276 0.24474755 0.16856802 0.16049615 -0.052126165 -0.19000313
0.19126491 -0.25384977 0.10117074 0.06652852 0.22744219 -0.13761932 0.0033057292 -0.016030444
-0.2498747 0.09196182 -0.13943936 0.26909333 0.2703293 -0.1099849 0.025952399 -0.17950088
0.27548912 -0.14491741 -0.0664946 0.2021872 -0.2846099 -0.25253946 0.21026963 0.0063041197
-0.008241816 0.01768552 -0.039680425 -0.029402561 0.04621814 0.05568889 -0.013548841 -0.14596492
0.09105107 0.069515705 -0.1567863 0.16342235 0.018364921 -0.038756486 -0.08749019 -0.17092873
-0.14435606 -0.20266789 -0.158049 0.2386898 -0.22440656 0.104498565 -0.0174166 0.16739695
0.123682104 0.07816343 0.01505655 0.22908801 -0.17481641 0.079773866 -0.044464007 0.056229476
0.13157211 -0.21875219 -0.021614665 -0.21174619 0.26898277 -0.19221051 -0.23336405 -0.26420394
0.21694456 -0.24101046 -0.17790306 -0.20174764 0.01227534 -0.027863119 0.14569533 -0.15431654
-0.2363997 -0.1878162 0.1537651 -0.15793997 -0.027779454 -0.17480288 0.05372116 -0.18908972

layers.0.attention.K.weight f4 [36, 36]
00000000: 5ada c4bd beb8 8e3d d57d 203d d9a8 d63d
00000010: 90eb 343d 0dd3 a5bd 14ac ce3c e94b b8bd
00000020: d154 1abc 6916 bdbc 0a61 cd3d 4e13 6fba
00000030: 2da8 39bd 56d4 adbc 4f8b 9bbd 36cc fbbc
00000040: fbed 7b3d 3c1d a03d 87ca e8bd 62e7 d43c
00000050: 103b 9abd 169d c93d 949d 143d d61f babc
00000060: a601 89bd cabf b83c 82bc b3bd 12d3 e4bd
00000070: 7e29 bb3d 432a 9ebd 00b5 94bb 2ed0 cdbb
00000080: 1f22 f83d dfe9 993d 7d49 153d b91f 7ebc
00000090: 2678 083e 38a9 063e af6a 423e cffe b13c
000000a0: 68c5 8f3d eef9 db3d c450 f63d d126 063b
000000b0: 9b2d 7a3c d012 243e df45 f8bd aad7 58bd
000000c0: 1022 5ebd d5c5 18be 5be4 093e bb41 293e
000000d0: 5041 873d cfc3 b23d a521 983d 9609 5e3d
000000e0: 76a4 853d 9434 e13d 1fa1 a93d 17ae d23d
000000f0: 365c 27bd 71b4 b0bd 8767 9dbd 2107 bebc
00000100: b54e 04be 2ca8 08be c018 7e3c 843d 22be
00000110: a793 8a3d a131 49bd cc3a e6bd d9c0 5dbd
00000120: 72f8 013d 590d e03d 323b 43bb c856 cbbd
00000130: ea79 323c 6435 303d 1d6f f43d f436 de3d
00000140: 637c ef3d 2a18 683e 2395 2bbe 100e 063c
00000150: 2377 2d3d be28 913b ab38 663d cc23 d5bd
00000160: b427 a1bd 5709 32be 4664 8c3d f856 673d
00000170: a19d ef3c d0a6 883e 8a0f 103e f0f3 d13d
00000180: f298 023d fdb3 253e ff46 2abe 4981 7dbd
00000190: 8a51 1c3e e0c1 743e 9db9 91bd 25ad 29be
000001a0: 62fe 2d3e 02df 23be 34b5 8c3e 3784 243e
000001b0: fb42 26be a1fd 18be fc3b 773e b3c2 4dbe
000001c0: c4c4 223c 21ba 3e3e 8cd3 8dbc 05ae 11be
000001d0: bce1 96bd 9e7d 0dbe 7f53 3e3e 35c6 a03b
000001e0: fa7d 4bbe 0760 413e ae0d 33be 6216 c0bd
000001f0: bfc9 10bd 7233 823e d71c 7e3c 7f78 713e
00000200: f362 49be 264b 4cbe a8ec 943c 55b1 4dbe
00000210: 1fba 60bd 4f5d 093e febb 583e 1337 703e
00000220: 06bb 38be 1fd6 06be 6744 423d 52e7 823d
00000230: 6d8c 3ebd abb2 533e 6067 d23d cc25 fbbc
00000240: aba9 2d3e 92b2 263e bbc6 b03d eb7d 8b3c
00000250: fe33 69bd 1e19 14be 85b7 8d3d 563a 41bd
00000260: 5ad5 25be e6b9 59be ab4a 3d3d 403d 19be
00000270: 6fb0 05bd ad2a 7cbd 3373 673e e63b 053e
00000280: 507d 723e cdcb 3cbe c021 13be f3ec 17be
00000290: c594 b43c 3fc6 3fbd e5b2 76be 5003 653d
000002a0: ebe6 99bc 163f 3a3e 2402 613e eb4d 143d
000002b0: fd78 76be 513c 8c3e 92ad 4b3e 1000 be3c
000002c0: 567c 3e3d 2378 5d3e e9bf 68be 7f8e a83d
000002d0: a768 6c3e 758a a53d 6e23 69bd c92b a33d
000002e0: 6cd3 95bd fa4a 8a3e d5c8 33bc 0441 7ebd
000002f0: 0513 f93d d88b 743e 4bf6 babc e622 83bd
00000300: 876b b0bd 4369 5b3e fcef 8b3e ae12 a63d
00000310: 5773 f4bd 0db3 a4bd bdbb 25be e354 1d3e
00000320: b9ce d83d 7510 163e 22a0 2e3d 20e5 3e3e
00000330: 7d1e 493d a252 583e 9130 72be c5f6 473e
00000340: 70f8 47be c683 94bd c9a5 2dbe 7de0 023d
00000350: c84b 483e d165 0c3e 4d7d 3fbe 40df 063e
00000360: cd38 7a3e 49c4 aebd dfe5 8abd eb0e 17be
00000370: 307d f33d 9055 81be cff8 6c3e 494b 663e
00000380: 1bff b23d d2ac 703e a8fe 603e 38f3 7c3e
00000390: 55df 37be 3812 43be 43c8 ea3b 6303 87be
000003a0: 1a67 133e b411 233e ee9c 51be 9282 afbd
000003b0: 3255 203e d962 063d 41a6 7a3e c273 563e
000003c0: b642 1fbe dfd3 2fbe 4677 cebd f960 8e3e
000003d0: ef8f 2abe db51 6a3d 926c 4bbd 402a 8a3d
000003e0: c832 673d 597f ea3d bf25 d33d ab1c fe3d
000003f0: f41c 9cbd c2fb 0d3d a724 1cbe 6766 0abd
-0.0961196 0.069688305 0.039182503 0.10481424 0.044169962 -0.08096895 0.025228538 -0.08998854
-0.009419636 -0.023081975 0.10028274 -0.0009120003 -0.0453264 -0.021219414 -0.075949304 -0.030737024
0.061506253 0.07818076 -0.11366754 0.025989238 -0.075307965 0.09844415 0.03628309 -0.022720259
-0.066897675 0.02255239 -0.087761894 -0.11173071 0.091387734 -0.077229045 -0.0045381784 -0.0062809205
0.12115883 0.075153105 0.036447037 -0.015510493 0.13327083 0.1315049 0.18986009 0.021727948
0.07020074 0.1074103 0.120271236 0.0020469914 0.015269662 0.16022801 -0.12122702 -0.05294005
-0.054231703 -0.14919217 0.13466017 0.1652898 0.06604254 0.08728754 0.07428292 0.05420836
0.06525509 0.109963566 0.082826845 0.10287111 -0.040859424 -0.086281665 -0.07685762 -0.023196759
-0.1292065 -0.13345402 0.015508831 -0.15843779 0.06766444 -0.049119595 -0.11241683 -0.054138992
0.031731077 0.10940046 -0.0029789922 -0.099286616 0.010893324 0.043019667 0.11935256 0.10850325
0.11693647 0.22665468 -0.1675611 0.008182064 0.042349946 0.0044299057 0.056206387 -0.10407218
-0.07868901 -0.17386375 0.06855063 0.056479424 0.029249968 0.26689768 0.14068428 0.102516055
0.03188414 0.16181941 -0.16628645 -0.061890874 0.1526548 0.23902082 -0.07115481 -0.16569956
0.1699157 -0.1600304 0.27481997 0.16066061 -0.16236489 -0.14940502 0.24143976 -0.20093803
0.009934608 0.1862569 -0.017312787 -0.1422654 -0.07367274 -0.1381745 0.18586539 0.0049064406
-0.19872275 0.18884288 -0.17485687 -0.09379269 -0.03534865 0.25429875 0.015509806 0.23581122
-0.19666652 -0.19950542 0.018179253 -0.20087178 -0.054865 0.134145 0.21165463 0.23458509
-0.18040094 -0.13167618 0.047428515 0.06391777 -0.04652064 0.20673625 0.102736235 -0.030657671
0.16959254 0.16279057 0.08631655 0.017027816 -0.05693435 -0.14462706 0.06919769 -0.047174774
-0.16194668 -0.21262321 0.046213787 -0.14964771 -0.032638963 -0.061564136 0.22602539 0.1301113
0.23680615 -0.18437119 -0.14368343 -0.14836483 0.022043595 -0.04681992 -0.2409168 0.055911362
-0.018786868 0.18188128 0.21973473 0.03620712 -0.24069591 0.27389768 0.1989043 0.02319339
0.046505295 0.2162786 -0.22729458 0.08230304 0.23086797 0.08083049 -0.056918554 0.07967336
-0.07315716 0.27010328 -0.010973175 -0.062073722 0.12161831 0.23881471 -0.02282252 -0.06403141
-0.08614259 0.21426873 0.2733153 0.081090316 -0.11936062 -0.08041964 -0.16184898 0.15364413
0.10586304 0.14654715 0.042633183 0.18642092 0.04910134 0.21125272 -0.23651339 0.19527729
-0.19528365 -0.07251696 -0.16957773 0.03195237 0.19560158 0.13710715 -0.18700142 0.131711
0.2443573 -0.08533532 -0.06782126 -0.14751785 0.11889112 -0.25260592 0.23141788 0.22489657
0.08740064 0.23503426 0.21972144 0.24702156 -0.17956288 -0.19049919 0.0071649863 -0.2636977
0.14394799 0.15924722 -0.2047002 -0.08569826 0.156575 0.032809112 0.24477483 0.20942596
-0.15552792 -0.17170666 -0.10081343 0.2780836 -0.16656469 0.05720697 -0.049664088 0.0674634
0.056444913 0.11450071 0.10309934 0.12407812 -0.0762271 0.034663923 -0.15248357 -0.033789065

layers.0.attention.E.weight f4 [36, 36]
00000000: 95fb 073e 3b0c 3dbe 5001 12be b26b 56be
00000010: c5c6 49be a190 71be ffd8 7d3e 9c21 97bd
00000020: bf09 fabd 29dc 0dbe b5cc 0dbc 0076 503e
00000030: af14 fc3c 5450 333d 1c36 3bbe 2340 5ebe
00000040: 43f5 8ebe 5375 c63d 702d 2fbe 3e50 01bb
00000050: aa64 f2bd 9048 82be e039 2b3e 05a0 873d
00000060: 64db 10be 9a70 10be 7958 74bd 4246 383e
00000070: d3b9 15be 7600 2fbe 1c9a 733e b04d 063d
00000080: 60b9 063c 7119 89be d007 f73d 7095 14be
00000090: 1d39 16be 9342 e8bd 7629 303e 426b 80be
000000a0: 6201 9d3d d5c3 033e 8c54 51be 24e2 653d
000000b0: 4339 ae3d 6fdf 0f3e 128b 12bb e90a c4bd
000000c0: 55af 73be f756 c83b 4fd0 84be 67ac 8a3d
000000d0: 5e07 bdbc e405 fabc 0673 2abe 48f5 d8b9
000000e0: 952b 55be df41 6d3c 0b0b 0d3e 579c 28be
000000f0: d1ce dfbd 2b5a 4c3e 21d5 e03d a4fb 67be
00000100: 3696 70bd 6e55 b5bd b5a0 3ebe a07c 3c3e
00000110: 0f34 783e 1e24 f2bc 224c ed3d 5310 5a3d
00000120: aada 513c 7cd1 023e eb87 0fbe 21ff 5f3e
00000130: 3563 2dbe 4eb4 4a39 b336 a6bd a4bc 173e
00000140: b24d abbd a1bd 52be 36a4 86bd 0e71 66be
00000150: 53fb 69be 721a 9abd fe66 413e aa50 423e
00000160: 0205 88bc 7510 923d 305a 093e 525a d43b
00000170: a77d a73d 9b75 13bd 1338 febd 59d0 6c3e
00000180: 979f fe3d b313 243e e5f0 263e 49b6 f33b
00000190: 31e9 ee3d ccb4 003d dc25 9cbd a105 73be
000001a0: e267 5b3e 12ff 293e 477f abbd c27d 75be
000001b0: e68c b8bd 5fb5 d73d 798e 38be f0a5 a0bd
000001c0: bad9 1d3b cf8f 05be b683 513e a5e9 523e
000001d0: a2df ac3d 5d43 d1bc f940 18ba 7f92 80be
000001e0: 7dd5 5abe ee0d 8b3e d16b 3c3e 49ab 6f3d
000001f0: cc69 393e 4428 233d 663d 113d cbae 5a3c
00000200: c241 4cbe 5ccb 8cbe ca8c 29bd 8b98 fc3d
00000210: 48e6 bd3d d4a4 f6bd 5c70 533e e718 a53d
00000220: 0c9e dabd 52c9 d6bb a310 0f3e 8169 f33d
00000230: 5449 53be 3935 673e c79e 943c 91a4 48be
00000240: 9af3 96bd 9621 b6bc a834 56be 6497 803e
00000250: e25b b43d 7d38 2d3e baa0 ff3d 5cd5 09be
00000260: 1bf6 d3bd e386 bebd c712 ee3a 281d 323e
00000270: 3007 41bd 69a9 03be f688 8ebd ea45 aa3d
00000280: a537 e0bd 6e68 353c d248 e6bd ffbf 84bc
00000290: 6719 193d b7a7 793e e12f 693c 7caf b2bc
000002a0: 031e 723e e889 11be b753 263e 5fe4 09bd
000002b0: 9920 823c c587 413e 3354 4b3e d495 3abe
000002c0: e6f9 74be 916d 133d 06f8 f53d b6e8 68bb
000002d0: a21f 163e 1533 10be 0f17 513e 46d4 493e
000002e0: 0abe ebbd c837 2dbe 3d87 f83c f4e7 a4ba
000002f0: 3a15 733d 774b 353e 0f9c 13bd 2b8e 65bc
00000300: 127b 19be 0a13 693d 9424 193e be8f 1b3e
00000310: 95f5 83be 0b12 693d c823 063e 057a a0bc
00000320: 8a78 e6ba b8dc 693d 132a c8bd 2fc7 263e
00000330: 034f a13d a751 f43d 63cf 713e eb41 793d
00000340: 2c89 b33b ba3a 8bbd b195 06be f920 c6bd
00000350: 0dcf 0b3e 1bfc 35be 3dca 443e 9c9c 67be
00000360: 7018 1b3e 4901 363d 29d4 8bbd b4e8 203c
00000370: 597b 85bd 9791 88be e43a 02be 8964 363e
00000380: 4c87 01be 2b71 3d3e de1a 773d 1b2e 39be
00000390: 78a0 57be 58b8 393e 6fcd 873e 1e7c 3fbe
000003a0: c213 bbbd 8254 e23c cdd8 33be 4879 24bb
000003b0: 2904 793e 5dd6 5cbe 27dc 363e 0647 7d3e
000003c0: f335 34be ba95 103e 0220 763e a71d a03d
000003d0: b11a e33c 9bdd 83bd f919 423e 0832 323e
000003e0: c8cb 90be 83e1 a23c d8b3 05bd ee1f 7c3e
000003f0: cf3d 2f3e ebd7 793e d61e e23d fa89 843e
0.13279565 -0.18461697 -0.14258313 -0.2093952 -0.19704731 -0.23590328 0.24789809 -0.07379457
-0.1220889 -0.13853516 -0.008654763 0.20357513 0.030771581 0.04377778 -0.1828236 -0.21704154
-0.27921495 0.096903466 -0.17107177 -0.0019731666 -0.118356064 -0.25445986 0.16721296 0.06622318
-0.14146191 -0.14105454 -0.059654687 0.17995551 -0.14621668 -0.1709002 0.23789257 0.032788932
0.008222908 -0.26777223 0.12062037 -0.14510131 -0.14670224 -0.11340823 0.17203316 -0.2508183
0.076662794 0.12867673 -0.20442408 0.056123868 0.085070156 0.14050077 -0.0022360724 -0.095723934
-0.23797353 0.0061138826 -0.25940177 0.067711644 -0.023074802 -0.030520387 -0.1664544 -0.0004138148
-0.20817406 0.014481037 0.13773744 -0.16465889 -0.10928119 0.19956271 0.10978151 -0.22654587
-0.058737002 -0.08854185 -0.18615992 0.18406916 0.24238609 -0.029558238 0.11586787 0.053238224
0.012808481 0.12775224 -0.14016692 0.21874668 -0.16932376 0.0001933139 -0.08115902 0.14818054
-0.083644286 -0.2058015 -0.065742895 -0.22504064 -0.22849779 -0.07524575 0.18886945 0.18976083
-0.01660395 0.07132045 0.1341331 0.0064804936 0.08178263 -0.03600083 -0.12413039 0.23126353
0.12432783 0.1602314 0.16302831 0.0074375016 0.116655715 0.03142242 -0.076244086 -0.23732616
0.21426347 0.16601208 -0.083738856 -0.23973754 -0.09011249 0.10532641 -0.18023099 -0.0784415
0.0024086074 -0.1304314 0.204604 0.20596941 0.08441092 -0.025544817 -0.00058080215 -0.25111768
-0.21370502 0.27159065 0.18400504 0.05851296 0.18106765 0.039833322 0.035458945 0.013347338
-0.1994696 -0.274989 -0.041394033 0.12333783 0.09272438 -0.12043157 0.2064833 0.0806139
-0.10674676 -0.006554761 0.1397119 0.11885358 -0.20633441 0.22578897 0.018142117 -0.19594027
-0.07370682 -0.022232812 -0.20918524 0.25115502 0.08806588 0.1691608 0.12481828 -0.13460296
-0.10349675 -0.09303071 0.0018163555 0.17393935 -0.047125995 -0.12857594 -0.06959717 0.08314116
-0.10948113 0.011072261 -0.11244358 -0.016204832 0.03737774 0.24380384 0.014232607 -0.021812193
0.23644261 -0.14212763 0.16242872 -0.033665057 0.015884684 0.18899448 0.19856338 -0.18221217
-0.23923454 0.035993163 0.12010197 -0.0035539097 0.14660504 -0.14081986 0.20418952 0.19709882
-0.115108564 -0.1691581 0.030337924 -0.0012581334 0.059346415 0.17704569 -0.0360375 -0.014010946
-0.14988354 0.056902923 0.1495536 0.15191552 -0.25773302 0.056901973 0.13099587 -0.019589433
-0.0017583531 0.05709526 -0.0977365 0.1628692 0.078763984 0.119296364 0.23614268 0.06085388
0.0054789986 -0.067983106 -0.1314304 -0.09674258 0.13653202 -0.17771952 0.19217773 -0.22618335
0.15146041 0.04443482 -0.06827576 0.009821106 -0.06517667 -0.26673576 -0.12717777 0.17811789
-0.12649268 0.18500201 0.060328357 -0.18083994 -0.21057308 0.18136728 0.2652392 -0.1869969
-0.09134628 0.027628187 -0.17563172 -0.0025096703 0.24317993 -0.21566148 0.17857419 0.24734125
-0.17598705 0.14119616 0.24035648 0.07818156 0.027722688 -0.06438752 0.1895522 0.17401898
-0.28280473 0.019882923 -0.032642215 0.24621555 0.17113422 0.24398772 0.11041038 0.25886518

layers.0.attention.Q_2.weight f4 [36, 36]
00000000: eb58 d43b 6d5e 9d3c 9d46 18b3 df14 f09e
00000010: 07f5 8cbb d186 5aac 4099 1739 69be b939
00000020: 7154 80a9 45b1 8dbc 79a0 feb0 c1a5 0b9d
00000030: c643 de32 f9d4 8fac ca52 0f3d f7d9 f19a
00000040: e26b d231 8c10 0791 8dc0 1a32 429f d43b
00000050: 5706 c93c 58c3 f608 aa2e 362f fdc7 3013
00000060: 57de b73c c227 31a9 74e5 4939 1fbc 342b
00000070: bd48 193a 63e2 df06 9530 98b8 341f 37b5
00000080: 6192 1220 6f92 9ebb 1f8b 973b cef4 4c3b
00000090: 3055 abb6 d08e 0638 e086 1238 6764 ddb8
000000a0: bbbe ba37 ce2b e6bc b507 f5bb 9698 7db8
000000b0: 63df bbb7 c9b7 153d 8f94 4f37 2761 0cbd
000000c0: 0de7 f4bc 0d80 2aba 062d 54bd 417d f43b
000000d0: 5a96 c2ba 14ac 4ebd 3a7d 81b6 f6b1 553d
000000e0: cb03 e4bc 9843 963c 6e1e ae3a 5c8f cbbb
000000f0: 52eb 363b 91c5 cd39 d39b 7b37 92a1 483d
00000100: 8e91 3439 b9c7 3339 e366 20bd aef1 70b7
00000110: d1d2 84bc 4f27 4fb7 ee52 a73a 85cb 373c
00000120: 613a 9abb b713 613a f805 a1bc 7888 02bc
00000130: 7ead 82bc cbc5 3a3c 720f b4ba 99ef 95b8
00000140: b044 f33b 8163 e7b7 f81f c8bc f7cb 2db6
00000150: d759 b63a 0717 8dba c433 05bd 5571 603c
00000160: 3909 be3d 3a17 853a 65a6 7dbd c607 abbd
00000170: 98f9 88bc bc21 07bd b4df 7bbd 0e63 82bd
00000180: dd0d 97bc 6298 55bc e097 11bd 6f8c 53bd
00000190: c6a2 803d f278 a0bb ac63 783b 61e6 eebc
000001a0: 8a46 98bc 2893 49b7 cca3 0739 5402 9dba
000001b0: 0f5c 7e3c d1a5 113d 1cfb d13c 5f56 fdbc
000001c0: 1e11 033e b4bf be3d 4bbf b63d 024f 1e3d
000001d0: ec7c f23d 68c4 02bb 768d 013d 6d01 6c3d
000001e0: b6b0 43bc 80b5 3fbb 6158 7fbb 09ce 9dbd
000001f0: bd4c 053e 58ac a0bd 1a72 933c 7073 d23d
00000200: 5c37 f3bd 4160 1b3c b330 663b e787 23bd
00000210: ea87 1cbd c01f 15be b16a f23d c767 dfbc
00000220: 4657 ea3b 1e65 cbbd 8714 0cbd 8d58 073d
00000230: 107a d23d 872e 6d3c fcd1 423d aec9 c7bd
00000240: 371f fa3c de47 a1bd e700 1d3d cffb a53c
00000250: 4da0 e0bc 9e95 b33d a687 12bd 92cc f13b
00000260: 94c4 bf39 e9c6 b03d 6095 29bd 5c14 4ebb
00000270: 2ec3 2fbc 1f00 87bd 8a4b babd 2f8d e7bd
00000280: d0b6 89bd a074 0ebd 1d52 a43c 5fde 973d
00000290: 2a9e 19bd d328 cfbd 08be c93d b6de 90bc
000002a0: 4fe0 7dbb 1dcf d43d e2d4 d73b 4e5c bebd
000002b0: 3201 693d 7076 a5ba 281f 90bd 3883 c5bd
000002c0: 04b4 bfbd 023c 8ebb f34d 3a3d b269 cbbc
000002d0: f871 063b f151 613d 0e46 e938 ffcf 4fbd
000002e0: ce06 b03d 2b62 113b 1a38 983d 5704 8e3c
000002f0: 7bb6 093d 3e1f 4cbb 2d66 a73d 442a 07bc
00000300: e02c e23b 894c 98b7 a3a1 84bc 5e9b d03c
00000310: d5ab 8f3c daef 26bb cd21 c4bc 6ba8 28bd
00000320: a81d f8b7 5eb4 9bbc 9973 8c3d 7802 7ebd
00000330: c3a3 793d fa67 e0bb b5c9 ef39 3a53 fe3a
00000340: 0e22 bd3b 6274 84b9 7bce a13a 82e7 bbbc
00000350: e80b 76bd 636e c03c 1cce b5bc 5070 a13b
00000360: 9b99 553e 46b5 2b3e b08b 10bd 7768 8f3d
00000370: 585f a03d a382 31be 7bc9 05be a47d 26be
00000380: 91b4 08be 1548 983d 4689 1dbe 804c 083c
00000390: 7719 25be 416f f03d b634 413e ccf8 df3d
000003a0: 6ad3 263e ee08 e9bd 8bf4 573e eb1a 80be
000003b0: 2a29 b9bd c764 14be 9bbb 41be 7620 2cbe
000003c0: 14c6 c4bd 051e 42bd 7d3b 2a3e c453 c93d
000003d0: 5e0c 91bd a37e 56be 8567 bdbd 5e81 56be
000003e0: a71a 25be f8f3 873d ef71 81be d400 3dbe
000003f0: a98a 29bd 5dfc fc3d d208 89bc 6be0 b5bd
0.0064803264 0.019210065 -3.545448e-08 -2.541962e-20 -0.0043016705 -3.1054501e-12 0.00014457572 0.00035427816
-5.69899e-14 -0.017296443 -1.8526541e-09 -1.848219e-21 2.5875021e-08 -4.087949e-12 0.034991063 -1.00027405e-22
6.1240693e-09 -1.0654721e-28 9.007761e-09 0.0064887116 0.024539156 1.4851512e-33 1.6569382e-10 2.2312925e-27
0.022444887 -3.933638e-14 0.00019254332 6.4209917e-13 0.00058473257 8.421592e-35 -7.256974e-05 -6.821822e-07
1.2415114e-19 -0.0048392336 0.004624739 0.0031273845 -5.1061143e-06 3.2081094e-05 3.4934725e-05 -0.000105568026
2.2261744e-05 -0.02809706 -0.0074777254 -6.0462007e-05 -2.239616e-05 0.036552224 1.23727505e-05 -0.03427234
-0.02989533 -0.00065040664 -0.05180075 0.0074612205 -0.0014845834 -0.050457075 -3.859078e-06 0.05217167
-0.02783384 0.018342778 0.0013284215 -0.006212158 0.0027911258 0.00039247845 1.49970465e-05 0.04898221
0.00017220361 0.00017145173 -0.03916062 -1.4361385e-05 -0.016213806 -1.2347314e-05 0.0012765804 0.011217956
-0.0047066663 0.00085860066 -0.019656166 -0.007967107 -0.015951868 0.011399697 -0.0013737513 -7.149502e-05
0.0074239597 -2.7583681e-05 -0.024429306 -2.5897732e-06 0.0013912272 -0.0010764309 -0.03252007 0.013698895
0.09279103 0.0010154017 -0.061926264 -0.08351092 -0.016720578 -0.032991156 -0.061492637 -0.063665494
-0.018439228 -0.013036819 -0.03554523 -0.0516476 0.062810466 -0.0048972303 0.0037901206 -0.029162588
-0.018588323 -1.2014796e-05 0.00012935622 -0.0011978843 0.015524878 0.035558525 0.025632434 -0.030924974
0.12799498 0.09313908 0.08923205 0.038649566 0.11840233 -0.0019953493 0.03162905 0.057618547
-0.011943987 -0.002925247 -0.003896259 -0.07705314 0.13017555 -0.07845372 0.017998744 0.10275924
-0.11875793 0.009483398 0.0035124242 -0.03992453 -0.038215555 -0.14562893 0.11836756 -0.027271165
0.007151517 -0.09931396 -0.034199264 0.033043433 0.10277188 0.014476425 0.047563538 -0.09755264
0.030532463 -0.07875036 0.03833094 0.020261673 -0.027420187 0.087687716 -0.035773896 0.007379123
0.0003657682 0.08631689 -0.04140222 -0.003144524 -0.010727687 -0.0659182 -0.09096439 -0.113062255
-0.06724322 -0.03477919 0.020058686 0.07415461 -0.037504353 -0.101152085 0.09850699 -0.017684322
-0.0038738435 0.10391066 0.006586657 -0.092949495 0.056885906 -0.0012623798 -0.070371926 -0.096441686
-0.09360507 -0.0043406496 0.045484494 -0.024830673 0.0020514708 0.055009786 0.000111233545 -0.05073547
0.08595048 0.0022183757 0.074325755 0.017336054 0.033621293 -0.0031146551 0.08173785 -0.008249823
0.006902322 -1.8155451e-05 -0.016190356 0.02546471 0.01753799 -0.0025472553 -0.023941899 -0.04117624
-2.9577714e-05 -0.019006904 0.06857986 -0.062014073 0.06094719 -0.0068483325 0.00045735916 0.0019403466
0.005771882 -0.00025263714 0.0012344861 -0.02293754 -0.06006995 0.023490136 -0.022193007 0.004926719
0.20859377 0.16768369 -0.035289466 0.07002347 0.078306854 -0.1733499 -0.1306514 -0.16258866
-0.1335013 0.074356236 -0.15384397 0.00831902 -0.16122995 0.1173997 0.18867764 0.10936126
0.16291586 -0.11378656 0.2108938 -0.25020537 -0.090410545 -0.14491569 -0.18919222 -0.16809258
-0.09608093 -0.04739191 0.16624255 0.0983043 -0.07082437 -0.20946746 -0.092482604 -0.20947787
-0.16123448 0.0663833 -0.25282237 -0.18457347 -0.041392002 0.12352822 -0.016727839 -0.08880695
