best_model.pth (torch, 504738 bytes, 74 tensors)

z_embedding.weight f4 [1000, 48]
000000 c3 17 59 3f a9 25 74 3e 17 68 03 3e 0c bc 83 3f
       0.8480188 0.23842491 0.12832676 1.0291762
000010 9a 24 9e bd 19 8b de bf 24 00 27 c0 d9 73 71 bf
       -0.07721825 -1.7386199 -2.6093836 -0.94317394
000020 27 ca 7e 3f 92 44 a9 3e 4a b6 fa 3e eb 27 0e 40
       0.9952721 0.33060127 0.489672 2.2211864
000030 84 7f 1d bf ac 46 33 3f 92 fa e6 3e 09 5b 09 c0
       -0.615227 0.7002971 0.45113045 -2.1461813
000040 35 33 0c be 32 a0 a3 3f dd b0 06 c0 4b bb fc 3f
       -0.13691409 1.2783263 -2.1045449 1.9744657
000050 3b b3 66 3f c1 21 99 bf 58 07 ae 3b 7b a4 6e 3d
       0.90117234 -1.1963426 0.005310934 0.05826233
000060 23 0d 68 bf 5d c9 08 40 ef 84 a2 be cd c1 8e 3e
       -0.90645045 2.1372902 -0.31742045 0.27882233
000070 92 52 0b c0 b0 55 bf bf 6b 94 9c be 8b 2d d1 3f
       -2.1769147 -1.4948025 -0.30581984 1.6342024
000080 3d 88 7a bf 14 d2 8c 3d cc 09 2f be 3b a5 44 3f
       -0.97864133 0.06876007 -0.17093581 0.7681462
000090 e9 60 92 3f 07 f1 5a 3f d8 c6 08 40 db 74 4a bf
       1.1435825 0.8552403 2.1371365 -0.7908456
0000a0 79 9d 51 3f e6 5a 55 3f 19 93 4d 3e d9 cb ca 3a
       0.8188091 0.83341825 0.20075645 0.0015472128
0000b0 5b 1d e6 bf f2 fa 34 bf 17 a3 ba 3e a0 59 b0 3f
       -1.7977709 -0.7069541 0.36452553 1.3777351
0000c0 ff be 2d bf 66 ca f8 be 1c 5c 0d 3e 84 b6 be bf
       -0.6786956 -0.48591918 0.13804668 -1.4899449
0000d0 f2 76 80 bf 38 1e 9a 3f f0 cf 92 bf 12 9c 22 3e
       -1.0036299 1.2040472 -1.1469707 0.15879849
0000e0 dc 8d e5 3d 51 83 a6 3e 64 e5 59 bd ab 39 4a bf
       0.11208698 0.3252206 -0.05319728 -0.78994244
0000f0 8c 31 a6 bd aa ed e0 3e 1a c8 12 3f 76 a0 6e bf
       -0.08114919 0.43931323 0.5733658 -0.93213594
000100 12 9c 5e 3e 5e 25 5b 3e 09 8d f8 be 5e 5d 5b 3f
       0.21739224 0.21400973 -0.485451 0.8568934
000110 1f c7 a0 bd 3f d9 40 3f 64 8e af bf 42 dc df bf
       -0.07850479 0.7533149 -1.3715329 -1.7489092
000120 4b 39 cd 3f fc e5 9a bf 03 ed 7a bf 04 f5 db bf
       1.603311 -1.2101436 -0.980179 -1.7184148
000130 92 fe 96 be cf 76 05 3f 50 e5 de bf 83 a4 6e 3d
       -0.29491097 0.5213441 -1.7413731 0.05826236
000140 67 f2 28 bf 89 c7 4d bf a4 2d 92 3f 78 94 90 3e
       -0.65994877 -0.8038259 1.1420178 0.28238273
000150 3c 1e d1 3d 8b 96 f1 3e bd 9e f8 3f 6e 8c c8 bf
       0.10210845 0.47185168 1.9423443 -1.5667856
000160 fd 04 41 be 73 31 24 3f 89 6c 24 3f 41 c3 bf be
       -0.18849559 0.64137954 0.6422811 -0.37453654
000170 35 74 8d 3d dd c7 4c bf 92 8f 4e bf 1c 22 9c bf
       0.0690693 -0.7999247 -0.8068782 -1.2197909
000180 b9 67 67 3f d6 71 5c be a8 3a 05 bf 92 37 1a bf
       0.90392643 -0.215278 -0.5204263 -0.60241044
000190 39 69 02 3f 1d 4f 60 3f 77 e4 1d c0 ab eb d9 bf
       0.5094181 0.8762072 -2.4670694 -1.7025045
0001a0 26 91 15 3f fc 38 8f bd 8b b3 ec 3f 17 fc 7f 3e
       0.58424604 -0.06993291 1.8492292 0.24998508
0001b0 95 ef 73 bf 99 fa 3c 3f 62 4a ad be 73 64 96 3f
       -0.9528745 0.7381988 -0.33845812 1.1749405
0001c0 de 02 3e 3f 37 54 e2 bf 42 2f 9a be 3c 1b 35 3f
       0.74223125 -1.768195 -0.3011418 0.7074468
0001d0 dd 25 c6 3d 65 10 ba 3f 2e a7 12 bf 98 de 0c bf
       0.096751906 1.4536253 -0.57286346 -0.5502715
0001e0 d4 55 7e be cb e5 78 bf b9 c6 8e bf 9e cd 4c 3f
       -0.24837428 -0.97225636 -1.1154395 0.80001247
0001f0 71 8d c6 3e 9f 74 8b 3f 68 32 f1 be f6 0c 2f 3e
       0.38779786 1.0894965 -0.4710877 0.17094788
000200 68 08 8f 3f 80 d3 1d bf 5e 65 25 3f c5 fd 7b 3f
       1.117444 -0.6165085 0.646078 0.98434097
000210 da d0 ff 3f e3 ed 62 bf c6 23 c5 3e e6 a2 26 3f
       1.9985611 -0.88644236 0.38503855 0.65092313
000220 bd 9c 28 bf ab 21 4f bf 22 39 16 40 f5 23 c4 3e
       -0.65864164 -0.8091075 2.347237 0.38308683
000230 14 94 92 3f 08 b4 e8 3d bf 1f 69 be 9d e2 73 be
       1.145144 0.11362463 -0.22766016 -0.23816915
000240 d3 29 66 c0 d4 65 f8 3e 59 44 cd bf cc 4a d7 3f
       -3.5963027 0.4851519 -1.6036483 1.6819701
000250 92 c3 bd be 3c d3 45 3c 66 6e 10 3f a2 96 bb 3e
       -0.3706327 0.012074288 0.56418455 0.3663836
000260 9f de e4 bf 06 23 c5 bc 3d df 13 bf 20 47 82 3e
       -1.7880439 -0.024064552 -0.5776251 0.2544489
000270 28 0b 84 be e4 0a 93 bf 64 be 28 bf 44 a8 04 c0
       -0.25789762 -1.1487699 -0.65915513 -2.07277
000280 4f cb d2 3f 8c df 94 bf 7c 3e 27 3e bf 20 3d 3e
       1.6468295 -1.1630721 0.1633243 0.18469523
000290 81 df f6 3f 37 5e 95 3f fc f5 e4 be 14 b9 b8 3f
       1.9286958 1.1669377 -0.4471892 1.4431481
0002a0 f3 8c 27 3e 64 53 d1 3e 8c 51 59 3f bb c1 11 3f
       0.16362362 0.40883934 0.84890056 0.56936234
0002b0 74 3e 2a 40 03 97 af bf 7a c4 a9 bf cb 47 e9 be
       2.6600618 -1.371796 -1.3263085 -0.45562586
0002c0 48 37 7d 3f f2 b1 97 bf 40 c3 cb 3e b8 fc e7 be
       0.9891248 -1.185118 0.397974 -0.45309997
0002d0 4a 81 7a be a2 eb ba be 45 55 c4 3c 8a e6 55 3e
       -0.24463382 -0.365079 0.02396644 0.20888725
0002e0 23 2a 31 bd be 4e 75 3e 27 fb 72 3f b9 7e ec 3f
       -0.043253075 0.23955819 0.9491448 1.8476173
0002f0 4c 50 37 3e c1 7a 66 3f fe 4a b4 3e 3f a7 86 be
       0.17901725 0.9003106 0.35213464 -0.26299474
000300 b4 28 ac bf 28 5f 83 be 33 fd c6 3e ab a8 f1 3f
       -1.3449922 -0.25658536 0.3886505 1.8879598
000310 a5 88 f2 3e 88 04 9b 3f ee 7a 05 3f 1c 0e e5 3f
       0.47369877 1.2110758 0.521407 1.7894931
000320 5c 1b 87 3f 2b 6e c9 3f 2c 2a 20 bf 10 4f 6b bf
       1.0555224 1.5736746 -0.6256435 -0.91917515
000330 03 61 07 3f 6e 39 ac bf 4e dd d9 3f 28 9b b3 3e
       0.52882403 -1.3455026 1.7020662 0.35079312
000340 36 dd ed bf 9d 93 4b 3f f4 54 56 bf cf 2e 8c 3f
       -1.8583133 0.79522115 -0.8372338 1.0951785
000350 ea db 28 3f 7c ce 5a 3f 1c 76 85 bf 69 43 4a 3f
       0.6596056 0.8547132 -1.0426669 0.7900911
000360 ca ea a3 bf 9a f0 b9 be 4f df 26 bf 48 a3 ae bd
       -1.2806027 -0.36316377 -0.6518449 -0.08527237
000370 fc c2 0b 3f 83 eb 85 3f d7 d7 ce 3e 6d 66 1c 3f
       0.545944 1.0462497 0.40399048 0.6109379
000380 dc 7e 91 be e3 c1 82 bf 9b ac ca be 87 f6 9f be
       -0.284171 -1.021542 -0.39584813 -0.31242773
000390 28 5b b3 be 29 46 b4 bf 04 f5 2e 3e 85 6e eb be
       -0.35030484 -1.4083911 0.17085654 -0.45982757
0003a0 e3 01 5d bf 9b 51 a5 bf 3d f6 f8 3e b5 08 44 bf
       -0.86331004 -1.2915529 0.48625365 -0.76575786
0003b0 f5 bd af bf 04 b5 13 3f 99 a2 56 bf f7 c5 2f be
       -1.3729845 0.5769808 -0.83841854 -0.17165361
0003c0 7c 04 fe bf f5 72 04 3f bb 0a e7 3e 47 62 15 bf
       -1.9845119 0.5173791 0.45125374 -0.58353084
0003d0 4c 3c a9 3e 77 de b9 3f 68 9a 84 3e 22 a2 f0 be
       0.33053815 1.4521016 0.25899053 -0.46998698
0003e0 11 25 a1 3e ca f8 24 3d 1c 38 08 bf 3a 09 c7 be
       0.31473592 0.040276326 -0.53210616 -0.38874227
0003f0 df 50 96 3e b3 ec e1 bc d2 2f f3 be 88 3b 4b bf
       0.29358575 -0.027578687 -0.47497422 -0.7938771

convs.0.bias f4 [48]
000000 55 b8 9f bb 11 81 28 3b b4 04 ad bb fd e0 b0 bb
       -0.004874269 0.0025711695 -0.0052801017 -0.0053979144
000010 37 35 b3 3b 9e 03 a2 bb f3 cd 96 ba c6 8d 2b bb
       0.00546899 -0.004944279 -0.001150547 -0.0026177033
000020 50 43 b2 bb ae 65 10 ba 1e 3f fe ba 4d a1 96 3b
       -0.005440153 -0.00055083155 -0.0019397472 0.0045968653
000030 a6 a3 de b9 8c cf ab ba cf e7 21 bb a6 bf 63 3b
       -0.00042465067 -0.0013108118 -0.002470482 0.0034751683
000040 1d 4c 85 3b 16 87 8b bb 88 66 8d 39 07 f9 8f bb
       0.0040679113 -0.004258047 0.00026970007 -0.0043937
000050 4c b9 a1 bb 66 a0 93 bb 88 7c b5 bb 79 c3 8a 3b
       -0.004935419 -0.004505205 -0.005538527 0.004234728
000060 96 4c aa bb af 72 fc b8 7b da 84 3b 9a f2 d6 bb
       -0.005197118 -0.00012037658 0.004054365 -0.006559682
000070 3b 16 81 bb d5 43 71 3b 09 a7 66 3b 42 71 cb bb
       -0.0039394177 0.0036814113 0.0035194776 -0.0062085697
000080 8d 55 a1 bb 8b ac 87 3b 2f e7 bc bb 98 02 df bb
       -0.0049235285 0.004140442 -0.005764864 -0.006805729
000090 e2 df a7 bb 98 d7 48 bb 0b b0 6f bb ce b1 52 bb
       -0.0051231245 -0.0030646082 -0.0036573436 -0.0032149437
0000a0 9d 2d 64 3b d3 64 b6 ba 1b 76 c1 3a ad c9 a0 bb
       0.0034817227 -0.0013915546 0.001475993 -0.004906854
0000b0 01 66 9e 3b cb 73 b1 bb 45 ed a1 3b dc 18 ac bb
       0.004833937 -0.005415415 0.004941615 -0.005251987

convs.0.lin.weight f4 [48, 113]
000000 e0 40 4a 3e a7 32 18 bc 1f d6 79 bd 8d 16 b1 bc
       0.1975131 -0.00928942 -0.060995217 -0.021617198
000010 3b 74 5b 3d 14 aa ae 3b 0d 85 3a be 30 7c 34 3e
       0.053577643 0.0053303335 -0.18214817 0.17625499
000020 a4 ab 22 3e 83 b1 77 bd 06 9f f3 bc 0f 2b 1c 3d
       0.15885788 -0.060472023 -0.029738914 0.038127
000030 a9 5d dc 3d ff 30 e2 bc e6 83 cf 3d 79 64 9f 3d
       0.10760052 -0.027611254 0.101325795 0.077828355
000040 a3 d1 1e be 9a 21 be 3d 1e dc 15 3d 53 95 52 3c
       -0.15509658 0.09283753 0.036586873 0.0128529845
000050 85 a2 f3 bd 8f d3 02 3e 4e a1 31 3d 7e 56 40 3e
       -0.118962325 0.12776016 0.043366723 0.18782994
000060 f5 5b 81 3d df ea 22 be 6f f9 29 be e7 85 16 be
       0.063163675 -0.15909909 -0.16599058 -0.14699517
000070 81 ed 28 3d 2f 18 dd bd 92 a7 9d 3d cf f6 c8 3d
       0.041242126 -0.10795628 0.07697977 0.098127
000080 da 1c 10 bd 65 a1 3b bc f1 48 2b be 17 0c 21 be
       -0.035183765 -0.011452054 -0.16727044 -0.15727268
000090 31 4a 01 be 93 82 aa bd 83 3d 24 be cc 4c 46 be
       -0.12625958 -0.08325686 -0.1603909 -0.19365233
0000a0 5c b6 36 be 5d 81 4b 3e 6d 6d 38 be 06 98 09 3e
       -0.17843002 0.19873567 -0.18010493 0.13436899
0000b0 72 27 13 3e ad f9 97 3a fc 3f 58 bd 7c 2d f2 bd
       0.14370516 0.0011594795 -0.052795395 -0.11825082
0000c0 43 39 1d 3d 07 95 cc bc a4 ed 44 bc 83 e0 65 3d
       0.038384687 -0.024973406 -0.012019549 0.056122314
0000d0 38 ec 1a 3e 2d d0 dd 3d d2 ca a7 bd d3 0a ea bd
       0.15129173 0.10830722 -0.08192982 -0.11427846
0000e0 67 ce 01 be b8 31 cb bc dc eb cf 3d 50 1b 0f 3e
       -0.12676392 -0.024803981 0.101524085 0.13975263
0000f0 6a 5a 1b 3c 55 8d c9 3d 0c df 4b 3b 0f e5 2d 3d
       0.009482006 0.0984141 0.0031108288 0.042454775
000100 3e 0f 1c be 0a 78 46 3d 0b ec ec bc d9 12 a6 3d
       -0.1524019 0.048454322 -0.028921148 0.08109064
000110 ff b1 2d 3e c7 aa 33 3e 93 1c 3c 3e b2 38 76 bd
       0.16962431 0.17545615 0.18370275 -0.060112663
000120 07 70 be bd 56 81 a3 3d e4 16 36 3e 7b 06 f5 3d
       -0.09298711 0.07983653 0.1778217 0.11964127
000130 77 3e a8 3d 12 fb fc 3d 48 f5 2a 3e f7 b2 78 3d
       0.08215039 0.12352575 0.1669513 0.06071755
000140 ee ce 31 3e 0c 3a 3d be 76 2b 3d 3d 24 3d 2f 3e
       0.17364094 -0.18479174 0.046184026 0.17113167
000150 12 db 68 bc 39 05 ee 3d bd ea e7 3d 70 37 48 bd
       -0.014212387 0.1162209 0.1132407 -0.048880994
000160 bc dd bf bd b4 c0 33 3e 2c f9 ce bd 4f 4d fe bd
       -0.09368464 0.17553979 -0.101061195 -0.12417089
000170 04 86 dd 3d 0d cd 21 3e d7 b5 46 bc a8 18 f7 3d
       0.10816577 0.15800877 -0.012128315 0.1206525
000180 8a 43 61 bd bc c1 a4 bc e7 eb 0d 3e c4 6c eb bd
       -0.05499605 -0.020111911 0.13859521 -0.11495355
000190 b0 95 1b bd 24 4a ab bc 44 4f 37 be d0 75 b4 3c
       -0.03798455 -0.020909376 -0.17901331 0.022028834
0001a0 a6 b3 f6 bd 28 74 0b be d7 81 80 bb a8 20 dc bd
       -0.12045984 -0.13618529 -0.003921728 -0.10748416
0001b0 6c bd 9a 3a 17 24 a8 bd 70 79 63 bd ea 9d 8d 3d
       0.001180572 -0.082100086 -0.055535734 0.06914885
0001c0 22 ee 34 be d2 42 d8 bd 27 2f 18 be 82 d3 29 3e
       -0.17668965 -0.1055962 -0.14861737 0.1658459
0001d0 b1 27 d1 bd 63 f4 31 be c3 a6 55 bd 6a b9 04 be
       -0.10212649 -0.17378382 -0.05216099 -0.12961355
0001e0 f4 03 35 3e 4c 04 0e 3e 90 3f e0 3c 6b 86 2c 3e
       0.17677289 0.13868827 0.027374059 0.16848151
0001f0 c1 c5 d8 3d 78 53 3c 3e 9a de 8a 3d c2 05 2b be
       0.105845936 0.18391216 0.06780739 -0.16701415
000200 d8 20 8f bd cc 3e 0a 3d 9a ae 9f bc 12 04 c5 3c
       -0.06988686 0.033751294 -0.019492436 0.024049792
000210 e9 ab 1a be 73 22 a1 bd 2a 07 46 3e ac 58 bb 3d
       -0.15104641 -0.07867899 0.1933867 0.09147772
000220 39 fb c4 bd 99 85 2e be 8d 10 d5 bd 66 3e 16 3e
       -0.096182294 -0.17043151 -0.104035474 0.1467224
000230 14 51 1d 3e 29 bb ac bd fc d2 e4 3d fe 4a d9 3d
       0.1536296 -0.084341355 0.111730546 0.10610007
000240 75 ec cc bd f7 cd 12 be 7e 58 18 be 69 30 39 be
       -0.10006038 -0.14336382 -0.14877507 -0.18084873
000250 1d ac 45 be 3e 34 82 3d c7 81 fe 3d 98 cc ca bd
       -0.19303937 0.06357621 0.12427097 -0.099023044
000260 b0 e3 94 bc 0c 71 cd 3d 14 e0 a4 bd 45 44 ee 3d
       -0.018174976 0.100313276 -0.08050552 0.11634115
000270 24 89 3b be f2 57 81 bb 0a ab 65 bd 1e 81 43 be
       -0.18314034 -0.0039472515 -0.05607132 -0.19092223
000280 07 1c f5 bd 9d d9 b7 bd ae 69 ff bd d3 05 95 3d
       -0.119682364 -0.08977053 -0.12471329 0.072765015
000290 c7 b2 28 3e 44 2b 2c 3c 30 34 c0 bc f8 05 15 3e
       0.16474448 0.010508362 -0.023462385 0.14553058
0002a0 fc 0f 77 3c d6 d5 a4 bd d8 44 f6 bd f5 19 30 3e
       0.015079495 -0.080485985 -0.1202485 0.17197402
0002b0 11 39 f6 bc 13 14 33 be 36 87 2e 3d 33 3c 05 be
       -0.030056508 -0.17488126 0.042609416 -0.13011245
0002c0 fe 03 8d 3d 18 75 cd bc 6d 9a 05 3e 40 16 37 3d
       0.06885527 -0.025080249 0.1304719 0.044698954
0002d0 e4 17 60 bd 8f 65 38 be d9 de 0b 3e 98 9b 3f bd
       -0.054710284 -0.18007492 0.13659228 -0.046779245
0002e0 5e 25 ca 3d 5d d4 05 3e 6f 1b 3f be b3 42 c6 3d
       0.098704085 0.13069291 -0.18662809 0.096806906
0002f0 d3 f8 43 bd ee fd a8 bd a6 eb 1b 3e 18 3d 0b be
       -0.04784472 -0.08251558 0.15226611 -0.13597524
000300 53 e6 a5 3d 66 64 b4 3d af 2f 8d 3d 32 fe 15 be
       0.081005715 0.08808212 0.068938605 -0.14647749
000310 6e 28 37 bd 4c a6 b7 3b f0 b0 39 3e 3f bb 1b be
       -0.04471629 0.005604541 0.18133903 -0.15208147
000320 83 87 44 be 58 ce c5 3d 26 41 1a bd 5f cd a3 bd
       -0.19192319 0.096584976 -0.037659787 -0.07998156
000330 a5 90 98 bd d1 b3 3c 3e b5 66 5d 3d 4a b2 33 3d
       -0.07449464 0.1842797 0.054053027 0.0438712
000340 41 35 e9 3d 2c 59 21 bc c4 48 ed bd f3 af 07 bd
       0.113871105 -0.00984792 -0.115861446 -0.033126783
000350 97 7c 24 be b8 7d 81 3d 2d 3d 29 3d d4 ad 0f 3e
       -0.16063152 0.06322807 0.041318107 0.14031154
000360 88 dd a9 bd b6 b3 8b 3d 2e 9a 27 3c 32 8d b8 3d
       -0.08294207 0.068213865 0.01022963 0.09011306
000370 79 fe 20 be 33 ac 14 3d e7 92 ea bd 08 07 c1 3d
       -0.15722074 0.036297034 -0.11453801 0.09425169
000380 46 bf 1a 3e 08 06 08 3e b2 57 51 bd 4d 62 2f be
       0.15112028 0.1328355 -0.051109023 -0.17127343
000390 9b 92 4e bd c9 18 9c 3a 7c 0d 32 3e 72 d1 1c 3e
       -0.050432783 0.0011909242 0.17387956 0.15314272
0003a0 49 db 36 be e3 11 25 bc b4 ed b8 bd 98 69 df 3c
       -0.17857088 -0.010075065 -0.09029713 0.02727203
0003b0 0c 8c 34 3e 6e 15 9f bc 3c 21 b4 bd f9 f1 26 3e
       0.17631549 -0.019419398 -0.087954015 0.16303243
0003c0 92 28 45 3d c6 dd d2 3d 0c 8d 13 bc dd 0f 2c 3e
       0.048134394 0.10296206 -0.009005796 0.16802926
0003d0 23 73 c4 bd 51 93 a8 bd 69 05 08 bd f6 a9 61 3d
       -0.09592273 -0.082312234 -0.033208285 0.055093728
0003e0 8d 8d d0 3b 03 7b 08 be e1 86 22 be 61 54 32 be
       0.0063645304 -0.13328175 -0.15871765 -0.17415
0003f0 10 a0 99 3d 3a 25 00 3d 1d 6c 04 3e 9d 4d 1b be
       0.075012326 0.031285502 0.12931867 -0.15166326

convs.1.bias f4 [48]
000000 eb c3 b3 bb ac 87 50 3a 70 d3 b2 bb 6c e8 a2 3b
       -0.0054860017 0.0007954787 -0.005457334 0.0049715545
000010 cf a7 92 bb 9f 3b 95 bb 9e 4a c4 bb fc d3 ca 3b
       -0.0044755707 -0.0045542265 -0.0059903404 0.0061898213
000020 88 6f 3d 3b b4 e3 8f 3b a4 80 30 3b 87 73 85 ba
       0.002890559 0.004391158 0.0026932145 -0.0010181525
000030 70 12 bf 3b 83 65 9a 3b 51 cd 79 ba e2 5c 9a bb
       0.0058310553 0.004711808 -0.0009529191 -0.0047107795
000040 d9 d1 a8 bb 4d 4e 9a bb 65 d2 7c 3b 8d 13 4a 3b
       -0.005151969 -0.004709041 0.0038577553 0.0030834407
000050 fe d2 95 bb 82 80 a1 bb 88 7a cb b9 34 f2 a1 bb
       -0.0045722714 -0.0049286494 -0.0003881047 -0.004942203
000060 c9 b2 a0 bb a7 42 bb bb 74 79 b8 bb 10 4c b4 bb
       -0.0049041254 -0.0057147327 -0.0056297127 -0.0055022314
000070 ca 08 c9 3b df 23 ab bb ed 15 9d 3b 46 39 b3 3b
       0.006135081 -0.005222782 0.0047938735 0.005469474
000080 f1 e8 91 bb 9f 08 d0 b8 b2 88 23 bb 31 60 c1 bb
       -0.0044528176 -9.919819e-05 -0.0024953303 -0.0059013595
000090 b4 b1 f3 3a a9 85 96 3b f5 76 51 bb 7d 9c a4 3b
       0.0018592388 0.0045935703 -0.0031961773 0.0050235377
0000a0 6d 3f 3d bb 00 1a 51 3b 6a ba c5 3b b8 d4 94 3b
       -0.0028876916 0.0031906366 0.006034185 0.0045419596
0000b0 6e 47 dd bb c3 1e be 3b 29 89 03 b9 40 e7 18 bb
       -0.0067529 0.005802007 -0.0001254423 -0.0023331195

convs.1.lin.weight f4 [48, 48]
000000 2a 8f f7 3c 99 be 40 be d2 35 39 3e a1 62 56 bc
       0.030219633 -0.18822707 0.18086937 -0.013085038
000010 74 3f 9e bd 31 c8 62 bd 31 c9 52 bc 3b b5 16 be
       -0.077269465 -0.0553667 -0.012865351 -0.14717571
000020 15 d9 3f 3e ec f2 cd bd 05 4a e5 3d 88 3a d1 bd
       0.18735154 -0.10056099 0.11195759 -0.10216242
000030 10 26 bf bc 3b fd 13 bd e7 29 10 be 33 79 00 3e
       -0.02333358 -0.03613017 -0.14078484 0.12546234
000040 56 48 62 be 1b 84 77 3e 6c 84 f8 3d 50 b6 51 3e
       -0.22097906 0.24171488 0.121346325 0.20479703
000050 d4 fd 1b 3e 89 12 75 be 16 5d 95 3d 03 5a 14 be
       0.15233546 -0.23932852 0.07293145 -0.14487462
000060 11 d1 58 be 88 20 4b be 6b d7 77 be 3e 28 10 be
       -0.21173503 -0.19836628 -0.24203269 -0.14077851
000070 dd be 06 be d7 93 3e be 71 54 a1 3d 1d 67 98 3d
       -0.13158746 -0.18611084 0.07877434 0.07441542
000080 b8 fd ab 3d 7a 51 da bd 85 46 c5 3c 41 46 39 3d
       0.083980024 -0.10660072 0.024081478 0.045233015
000090 68 24 dd 3c af e2 78 3e 9b 7d 20 3e 60 19 07 3d
       0.026994899 0.24305223 0.15672915 0.032983184
0000a0 36 8a 01 3e 81 d3 5d 3e 60 b8 eb bd 8f 5a a2 3d
       0.1265038 0.21662714 -0.11509776 0.07927429
0000b0 46 e1 1a be 06 5a 8e 3c cf 26 52 be d7 e1 61 3e
       -0.15124997 0.01737691 -0.20522617 0.22058807
0000c0 60 f6 e7 bd 75 3c 38 be ee 7a 21 3e a2 83 9f b9
       -0.11326289 -0.17991813 0.1576955 -0.00030424917
0000d0 65 ae af bd ee 18 59 be ff 14 70 be 7a 87 13 be
       -0.08578185 -0.21200916 -0.2344551 -0.14407149
0000e0 79 47 0f 3d ef b3 d2 bd b2 b4 95 3d f0 99 4e 3e
       0.03498027 -0.10288226 0.073098555 0.2017591
0000f0 ff 87 5d 3e 3d a0 2d 3c ea e8 93 bc 30 31 c4 3c
       0.2163391 0.010597286 -0.018055398 0.023949236
000100 05 f7 31 3e ca e0 09 3e bd 0f 51 3d 2d f2 1b 3e
       0.17379387 0.13464656 0.0510404 0.15229101
000110 1c 0e 55 be b4 36 2d be b1 b4 9a bd f4 57 73 bd
       -0.20806164 -0.16915399 -0.075539954 -0.05941005
000120 c3 89 41 be d0 e1 aa 3c 4b df f9 bd 03 9b 91 3d
       -0.18900208 0.020859629 -0.12200793 0.07109644
000130 78 5c 06 3e 1b a6 dd bd 96 e0 22 3d 1c bd 49 3e
       0.13121212 -0.10822698 0.039764963 0.19701046
000140 b5 99 d5 3d 10 f8 7c bb 9e 6b 63 3e e0 75 3e 3e
       0.10429708 -0.0038600005 0.22209021 0.18599653
000150 22 67 1c 3e a3 7a 3b 3e ac 9d ab bd 7e 26 cd bd
       0.15273717 0.18308501 -0.08379683 -0.100171074
000160 73 69 ad 3d f2 5e 51 3d 46 60 a6 bd 21 8b f8 3d
       0.084673785 0.051115938 -0.081238315 0.12135912
000170 a7 ce 7b 3e 39 b6 88 bc 33 c7 c4 bd b6 3c 70 be
       0.2459055 -0.016688453 -0.09608307 -0.2346066
000180 a6 bd 6e 3d e4 0c 1d be 09 6e 34 3e 10 52 db 3b
       0.05828633 -0.15336949 0.176201 0.006693132
000190 43 99 fe bc aa 5f a4 bb 27 75 bf 3c 8c 00 7d 3d
       -0.03107894 -0.005016287 0.023371292 0.0617681
0001a0 b9 5a 6a 3e 67 d9 fb 3d bb 6b 0c be 61 c7 8b 3b
       0.2288617 0.122973256 -0.13712971 0.004265711
0001b0 80 38 8c 3d e0 5d 3c be 2a a7 f3 bd a3 f1 57 be
       0.06846714 -0.18395185 -0.118971184 -0.21088271
0001c0 eb fe 66 be c6 45 af bd 26 0f 37 be 52 31 29 3e
       -0.22558181 -0.0855823 -0.17876872 0.1652272
0001d0 1a 3c 0a 3e 14 3c dc bc 19 1e 3f 3e b2 80 b0 bb
       0.1349949 -0.026884116 0.18663825 -0.0053864354
0001e0 7a 43 67 3d 75 a0 33 3e 88 0d 4f be b7 e5 39 3e
       0.056460835 0.17541678 -0.20220006 0.18154036
0001f0 9a 6f 22 be f4 55 a1 bd f5 3d 8f bd 73 0c 40 3e
       -0.15862885 -0.078777224 -0.06994239 0.18754749
000200 3b e1 2d be 30 9e 13 bd 32 2e 4e 3e 82 5c e9 bd
       -0.1698045 -0.03603953 0.2013481 -0.113945976
000210 aa e5 3d be f2 37 74 3e 95 a1 be bc a0 07 16 3e
       -0.18544641 0.23849466 -0.023270408 0.14651346
000220 21 11 0b 3d 4c 9b 49 be 94 9e 6c be 27 bd 07 3e
       0.033951882 -0.19688147 -0.23107368 0.1325575
000230 67 8f 56 be d5 17 8a 3d e9 24 3b bd 85 f1 cb bd
       -0.20953141 0.06742827 -0.045689497 -0.099581756
000240 d9 7b 06 be 7e 3d e6 3d 43 21 2f 3e e2 f9 a3 3d
       -0.13133182 0.112421975 0.17102532 0.08006646
000250 9b 21 f4 3d 15 b5 55 3e b5 df 19 bd 11 3d ef bc
       0.11920472 0.20869859 -0.03756686 -0.029203923
000260 f9 f1 ed bc 4c c5 0e 3e 37 fd 16 3e 1f e3 48 3e
       -0.029046046 0.1394245 0.14745031 0.1961789
000270 de 91 54 be d8 b3 9e 3c b2 57 3d 3e e5 05 3e bd
       -0.20758769 0.019372866 0.18490484 -0.04639234
000280 f6 52 6d 3e 18 38 12 be 48 73 4c 3e 75 28 27 be
       0.23176178 -0.1427921 0.19965851 -0.16324027
000290 43 cb 4c 3d 81 5e c1 bd d2 a6 eb bd c6 e4 59 be
       0.049998533 -0.09441853 -0.11506428 -0.21278676
0002a0 ee bc ae 3b cf 70 91 3d a6 84 e8 3d f9 c0 af 3d
       0.005332581 0.07101595 0.11353426 0.085817285
0002b0 82 83 f2 bc 6d 8b c4 3d c6 23 c8 bd 98 79 7f bd
       -0.029603723 0.09596906 -0.09772448 -0.06237182
0002c0 6b 6b d9 bd dd c3 5f be 29 c7 1e be c3 74 d2 bc
       -0.106161915 -0.2185206 -0.15505661 -0.025690442
0002d0 3d 1f 60 be 92 5f ec bc 4a 5d 88 bd 37 e1 48 3d
       -0.21886916 -0.028854165 -0.066584185 0.049042907
0002e0 96 dc 6b be 5a b2 05 3d 7f 58 4a 3e 07 ec ce bd
       -0.23033366 0.032640792 0.19760321 -0.101036124
0002f0 b7 80 13 3e 2b 0a b8 3d 8a b4 35 be 41 cc 09 3e
       0.1440457 0.089863144 -0.17744651 0.13456823
000300 56 57 64 bd b4 44 fc bb 3f 42 31 be d9 56 53 be
       -0.055747353 -0.0076986197 -0.17310427 -0.20638599
000310 a1 99 ad 3d 80 9c 4d 3e c7 0a aa bd 97 c9 fc bd
       0.08476568 0.20079231 -0.08302837 -0.12343138
000320 32 89 6c 3e 37 85 4d 3e 16 a3 12 3d be 26 d0 bd
       0.23099211 0.20070349 0.035800062 -0.101636395
000330 3f 2a c2 bd e3 a4 51 bd 38 01 e2 3c e8 c6 1b 3e
       -0.09480714 -0.05118264 0.027588472 0.15212595
000340 8a de 86 bb c2 39 ca 3d 97 1d 23 3d 58 98 8d bd
       -0.004115884 0.09874298 0.03982314 -0.06913823
000350 58 33 d4 3d 34 82 39 3e 9a 2f 30 3e 5e 01 51 be
       0.103613555 0.18116075 0.17205659 -0.20410678
000360 a4 ed 13 be c6 d6 2f bd e8 f1 e1 bb 84 93 4e bd
       -0.14446121 -0.042929433 -0.0068952926 -0.05043365
000370 11 2a 56 3d 87 66 6c be 06 a2 85 bd cb 8e 4c bd
       0.05228621 -0.23085986 -0.06525044 -0.049940865
000380 eb d4 6c be fe 9c 48 bd 64 61 2f be 91 44 07 3e
       -0.23128097 -0.048977844 -0.17126995 0.1320975
000390 f4 12 49 3e 65 8a 63 be 6d 60 8e 3d a6 40 4e bc
       0.19636136 -0.22220762 0.069519855 -0.012588656
0003a0 a8 b0 4c be f4 23 54 3e ca 3d 1a bd 53 24 1b be
       -0.19989264 0.2071684 -0.037656583 -0.15150575
0003b0 f0 99 61 3e f9 a6 ef bc e3 52 78 be 9c 0b 20 be
       0.22031379 -0.029254423 -0.24250369 -0.15629429
0003c0 0c ea cc 3b 9b 46 0c 3e 07 21 fb 3d 67 bc 11 3e
       0.0062534865 0.13698809 0.12262159 0.14232026
0003d0 c3 70 22 be 20 06 40 3e 5f fb e8 3d e5 bd e0 3d
       -0.15863328 0.18752337 0.1137607 0.109737195
0003e0 d2 38 29 be 44 6b 61 3d fc af 87 bd 11 7f 80 be
       -0.16525581 0.055033937 -0.06625363 -0.25096944
0003f0 c0 27 34 3e 8b 01 2d 3e fd 9e a4 3d 42 4d 81 be
       0.17593288 0.1689512 0.08038137 -0.25254256

convs.2.bias f4 [48]
000000 6f 6d ad 3b 06 56 9a bb 1b 31 03 3c 65 6e a0 3b
       0.0052925865 -0.004709962 0.008007313 0.0048959726
000010 ee 42 e7 bb 9f be bf 3b 93 26 c7 3b 44 bb b2 bb
       -0.007057539 0.005851581 0.0060775965 -0.0054544527
000020 05 6b 07 3b ca aa af bb db 96 cf bb a8 e2 5f bb
       0.0020663154 -0.005360936 -0.006335122 -0.0034162197
000030 56 61 e0 b9 05 5d dd b9 b1 0e e8 bb fa e4 e8 3b
       -0.0004279713 -0.0004222171 -0.0070818295 0.0071073743
000040 86 9f e7 ba e0 42 69 bb 29 d6 bb bb b3 54 c4 bb
       -0.0017671443 -0.003559284 -0.005732317 -0.0059915422
000050 0b 2f 10 39 34 60 d0 bb 4c 90 cb ba 3e 54 ab bb
       0.00013750435 -0.0063591246 -0.0015530675 -0.0052285483
000060 9f d7 c1 3b d9 61 98 bb a4 c1 3c 39 78 51 e7 3b
       0.0059155966 -0.004650336 0.00018001214 0.0070592724
000070 f3 74 d0 3a 12 29 8e ba c2 e7 b1 bb 37 d5 91 bb
       0.0015903994 -0.001084598 -0.005429239 -0.004450466
000080 74 f9 2b bb ab 62 9b bb 66 33 96 ba 24 5c 86 3b
       -0.0026241215 -0.0047419867 -0.001145941 0.0041003395
000090 49 a8 67 bb 1c c2 98 bb dc ba f0 ba e6 ea d6 bb
       -0.0035348109 -0.0046618115 -0.0018366235 -0.006558764
0000a0 a4 e3 a7 3b d5 da ac bb a9 cc a2 3b 0d f4 f9 ba
       0.0051235724 -0.0052751102 0.004968245 -0.0019069925
0000b0 d8 15 b5 3b 41 f9 01 bc a7 61 a8 bb c4 42 f9 3b
       0.0055262856 -0.007932962 -0.005138594 0.007606836

convs.2.lin.weight f4 [48, 48]
000000 c4 bb 04 be f5 32 87 bd d6 e1 32 be 5c 47 79 3e
       -0.12962252 -0.06601516 -0.17468962 0.24343628
000010 9a a3 99 bc fb 96 62 be ee 28 00 be 1d e6 8e 3a
       -0.01875477 -0.22127907 -0.12515613 0.0010902319
000020 3c f3 15 be 27 65 b0 bd a6 af 80 3e 51 8f a0 3b
       -0.14643568 -0.08613043 0.2513401 0.004899897
000030 84 b0 05 3e b8 1c 92 3d 38 7d 17 be 2e 74 df bc
       0.13055617 0.07134384 -0.14793861 -0.027277078
000040 06 f0 38 be 79 8c db bd 61 69 6b 3e a4 6f 02 be
       -0.18060312 -0.107201524 0.22989418 -0.127379
000050 31 37 61 be 3c d8 79 3b 4d 10 64 bc f1 b0 49 3e
       -0.2199371 0.003812327 -0.013919902 0.19696404
000060 b5 8e 10 be b5 76 75 bc a2 f9 0e be 07 f4 1b 3e
       -0.14116938 -0.014981915 -0.13962415 0.15229808
000070 5b 4c 40 3e 57 ae 16 3e 80 6f bd bd 3c 5c 58 3e
       0.18779127 0.14714943 -0.092497826 0.21128935
000080 90 e2 41 3e 2b e9 4c bd b0 8c 06 3d 18 d7 f1 3b
       0.18934083 -0.050027054 0.032849014 0.0073803775
000090 a4 10 a3 3d 68 4d 4e 3e 83 1e 24 3e bd bb 80 bc
       0.07962158 0.20146716 0.16027264 -0.01571452
0000a0 76 29 d0 bb 43 62 de 3d 24 e5 6a 3e 0c d3 7d 3e
       -0.006352599 0.10858586 0.22938973 0.24787539
0000b0 27 b6 9b 3d 7e e5 ab 3c 33 b7 79 3e 9e 6e 30 be
       0.07603102 0.020983454 0.24386291 -0.17229697
0000c0 31 95 35 be ee 52 15 bd e2 2a 7d be 7e a1 06 be
       -0.17732693 -0.03645604 -0.2472339 -0.13147542
0000d0 a9 17 6b 3e 0a 2d 0d 3e 59 1d 01 bd ef 90 50 3e
       0.22958244 0.13786712 -0.03152213 0.20367788
0000e0 7a d2 14 3d 4c ea cc 3b b0 7a f5 bd 46 ab db bd
       0.03633354 0.0062535163 -0.119862914 -0.10726027
0000f0 30 1b 85 bc d6 1d f7 3d 6f 0f f6 bd 6d 3d 35 3e
       -0.016248316 0.12066238 -0.120146625 0.17699213
000100 88 84 14 bc 91 54 1a 3e 86 18 9f bc f8 7e 00 bd
       -0.009064801 0.15071322 -0.019420873 -0.031371087
000110 64 fb 0b be 14 51 b3 ba bd db 7b 3e 41 ef 48 bc
       -0.13670117 -0.0013680779 0.24595542 -0.012264074
000120 2b b7 80 3c a6 83 3e be fb 87 76 bd 6b 79 df bd
       0.015712341 -0.18604907 -0.060188275 -0.109118305
000130 24 c7 1b 3e 22 d8 77 be 74 59 37 be b7 92 a7 bd
       0.15212685 -0.24203542 -0.17905217 -0.081822805
000140 6d 70 17 bb b3 fe 41 bd 58 bc d5 3d cb 74 b6 bd
       -0.0023107782 -0.04736204 0.10436314 -0.08908995
000150 f1 d3 4f 3e c2 f1 f0 bd fb d6 12 3e 04 08 9e bd
       0.20295693 -0.11764862 0.14339821 -0.077163726
000160 ea 0f 15 be ca ec 0f 3e 44 70 e9 3c 6c c2 04 3d
       -0.14556852 0.14055172 0.028495915 0.032411978
000170 23 22 af bd 84 ba 64 be 20 d6 ab bd 36 d6 70 be
       -0.08551433 -0.22336775 -0.083904505 -0.23519215
000180 a4 eb b2 bd 4a fe 36 be 03 46 56 3b 0c ac 61 be
       -0.08736351 -0.17870441 0.0032695539 -0.22038287
000190 09 ef 5e be f4 45 1e 3e 53 4e 8a bd a0 d5 54 3e
       -0.21770872 0.15456372 -0.067532204 0.20784616
0001a0 ba 06 e9 bc 36 ce fa 3d df f2 0d 3a e5 57 68 be
       -0.02844559 0.12246363 0.0005414914 -0.22689779
0001b0 35 3b 38 3e 7a b4 8e bd a7 98 6b bd 0e 23 75 3d
       0.17991336 -0.06968017 -0.057518627 0.059847884
0001c0 bd 27 9e bd db 8e e7 3c f4 1f 88 bd 5a ae 45 be
       -0.07722423 0.028266361 -0.066467196 -0.19304791
0001d0 0d 7c fd bd d7 35 60 3e 25 9e 7b 3d 5a e3 59 3e
       -0.123771764 0.21895538 0.061430115 0.21278134
0001e0 29 0d d2 bd 91 73 91 bd 3d 0e 6c 3e 0c dc 59 bd
       -0.10256416 -0.07102121 0.23052306 -0.05318837
0001f0 33 56 aa 3d ec 34 2f 3e b0 fd 26 be e0 5e 08 be
       0.083172224 0.17110032 -0.16307712 -0.13317442
000200 e5 6a 24 3e ad 9b 11 3d b5 e2 75 be b1 17 83 3e
       0.16056402 0.035548855 -0.24012263 0.25604013
000210 a8 cb 03 be 3c 59 83 3e 6d 05 61 be 77 d2 ff 3d
       -0.12870657 0.25654018 -0.21974726 0.12491315
000220 d8 b7 0d 3e ea 86 2f be 3f f8 71 3c a1 38 cc bd
       0.13839662 -0.1714131 0.014768659 -0.099717386
000230 c4 6d 33 bd 50 0a 3d 3e 37 c8 c4 bc a5 5b 7d 3e
       -0.043805853 0.18460965 -0.024021251 0.24741991
000240 a1 fa 1e 3d 89 9c 65 3e 74 84 64 bd d0 b4 7a 3e
       0.038813237 0.22422995 -0.05579038 0.24483037
000250 9e a8 20 3e f2 f0 33 3e cb 55 ae bd d1 a0 09 bd
       0.15689322 0.17572382 -0.085124575 -0.033600632
000260 39 09 7f 3d 5e 02 9a bd e7 ed 32 3e 1e 06 04 be
       0.062264655 -0.07519983 0.17473565 -0.12892959
000270 c5 b6 16 be 27 42 90 3d fd 1a 18 3e bd 80 30 be
       -0.14718159 0.070438676 0.14854045 -0.1723661
000280 71 c9 58 3e 4f e5 e6 3d 58 b2 4b 3c b3 6d 57 3d
       0.21170594 0.11274206 0.012432657 0.05259485
000290 e0 bb 6e be 4b 77 89 bd 12 57 af bb 96 db f4 3c
       -0.23313856 -0.067122065 -0.0053509558 0.029889863
0002a0 c5 11 c0 3a ec 09 36 bd be 01 5b be e7 61 ec bd
       0.0014653733 -0.044443056 -0.21387383 -0.11542111
0002b0 d8 84 67 be e8 e3 30 be 70 f2 a2 bd 1f f8 31 3e
       -0.2260927 -0.1727444 -0.079563975 0.17379807
0002c0 81 d6 e3 3d e4 da 9b 3d 06 66 6a bd 9d e2 d3 3d
       0.11124898 0.076101094 -0.057226203 0.103459574
0002d0 b9 e0 e9 bc bc 7f 4a 3e cd 12 44 bd 88 7e 97 bb
       -0.028549539 0.1977529 -0.047869492 -0.004623238
0002e0 00 19 03 3e e9 10 14 be 0b 4a c6 bb af 8f 33 bd
       0.12802505 -0.14459576 -0.006051307 -0.0438382
0002f0 c0 ca 10 bd 49 d2 2d 3d 01 f0 45 bd 12 ae 6c 3d
       -0.035349607 0.04243687 -0.04832459 0.057783194
000300 f3 03 0a 3e 88 88 21 3e 5b 68 75 3e 43 d9 80 3c
       0.13478069 0.15774739 0.2396559 0.015728598
000310 a1 27 cf bd e7 5a 05 3d f6 d6 6e 3d 0f 4d 2b be
       -0.101149805 0.032557394 0.05831047 -0.16728614
000320 4b 8b 3d be db 21 28 be c0 05 25 3e 4f 12 3f 3e
       -0.18510167 -0.16419165 0.16115475 0.18659328
000330 1d 7e f2 bc 61 ae 8c 3d e1 47 cb 3d 04 9a 4e bd
       -0.029601151 0.06869198 0.09925819 -0.05043985
000340 fd 79 10 3d c4 46 93 bd b8 ea 88 ba a0 6c 23 be
       0.035272587 -0.07191232 -0.0010445928 -0.15959406
000350 dd a0 70 3e 0a bc 09 be 37 e0 4c 3d 4b 75 3a 3e
       0.23498864 -0.13450637 0.050018515 0.18208806
000360 64 d3 94 3d a3 32 31 3e 9d e4 29 3e 49 e8 95 3d
       0.07266882 0.17304473 0.16591115 0.073196955
000370 e4 c9 fd bd bd 84 e6 3d 42 39 e4 3d 66 84 1d 3e
       -0.12392023 0.112557866 0.111437336 0.15382537
000380 64 ac f8 3d 08 28 f9 3d cd 6e 53 be 61 88 42 3e
       0.12142256 0.121658385 -0.20647736 0.18997337
000390 5a b1 36 be 63 e0 1c 3e 1e cb 54 3d c1 81 3f 3e
       -0.17841092 0.15319972 0.05195152 0.18701841
0003a0 c0 49 01 be 23 b3 3c be 3b d9 4d be 9f 8d d0 bc
       -0.1262579 -0.1842771 -0.20102398 -0.025458155
0003b0 73 7a 19 3d 15 1b 1f 3d 3b e4 03 be 87 f5 73 3d
       0.037470292 0.038844187 -0.12880032 0.059560325
0003c0 14 a1 30 be c2 7f e0 3d 2e cb 76 3e 1f e5 c7 3d
       -0.17248946 0.10961868 0.24100944 0.09760498
0003d0 8a 6c 1e 3d 92 eb 65 bd f0 c8 e9 3d 9d 9c 46 bc
       0.03867773 -0.05613286 0.11415279 -0.0121223
0003e0 55 87 6d bd e9 94 e1 3b 8b f1 0b ba 8d 6d 3f 3c
       -0.05799039 0.0068842066 -0.0005338422 0.011683834
0003f0 7d 53 ff 3d b3 70 4e bc fa 76 43 3e 52 dc 1e 3e
       0.12467096 -0.012600112 0.19088355 0.15513733

input_normalizer.weight f4 [113]
000000 ed 1c 7f 3f 96 bb 7e 3f bd 27 7f 3f 3b 26 80 3f
       0.9965351 0.99504983 0.9967001 1.0011667
000010 78 d2 7e 3f fb 37 7f 3f 50 0b 80 3f 2b 5a 7e 3f
       0.995399 0.99694794 1.0003452 0.99356335
000020 bc 39 7e 3f dc 0f 7f 3f c0 94 7e 3f bb 5c 7e 3f
       0.99306846 0.99633574 0.99445724 0.99360245
000030 49 86 7e 3f a4 28 7f 3f f3 7d 80 3f 09 c2 80 3f
       0.9942365 0.9967139 1.0038437 1.0059215
000040 ca b5 7e 3f 20 fb 7f 3f fd 9a 7e 3f 66 93 7e 3f
       0.9949614 0.9999256 0.99455243 0.9944366
000050 d9 18 80 3f cb c8 80 3f 65 97 7e 3f 52 a1 7e 3f
       1.0007583 1.0061277 0.9944976 0.99464905
000060 a7 fd 7f 3f 31 e8 80 3f 05 a1 80 3f 51 a4 7e 3f
       0.9999642 1.0070859 1.0049139 0.99469477
000070 ca 50 80 3f af a1 7f 3f 95 ab 7e 3f 29 02 80 3f
       1.0024655 0.99856085 0.99480563 1.0000659
000080 42 9a 7e 3f 48 5e 7e 3f a3 99 80 3f 3c 74 80 3f
       0.9945413 0.9936261 1.0046886 1.0035472
000090 7c 82 7e 3f 2b c8 7e 3f 09 db 7e 3f d2 88 7e 3f
       0.99417853 0.9952418 0.9955297 0.9942752
0000a0 67 19 7f 3f 0a 9b 7f 3f 78 85 7f 3f 6e a3 7e 3f
       0.99648136 0.99845946 0.9981303 0.99468124
0000b0 03 9b 7f 3f 5d a2 80 3f d4 86 80 3f a1 88 7e 3f
       0.99845904 1.0049549 1.0041146 0.9942723
0000c0 49 e3 7e 3f 47 b5 7e 3f c7 a4 7e 3f 96 b7 7e 3f
       0.9956556 0.9949536 0.9947018 0.9949888
0000d0 3d 51 7e 3f dc 98 7e 3f 50 c0 7e 3f eb 9f 7e 3f
       0.9934271 0.99451995 0.99512196 0.99462765
0000e0 f0 48 7f 3f fb 6c 7e 3f b4 c4 7e 3f ba f3 7e 3f
       0.9972067 0.9938504 0.99518895 0.9959065
0000f0 b7 65 7f 3f cb 6b 7e 3f 1e 7b 7e 3f 97 e4 7e 3f
       0.9976458 0.9938323 0.9940661 0.9956755
000100 34 7f 7e 3f f2 ad 7e 3f 1d aa 7e 3f 23 64 7e 3f
       0.99412847 0.9948417 0.9947832 0.99371547
000110 a7 91 7e 3f 18 87 7e 3f de 85 7e 3f 14 8d 7e 3f
       0.99441 0.99424887 0.99423015 0.9943402
000120 4f 50 7e 3f 70 d9 7e 3f 6b 98 7e 3f 47 75 7e 3f
       0.9934129 0.99550533 0.9945132 0.993977
000130 a7 6b 7e 3f 18 9e 7e 3f 11 7f 7e 3f 09 26 7f 3f
       0.99383014 0.9945998 0.9941264 0.9966741
000140 81 39 7f 3f d7 93 7e 3f 9c 95 7e 3f d3 72 7e 3f
       0.9969712 0.99444336 0.99447036 0.9939396
000150 37 85 7e 3f ba 83 7e 3f aa 62 7e 3f 37 af 7e 3f
       0.9942202 0.9941975 0.993693 0.99486107
000160 e9 ac 7e 3f 91 a9 7e 3f 97 a0 7e 3f c7 b4 7e 3f
       0.9948259 0.9947749 0.9946379 0.99494594
000170 17 1e 7f 3f f6 ca 7e 3f 1a b4 7e 3f 5a c2 7e 3f
       0.9965529 0.99528444 0.99493563 0.99515307
000180 a3 bd 7e 3f c2 d7 7e 3f 4e 72 7e 3f dd bf 7e 3f
       0.9950811 0.9954797 0.99393165 0.9951151
000190 ca c6 7e 3f 00 a9 7e 3f a3 9c 7e 3f 81 c4 7e 3f
       0.9952208 0.99476624 0.9945776 0.9951859
0001a0 ef 66 7e 3f 6e a4 7e 3f c8 09 7f 3f ac cc 7e 3f
       0.99375814 0.9946965 0.996243 0.99531054
0001b0 35 9f 7e 3f 38 79 7e 3f 89 47 7f 3f 62 f0 7e 3f
       0.9946168 0.99403715 0.9971853 0.99585545
0001c0 52 ca 7e 3f
       0.99527466

input_normalizer.bias f4 [113]
000000 ff b7 52 3b b0 a1 4a 3b 17 57 8d 3b e0 b8 49 3b
       0.0032153127 0.0030919127 0.0043133604 0.003078036
000010 33 32 8f 39 93 29 af 3b 92 e7 ce 3b 94 ec 5b 3b
       0.00027312487 0.005345532 0.0063142264 0.003355776
000020 1f c5 a9 3b 15 d3 e6 3a 39 b0 62 3b 96 fe c4 ba
       0.0051809694 0.0017610515 0.00345899 -0.0015029486
000030 3c 34 24 bb e9 e1 7a 3b 4d ed c0 bb 4e f9 bd bb
       -0.0025055548 0.0038281626 -0.0058876635 -0.0057975417
000040 73 27 a6 bb 06 6d c5 3a 7f 9d a2 bb cd 00 93 3b
       -0.0050706207 0.0015062399 -0.0049626227 0.0044861794
000050 4f 77 5f 3a 3a 9e ac 3b d7 cc ef ba 6a 13 73 bb
       0.0008524553 0.0052678855 -0.00182953 -0.003709043
000060 c6 c8 b8 3b cc 47 65 bb c8 b1 ae 3b bb 65 7b bb
       0.0056391684 -0.0034985421 0.005331252 -0.0038360197
000070 7d 4e 3c bb a6 c5 7e 3b 64 fa b3 3b 65 dc 49 3b
       -0.0028733306 0.0038875132 0.0054924954 0.0030801531
000080 58 cb 94 bb dc d3 8d 3b 80 4b 8e 3b 16 4a be ba
       -0.004540842 0.004328234 0.0043424964 -0.0014517929
000090 39 52 52 3a 03 df 88 3b fa b8 67 bb 34 55 e3 ba
       0.00080231164 0.0041769757 -0.0035358057 -0.0017344118
0000a0 0c 10 a8 3b 43 25 cc 3b 7a 19 da 3b 9b cd 5e 3b
       0.005128866 0.006230028 0.006655869 0.0033997062
0000b0 98 5f c0 bb 08 44 84 3b f6 51 82 bb 2d 47 64 3b
       -0.0058707707 0.0040364303 -0.0039770557 0.0034832463
0000c0 fd db 5b bb d4 92 8d bb e5 21 06 3b db 24 5b 39
       -0.0033547871 -0.004320482 0.002046698 0.00020899197
0000d0 d2 b7 a5 bb f8 a4 8d bb 57 54 70 bb 06 dc c7 bb
       -0.0050573135 -0.0043226443 -0.0036671364 -0.006099227
0000e0 e8 4b b1 bb c5 1d 36 3b bc 1f b4 3b f7 d9 b6 b9
       -0.00541066 0.002778874 0.005496947 -0.00034876142
0000f0 65 64 92 3b 72 f6 ad bb 03 e1 c2 bb a3 40 95 bb
       0.0044675344 -0.0053089196 -0.0059472336 -0.0045548244
000100 ed 1e 7c 3b 61 6b 9c bb 77 2f 91 bb 95 c5 af bb
       0.0038470582 -0.0047735428 -0.004430707 -0.00536413
000110 6e 77 ca 3b 39 f7 a0 3b 2d 9d 83 3b b0 17 ac bb
       0.006178788 0.0049122837 0.0040165395 -0.005251847
000120 45 b7 8a 3b 13 29 8d 3b ce 25 9f 3b d9 3e a9 bb
       0.004233273 0.004307875 0.0048568016 -0.0051649627
000130 8e 49 a5 3b e2 cd 32 bb 2f 82 a8 3b 81 31 de ba
       0.005044169 -0.002728336 0.005142472 -0.0016952009
000140 8f c1 93 bb 6e c7 b0 3b b7 be 9f 3b ee 9b 1e ba
       -0.004509158 0.0053948676 0.00487503 -0.0006050457
000150 30 23 a3 3b 82 81 be 3b 02 0e 65 bb 68 23 89 3b
       0.00497856 0.0058137784 -0.0034950976 0.004185129
000160 d6 fe 8b 3b 3a 61 a3 bb 58 57 94 bb eb ad d7 bb
       0.004272322 -0.0049859555 -0.0045270137 -0.006582012
000170 ab 97 ac bb 3e 6c 86 bb 71 72 28 bb 53 25 3c 3b
       -0.0052671037 -0.004102259 -0.0025702978 0.002870877
000180 a3 1d c2 3b b3 75 b7 3b fe 67 9f 3b 9e 62 aa 3b
       0.005923943 0.0055987476 0.0048646918 0.0051997444
000190 e6 41 88 bb 6e 1e c1 bb 8c 9d a2 3b 23 89 9a 3b
       -0.0041582463 -0.00589352 0.0049626287 0.004716055
0001a0 c1 0f 81 bb 4a 2b 85 3b 88 dd ba 3b 25 d7 17 bb
       -0.0039386456 0.0040639983 0.005702678 -0.0023169008
0001b0 39 dd 4c 3b d8 0e 4a bb 32 d1 f1 ba 1a a3 aa bb
       0.0031259789 -0.0030831601 -0.0018449186 -0.0052074315
0001c0 29 e3 c7 3b
       0.0061000776

input_normalizer.running_mean f4 [113]
000000 9c 9d 43 bf 96 63 2e 3e 8a 9b c2 be 56 84 91 3f
       -0.7641237 0.17030177 -0.38009292 1.1368511
000010 40 f6 3a 3e 55 68 21 be de d1 55 bf 21 31 76 3e
       0.18258 -0.15762456 -0.83523357 0.24042179
000020 18 4d b4 3e 79 e6 f3 3e 54 5c 3f be e9 1d 1e 3f
       0.35215068 0.47636774 -0.18687564 0.6176439
000030 77 cc d4 be c4 49 8a be 3a 94 cd 3e 90 1e 94 bf
       -0.41562244 -0.27009404 0.4015215 -1.1571827
000040 49 75 a0 be 22 cb 80 3e 0c f5 59 bf cb 18 87 3f
       -0.3133948 0.25154978 -0.85139537 1.0554441
000050 9b e2 60 3f c0 53 d7 bd 11 d8 9b be b4 d1 de 3e
       0.8784577 -0.10514021 -0.30438283 0.43519366
000060 3d a4 34 bf 4d 4a 54 3f a0 fa 75 be 7a 23 b9 3e
       -0.7056311 0.82925874 -0.24021387 0.3615988
000070 a9 63 08 be 0c 3b 49 bf a8 b3 86 be 5b 9c 1a 3f
       -0.13319267 -0.78605723 -0.26308942 0.6039483
000080 fc 3e b6 be 5b e9 ad be e5 ed 3f 3d 70 eb 88 3e
       -0.35594928 -0.339671 0.046857733 0.26742125
000090 3c b0 c5 3e 18 a7 1f 3e 13 8e 86 3f 06 05 99 be
       0.3861102 0.15591085 1.0512108 -0.29886645
0000a0 bd 92 a1 3e 11 d6 ca 3d a9 d8 c0 3e f7 9e 40 3e
       0.31557265 0.09904111 0.376653 0.1881064
0000b0 b6 ca 85 bf 90 c4 75 ba 61 3a 72 3e 84 de 02 3f
       -1.0452487 -0.00093752984 0.23655082 0.5112078
0000c0 21 3a 28 43 af 95 42 bb 13 06 8a ba cc 70 a5 3a
       168.22707 -0.002969127 -0.0010530375 0.0012622117
0000d0 89 a2 2d 3b e1 73 40 bc d5 e2 ba 3b 78 17 8e 3a
       0.0026494584 -0.011746378 0.00570331 0.0010840734
0000e0 d0 81 a5 ba d8 14 9a 3a 3f 64 b2 bb 83 3c 11 bb
       -0.0012627188 0.001175548 -0.005444079 -0.0022161312
0000f0 f9 c7 9d 3a 99 70 1b 3c 41 60 65 bb fa c3 9d 3a
       0.0012037746 0.009487295 -0.0034999999 0.0012036555
000100 4e 5c f7 ba 1f 24 5d bb 0c 25 cd 3a 15 7a 41 39
       -0.0018872113 -0.0033743454 0.00156513 0.00018451393
000110 12 87 90 3b 0e 91 0e bc b4 d0 15 3c 40 fd 8a b9
       0.004410633 -0.008701576 0.009143997 -0.00026510097
000120 d8 03 b7 3b ab e6 39 bb 9e 81 fa bb 67 db 87 3b
       0.005585175 -0.0028366249 -0.007644846 0.004146028
000130 af 18 04 3a 48 32 c0 bb 50 79 4c 3b 71 a2 ac 3b
       0.00050390785 -0.005865369 0.0031200238 0.005268388
000140 74 ea f6 3b f0 de 5d b8 2c 30 68 3b d8 f1 11 bc
       0.007535273 -5.2898133e-05 0.0035429103 -0.008907758
000150 6b 48 05 bc 09 58 1c 3c 46 84 74 bb a7 54 2d 3b
       -0.008134942 0.009542474 -0.0037310286 0.0026448162
000160 27 f5 fd 3a a3 ad c0 3b d3 59 a2 3b c2 6b 8c ba
       0.0019375429 0.005880074 0.0049545555 -0.0010713267
000170 49 a9 b0 3b a8 41 d0 ba 77 37 cd bb c0 bc a1 3a
       0.005391274 -0.0015888708 -0.0062627154 0.0012339577
000180 12 40 22 bb 6f fa 23 3c 4a 1f 83 3b 50 e4 6a ba
       -0.0024757427 0.0100084385 0.0040015327 -0.0008960413
000190 0a 5f 9a ba 68 b8 d3 38 78 bf 5e bb 1b 38 6a 3c
       -0.0011777591 0.000100956124 -0.0033988636 0.014295603
0001a0 38 d7 8f 3b c8 bd e7 39 51 18 09 3c 32 d7 48 bb
       0.0043896697 0.00044201151 0.008367614 -0.0030645845
0001b0 32 f7 06 3b 9c 86 c7 b8 85 e8 a2 3b 6f e1 9a 3b
       0.0020594117 -9.5141324e-05 0.004971566 0.004726581
0001c0 15 c9 0a bc
       -0.008470793

input_normalizer.running_var f4 [113]
000000 30 a6 37 40 a9 dc 51 3e 98 a6 19 3f e8 c7 30 3f
       2.8695183 0.20494331 0.60019827 0.6905503
000010 06 5e 1a 3f 27 17 f2 3f 88 fb 0b 40 d8 40 9b 3f
       0.6029972 1.8913316 2.1872272 1.2129164
000020 36 3f ab 3f 70 71 aa 3e fa 82 da 3e 0d e2 e8 3f
       1.3378665 0.3328967 0.42678052 1.8193985
000030 08 73 09 3f 7e 0c 4c 3f cc 86 1c 3f 1e c6 c1 3f
       0.5369115 0.7970656 0.61143184 1.5138586
000040 6a b9 c6 3f 70 84 9a 3f c6 5b a7 3f 3b 5f 9c 3f
       1.5525334 1.2071667 1.3074882 1.2216562
000050 eb d2 d4 3e 44 ee 8b 3f 08 64 90 3e d6 db 18 3f
       0.41567168 1.0932088 0.28201318 0.59710443
000060 5a e7 ea 3e 03 22 ab 3f d4 f3 d5 3e 94 18 95 3e
       0.45879632 1.3369755 0.4178759 0.29120314
000070 f4 fe 57 40 0b a1 8a 3f b7 04 03 3f f8 30 67 3f
       3.374936 1.0830396 0.5117907 0.90309095
000080 74 85 19 3f c8 d0 ee 3e 62 9e 21 3e 41 05 e6 3e
       0.5996926 0.46643662 0.15783074 0.44925883
000090 fa 58 11 3f af 6a 80 3f a6 b1 69 3f 2a 8c c3 3e
       0.5677639 1.0032557 0.91286695 0.38192874
0000a0 94 03 13 3f 78 b0 38 3f 89 78 6b 3e 89 94 54 3f
       0.57427335 0.7214427 0.229952 0.83039147
0000b0 4c 8c 29 3f e5 b7 08 3f f3 e1 cd 3e f4 8e 23 3f
       0.662297 0.534056 0.40211448 0.63890004
0000c0 b7 01 23 45 2e b0 fe 3e 03 10 ff 3e 99 73 fe 3e
       2608.1072 0.4974379 0.49816903 0.4969757
0000d0 b3 f0 ff 3e fe 04 ff 3e b5 93 00 3f e0 82 ff 3e
       0.49988326 0.49808496 0.50225383 0.49904537
0000e0 60 21 00 3f b2 13 00 3f 8c 4d 00 3f 46 67 ff 3e
       0.50050926 0.5003005 0.5011833 0.4988348
0000f0 ee 09 ff 3e 97 bf ff 3e 0a e8 00 3f 45 bf 00 3f
       0.49812263 0.4995086 0.50354064 0.50291854
000100 86 4b ff 3e 70 45 00 3f 83 4c 01 3f 94 da 00 3f
       0.49862307 0.50105953 0.5050737 0.50333524
000110 b4 8b ff 3e d9 25 00 3f 47 19 00 3f 23 93 ff 3e
       0.49911273 0.5005775 0.5003857 0.49916944
000120 9e 73 00 3f 1b 75 fe 3e e1 53 00 3f 46 4d ff 3e
       0.5017642 0.4969872 0.5012799 0.49863642
000130 52 c8 ff 3e a7 be ff 3e 83 5a 00 3f f5 7d 00 3f
       0.4995752 0.49950144 0.5013811 0.50192195
000140 10 37 ff 3e ed fb ff 3e 64 dd 00 3f 30 fb 00 3f
       0.49846697 0.49996892 0.50337815 0.5038328
000150 ba cc fd 3e b8 e2 ff 3e d8 2f 00 3f e7 d9 fe 3e
       0.49570256 0.4997766 0.50073004 0.4977562
000160 f7 e3 fd 3e d0 a1 ff 3e b1 0c 00 3f 99 91 00 3f
       0.49587986 0.4992814 0.50019366 0.50222164
000170 93 7f ff 3e 2b 0a 01 3f 03 06 ff 3e 37 23 00 3f
       0.4990202 0.5040614 0.49809274 0.50053734
000180 e4 1b 00 3f f9 4f 00 3f ce 15 00 3f 19 33 fe 3e
       0.5004256 0.5012203 0.5003327 0.4964836
000190 cc 4f 00 3f fb 40 00 3f df e2 fc 3e aa dd ff 3e
       0.5012176 0.5009915 0.4939184 0.49973804
0001a0 d3 3b 00 3f 62 8f 00 3f 60 a4 ff 3e b2 ea 00 3f
       0.50091285 0.50218785 0.49930096 0.50358117
0001b0 e2 42 00 3f 2f d9 ff 3e d1 5d ff 3e 1b ef ff 3e
       0.50102055 0.49970385 0.49876264 0.4998711
0001c0 56 53 00 3f
       0.5012716
