best_model.pth (torch, 764133 bytes, 158 tensors)

z_embedding.weight f4 [1000, 42]
0.79562545 0.24923185 0.13803305 0.9754487 -0.063308984 -1.624875 -2.5067735 -0.8980402
0.937936 0.3462317 0.44489318 2.1104655 -0.5686718 0.6608649 0.3934524 -2.0220702
-0.11767945 1.1957971 -2.0661433 1.8747791 0.8482286 -1.1343307 0.04011687 0.014162909
-0.8744972 2.0557976 -0.31757218 0.25415426 -2.070272 -1.4090724 -0.31439534 1.5546275
-0.89557624 0.10294963 -0.17332812 0.7009468 1.0831861 0.8269829 2.0183418 -0.7431382
0.7627774 0.8017627 0.20123196 0.00039113854 -1.6865288 -0.6837073 0.29827267 1.3225471
-0.5692577 -0.42995623 0.089016065 -1.4489375 -0.9447065 1.0520387 -1.0867262 0.14759152
0.13821405 0.31786805 -0.053012434 -0.72741264 -0.06575352 0.36058477 0.5210063 -0.82531846
0.19453208 0.26759744 -0.44655496 0.79146016 -0.06395126 0.70913655 -1.2389538 -1.6061578
1.4875884 -1.1932148 -0.95795536 -1.6859765 -0.19637233 0.452729 -1.5545537 0.005611577
-0.66712254 -0.73169184 1.0667465 0.25003317 -0.013492865 0.42753404 1.5674028 -1.2053144
-0.112234674 0.53498423 0.57700366 -0.23666286 -0.013151059 -0.59859705 -0.6827264 -0.9998513
0.740948 -0.11318728 -0.32677034 -0.39834562 0.4181667 0.6433785 -2.1324372 -1.4665225
0.3796544 0.04960042 1.4386736 0.23992823 -0.73952943 0.61905295 -0.30499724 0.87203985
0.7112308 -1.3943352 -0.24911866 0.53410083 -0.013626645 1.1244376 -0.4098913 -0.43590853
-0.11100624 -0.7996477 -0.80049396 0.57181805 0.21821435 0.90893435 -0.46245685 0.18591665
1.0726713 -0.5503189 0.59777915 0.9408283 1.9074868 -0.8123419 0.33030474 0.59580624
-0.61415684 -0.7986299 2.221951 0.36664245 1.0909208 0.13943362 -0.16906404 -0.20409556
-3.3590562 0.4269287 -1.4785064 1.6035653 -0.33363438 0.027004365 0.527513 0.34976035
-1.6617982 -0.025890606 -0.47399932 0.2648733 -0.22360446 -1.05219 -0.60165495 -1.9338998
1.5551424 -1.0723087 0.14270459 0.09484363 1.7659773 1.0987884 -0.43586263 1.3552613
0.15376309 0.3747931 0.7980079 0.52583927 2.4345496 -1.2862682 -1.2629967 -0.43073496
0.9137106 -1.0967804 0.3661539 -0.40970686 -0.22441551 -0.3448055 0.0120000765 0.17495349
-0.037080757 0.22397202 0.9002971 1.7483221 0.17443837 0.8280491 0.3317474 -0.27620712
-1.2474818 -0.24607173 0.37201878 1.7547656 0.44599843 1.103339 0.48772588 1.6573184
0.9813664 1.4873763 -0.6063587 -0.82647216 0.45673996 -1.2342719 1.5722659 0.32716948
-1.7092649 0.7293991 -0.27956554 0.52092224 0.12706284 0.3004838 -0.46764192 0.2397473
-0.69553906 -0.001365606 -0.13049322 4.928e-41 0.057678934 0.4753365 0.005038105 0.096492775
-6.9957982e-06 -0.44126502 -0.0041682394 -0.00010997201 -0.0008009066 -0.81857675 1.4757723e-15 -0.015260385
-0.29958817 -0.6988759 0.025636686 -0.2136199 -0.77874184 0.071716525 -0.28073436 -2.1014916e-14
-1.3869538 0.042627476 0.015556671 -0.0817863 0.00033161152 0.8648275 1.8211056e-06 -0.021761848
0.00014077913 -4.9204e-41 -0.05045598 -0.00334629 0.29153308 -0.076469846 -0.48143235 -0.69643337
00000000: 1cae 4b3f a236 7f3e 8958 0d3e 02b7 793f
00000010: 24a8 81bd e7fb cfbf fa6e 20c0 f6e5 65bf
00000020: 931c 703f 4845 b13e 0ac9 e33e de11 0740
00000030: 7a94 11bf 712e 293f 9872 c93e 9969 01c0
00000040: ec01 f1bd e10f 993f b13b 04c0 c3f8 ef3f
00000050: 8225 593f c031 91bf 9651 243d 8c0b 683c
00000060: 0cdf 5fbf 3092 0340 d298 a2be 8220 823e
00000070: 567f 04c0 7c5c b4bf 6df8 a0be 09fe c63f
00000080: 7c44 65bf 41d7 d23d ed7c 31be 4071 333f
00000090: d8a5 8a3f 27b5 533f 832c 0140 4e3e 3ebf
000000a0: 6145 433f 5240 4d3f c00f 4e3e ba11 cd39
000000b0: 2de0 d7bf 7107 2fbf 32b7 983e 3949 a93f
000000c0: dfba 11bf 3923 dcbe 0e4e b63d c976 b9bf
000000d0: 49d8 71bf 34a9 863f d819 8bbf 3b22 173e
000000e0: fc87 0d3e 9abf a23e 9123 59bd b737 3abf
000000f0: c8a9 86bd 919e b83e ab60 053f 1248 53bf
00000100: 6b33 473e 8802 893e daa2 e4be 229d 4a3f
00000110: e1f8 82bd f989 353f 0a96 9ebf 9496 cdbf
00000120: 4c69 be3f 43bb 98bf 903c 75bf 14ce d7bf
00000130: d415 49be 18cc e73e 9efb c6bf 52e1 b73b
00000140: 8bc8 2abf 2850 3bbf 268b 883f 5904 803e
00000150: 2d11 5dbc bee5 da3e a8a0 c83f be47 9abf
00000160: 4bdb e5bd baf4 083f 83b6 133f c057 72be
00000170: 8a77 57bc a83d 19bf 28c7 2ebf 41f6 7fbf
00000180: c5ae 3d3f bcce e7bd 714e a7be f5f3 cbbe
00000190: f219 d63e 74b4 243f da79 08c0 02b7 bbbf
000001a0: 1062 c23e cf29 4b3d 7526 b83f bfaf 753e
000001b0: cd51 3dbf 417a 1e3f 9928 9cbe 013e 5f3f
000001c0: 3913 363f 9379 b2bf f618 7fbe d5ba 083f
000001d0: 4b42 5fbc 92ed 8f3f 46dd d1be 672f dfbe
000001e0: 3d57 e3bd b6b5 4cbf 2ced 4cbf ab62 123f
000001f0: 9573 5f3e ecaf 683f 25c7 ecbe ef60 3e3e
00000200: 4b4d 893f b3e1 0cbf 0e08 193f 20da 703f
00000210: 8728 f43f a4f5 4fbf b41d a93e c286 183f
00000220: 6239 1dbf 0273 4cbf 7234 0e40 8fb8 bb3e
00000230: 4ba3 8b3f b0c7 0e3e 201f 2dbe 6dfe 50be
00000240: c7fa 56c0 6696 da3e b33f bdbf a141 cd3f
00000250: 20d2 aabe 4238 dd3c 180b 073f ca13 b33e
00000260: ceb5 d4bf 8918 d4bc 0ab0 f2be 799d 873e
00000270: 91f8 64be 29ae 86bf 0f06 1abf 078a f7bf
00000280: e80e c73f 6941 89bf 2721 123e 613d c23d
00000290: 8b0b e23f 19a5 8c3f 6329 dfbe 3479 ad3f
000002a0: 1274 1d3e e2e4 bf3e 3f4a 4c3f 679d 063f
000002b0: a9cf 1b40 70a4 a4bf e0a9 a1bf 4b89 dcbe
000002c0: f0e8 693f 4d63 8cbf 8678 bb3e 19c5 d1be
000002d0: 2ecd 65be 598a b0be f89b 443c 0227 333e
000002e0: fee1 17bd ec58 653e df79 663f 05c9 df3f
000002f0: f99f 323e 07fb 533f ccda a93e 056b 8dbe
00000300: 7cad 9fbf 3afa 7bbe 3f79 be3e 299c e03f
00000310: e859 e43e 363a 8d3f 35b7 f93e 0223 d43f
00000320: d43a 7b3f 5962 be3f 533a 1bbf ae93 53bf
00000330: d2d9 e93e 9ffc 9dbf 0240 c93f c282 a73e
00000340: 31c9 dabf e6b9 3a3f 3723 8fbe 295b 053f
00000350: c31c 023e 03d9 993e c36e efbe 5180 753e
00000360: d90e 32bf 22fe b2ba 04a0 05be 5f89 0000
00000370: bf40 6c3d 4e5f f33e b016 a53b 019e c53d
00000380: 73bd eab6 7ded e1be ba95 88bb c6a0 e6b8
00000390: eff3 51ba 3f8e 51bf 63ae d426 b206 7abc
000003a0: 9f63 99be 88e9 32bf 0704 d23c 2dbf 5abe
000003b0: a05b 47bf 1de0 923d 6abc 8fbe 1949 bda8
000003c0: b487 b1bf 269a 2e3d 68e1 7e3c 937f a7bd
000003d0: 25dc ad39 5665 5d3f b66c f435 e745 b2bc
000003e0: 1c9e 1339 2989 0080 eeaa 4ebd 6e4d 5bbb
000003f0: d343 953e 399c 9cbd 4d7e f6be 7549 32bf

x_embedding.weight f4 [371, 42]
-2.3855143e-10 1.3214966 -0.37028944 0.47379914 -0.8425602 -0.02198163 3.0082646e-08 1.0329978
-1.265861e-10 1.7915875 -0.07807461 -4.9477e-41 -6.117091e-05 0.010767475 0.08947227 -0.9685703
0.011878763 -1.7534097e-05 0.010832389 2.0846408e-05 -0.37100872 -0.051053476 0.5809533 0.13799751
3.888851e-06 -0.9954037 -4.491638e-05 0.30848736 -1.0831698 -0.17119005 0.0012726211 -0.3511133
-0.8618286 4.9092e-41 -0.21201375 -0.15004651 -1.6296406 -0.3545862 -4.9617e-41 -7.7125464e-22
-0.00040235164 -0.066796705 -0.9381342 -4.2064254e-05 0.25036258 0.0041792504 -0.14846082 4.9101e-41
4.9085e-41 -0.15798849 4.9184e-41 0.6256223 -4.937e-41 3.296978e-06 4.159335e-07 4.9106e-41
-4.9184e-41 -8.350336e-05 0.037403375 -0.0004075754 -0.93267584 -1.4670383 0.00048560585 0.08126195
1.2992178 0.8582253 -0.9848811 1.0057305e-24 -5.6664382e-15 4.9542e-41 0.006117571 2.0591115e-06
-0.019776532 1.0065 -4.9616e-41 1.2545523e-05 0.068329185 0.029232392 -0.61679 -5.259177e-12
-6.515753e-08 0.7774459 -1.5774147e-12 -1.696567 0.051795285 -4.3019895e-06 0.030649805 0.035980504
0.30107757 0.0015977782 -0.21495841 -0.5362375 5.309669e-19 0.42149574 0.051802795 -0.03876871
-0.00013393513 -0.20396955 -0.0011358606 -4.9553e-41 5.103679e-22 -0.00022434072 -9.842144e-06 -1.2206812e-16
-0.3721588 -0.8182944 -0.037976205 -0.0010297216 -0.474167 0.01810551 -0.43722126 -4.9365e-41
0.14173925 0.001852062 -0.23404227 -8.8810244e-05 -0.38671336 0.057009477 -4.908e-41 -4.9375e-41
0.6080628 -0.82980764 -1.996226e-09 -0.4815132 -0.21942817 -4.9163e-41 4.6026803e-06 -0.0064234855
-1.7188923 0.19624965 -0.88763046 -4.9434e-41 3.600319e-17 7.037793e-05 0.7206702 -0.4230252
0.008618182 -0.3307231 1.2085078 4.0921647e-13 -0.023025798 -0.2831624 -0.79755044 4.919e-41
0.03449433 -0.6148835 8.26824e-07 -0.65967274 -4.9127e-41 -2.5491745e-05 -0.19838956 0.50592744
0.26078078 1.0159654e-11 -0.044882692 -0.14793414 -6.105666e-05 0.105542384 4.9623e-41 9.583855e-11
-0.013229176 -2.2174482 0.009029419 -4.9488e-41 0.44645694 2.3170427e-05 0.000118544805 0.004442996
4.568449e-16 0.0004033943 -0.7112563 1.2460357 -0.6125999 0.023346845 -0.7601966 -0.19881345
3.6511498e-08 0.89401597 0.51252234 -1.3052797 4.9443e-41 0.76156414 0.45417112 -3.0366518
0.9242794 -0.31788006 -0.21501336 5.693725e-05 0.48678172 -0.30277586 0.10238203 2.9887295e-07
0.0025832932 0.10997608 0.13139169 -0.0011981911 4.9137e-41 1.9531004e-05 -1.7945157 0.08288805
0.4520078 -0.004136796 -0.0047240807 -1.8813562e-12 -0.99605 0.1230124 3.9745162e-05 -1.7693582
4.9218e-41 0.21273951 0.052906383 -9.131529e-19 0.5821253 -0.40016377 0.116399854 1.3058399
4.906e-41 0.090594836 -1.2358663e-15 -5.1295183e-07 0.441908 4.3240405e-08 -0.56014 0.7907335
6.8017887e-18 -0.06483879 0.00015221296 -0.0083931405 -0.12673199 7.473798e-20 0.0246614 0.10005029
-0.070898734 0.5980197 0.36179084 0.0016277591 4.9743e-41 -4.3547452e-26 0.022838663 -0.101010285
-0.00805714 0.0029957937 -4.9117e-41 0.21007709 0.4760487 0.4851515 0.10844014 0.8591684
-1.1320268 -6.8647256e-07 1.230484 -4.9258e-41 0.10922259 -5.069234e-05 0.022553898 -1.268365
00000000: 2125 83af cd26 a93f 9496 bdbe cd95 f23e
00000010: 06b2 57bf d212 b4bc 3834 0133 4639 843f
00000020: d22e 0baf bd52 e53f 95e5 9fbd ec89 0080
00000030: e248 80b8 106a 303c 3d3d b73d 39f4 77bf
00000040: 259f 423c 3016 93b7 557a 313c 52df ae37
00000050: dbf4 bdbe 731d 51bd 5bb9 143f 384f 0d3e
00000060: fa7c 8236 c7d2 7ebf 9964 3cb8 0ef2 9d3e
00000070: 4fa5 8abf 724c 2fbe 14ce a63a 1fc5 b3be
00000080: cda0 5cbf d988 0000 221a 59be cba5 19be
00000090: 1098 d0bf 538c b5be 508a 0080 f018 699c
000000a0: b9f2 d2b9 b6cc 88bd 9029 70bf 266e 30b8
000000b0: 862f 803e 18f2 883b 1d06 18be e088 0000
000000c0: d488 0000 bcc7 21be 1b89 0000 c828 203f
000000d0: a089 0080 a741 5d36 774d df34 e388 0000
000000e0: 1b89 0080 861e afb8 4834 193d d8af d5b9
000000f0: d8c3 6ebf e9c7 bbbf ea98 fe39 aa6c a63d
00000100: c54c a63f a7b4 5b3f 2b21 7cbf 17a1 9b17
00000110: ab27 cca7 1a8a 0000 e875 c83b 442f 0a36
00000120: 6502 a2bc fed4 803f 4f8a 0080 9c7a 5237
00000130: 2cf0 8b3d c578 ef3c f3e5 1dbf 750a b9ac
00000140: bbec 8bb3 b206 473f 5b00 deab 1c29 d9bf
00000150: 4b27 543d cf59 90b6 4d15 fb3c 4b60 133d
00000160: d726 9a3e 8a6c d13a 0f1e 5cbe dc46 09bf
00000170: bab6 1c21 4ace d73e 2b2f 543d f0cb 1ebd
00000180: f070 0cb9 65dd 50be 28e1 94ba 228a 0080
00000190: ce3f 1a1c 013d 6bb9 b01f 25b7 26bc 0ca5
000001a0: 998b bebe be7b 51bf f08c 1bbd b9f7 86ba
000001b0: 04c6 f2be 0252 943c 77db dfbe 9c89 0080
000001c0: 1824 113e e3c0 f23a c7a8 6fbe a33f bab8
000001d0: 4bff c5be c582 693d d188 0080 a389 0080
000001e0: 01aa 1b3f 466e 54bf fb2d 09b1 e688 f6be
000001f0: c7b1 60be 0c89 0080 b970 9a36 1a7c d2bb
00000200: aa04 dcbf abf5 483e c03b 63bf cd89 0080
00000210: 1009 2624 dd97 9338 d87d 383f c296 d8be
00000220: 4633 0d3c 8a54 a9be 62b0 9a3f 4f5e e62a
00000230: 99a0 bcbc a9fa 90be 442c 4cbf 1f89 0000
00000240: ed49 0d3d 0169 1dbf eaf2 5d35 50e0 28bf
00000250: f288 0080 1bd7 d5b7 a226 4bbe 7684 013f
00000260: 0f85 853e 04bb 322d ead6 37bd 0c7c 17be
00000270: 8b0b 80b8 9b26 d83d 548a 0000 4fc0 d22e
00000280: 30bf 58bc acea 0dc0 21f0 133c f489 0080
00000290: 0196 e43e 1d5e c237 429b f838 8d96 913b
000002a0: 34ad 0326 ab7e d339 e514 36bf 197e 9f3f
000002b0: 59d3 1cbf e241 bf3c 3f9c 42bf c195 4bbe
000002c0: d1d0 1c33 3bde 643f aa34 033f 6813 a7bf
000002d0: d489 0000 def5 423f 1e89 e83e 8158 42c0
000002e0: 939d 6c3f 2dc1 a2be 762c 5cbe e8cf 6e38
000002f0: 743b f93e 7005 9bbe abad d13d c974 a034
00000300: 784c 293b 243b e13d 8b8b 063e 9f0c 9dba
00000310: f988 0000 83d6 a337 b1b2 e5bf 36c1 a93d
00000320: 916d e73e f68d 87bb 76cc 9abb 8063 04ac
00000330: 22fd 7ebf eded fb3d 0bb4 2638 547a e2bf
00000340: 3389 0000 63d8 593e 5db4 583d f1c1 86a1
00000350: 2a06 153f 44e2 ccbe 0c63 ee3d c325 a73f
00000360: c288 0000 c989 b93d 6b1b b2a6 c8b1 09b5
00000370: c441 e23e 54b7 3933 5665 0fbf 836d 4a3f
00000380: 14f1 fa22 33ca 84bd 5b9b 1f39 6283 09bc
00000390: 08c6 01be 5678 b01f b406 ca3c 2be7 cc3d
000003a0: 5b33 91bd d217 193f a63c b93e 885a d53a
000003b0: aa8a 0000 f4a2 5795 2618 bb3c 7bde cebd
000003c0: 1802 04bc 1455 443b eb88 0080 731e 573e
000003d0: a8bc f33e c765 f83e dd15 de3d 76f2 5b3f
000003e0: 41e6 90bf 0946 38b5 8080 9d3f 5089 0080
000003f0: 18b0 df3d 7c9e 54b8 f4c2 b83c c959 a2bf

e_embedding.weight f4 [2, 42]
0.09906598 -4.9281e-41 4.9271e-41 0.92005897 -0.20303498 0.12829882 0.71998733 -0.0010720732
-4.9211e-41 2.105027e-08 -0.08893136 1.4994277e-32 4.9239e-41 -0.1020427 -0.116973065 -5.0479e-41
0.12200348 2.2658476e-07 0.8836074 -0.00057393813 -4.9085e-41 4.9456e-41 8.4719354e-15 -0.45679176
-4.9215e-41 -0.70207787 3.1971562e-05 1.5094295 8.219117e-11 -0.057947516 -1.7761172 -0.00028413135
-2.0367227e-15 -0.5511874 4.8615995e-32 1.3500869 0.2984344 0.084481515 -6.2474478e-30 0.29216564
0.0035445136 -0.21128303 1.0611866 -0.44265148 0.26981345 -1.3523095 0.417834 1.4333091
0.16543475 0.89641726 -1.1259825 -1.8605903 -0.69389683 -1.5962543 -0.9100087 0.92491114
-1.3146646 0.89964753 0.6901474 -2.2177818 -0.65650517 -1.2762166 -0.23216134 0.43347746
-0.42773354 -0.4794457 -0.094903484 -0.7384597 0.59206015 0.26793775 -1.7841667 1.2707335
0.5388046 -0.7228451 0.1882608 1.281097 0.87400186 2.5677385 -0.4991423 -0.58446264
1.8858519 -1.4545764 -0.37731838 -1.2507132
00000000: 1be3 ca3d 6089 0080 5989 0000 fc88 6b3f
00000010: 67e8 4fbe c460 033e 1751 383f cf84 8cba
00000020: 2e89 0080 09d2 b432 a521 b6bd a0b5 9b0a
00000030: 4289 0000 c3fb d0bd 938f efbd b78c 0080
00000040: f6dc f93d 254b 7334 1834 623f 5674 16ba
00000050: d488 0080 dd89 0000 e89d 1828 9ce0 e9be
00000060: 3189 0080 60bb 33bf 3419 0638 fc34 c13f
00000070: 84bd b42e 605a 6dbd cf57 e3bf 77f7 94b9
00000080: e7c2 12a7 9e1a 0dbf be6d 7c0b a6cf ac3f
00000090: 65cc 983e a504 ad3d 356d fd8e bc96 953e
000000a0: 124b 683b 945a 58be f6d4 873f 37a3 e2be
000000b0: fd24 8a3e 7a18 adbf 57ee d53e ac76 b73f
000000c0: ba67 293e 9a7b 653f 3220 90bf d327 eebf
000000d0: 39a3 31bf 1052 ccbf 55f6 68bf fac6 6c3f
000000e0: ee46 a8bf 4d4f 663f 80ad 303f 23f0 0dc0
000000f0: b910 28bf 115b a3bf b4bb 6dbe c2f0 dd3e
00000100: e4ff dabe e879 f5be c25c c2bd b20b 3dbf
00000110: 4191 173f 232f 893e 935f e4bf 65a7 a23f
00000120: 19ef 093f 600c 39bf 70c7 403e fdfa a33f
00000130: 96be 5f3f d455 2440 948f ffbe 589f 15bf
00000140: 9863 f13f 8f2f babf e02f c1be 5f17 a0bf

h_embedding.weight f4 [42, 148]
-0.10409972 0.07056592 0.13205037 -0.00042550833 -0.12975524 0.027005246 0.037947837 -0.13434847
-0.19447586 0.14777698 -0.1634321 -0.18113221 0.11574406 0.09723219 -0.034767322 -0.07656479
0.14776006 0.14567609 -0.14035542 -0.06579019 -0.08715507 0.0971718 0.14994882 -0.019341972
-0.16566102 0.10339735 0.032399848 -0.17391714 0.09515525 -0.13619862 0.039796926 0.047552552
0.061781548 0.041164324 0.010931126 -0.012822354 -0.040531013 -0.1144713 0.05513654 0.012346961
0.01349233 0.10523687 -0.11402085 0.07648668 0.18739098 -0.13656504 -0.025142772 -0.03758646
0.123857535 -0.048908073 0.04264027 0.1445507 0.03697262 -0.046998385 -0.06451253 0.046070054
-0.019835385 0.0030239704 -0.07506596 0.15076986 0.12524046 0.023292968 -0.03027635 0.027304519
0.035949837 0.034588397 0.10812711 0.027332518 -0.09941278 -0.032133125 0.0087752165 -0.03270668
-0.113455445 -0.13454907 0.06066462 -0.007176255 -0.08350137 0.14346536 0.086473785 -0.04554842
0.0071399184 0.119761966 0.034969892 0.091241404 -5.5908e-41 -4.914e-41 -4.947e-41 -0.0031975787
0.010826738 0.0012890137 0.00016157405 0.026233193 -0.017169299 0.022042178 5.6851244e-05 -0.01194944
-0.003486143 0.0024647873 -0.0054517873 -0.020956442 -0.0009064446 -0.0013220939 4.9298e-41 -0.0010177124
0.0016369052 -0.0011094884 0.005995546 0.0068866303 -0.01630897 -0.053230926 -0.022675714 0.011269826
0.08043472 -0.0014936838 -0.016520943 2.211248e-05 0.012142769 0.03736617 -0.008652086 0.043937337
4.9191e-41 0.0047317175 0.012356894 -4.9202e-41 0.024737505 -0.057601787 -0.04370581 0.026602212
-0.012926048 0.0014925048 -0.0030736756 -0.029153038 0.011556712 -0.021693459 -0.018092912 -0.0070860563
0.026114138 0.015294725 -0.00039483467 0.0034311353 5.477606e-05 0.0465261 4.905e-41 -0.03933352
0.007839299 0.0011431482 -0.010825233 -0.05170033 0.10096169 0.04454106 -0.09881066 0.15298316
-0.14007297 0.11675073 0.053950828 -0.10842666 -0.087015375 0.021392778 0.053088106 0.103582226
0.021282852 0.051842213 -0.14605685 0.09594384 0.10528343 -0.062003843 -0.07399546 -0.02663305
-0.12919077 0.028557999 -0.101443365 0.18576142 -0.11716567 0.17871955 -0.13135618 0.09809
0.11635842 -0.166435 -0.13961591 -0.117761694 -0.07158678 -0.09312338 -0.12305355 0.0013806112
0.14728117 0.12999015 -0.002857111 -0.050164506 0.1749952 -0.13960108 -0.15873198 -0.12347395
0.095949344 -0.08279588 0.0155337425 -0.1079346 0.15530954 0.10148031 -0.023700254 0.14828032
0.06265029 0.006256694 0.022430357 -0.06940065 -0.09282314 0.12538567 0.115285486 -0.011275195
-0.00053573406 0.125121 0.18678118 0.08288219 0.043439537 -0.043309294 -0.083304994 -0.044036508
0.013273176 0.13209872 0.057098676 -0.1540538 0.106504545 0.13936166 0.016070029 -0.033208996
-0.13175707 0.14664328 0.1378707 -0.11353095 -0.09271692 0.11806431 -0.107169315 -0.039421037
4.9236e-41 4.9397e-41 -4.9181e-41 -0.028130531 -0.025507987 -0.034575015 -2.3049572e-05 0.015727952
-0.020862851 0.0062822993 -0.00014715077 0.0069423555 -0.0025405996 0.0026156371 0.0016025603 0.00036233192
0.0003494742 0.0005676825 -1.3670813e-35 -0.0051510474 -0.0012313251 0.00060883176 -0.00727604 0.00287347
00000000: 3c32 d5bd dd84 903d 3638 073e c316 dfb9
00000010: 8fde 04be 1b3a dd3c 316f 1b3d a592 09be
00000020: ae24 47be d952 173e bf5a 27be b97a 39be
00000030: 390b ed3d ac21 c73d 2e68 0ebd 00ce 9cbd
00000040: 6a4e 173e 1d2c 153e 55b9 0fbe 02bd 86bd
00000050: 5b7e b2bd 0202 c73d 2f8c 193e 0e73 9ebc
00000060: 0ba3 29be fdc1 d33d b4b5 043d 5617 32be
00000070: c1e0 c23d a777 0bbe 1a02 233d 77c6 423d
00000080: a60e 7d3d ec9b 283d 7718 333c da14 52bc
00000090: d903 26bd ee6f eabd dad6 613d e84a 4a3c
000000a0: ef0e 5d3c 6e86 d73d c383 e9bd 0ca5 9c3d
000000b0: 6ce3 3f3e b5d7 0bbe 37f8 cdbc 43f4 19bd
000000c0: 05a9 fd3d d553 48bd 90a7 2e3d 1905 143e
000000d0: 9a70 173d 6181 40bd 251f 84bd f4b3 3c3d
000000e0: d17d a2bc ce2d 463b 2fbc 99bd 6a63 1a3e
000000f0: 093f 003e e5d0 be3c 1c06 f8bc baad df3c
00000100: 2340 133d 90ac 0d3d bf71 dd3d 72e8 df3c
00000110: ed98 cbbd 069e 03bd edc5 0f3c 71f7 05bd
00000120: 545b e8bd 3bc7 09be 777b 783d ca26 ebbb
00000130: c402 abbd 95e8 123e 2b19 b13d fb90 3abd
00000140: faf5 e93b c345 f53d 973c 0f3d c6dc ba3d
00000150: d99b 0080 fb88 0080 e789 0080 788e 51bb
00000160: a162 313c 1ff4 a83a 346c 2939 fee6 d63c
00000170: a1a6 8cbc cc91 b43c 8f73 6e38 96c7 43bc
00000180: c677 64bb 4588 213b e8a4 b2bb d8ac abbc
00000190: 789e 6dba 1c4a adba 6c89 0000 c364 85ba
000001a0: 6d8d d63a 416c 91ba 4976 c43b 3ea9 e13b
000001b0: 649a 85bc ac08 5abd 6bc2 b9bc 14a5 383c
000001c0: f5ba a43d b6c7 c3ba ee56 87bc 307e b937
000001d0: 77f2 463c 450d 193d 7bc1 0dbc a3f7 333d
000001e0: 2089 0000 860c 9b3b 9274 4a3c 2889 0080
000001f0: 4fa6 ca3c daef 6bbd dd04 33bd e2ec d93c
00000200: c6c7 53bc 27a0 c33a b86f 49bb 5ad2 eebc
00000210: 5d58 3d3c 7bb6 b1bc 9637 94bc 2632 e8bb
00000220: 51ed d53c ba96 7a3c d001 cfb9 e6dc 603b
00000230: 59bf 6538 2792 3e3d bb88 0000 2f1c 21bd
00000240: 6770 003c b0d5 953a 515c 31bc bac3 53bd
00000250: 01c5 ce3d b070 363d 3e5d cabd 9ea7 1c3e
00000260: 4a6f 0fbe 021b ef3d 8bfb 5c3d cc0e debd
00000270: 1e35 b2bd e83f af3c ea72 593d eb22 d43d
00000280: 6059 ae3c 8058 543d ed8f 15be 347e c43d
00000290: d79e d73d bef7 7dbd ef8a 97bd 8e2d dabc
000002a0: 964a 04be 77f2 e93c 8ac1 cfbd 3e38 3e3e
000002b0: 8ef4 efbd 4202 373e 3c82 06be 69e3 c83d
000002c0: 534d ee3d f06d 2abe 79f7 0ebe 0b2d f1bd
000002d0: 179c 92bd 78b7 bebd 8003 fcbd a0f5 b43a
000002e0: e0d0 163e 231c 053e 5e3e 3bbb 4c79 4dbd
000002f0: f131 333e 96f3 0ebe a38a 22be e9df fcbd
00000300: 1781 c43d e390 a9bd 3d81 7e3c d10c ddbd
00000310: 7709 1f3e e9d4 cf3d 0927 c2bc ccd6 173e
00000320: cc4e 803d f404 cd3b debf b73c ee21 8ebd
00000330: 0f1a bebd 1a65 003e cc1a ec3d 98bb 38bc
00000340: 8170 0cba b81f 003e 9143 3f3e 23be a93d
00000350: a8ed 313d 1665 31bd cf9b aabd a05f 34bd
00000360: bc77 593c e344 073e 4de0 693d 48c0 1dbe
00000370: 0e1f da3d d3b4 0e3e 4ba5 833c 2806 08bd
00000380: 53eb 06be a829 163e fa2d 0d3e ea82 e8bd
00000390: 5ee2 bdbd b3cb f13d 967b dbbd f477 21bd
000003a0: 4089 0000 b389 0000 1989 0080 0072 e6bc
000003b0: 20f6 d0bc 889e 0dbd 945a c1b7 e8d7 803c
000003c0: 92e8 aabc bfdb cd3b 7c4c 1ab9 b37c e33b
000003d0: 3080 26bb 1c6b 2b3b 000d d23a 5ef7 bd39
000003e0: a239 b739 87d0 143a 7e5f 9185 1eca a8bb
000003f0: 6a64 a1ba 029a 1f3a d96b eebb d450 3c3b

h_embedding.bias f4 [42]
-0.030118672 0.024938585 -0.02689795 -0.0041476595 0.011588009 0.017032973 -0.004790312 -0.004625733
0.010746282 -0.030761288 0.01732744 -0.005580749 -0.0052766907 -0.0038532864 0.03701939 -0.018379819
0.003704492 0.053262483 0.014728167 0.00019411545 -0.009882972 0.024697369 -0.037984595 0.02204197
-0.01387415 0.015055994 -0.0077471375 -0.020124892 0.020399567 -0.025305165 0.03637064 -0.0077233184
-0.011111107 0.0037043495 0.021114076 -0.034307525 0.00013726582 -0.020546079 0.025741467 -0.03854343
0.010665657 -0.0139482
00000000: 6fbb f6bc 014c cc3c 1759 dcbc 17e9 87bb
00000010: a2db 3d3c bc88 8b3c 0df8 9cbb 7693 97bb
00000020: 2c11 303c 19ff fbbc 47f2 8d3c b7de b6bb
00000030: 17e8 acbb 6b87 7cbb a5a1 173d 4691 96bc
00000040: 10c7 723b c329 5a3d 694e 713c 788b 4b39
00000050: 30ec 21bc 2352 ca3c bc95 1bbd 5d91 b43c
00000060: 6750 63bc 6aad 763c b3db fdbb f5dc a4bc
00000070: fe1c a73c c74c cfbc 61f9 143d e413 fdbb
00000080: 5c0b 36bc acc4 723b 6df7 ac3c 0c86 0cbd
00000090: 03ef 0f39 4050 a8bc c5df d23c b7df 1dbd
000000a0: 02bf 2e3c fe86 64bc

initial_layer_norm.weight f4 [42]
0.98334587 0.9556394 0.93996966 0.937653 0.9846398 0.97497123 0.9533175 0.9505285
0.98352283 1.013129 0.9749085 0.9953037 0.9781916 0.97335166 1.0009335 0.94547206
0.99501014 0.97606426 0.9564587 0.9637982 0.94415635 0.98700535 0.9803738 0.95828265
0.9416136 0.9855025 0.9640186 0.9734048 0.9727078 0.9690053 0.96165574 0.9648003
0.9432546 0.9449521 0.97657895 0.98242503 0.96390706 0.970158 0.9466959 1.0012984
0.962647 0.95945776
00000000: 8ebc 7b3f c9a4 743f daa1 703f 070a 703f
00000010: 5b11 7c3f b797 793f 9e0c 743f d655 733f
00000020: 27c8 7b3f 36ae 813f 9a93 793f 39cc 7e3f
00000030: c46a 7a3f 932d 793f 971e 803f 750a 723f
00000040: fcb8 7e3f 59df 793f 7ada 743f 7bbb 763f
00000050: 3bb4 713f 62ac 7c3f c7f9 7a3f 0352 753f
00000060: 970d 713f e449 7c3f ecc9 763f 0f31 793f
00000070: 6103 793f bb10 783f 122f 763f 27fd 763f
00000080: 2279 713f 61e8 713f 1401 7a3f 3580 7b3f
00000090: 9dc2 763f 465c 783f aa5a 723f 8c2a 803f
000000a0: 0970 763f 069f 753f

initial_layer_norm.bias f4 [42]
0.0012980322 0.022959929 -0.020071303 0.004204075 0.0049188207 -0.0037820414 -0.008102606 0.0014856879
0.007505427 -0.011764835 0.0070432522 -0.01539348 -0.0032794403 0.001496781 0.021481626 -0.0037719177
-0.0027262461 0.034721877 0.0153692365 0.019461123 0.005611031 0.015394671 -0.025594924 0.009665206
-0.020104386 0.011046002 0.006788033 -0.017165335 0.0063217045 -0.019359969 0.02736711 0.0002285258
-0.009486326 -0.019307645 0.011597727 -0.025136828 -0.0063211834 -0.006776966 -0.008849233 -0.013917153
-0.00083103037 0.0053282664
00000000: bc22 aa3a 7616 bc3c 936c a4bc 56c2 893b
00000010: 0f2e a13b 20dc 77bb cbc0 04bc 6abb c23a
00000020: 16f0 f53b 4bc1 40bc 15cb e63b ef34 7cbc
00000030: e1eb 56bb a32f c43a 3cfa af3c 4732 77bb
00000040: d2aa 32bb 8738 0e3d 40cf 7b3c ef6c 9f3c
00000050: bddc b73b ee39 7c3c 72ac d1bc d05a 1e3c
00000060: f4b1 a4bc 4afa 343c 266e de3b 519e 8cbc
00000070: 4d26 cf3b cc98 9ebc fd30 e03c 6da0 6f39
00000080: 896c 1bbc 112b 9ebc 6504 3e3c c0eb cdbc
00000090: ee21 cfbb 5011 debb 60fc 10bc c504 64bc
000000a0: 81d9 59ba bd98 ae3b

layers.0.attention.Q.weight f4 [42, 42]
0.00038690233 -0.03990493 -0.0022879667 -0.00060283224 0.01350448 0.038538396 -0.011673375 -0.03133974
-0.0080760885 0.0743569 -0.013601778 0.045332372 -0.07436402 0.026717879 -0.011008977 -0.0089168465
0.083889514 -0.03476142 0.041195244 -0.01193875 0.038833134 0.020091707 0.010105584 -0.06679192
-0.004761491 0.0017772162 -0.035305347 -0.011800417 -0.041812375 0.027553031 -0.0071813487 -0.008047883
-0.0032264655 0.015553623 -0.025066731 -0.02923243 -0.001538439 -0.0023256326 -0.023790294 -0.01392015
-0.009219872 -0.025150124 -0.09729644 0.17381725 -0.12828803 0.17707424 0.015467344 0.050669856
-0.13989101 0.06941819 0.022768473 0.21155256 0.12853576 0.2099362 -0.037913617 0.10093191
0.029548066 0.13293475 -0.21291627 0.18900122 0.09274 -0.18103921 -0.08822636 0.033905912
0.0053644483 0.05302363 -0.17721307 0.038579892 0.19023585 -0.12357387 0.22490743 0.055846225
0.07640084 0.22390057 0.17904681 -0.1782932 -0.09186515 0.06615882 -0.08773645 -0.006540656
-0.18390325 -0.01962528 -0.19847867 0.15401566 0.13377059 -0.17270955 0.05160119 -0.054142218
-0.19464904 0.034804247 0.043777533 0.038473412 0.13332123 -0.088975824 -0.112404026 0.19597891
-0.22305518 -0.21751681 -0.049234647 0.10785873 0.12743454 -0.07396693 -0.027890217 0.049434684
0.110069826 -0.0121597275 0.07817755 -0.02899765 0.1730187 0.21297601 -0.19340777 -0.17823529
-0.05802794 0.19102387 0.023295429 0.115309455 0.097107835 -0.025921542 -0.12975872 -0.10748437
0.022098908 0.13756947 -0.031785607 0.04097387 0.1547247 0.08161309 0.00942515 -0.14573777
-0.13428366 -0.06218726 0.17489345 -0.16072017 0.20003153 0.16255282 0.14890967 -0.06661781
0.016063467 0.17575197 0.19770941 -0.13058823 -0.06941274 -0.03130169 0.025758145 0.16997105
-0.07386233 -0.20681624 -0.032581378 -0.008460053 -0.07971755 0.10105246 -0.019256283 -0.05284276
-0.06442288 0.11728469 -0.011067744 0.19750415 -0.024419792 0.059499823 -0.14356005 0.18721302
-0.12136877 -0.00026953948 0.037471656 0.14259575 0.19458643 -0.17022121 0.19310609 -0.12240801
0.22917457 0.022307687 0.14964886 0.21798182 0.15808375 0.13761444 -0.048570693 -0.17894928
0.16733594 -0.24678415 0.08677343 0.060599588 0.21218269 -0.11590761 -0.0075800363 -0.0072922697
-0.23136319 0.07978045 -0.11870767 0.22733119 0.23895277 -0.09103186 0.024910312 -0.14947365
0.22423989 -0.13331464 -0.048139337 0.17461985 -0.25364333 -0.22144671 0.18593894 0.009509171
-0.020247564 0.010482983 -0.03786843 -0.024761915 0.026296496 0.050483033 -0.011901092 -0.10846918
0.082966045 0.06441383 -0.058303565 0.045215104 0.002999948 -0.0032261694 -0.03666752 -0.04744502
-0.05369541 -0.046269905 -0.040296298 0.1063526 -0.060184244 0.030271051 0.0016511874 0.065160185
0.021502724 0.018496692 0.005424636 0.074552864 -0.04653736 0.01583125 -0.009036344 0.00914342
0.024982385 -0.09310835 -0.003110473 -0.044557013 0.1446852 -0.035172004 -0.07792374 -0.063213244
0.07234629 -0.07993144 -0.03626709 -0.04128919 -6.625899e-05 -0.0068652164 0.011716116 -0.07379715
-0.07025955 -0.049329706 0.05022445 -0.029563349 -0.037393603 -0.19640301 0.051500004 -0.17015716
00000000: 27d9 ca39 5a73 23bd b6f1 15bb 6307 1eba
00000010: e541 5d3c 70da 1d3d af41 3fbc 195e 00bd
00000020: 9251 04bc 6e48 983d fed9 5ebc 70ae 393d
00000030: 2a4c 98bd 74df da3c ff5e 34bc f717 12bc
00000040: 44ce ab3d fe61 0ebd 58bc 283d bf9a 43bc
00000050: 7e0f 1f3d 5d97 a43c e491 253c 34ca 88bd
00000060: 4806 9cbb 7bf1 e83a 579c 10bd 8956 41bc
00000070: 7443 2bbd e5b6 e13c 8551 ebbb 45db 03bc
00000080: 1c73 53bb a0d4 7e3c bf58 cdbc d978 efbc
00000090: 72a5 c9ba a469 18bb dde3 c2bc 5711 64bc
000000a0: f20e 17bc a207 cebc 5b43 c7bd 26fd 313e
000000b0: f05d 03be f352 353e be6a 7d3c 328b 4f3d
000000c0: 973f 0fbe 202b 8e3d f384 ba3c 3ca1 583e
000000d0: e19e 033e 84f9 563e 4f4b 1bbd 64b5 ce3d
000000e0: c90e f23c 0c20 083e b906 5abe 8989 413e
000000f0: 78ee bd3d 5862 39be 06b0 b4bd ede0 0a3d
00000100: 41c8 af3b 4e2f 593d 5877 35be f305 1e3d
00000110: 30cd 423e 4c14 fdbd 224e 663e 03bf 643d
00000120: 0b78 9c3d 3146 653e 0c58 373e 7e92 36be
00000130: cc23 bcbd 477e 873d 2baf b3bd 0053 d6bb
00000140: 2251 3cbe 32c5 a0bc fe3d 4bbe 48b6 1d3e
00000150: 28fb 083e c6da 30be c55b 533d 3bc4 5dbd
00000160: 1452 47be e68e 0e3d 1250 333d 4c96 1d3d
00000170: 5c85 083e f538 b6bd 1534 e6bd b2ae 483e
00000180: 9468 64be babc 5ebe 45aa 49bd 0ae5 dc3d
00000190: 337e 023e f97b 97bd 067a e4bc 067c 4a3d
000001a0: 4a6c e13d 9839 47bc 8d1b a03d 7b8c edbc
000001b0: d02b 313e 6216 5a3e b00c 46be 5083 36be
000001c0: b5ae 6dbd c39b 433e 0ed6 be3c 5d27 ec3d
000001d0: 79e0 c63d 6a59 d4bc 78df 04be c420 dcbd
000001e0: c508 b53c 03df 0c3e a031 02bd 37d4 273d
000001f0: 2770 1e3e c424 a73d f26b 1a3c 483c 15be
00000200: a881 09be 11b8 7ebd 4517 333e d493 24be
00000210: 11d5 4c3e 3f74 263e c77b 183e eb6e 88bd
00000220: 8897 833c 53f8 333e 5674 4a3e ecb8 05be
00000230: 4428 8ebd 3336 00bd bf02 d33c e40c 2e3e
00000240: 2245 97bd a3c7 53be 0d74 05bd 099c 0abc
00000250: f442 a3bd 98f4 ce3d 5abf 9dbc a671 58bd
00000260: 25f0 83bd f532 f03d 7c55 35bc 873e 4a3e
00000270: 040c c8bc 16b6 733d 6801 13be c5b4 3f3e
00000280: 3190 f8bd fa50 8db9 e17b 193d 9f04 123e
00000290: aa41 473e 784e 2ebe 9abd 453e 0db1 fabd
000002a0: bdac 6a3e 9cbe b63c 8d3d 193e a036 5f3e
000002b0: b5e0 213e cdea 0c3e 10f2 46bd 7b3e 37be
000002c0: 1d5a 2b3e fcb4 7cbe 45b6 b13d 4637 783d
000002d0: 6b46 593e f860 edbd f461 f8bb fef3 eebb
000002e0: 79ea 6cbe ef63 a33d 021d f3bd 82c9 683e
000002f0: 09b0 743e e96e babd b610 cc3c 9f0f 19be
00000300: 249f 653e a283 08be c12d 45bd 8ccf 323e
00000310: 8add 81be edc2 62be c766 3e3e 5bcc 1b3c
00000320: 38de a5bc d1c0 2b3c ed1b 1bbd 80d9 cabc
00000330: c06b d73c 4cc7 4e3d ccfc 42bc 1725 debd
00000340: 1aea a93d 66eb 833d b8cf 6ebd 7933 393d
00000350: c79a 443b 246e 53bb ae30 16bd b655 42bd
00000360: b8ef 5bbd 8385 3dbd bb0d 25bd 64cf d93d
00000370: c183 76bd fffa f73c a86c d83a b472 853d
00000380: 7b26 b03c 6086 973c 25c1 b13b 2caf 983d
00000390: f59d 3ebd 8ab0 813c 2c0d 14bc 48ce 153c
000003a0: dca7 cc3c 97af bebd 14d9 4bbb 6a81 36bd
000003b0: 5b28 143e 8510 10bd 7b96 9fbd f275 81bd
000003c0: 4b2a 943d 18b3 a3bd cd8c 14bd db1e 29bd
000003d0: 86f4 8ab8 9cf5 e0bb f4f4 3f3c f622 97bd
000003e0: 3de4 8fbd f20d 4abd 27b8 4d3d d62e f2bc
000003f0: 092a 19bd df1d 49be abf1 523d ae3d 2ebe

layers.0.attention.K.weight f4 [42, 42]
-0.077189356 0.05193911 0.026021184 0.04459012 0.016406275 -0.06963595 0.008982267 -0.07760964
-0.0034019272 -0.0177114 0.059654817 -0.0006968119 -0.027425813 -0.014101872 -0.03900929 -0.026525844
0.04660825 0.046902843 -0.09359952 0.022125553 -0.026979418 0.03647205 0.018585771 -0.017610544
-0.035475 0.025183616 -0.075949 -0.061165016 0.0984658 -0.03729114 -0.013046549 -0.0050739422
0.04029434 0.032100625 0.028865308 -0.010713255 0.019085972 0.044591326 0.06452221 0.0049155457
0.03574735 0.061479595 0.15953116 -0.0025261266 0.027916124 0.20195219 -0.14896786 -0.08856572
-0.08649208 -0.20703016 0.14259507 0.1938977 0.06287398 0.0860717 0.09542077 0.049142484
0.0658953 0.1390929 0.10615629 0.13519838 -0.06303492 -0.10637119 -0.09615545 -0.04199123
-0.17806725 -0.1877698 0.03496328 -0.21915314 0.08897924 -0.060676213 -0.14715798 -0.032046907
0.017193425 0.09168315 -0.0042479513 -0.0766128 -0.010790174 0.06624732 0.07943405 0.094806395
0.102032915 0.19698735 -0.14483368 0.015914747 0.06313744 -0.013152833 0.06193596 -0.07896635
-0.078328535 -0.16703095 0.04793317 0.049178224 0.059184022 0.24808578 0.09918008 0.07548305
0.019954484 0.12416022 -0.17298523 -0.05808375 0.16609941 0.2134577 -0.077969946 -0.16490749
0.16184531 -0.16041763 0.27337065 0.14386313 -0.14020929 -0.1718832 0.23703448 -0.18492168
-0.00647337 0.1994317 -0.03332648 -0.15211545 -0.081575885 -0.14211738 0.16137263 0.033793382
-0.18199328 0.20315424 -0.16082461 -0.06327348 -0.05325619 0.25740242 0.016496114 0.20012836
-0.16839923 -0.15095328 0.02483612 -0.18509664 -0.03661978 0.11379264 0.17815216 0.1958373
-0.15480947 -0.115040235 0.04929524 0.052361388 -0.04202618 0.19163026 0.099984095 -0.027585002
0.13083668 0.14253573 0.059304472 0.009746331 -0.045913294 -0.10589283 0.05208421 -0.03671173
-0.13036859 -0.16769658 0.043717887 -0.107642524 -0.026985893 -0.053327046 0.15054452 0.08473497
0.19445653 -0.14501072 -0.095066205 -0.10276363 0.026221598 -0.035150018 -0.20084366 0.03996109
-0.009637277 0.15796524 0.20739853 0.04787626 -0.2258104 0.2400977 0.16313507 0.015064916
0.0610506 0.20872986 -0.22348739 0.061965074 0.20729607 0.055815436 -0.067004874 0.078028984
-0.055499054 0.23279001 -0.012650536 -0.047581647 0.108197294 0.1938075 -0.0058121076 -0.055482376
-0.0576531 0.18433028 0.25083962 0.08681275 -0.11727768 -0.052478515 -0.16238499 0.12974076
0.08538197 0.123395965 0.015581978 0.19559191 0.044843115 0.18512546 -0.22254407 0.19265115
-0.18711115 -0.052757915 -0.08631207 0.009649682 0.08858533 0.04713301 -0.060040753 0.06271302
0.09086528 -0.048069626 -0.023325332 -0.05870975 0.043674793 -0.070063725 0.091157824 0.07799403
0.03015853 0.12646356 0.12279213 0.12300952 -0.084476344 -0.09767054 0.0010215915 -0.106253974
0.06600361 0.056305114 -0.07072694 -0.05598596 0.08106591 0.020858353 0.133305 0.06760619
-0.08080142 -0.06161272 -0.026356488 0.087751225 -0.080832824 0.0363722 -0.008933326 0.024651272
0.023225231 0.04823304 0.05115723 0.071110874 -0.100120835 0.05124047 -0.15662482 -0.04180704
00000000: 7415 9ebd 1bbe 543d 612a d53c 21a4 363d
00000010: 7466 863c 4b9d 8ebd 5c2a 133c cef1 9ebd
00000020: def2 5ebb 7f17 91bc 9c58 743d 41aa 36ba
00000030: 19ac e0bc 8a0b 67bc 35c8 1fbd ba4c d9bc
00000040: 4be8 3e3d 321d 403d 1bb1 bfbd a640 b53c
00000050: f103 ddbc b763 153d 3041 983c fd43 90bc
00000060: 3c4e 11bd df4d ce3c 268b 9bbd 2b88 7abd
00000070: 70a8 c93d 98be 18bd 31c1 55bc 5043 a6bb
00000080: ae0b 253d f27b 033d f076 ec3c a686 2fbc
00000090: 2f5a 9c3c 65a5 363d 3824 843d 9612 a13b
000000a0: d06b 123d 07d2 7b3d 235c 233e 5f8d 25bb
000000b0: 5bb0 e43c 8ecc 4e3e 088b 18be f261 b5bd
000000c0: c222 b1bd b7ff 53be 7104 123e 1e8d 463e
000000d0: 13c4 803d 5c46 b03d f76b c33d a149 493d
000000e0: 1df4 863d 5f6e 0e3e 7868 d93d 7271 0a3e
000000f0: 7418 81bd 23d9 d9bd 26ed c4bd fffe 2bbd
00000100: 4357 36be ba46 40be a835 0f3d ae69 60be
00000110: bf3a b63d 9f87 78bd 95b0 16be 9e43 03bd
00000120: 3ad9 8c3c 60c4 bb3d 6632 8bbb 2ce7 9cbd
00000130: 45c9 30bc adac 873d 52ae a23d db29 c23d
00000140: a2f6 d03d 0db7 493e 484f 14be a55f 823c
00000150: 344e 813d fb7e 57bc 90b0 7d3d 1cb9 a1bd
00000160: b66a a0bd 290a 2bbe 9255 443d 1b6f 493d
00000170: f26a 723d 330a 7e3e ed1e cb3d db96 9a3d
00000180: 9677 a33c b747 fe3d 0a23 31be 3ae9 6dbd
00000190: f715 2a3e a894 5a3e b5ae 9fbd 82dd 28be
000001a0: c7ba 253e 8544 24be 3df7 8b3e db50 133e
000001b0: 0693 0fbe 2602 30be 2bb9 723e 1c5c 3dbe
000001c0: 901e d4bb d337 4c3e 5981 08bd 27c4 1bbe
000001d0: 4211 a7bd 3887 11be de3e 253e ee6a 0a3d
000001e0: 725c 3abe aa07 503e 35af 24be 8795 81bd
000001f0: 2a23 5abd 40ca 833e dc22 873c 73ee 4c3e
00000200: d970 2cbe 7f93 1abe 1e75 cb3c f989 3dbe
00000210: 9ffe 15bd 1e0c e93d 856d 363e 9389 483e
00000220: 6086 1ebe 379a ebbd cee9 493d e578 563d
00000230: a523 2cbd b93a 443e 76c4 cc3d f1f9 e1bc
00000240: 0dfa 053e e3f4 113e 3fe9 723d 13af 1f3c
00000250: 940f 3cbd 57de d8bd 4156 553d 0a5f 16bd
00000260: 587f 05be a7b8 2bbe 8711 333d af73 dcbd
00000270: 8511 ddbc 766d 5abd 5828 1a3e 8789 ad3d
00000280: 9d1f 473e b17d 14be 12b2 c2bd bd75 d2bd
00000290: adce d63c 77f9 0fbd f6a9 4dbe 3dae 233d
000002a0: abe5 1dbc a4c1 213e 4860 543e e619 443d
000002b0: d73a 67be 2cdc 753e e10c 273e d6d2 763c
000002c0: 3210 7a3d 48bd 553e e1d9 64be 17cf 7d3d
000002d0: 6c45 543e ba9e 643d da39 89bd a9cd 9f3d
000002e0: fa52 63bd 8160 6e3e 3244 4fbc f9e4 42bd
000002f0: 8b96 dd3d 7975 463e 7e73 bebb 7d41 63bd
00000300: a825 6cbd 14c1 3c3e 0d6e 803e e2ca b13d
00000310: 482f f0bd b6f3 56bd 4048 26be c3da 043e
00000320: bedc ae3d 06b7 fc3d 8d4b 7f3c 3f49 483e
00000330: 6aad 373d 8791 3d3e 98e2 63be 5846 453e
00000340: 119a 3fbe af18 58bd 62c4 b0bd b319 1e3c
00000350: 3a6c b53d 8b0e 413d 4bed 75bd af6f 803d
00000360: 9317 ba3d a8e4 44bd c414 bfbc a379 70bd
00000370: 57e4 323d 927d 8fbd f4b0 ba3d 56bb 9f3d
00000380: 060f f73c aa7f 013e 717a fb3d 6aec fb3d
00000390: ef01 adbd 7e07 c8bd ece6 853a af9b d9bd
000003a0: e72c 873d 31a0 663d 49d9 90bd 8951 65bd
000003b0: e205 a63d 23df aa3c 1b81 083e 1d75 8a3d
000003c0: 377b a5bd 9f5d 7cbd 90e9 d7bc eab6 b33d
000003d0: ae8b a5bd 04fb 143d 165d 12bc 77f1 c93c
000003e0: d742 be3c 0290 453d 3e8a 513d 94a2 913d
000003f0: 270c cdbd 87e1 513d 4262 20be dc3d 2bbd

layers.0.attention.E.weight f4 [42, 42]
0.12210561 -0.13754731 -0.09663974 -0.19466285 -0.1846827 -0.22542092 0.17095904 -0.062466733
-0.17244837 -0.13401861 -0.12010656 0.18156861 0.020012332 0.04419032 -0.17084695 -0.19715479
-0.22374009 0.19352235 -0.13980487 -0.14545989 -0.040298056 -0.1919141 0.13014019 0.050574683
-0.0015469883 -0.12662579 -0.04489179 0.143326 -0.20731324 -0.17693214 0.21288505 0.020622274
0.012225496 -0.22998008 0.135233 -0.13768509 -0.11180183 -0.10150084 0.16874902 -0.23521799
0.05441276 0.11807408 -0.16787906 0.027478354 0.114262655 0.11017502 -0.07068798 -0.079053394
-0.13762034 0.016394608 -0.23713575 0.054534778 -0.027913598 -0.10185054 -0.14923869 0.086794704
-0.19141196 0.023155453 0.15599972 -0.20552893 -0.09904759 0.17119195 0.022914749 -0.17566088
-0.075145826 -0.08522945 0.0002301698 0.13289784 0.21188343 -0.009442718 0.12057854 0.06479521
0.01219388 0.101432174 -0.07034012 0.19218086 -0.16126925 0.0013642414 -0.057188813 0.09144339
-0.080558576 -0.19979566 -0.15862529 -0.21770455 -0.20914702 -0.039356425 0.1077919 0.18351322
-0.023033373 0.08986167 0.076947 0.08771704 0.100096725 -0.021046514 -0.1004517 0.24484116
0.115764946 0.1107921 0.15394475 -0.024375288 0.12277128 0.06519844 -0.03229197 -0.17303506
0.08292325 0.11893684 -0.03681391 -0.14843072 -0.0012879366 0.11153773 -0.17265114 -0.07528427
0.025115447 -0.1485697 0.14833857 0.19910035 0.079443894 -0.042582214 -0.06210805 -0.2655883
-0.13680992 0.22764923 0.15075757 0.07901977 0.12417863 0.12719567 0.02889483 0.05752681
-0.06816029 -0.19350557 -0.020962112 0.12371883 0.025949992 -0.07850886 0.13579768 0.062070787
-0.08863489 -0.0120180175 0.08239288 0.082749486 -0.15117165 0.15331021 0.016955227 -0.1787264
-0.034707934 -0.026081203 -0.0071788244 0.13479339 0.035032056 0.06474807 0.00013937669 -0.0785464
-0.122647464 -0.02984625 0.0819363 0.14812249 -0.02528025 -0.067790866 -0.016362447 0.0792387
-0.07059602 0.066669755 -0.04412256 -0.10136085 0.031109778 0.17407447 0.0035914716 -0.021697547
0.22049704 -0.076906584 0.10360313 -0.029899122 0.022103671 0.22355157 0.106576845 -0.14679931
-0.20445001 0.02363688 0.10515447 -0.012109364 0.10472221 -0.12611403 0.17180625 0.16408776
-0.12311693 -0.18166627 0.018319042 -0.0072356835 0.014078287 0.1233822 -0.13579394 -0.013210528
0.0007152069 0.034736127 0.11554934 0.10396974 -0.22160074 0.18467346 0.10212557 -0.1686119
0.0040805275 0.049067046 -0.10782513 0.21088739 0.043418974 0.076737784 0.22154254 0.050615974
0.0028905666 -0.07978327 -0.078920774 -0.011196405 0.028052015 -0.10501219 0.0950135 -0.16715962
0.017114324 0.02519706 -0.034725826 0.0026349314 -0.022073932 -0.17098713 -0.05299338 0.09456548
-0.08442706 0.09434449 0.08642457 -0.12961093 -0.06376099 0.093271144 0.0030911302 -0.058456164
-0.010915311 0.0045622755 -4.9234786e-06 -0.026981484 0.10098107 -0.045518383 0.11843392 0.16052718
-0.0637816 0.04447957 0.03770936 0.048103143 0.019048039 -0.046957042 0.03568987 0.04179172
-0.18963929 0.009679625 -0.0024512638 0.13434353 0.14062189 0.1225654 0.063340254 0.2080457
00000000: 8212 fa3d 34d9 0cbe 0eeb c5bd b355 47be
00000010: 761d 3dbe bed4 66be e30f 2f3e 1edd 7fbd
00000020: 4e96 30be 2d3c 09be 6efa f5bd 1fed 393e
00000030: e7f0 a33c e900 353d 81f2 2ebe f2e2 49be
00000040: 1f1c 65be b92a 463e 0229 0fbe 70f3 14be
00000050: 930f 25bd 2185 44be 7843 053e 6627 4f3d
00000060: 50c4 caba 31aa 01be 74e0 37bd 0dc4 123e
00000070: ec49 54be b32d 35be 8afe 593e 0bf0 a83c
00000080: 724d 483c e67f 6bbe 857a 0a3e 52fd 0cbe
00000090: 5cf8 e4bd acdf cfbd 8bcc 2c3e fcdc 70be
000000a0: eadf 5e3d d3d0 f13d 7de8 2bbe 491a e13c
000000b0: 8a02 ea3d 71a3 e13d dcc4 90bd bfe6 a1bd
000000c0: 59ec 0cbe fc4d 863c b7d3 72be dc5f 5f3d
000000d0: 0fab e4bc 0497 d0bd 07d2 18be 6cc1 b13d
000000e0: 7f01 44be 81b0 bd3c 64be 1f3e 2d76 52be
000000f0: 76d9 cabd f14c 2f3e b6b7 bb3c 72e0 33be
00000100: 0ee6 99bd c78c aebd bc59 7139 5f16 083e
00000110: f8f7 583e a1b5 1abc e2f1 f63d 5ab3 843d
00000120: d7c8 473c acbb cf3d 7b0e 90bd 0fcb 443e
00000130: c423 25be 58d0 b23a d13e 6abd ac46 bb3d
00000140: e5fb a4bd 3c97 4cbe ab6e 22be f1ed 5ebe
00000150: a32a 56be 3434 21bd 00c2 dc3d e4ea 3b3e
00000160: 7cb0 bcbc 6509 b83d 6496 9d3d fea4 b33d
00000170: 83ff cc3d bd69 acbc 9fb9 cdbd a4b7 7a3e
00000180: 2c16 ed3d f8e6 e23d b1a3 1d3e afae c7bc
00000190: 826f fb3d c286 853d 9644 04bd 1a30 31be
000001a0: aad3 a93d 2895 f33d 2fca 16bd 39fe 17be
000001b0: fbcf a8ba e56d e43d 76cb 30be a42e 9abd
000001c0: e9be cd3c a822 18be 11e6 173e f6e0 4b3e
000001d0: 7bb3 a23d b06a 2ebd 0365 7ebd 31fb 87be
000001e0: e617 0cbe e11c 693e 3160 1a3e 1ed5 a13d
000001f0: 5e51 fe3d 953f 023e dab4 ec3c 3ba1 6b3d
00000200: 9f97 8bbd 5326 46be bcb8 abbc 4c60 fd3d
00000210: 1495 d43c 41c9 a0bd 8c0e 0b3e f03d 7e3d
00000220: 3686 b5bd 38e7 44bc 99bd a83d 9078 a93d
00000230: becc 1abe 5afd 1c3e b0e5 8a3c 0e04 37be
00000240: e829 0ebd 3fa8 d5bc 583c ebbb 4707 0a3e
00000250: c67d 0f3d a39a 843d a525 1239 efdc a0bd
00000260: 982e fbbd 1f80 f4bc 38ce a73d 6cad 173e
00000270: 8718 cfbc f0d5 8abd 8a0a 86bc e647 a23d
00000280: a594 90bd 278a 883d dcb9 34bd 4796 cfbd
00000290: efd9 fe3c 9440 323e e55e 6b3b 0ebf b1bc
000002a0: fac9 613e 3381 9dbd e12d d43d 01ef f4bc
000002b0: c212 b53c b4ea 643e f644 da3d 8f52 16be
000002c0: 585b 51be 21a2 c13c 3a5b d73d 5b66 46bc
000002d0: 9978 d63d 0924 01be faed 2f3e 9f06 283e
000002e0: bb24 fcbd b906 3abe d111 963c 5019 edbb
000002f0: 9ea8 663c cfaf fc3d 910d 0bbe f870 58bc
00000300: b97c 3b3a 7847 0e3d 22a5 ec3d 16ee d43d
00000310: 4eeb 62be 0a1b 3d3e 3627 d13d 99a8 2cbe
00000320: f2b5 853b 87fa 483d 6cd3 dcbd ddf2 573e
00000330: 18d8 313d b328 9d3d 0cdc 623e b252 4f3d
00000340: a96f 3d3b 6965 a3bd 37a1 a1bd 2071 37bc
00000350: 57cd e53c a210 d7bd 7096 c23d e42b 2bbe
00000360: 5733 8c3c 116a ce3c ab3c 0ebd d0ae 2c3b
00000370: 64d4 b4bc 4017 2fbe 960f 59bd 8cab c13d
00000380: 18e8 acbd af37 c13d 5dff b03d bab8 04be
00000390: 1f95 82bd f104 bf3d 8f94 4a3b bb6f 6fbd
000003a0: 22d6 32bc 247f 953b 5c34 a5b6 4608 ddbc
000003b0: 2acf ce3d 7c71 3abd 7c8d f23d 3d61 243e
000003c0: ed9f 82bd 3630 363d 2175 1a3d cd07 453d
000003d0: a20a 9c3c 0756 40bd 8b2f 123d cb2d 2b3d
000003e0: cd30 42be 4a97 1e3c 62a5 20bb 5a91 093e
000003f0: 2fff 0f3e 9203 fb3d 89b8 813d ef09 553e

layers.0.attention.V.weight f4 [42, 42]
0.22277538 0.23849672 -0.0991509 -0.044129867 -0.17085531 -0.08063679 0.11304013 0.13386366
-0.07057014 -0.2182319 -0.096374094 -0.04542098 0.103535876 -0.061718464 0.23618826 0.0025048421
0.06707558 -0.0120686935 0.10926781 0.2051318 0.25658977 -0.04086898 0.10109189 -0.016669882
0.22337814 -0.07969199 0.17412429 0.075457014 0.15019873 -0.012644927 -0.14698754 -0.09027521
0.04115551 -0.20858186 0.16790527 0.19481027 -0.054369844 0.08266817 0.05014057 -0.024085546
0.005981464 -0.19854443 -0.16087928 -0.03504209 -0.03929357 0.23766996 0.05282859 -0.21333997
-0.22219111 -0.1253752 -0.22805081 0.14810184 -0.10653701 -0.24596067 -0.029120963 0.23556231
-0.21748585 0.19361745 0.11180251 -0.14143386 0.1314214 0.0753754 0.026675396 0.23080818
0.08375941 0.104923464 -0.23346715 -0.011981045 -0.20315768 -0.06475744 0.13636452 0.1336653
-0.10497806 0.0841752 -0.14128254 -0.0892541 -0.12554651 0.1253536 -0.037395746 -0.029342975
0.09411235 -0.008790286 -0.14921442 -0.0041989977 0.05455738 -0.11783412 -0.14873542 0.10385399
0.23054346 0.015615649 -0.20686515 -0.25682744 -0.17058554 -0.19011857 -0.1939323 -0.2249032
-0.1695272 -0.10526865 -0.1586548 -0.18971325 0.25262716 -0.093373 0.13253462 -0.1901846
-0.1663979 0.015721481 -0.00026886517 -0.012218759 0.051054005 0.15020534 0.06893435 -0.12193899
0.24430898 0.19050473 0.20297995 0.09076207 0.20245403 0.014374542 0.11398516 0.124534644
-0.052606475 -0.00526256 0.010370842 -0.1913914 0.23762551 -0.17631605 0.06025957 0.18223374
-0.23804154 0.028732203 0.028154345 -0.10281547 -0.111091755 -0.25924253 0.212089 -0.08126012
0.057749104 -0.20549417 -0.11810948 0.09132333 0.24740797 0.03638833 0.14187403 -0.15263304
0.15413055 -0.24044684 0.13898751 0.08028967 -0.10260155 0.22680253 -0.117557116 0.060869806
-0.011955087 0.20909615 -0.12618749 -0.027675813 -0.051128525 -0.22909488 -0.20405121 -0.23854232
-0.16483875 -0.15048884 0.096828565 0.2028316 -0.12278564 -0.25219378 0.23464343 -0.09759382
-0.046215497 0.22189108 0.029444717 -0.21305431 0.21393345 -0.013208168 -0.23594877 -0.22131194
-0.24015245 -0.07795149 0.17323156 -0.084918 0.08824743 0.23844491 0.004134683 -0.19947657
0.21963248 0.029714625 0.22792867 0.124083936 0.14793767 -0.081610866 0.23038654 -0.120738365
0.093079746 -0.024187943 -0.091139756 0.14210656 0.13301533 -0.046880208 -0.1602339 -0.1545082
0.0010989454 -0.13998193 0.24307261 -0.21281561 0.21965383 -0.07570829 0.0060972087 0.03989012
0.113141656 -0.01067056 0.07049983 -0.1423387 -0.22136474 0.16847968 -0.16345564 0.039218362
0.22031154 0.16764012 -0.03433489 0.07086721 0.07107899 -0.16670065 -0.1287556 -0.18333735
-0.12271158 0.069026016 -0.14182897 0.007886046 -0.15258655 0.12044439 0.1681479 0.116711445
0.164773 -0.11714955 0.20797247 -0.23760718 -0.090314485 -0.14735912 -0.18438381 -0.16787782
-0.09742498 -0.057631448 0.16816433 0.091668434 -0.07561454 -0.22647876 -0.08885087 -0.22816825
-0.16596338 0.06745684 -0.24563879 -0.18630387 -0.104718566 0.18683064 -0.032566383 -0.10250871
00000000: 3b1f 643e 7c38 743e a10f cbbd 85c1 34bd
00000010: b2f4 2ebe e724 a5bd 9581 e73d 8e13 093e
00000020: 1487 90bd 2f78 5fbe c85f c5bd 590b 3abd
00000030: 9e0a d43d 80cc 7cbd 56db 713e 4728 243b
00000040: ec5e 893d c5bb 45bc cdc7 df3d 120e 523e
00000050: bc5f 833e 3b66 27bd 4409 cf3d 478f 88bc
00000060: 3dbd 643e 8e35 a3bd a34d 323e 3589 9a3d
00000070: b2cd 193e ab2c 4fbc e783 16be 36e2 b8bd
00000080: ae92 283d 7c96 55be 5cef 2b3e 587c 473e
00000090: eab2 5ebd ee4d a93d 3360 4d3d 0d4f c5bc
000000a0: 2800 c43b 3b4f 4bbe 8abd 24be 4b88 0fbd
000000b0: 4bf2 20bd c15f 733e cb62 583d cb75 5abe
000000c0: 1186 63be 5b62 00be 2786 69be 02a8 173e
000000d0: 1330 dabd 1ddd 7bbe 168f eebc 3f37 713e
000000e0: 9cb4 5ebe a743 463e b7f8 e43d 0ad4 10be
000000f0: 5593 063e 6b5e 9a3d 5c86 da3c fb58 6c3e
00000100: 0e8a ab3d 1de2 d63d 0312 6fbe 254c 44bc
00000110: 9108 50be 8c9f 84bd 24a3 0b3e 8edf 083e
00000120: bdfe d6bd 0c64 ac3d 5fac 10be dbca b6bd
00000130: 448f 00be b25c 003e 482c 19bd ae60 f0bc
00000140: fabd c03d 2205 10bc aacb 18be bf97 89bb
00000150: 8f77 5f3d 0453 f1bd 194e 18be 67b1 d43d
00000160: 9613 6c3e c7d8 7f3c 75d4 53be e37e 83be
00000170: faad 2ebe 71ae 42be 3096 46be 064d 66be
00000180: 8a98 2dbe 1797 d7bd 6776 22be 3144 42be
00000190: 5958 813e 583a bfbd 28b7 073e c0bf 42be
000001a0: 3664 2abe 56ca 803c 79f6 8cb9 3131 48bc
000001b0: 011e 513d 6ecf 193e 742d 8d3d 26bb f9bd
000001c0: 222c 7a3e ac13 433e fad9 4f3e 77e1 b93d
000001d0: 1c50 4f3e 3383 6b3c 0d71 e93d 050c ff3d
000001e0: e379 57bd 8e71 acbb 77ea 293c 1bfc 43be
000001f0: 1a54 733e 328c 34be bdd2 763d 7b9b 3a3e
00000200: 29c1 73be cc5f eb3c f1a3 e63c eb90 d2bd
00000210: 1384 e3bd 70bb 84be dc2d 593e b56b a6bd
00000220: 538a 6c3d 106d 52be 62e3 f1bd ba07 bb3d
00000230: 8458 7d3e ee0b 153d 6d47 113e d64b 1cbe
00000240: 66d4 1d3e b237 76be be52 0e3e e96e a43d
00000250: c320 d2bd ec3e 683e c9c1 f0bd 9e52 793d
00000260: 45df 43bc 4d1d 563e 4b37 01be 63b8 e2bc
00000270: 256c 51bd d997 6abe cdf2 50be 7044 74be
00000280: 7dcb 28be bf19 1abe 0e4e c63d 16b3 4f3e
00000290: 0a77 fbbd 8b1f 81be 5e46 703e 45df c7bd
000002a0: 764c 3dbd 6a37 633e 0c36 f13c e92a 5abe
000002b0: 5f11 5b3e 1267 58bc 8e9c 71be 999f 62be
000002c0: 86ea 75be 08a5 9fbd 9d63 313e 7de9 adbd
000002d0: 12bb b43d e72a 743e 3c7c 873b 9643 4cbe
000002e0: 56e7 603e 166c f33c 2266 693e b81f fe3d
000002f0: f97c 173e 9923 a7bd 73ea 6b3e ad45 f7bd
00000300: 98a0 be3d cb25 c6bc 7ba7 babd 6284 113e
00000310: 2c35 083e 7605 40bd 5b14 24be 6637 1ebe
00000320: 7d0a 903a 6c57 0fbe 07e8 783e 56ec 59be
00000330: efec 603e f30c 9bbd 18cb c73b d363 233d
00000340: d0b6 e73d 93d3 2ebc 3762 903d 3cc1 11be
00000350: 70ad 62be f085 2c3e ea60 27be 6fa3 203d
00000360: 5999 613e daa9 2b3e bea2 0cbd d422 913d
00000370: dd91 913d 93b3 2abe 82d8 03be c9bc 3bbe
00000380: 3550 fbbd 835d 8d3d 9d3b 11be 7934 013c
00000390: a63f 1cbe 8cab f63d f72e 2c3e 6906 ef3d
000003a0: 41ba 283e 1aec efbd bcf6 543e 4c4f 73be
000003b0: cdf6 b8bd 4fe5 16be 1ccf 3cbe 2ae8 2bbe
000003c0: bf86 c7bd f40e 6cbd 4533 2c3e a9bc bb3d
000003d0: ccdb 9abd 0cea 67be 72f7 b5bd f0a4 69be
000003e0: 4ef2 29be d026 8a3d bc88 7bbe 71c6 3ebe
000003f0: b076 d6bd 8850 3f3e 5464 05bd 16f0 d1bd
