interrupted_model.pth (torch, 728434 bytes, 170 tensors)

z_embedding.weight f4 [1000, 38]
000000 9d 08 58 3f 79 d0 70 3e 6d 81 07 3e bc 8b 84 3f
       0.8438814 0.23517026 0.13232966 1.0355144
000010 2d 29 9e bd 3f d9 dd bf 42 4a 27 c0 e3 d4 6f bf
       -0.077226974 -1.7331923 -2.6139073 -0.93684214
000020 32 09 80 3f e6 dc a9 3e 25 81 fd 3e a8 cd 0d 40
       1.0002806 0.33176345 0.49512592 2.2156773
000030 9b 17 1d bf 6c e4 32 3f 06 2f e4 3e a8 a7 09 c0
       -0.61364144 0.69879794 0.44567126 -2.150858
000040 83 3b 10 be b1 4f a3 3f 71 0e 07 c0 d4 6f fd 3f
       -0.14085202 1.2758695 -2.1102564 1.9799752
000050 5f 99 68 3f 86 f1 99 bf 00 88 f4 3b 48 25 5d 3d
       0.90859026 -1.2026832 0.0074625015 0.053990632
000060 3a cc 67 bf 8c 7d 08 40 21 d2 9e be c5 de 8b 3e
       -0.90546 2.1326628 -0.3101969 0.27318397
000070 63 ae 0b c0 ef bc be bf fa ec 9c be 66 80 d1 3f
       -2.1825187 -1.4901408 -0.3064955 1.6367309
000080 71 0a 7c bf 18 97 96 3d e4 4a 28 be 84 2d 43 3f
       -0.9845343 0.073530376 -0.16434819 0.76241326
000090 ed f5 92 3f d4 c5 5b 3f 51 ee 08 40 31 49 4a bf
       1.14813 0.85848737 2.1395457 -0.7901793
0000a0 ab e4 51 3f 52 3f 56 3f 95 7d 4e 3e e2 92 98 3b
       0.81989545 0.8369037 0.20165093 0.0046561817
0000b0 8b c0 e6 bf 23 a7 34 bf 70 31 b7 3e 9d e2 b0 3f
       -1.802751 -0.7056753 0.35779905 1.3819157
0000c0 05 5a 2d bf a0 86 f9 be a8 b6 09 3e d4 8c bf bf
       -0.67715484 -0.48735523 0.13448584 -1.4964852
0000d0 33 2a 80 bf d6 ae 9a 3f b0 70 93 bf 75 9a 22 3e
       -1.0012878 1.2084606 -1.1518764 0.15879233
0000e0 b4 97 ea 3d a1 84 a5 3e 7d e4 4a bd bb 1b 4b bf
       0.11454716 0.3232775 -0.04953431 -0.7933919
0000f0 c1 83 aa bd 6e 60 e3 3e d6 b3 13 3f c3 8d 6f bf
       -0.08325911 0.44409508 0.5769628 -0.93575686
000100 3a a2 5d 3e 6e 15 5b 3e 34 0a fa be 61 3c 5c 3f
       0.21643916 0.21394894 -0.4883591 0.8602963
000110 6f cf a6 bd 90 ac 41 3f 33 3b b0 bf 2f b0 df bf
       -0.081450336 0.75653934 -1.3768066 -1.7475642
000120 67 b0 cd 3f e0 4e 9b bf 52 e8 7b bf 15 23 dc bf
       1.6069459 -1.2133446 -0.9840137 -1.7198206
000130 53 6c 96 be 4c 09 06 3f 5c 80 de bf 2d 43 6f 3d
       -0.2937952 0.52357936 -1.7382922 0.058413673
000140 4e bb 29 bf 2e 0f 4e bf 6b bf 92 3f 64 48 91 3e
       -0.6630143 -0.8049191 1.1464666 0.28375542
000150 42 b0 d6 3d 94 2f f0 3e f0 21 f9 3f 38 08 c9 bf
       0.10482837 0.469113 1.9463482 -1.5705633
000160 17 03 41 be 60 5e 25 3f 8f 09 24 3f bf 3d c2 be
       -0.18848835 0.6459713 0.64077085 -0.37937734
000170 eb 75 89 3d ec 0b 4d bf 9a a8 4f bf 3d 85 9b bf
       0.06711944 -0.80096316 -0.8111664 -1.2150036
000180 12 36 68 3f 56 ea 5c be 29 63 06 bf b1 b8 1b bf
       0.90707505 -0.21573767 -0.52495056 -0.6082869
000190 25 f7 03 3f aa 29 5f 3f 9c 32 1e c0 94 ca da bf
       0.5154899 0.8717295 -2.471839 -1.7093072
0001a0 e0 07 14 3f 91 cc 97 bd 20 31 ec 3f e1 8e 7e 3e
       0.57824516 -0.07412065 1.8452492 0.24859191
0001b0 da 67 74 bf 0b e5 3c 3f d7 79 aa be 67 01 97 3f
       -0.95470965 0.7378699 -0.3329608 1.1797303
0001c0 94 39 3f 3f d1 f9 e2 bf 94 bb 97 be 7f cc 33 3f
       0.7469723 -1.7732488 -0.29635298 0.7023391
0001d0 0b 54 c3 3d e9 4e b9 3f b0 d4 12 bf 46 34 0d bf
       0.09537514 1.4477206 -0.57355785 -0.5515789
0001e0 33 e5 80 be da 27 77 bf 75 9c 8f bf d6 21 4e 3f
       -0.25174865 -0.96545184 -1.1219622 0.8052038
0001f0 39 9d c8 3e 05 e2 8a 3f df d1 f1 be ef ea 33 3e
       0.3918245 1.0850226 -0.4723043 0.17570089
000200 7d ca 8f 3f ef 2c 1f bf 7b 2a 24 3f 63 a1 7d 3f
       1.123367 -0.6217794 0.6412732 0.9907438
000210 eb 1e 00 40 3a 17 64 bf 16 67 c6 3e f5 ed 27 3f
       2.001887 -0.8909794 0.38750523 0.6559747
000220 6e 95 29 bf 50 b2 4f bf a1 94 16 40 30 5d c1 3e
       -0.66243637 -0.8113146 2.3528216 0.3776641
000230 96 f6 92 3f 54 ca f2 3d 9c a7 63 be 55 4a 77 be
       1.1481502 0.11854997 -0.22231907 -0.24149449
000240 de 7e 66 c0 69 7f fb 3e 4f 8c cd bf cc 65 d6 3f
       -3.6014934 0.49120644 -1.6058444 1.6749816
000250 60 5d bf be 18 fa d1 3b 33 55 10 3f 35 c9 b8 3e
       -0.37375927 0.0064079873 0.56380004 0.3609101
000260 69 a9 e5 bf aa 35 af bc ae ba 14 bf 4f 58 85 3e
       -1.7942325 -0.021387894 -0.5809735 0.26043937
000270 0b 2d 81 be a1 9f 93 bf 16 52 27 bf 27 5e 04 c0
       -0.25229678 -1.153309 -0.6535963 -2.0682466
000280 2e 47 d3 3f a2 7a 94 bf d9 f8 2b 3e 24 42 37 3e
       1.6506097 -1.1599925 0.16794147 0.17896324
000290 7d 3a f6 3f e9 9c 94 3f 31 9e e3 be 39 6e b9 3f
       1.9236599 1.1610385 -0.44456628 1.4486762
0002a0 80 cc 24 3e a1 40 d4 3e 0f 7f 57 3f 54 38 13 3f
       0.16093636 0.41455558 0.8417825 0.57507825
0002b0 d3 2c 2a 40 6d 28 b0 bf f9 0a aa bf 55 35 e8 be
       2.6589859 -1.3762337 -1.3284599 -0.4535319
0002c0 42 f8 7b 3f f1 53 98 bf 39 53 c8 3e f9 b5 e4 be
       0.98425686 -1.1900617 0.39125994 -0.44670084
0002d0 1c 5b 7b be ed d0 b8 be d0 ae c4 3c 7d 86 4f 3e
       -0.24546474 -0.36096898 0.024009138 0.20266147
0002e0 8b d4 3a bd 00 08 71 3e 9e 96 71 3f 42 57 ed 3f
       -0.045612853 0.23538208 0.9437045 1.8542254
0002f0 30 72 35 3e ac 9d 66 3f 0e 3e b7 3e 7f a8 89 be
       0.1771934 0.9008434 0.3578953 -0.26886365
000300 5e 9a ab bf 3d 23 85 be 6d 47 c6 3e 24 3e f2 3f
       -1.3406484 -0.26003447 0.3872637 1.8925214
000310 49 27 f5 3e 27 a9 9b 3f dc 9f 04 3f c5 95 e5 3f
       0.47881535 1.2160996 0.51806426 1.7936331
000320 ca 5e 86 3f 6e a7 c9 3f 54 b9 21 bf 85 98 6c bf
       1.0497677 1.575422 -0.63173413 -0.92420226
000330 d9 f1 05 3f f3 b2 ab bf c5 91 da 3f 83 bc b3 3e
       0.52322155 -1.3413986 1.7075735 0.3510476
000340 73 70 ed bf 96 c8 4c 3f a7 65 56 bf 13 d7 8c 3f
       -1.8549942 0.7999357 -0.8374886 1.1003135
000350 0f 4e 27 3f 2f 70 5c 3f dc 94 85 bf ea b4 4a 3f
       0.6535348 0.8610868 -1.0436053 0.791823
000360 48 47 a4 bf 06 f2 bc be 51 77 28 bf 49 6f b5 bd
       -1.2834253 -0.369034 -0.6580706 -0.088591166
000370 c8 18 0d 3f 44 a2 86 3f 07 65 d1 3e 91 89 1c 3f
       0.5511594 1.051827 0.4089739 0.6114741
000380 fd 05 8f be 47 f6 81 bf 40 fe cd be 52 3d a2 be
       -0.27934256 -1.0153283 -0.4023304 -0.3168741
000390 7a 2f b6 be a6 94 b4 bf 8b 8d 2a 3e ee c1 e9 be
       -0.35583097 -1.4107864 0.16655557 -0.4565577
0003a0 3f 2e 5c bf e9 b8 a4 bf 07 12 f9 3e 9c dd 42 bf
       -0.86008066 -1.286893 0.48646566 -0.761194
0003b0 1a 51 af bf 42 03 13 3f 73 bc 56 bf 11 8f 31 be
       -1.3696625 0.57426846 -0.838813 -0.17339732
0003c0 7d d3 fe bf 29 10 06 3f cc 44 ea 3e 94 ff 16 bf
       -1.9908291 0.5236841 0.45755613 -0.5898373
0003d0 70 75 ac 3e 69 ad ba 3f 9e d2 87 3e 4c dc f3 be
       0.33683348 1.458417 0.26527876 -0.4762901
0003e0 0d 5e a4 3e ec 10 3e 3d 51 d5 09 bf e3 42 ca be
       0.32103005 0.046402857 -0.5384112 -0.39504156
0003f0 99 89 99 3e c1 bd 09 bd 03 6a f6 be 1a d9 4c bf
       0.2998779 -0.03362823 -0.48127756 -0.8001877

x_embedding.weight f4 [371, 38]
000000 52 8c 18 bf 5f 2d 82 bf b1 24 ed 3e 9d 64 a7 3f
       -0.5958911 -1.0170096 0.46317056 1.307758
000010 62 87 13 3f 1f 6a 8e 3f 00 3d 65 bf 4a f3 4f bf
       0.5762845 1.1126136 -0.89546204 -0.81230605
000020 b7 ac 07 bd 0e 9c be bf 80 ad 81 bf 4d 20 c1 be
       -0.033123698 -1.4891374 -1.0131073 -0.37719956
000030 21 e1 69 bf 6c a2 f0 3e a4 5b f0 3f 6d 51 cd be
       -0.91359144 0.46998918 1.8777966 -0.40101185
000040 91 bc 2d bf 2e 13 07 40 1e 43 4d 3f 84 cc 55 bf
       -0.67865855 2.1105456 0.8018054 -0.8351519
000050 8d 80 27 3e 84 ca 34 3c 65 a1 62 3e cc 51 79 bf
       0.16357632 0.011034612 0.2213188 -0.9739044
000060 df 2f 31 bf de d2 85 bf b2 0e 34 3f 10 74 be 3f
       -0.6921367 -1.0454977 0.70334923 1.487917
000070 89 bb ac bf 57 db d1 3d d0 5e a9 be 8e 26 26 3f
       -1.3494731 0.10246914 -0.3308015 0.6490258
000080 a2 7b 30 3f 79 2b 8a bf 02 9e 65 bf c7 1a a9 bf
       0.6893865 -1.0794517 -0.89694226 -1.3211297
000090 e8 8b 7a bf 77 1a 31 bd 5a 05 b4 3e 97 b1 4b bf
       -0.9786973 -0.04323813 0.35160333 -0.79567856
0000a0 6a fc eb 3f b3 74 db be ab 35 88 bf 58 0c 82 bf
       1.8436406 -0.42862472 -1.0641378 -1.0160017
0000b0 29 b6 5f bd 37 5a 2c 3f e7 a1 3f 3f 26 ee e9 be
       -0.05461708 0.67325157 0.7485642 -0.45689505
0000c0 d1 00 23 bf ec 3d df 3f a4 d8 79 bf 07 57 7a 3f
       -0.6367312 1.7440772 -0.9759619 0.97789043
0000d0 27 cd ca 3e 21 9c b5 bf b6 94 01 c0 20 b8 b3 3f
       0.39609644 -1.4188272 -2.0247016 1.4040565
0000e0 c5 49 1a 3f 20 14 1b bf e5 9e f6 3f 40 f7 a6 3e
       0.60268813 -0.60577583 1.9267241 0.32610512
0000f0 0e 66 59 3f 1b 3d 28 3f b5 cb f0 bc 08 a6 ad be
       0.8492135 0.6571824 -0.02939401 -0.33915734
000100 a4 51 46 3f 0f 65 a4 be d9 80 11 3e ab 7d 3b 3e
       0.77468324 -0.32108352 0.14209308 0.18309657
000110 cc 1f 08 bf a1 d9 a7 bd e8 47 91 3f 9b 02 9d 3e
       -0.5317352 -0.08195806 1.1350069 0.3066605
000120 b1 77 6f be 8b ac 4d be 0a 9f 78 bf 6a f8 38 3f
       -0.23385502 -0.20085351 -0.97117674 0.7225405
000130 e1 21 b8 bd de 98 c7 3b c0 db 47 be a6 56 50 3f
       -0.08990837 0.0060912212 -0.19517422 0.81382215
000140 93 a6 6e bf 11 60 d1 be b9 13 0c bf 31 64 4e 3e
       -0.9322292 -0.40893605 -0.54717594 0.20155407
000150 1a 68 40 be 1f d8 1f 3e 6a 44 85 bf fa 50 10 3e
       -0.18789712 0.15609787 -1.0411503 0.1409339
000160 c6 7d 37 3e 34 9d e3 3e f2 b1 80 be 0c 7b 83 3f
       0.17919073 0.44455874 -0.25135761 1.0271926
000170 ae bb 24 3e 7b 4f 94 3f aa 50 0b bf af 4b d4 3f
       0.16087219 1.1586756 -0.5441996 1.6585597
000180 01 39 e7 be b7 2a 3b bf 97 bb ae 3d 60 52 c3 bf
       -0.45160678 -0.7311205 0.08531874 -1.5259514
000190 ae de 04 40 9d 3a 07 3f 18 93 56 bf 82 dd d1 3e
       2.0760913 0.5282381 -0.838182 0.4098931
0001a0 09 58 9b 3f c8 33 88 3f 0f d3 12 bf 87 7b f6 3e
       1.2136241 1.0640802 -0.573533 0.4814112
0001b0 8a fb 00 3f 06 9f a6 3f 1b d8 d1 bd 67 a3 d1 be
       0.5038382 1.301728 -0.10246297 -0.4094498
0001c0 aa 06 a3 3f fc ab dd bf 3e a6 af bf 66 e5 b5 3f
       1.2736409 -1.731811 -1.3722608 1.4210632
0001d0 f7 d2 6d be 16 a9 16 c0 8e 5e 65 3f 49 2b 6e be
       -0.23225008 -2.3540702 0.89597404 -0.232587
0001e0 e3 60 e8 be b1 d6 f9 be b0 ab 9e bf 68 d9 1d 3e
       -0.4538642 -0.4879661 -1.2396145 0.15414965
0001f0 51 6a a2 3f 11 16 cc 3e 4a 6a c5 3f b3 ee 46 3f
       1.2688695 0.39860585 1.5423062 0.77707976
000200 6b 0b 84 bd de dc 46 bf 7e 8c 45 3f 84 be 8f bf
       -0.0644749 -0.77680767 0.771675 -1.1230016
000210 94 17 ec bf 0f 4b 95 3e 40 f4 7c bf c2 a7 fa be
       -1.8444695 0.29158828 -0.98810196 -0.48956114
000220 c7 31 70 bf 1f d5 4a bf 12 97 91 be 33 3d 70 bf
       -0.93825954 -0.79231447 -0.2843557 -0.9384338
000230 01 61 e0 be f4 c4 c9 be 45 a6 ac 3f de 0f f9 be
       -0.43824008 -0.39408076 1.3488241 -0.48644918
000240 6e c0 55 3f d0 36 b6 bd 7a bc f0 bf 71 e5 d1 bd
       0.8349675 -0.088971734 -1.8807518 -0.102488406
000250 0a 87 e5 3e 22 5d 53 bf 1d 9b 94 bf b5 5d 7f bd
       0.4482959 -0.82563984 -1.1609837 -0.062345225
000260 fa b1 c2 3e 02 b2 ac 3f e7 82 c4 bf b0 21 fb 3e
       0.3802641 1.3491824 -1.5352448 0.4904914
000270 fb f5 4b 3d 47 07 84 3e 1c 4a 11 3f d5 8b 08 bf
       0.049795132 0.25786802 0.56753707 -0.53338367
000280 9e 11 20 3f b3 43 82 3f a8 f8 e7 bf 9c 8c 03 40
       0.6252688 1.017691 -1.8122759 2.055457
000290 24 da 3e 3f b2 d1 a2 bf ad e9 bb 3e 53 c1 f4 3e
       0.74551606 -1.2720244 0.36701718 0.47803745
0002a0 d9 c9 e3 bf 4a 28 28 3f f7 e0 13 3f b6 d6 38 bd
       -1.7795974 0.65686476 0.57765144 -0.04512664
0002b0 0b b3 a6 3f 9f 09 7d 3e c6 65 d0 bf 5f ba d2 3f
       1.302339 0.24710701 -1.6281059 1.6463126
0002c0 74 20 9a 3f 80 fd 07 3f 27 48 11 bf 15 cf e6 be
       1.2041154 0.53121185 -0.5675072 -0.45079866
0002d0 d4 e4 9c 3f 81 86 65 3f ae 05 58 3f 8f ad 7a 3e
       1.2257333 0.8965836 0.84383667 0.2448027
0002e0 ba 8e 99 be ff 7f f9 bd e7 fa d9 3f c6 b8 39 bf
       -0.29991704 -0.121826164 1.7029694 -0.72547567
0002f0 25 96 f6 bf 9e 34 ac 3f ee 4e 91 be 80 b1 5b 3f
       -1.926457 1.3453557 -0.2838053 0.8581772
000300 82 de 8c bf 2e a0 61 bf 00 b6 64 3f 6b 2e 14 3e
       -1.1005404 -0.8813504 0.8934021 0.14470832
000310 61 8b 2b bf e6 ca 8a 3f b4 c8 73 bf 7b 94 ca 3f
       -0.6700955 1.084317 -0.95228124 1.5826563
000320 1a 4f 48 bf 85 2e 78 bf 64 62 de 3e f7 9f 53 bf
       -0.782457 -0.96945983 0.4343444 -0.8266596
000330 b6 33 7a bf 95 e7 98 3e c3 07 01 c0 07 5f 36 be
       -0.97735155 0.29864183 -2.0160987 -0.17809688
000340 95 bb 67 3f ef 53 cb be c8 88 d9 bd c4 42 87 bf
       0.905206 -0.39712474 -0.10621792 -1.056725
000350 29 e5 af bf 47 71 22 3f cb e7 26 bf ae 26 16 3f
       -1.3741809 0.634541 -0.6519744 0.5865277
000360 05 cf cc 3f 10 e7 0c bf 5d f0 7f 3f 0d cf 8a bf
       1.6000677 -0.55040073 0.9997614 -1.0844437
000370 77 0c e6 be 07 18 fb bf 5a c8 dd be c3 ce 37 40
       -0.44931385 -1.9616708 -0.4331692 2.8719947
000380 cd 96 86 bf 3f ad b5 bd e5 08 79 be 82 2a d8 3e
       -1.0514771 -0.08870935 -0.24319799 0.4221993
000390 d6 85 19 3f 50 ff aa 3f 73 ca d3 bf 86 1f ba bf
       0.5996984 1.3359165 -1.6546158 -1.454087
0003a0 45 fa db 3e 9f c5 7e bf 91 6c 27 40 f9 78 49 3f
       0.42964378 -0.99520296 2.6160014 0.78700215
0003b0 60 1c 1c c0 9b aa 52 be 69 fd b2 3e 1e 05 c8 3e
       -2.4392319 -0.20572893 0.34958962 0.39066404
0003c0 05 29 d4 be 64 81 d2 3d d0 c0 c1 be 14 77 2f 40
       -0.41437545 0.102785856 -0.37842417 2.741643
0003d0 17 ba bd 3e 56 d9 39 3d 8a b3 c8 bc c8 4c 01 3f
       0.37056038 0.045373283 -0.024499673 0.50507784
0003e0 1f 7d 4c bf 19 a9 1a bf 0f 5e 19 3f cb 83 db 3f
       -0.7987842 -0.6041427 0.5990915 1.7149595
0003f0 7e 4a b8 bf 90 34 fd bf 2e 2c 90 3f c7 bc 6b bf
       -1.4397733 -1.9781666 1.1263483 -0.92084926

e_embedding.weight f4 [2, 38]
000000 69 98 c5 3f 07 63 17 3e 6a 12 38 bf d9 50 89 bf
       1.5437137 0.1478387 -0.719031 -1.0727798
000010 7c 1b aa bf da a2 6f 3f 6a f7 b3 be 43 f4 45 bf
       -1.3289638 0.93607867 -0.351497 -0.7732584
000020 00 83 2d bf 1e 27 ab be b1 66 0c 3f 43 39 9e be
       -0.67778015 -0.33428282 0.54844195 -0.30903062
000030 8d ab b0 bf 53 1c 0e 40 68 b8 bc 3b c8 a5 9f 3f
       -1.3802353 2.2204788 0.0057592876 1.2472467
000040 fe 21 72 3f df 65 85 be e8 29 91 3f 2a 7b b7 3f
       0.9458312 -0.26054284 1.1340914 1.4334462
000050 e4 e7 c4 3e 5a 48 f1 be 0e e7 25 bf 88 02 8b 3f
       0.38458169 -0.47125512 -0.64805686 1.0860147
000060 11 3e d3 3f 10 f3 f7 3d 9d 76 86 bf 9e 10 20 be
       1.6503316 0.12106907 -1.0504948 -0.15631339
000070 ee ed ba be 76 dd 05 be bd 48 29 c0 08 1e 6e bf
       -0.3650965 -0.13072762 -2.6450646 -0.93014574
000080 b9 82 cf bf 2e 92 a9 be 2e c6 90 3f 40 ab b9 bf
       -1.6211768 -0.3311934 1.131048 -1.4505386
000090 42 d6 a4 3f cb cc d6 be 74 f1 04 40 ef 5d 64 3f
       1.2877886 -0.4195312 2.0772371 0.8920583
0000a0 92 fa 38 3f e5 71 97 bf 44 15 2d bf e7 11 b9 3f
       0.7225734 -1.1831633 -0.67610574 1.4458588
0000b0 05 e1 64 3e 67 28 67 be e4 41 79 bf 3a 57 68 bf
       0.22351463 -0.22574006 -0.97366166 -0.907581
0000c0 f1 86 fc 3f f9 31 bc 3e bb 67 af bf 9d c7 11 bf
       1.9728681 0.36756876 -1.3703531 -0.5694521
0000d0 c6 9f 91 3f 20 37 a6 bf 7c 2f fb be a5 fe 8d be
       1.1376884 -1.2985573 -0.49059665 -0.2773334
0000e0 71 87 d4 3f f1 f8 a7 bf d8 ce 9c bf e3 5a cf 3f
       1.6603833 -1.3122846 -1.2250624 1.6199611
0000f0 96 cc 00 c0 33 7d 58 bf 67 a4 09 bf 7a 49 93 3f
       -2.012487 -0.8456604 -0.53766483 1.1506798
000100 c6 38 42 bf 73 78 82 be 6a a3 ad bd b5 f8 92 3f
       -0.7586788 -0.2548252 -0.084784344 1.1482149
000110 01 d0 82 3f 08 28 fa 3d ea 41 40 3d eb f2 a2 bf
       1.0219728 0.122146666 0.04693786 -1.2730383
000120 87 06 ff 3f a1 2c 40 3f b7 1f 71 bf 94 23 3a 3e
       1.9923867 0.750681 -0.9418902 0.18177634

h_embedding.weight f4 [38, 140]
000000 ee f8 8f bd 4f 11 25 3d 20 a9 01 3e 3b a9 06 bd
       -0.070299014 0.04029971 0.12662172 -0.032876235
000010 75 bb 32 be 45 59 40 3d a5 d0 91 3d 9c 72 06 be
       -0.17454322 0.046960134 0.07119874 -0.13129658
000020 e0 8f 2a be 00 0b 1b 3e ca 51 36 be bd 82 3b be
       -0.16656446 0.15140915 -0.17804638 -0.18311591
000030 be 5c 12 3e b0 31 49 3d 26 76 bb bd 78 f8 84 bd
       0.14293191 0.04911965 -0.091533944 -0.06492704
000040 7c 42 34 3e 61 45 06 3e db bc bf bd b6 0b 9b bd
       0.17603487 0.13112403 -0.09362193 -0.07570593
000050 75 e1 0a bd 2b 95 9e 3d b5 12 eb 3d 91 8e 12 bd
       -0.03390642 0.07743295 0.114781775 -0.035780493
000060 70 f9 18 be 56 a8 a4 3d 5a c3 ef 3d 3f c5 2b be
       -0.14938903 0.0803992 0.11707182 -0.16774462
000070 89 0c bc 3d 81 6d 12 be d5 42 b7 3d d8 45 78 3d
       0.091820784 -0.14299585 0.08948294 0.060613483
000080 01 8d 42 3d f4 38 dc 3c b9 71 d3 bb 2c 07 d4 3b
       0.047497753 0.026882626 -0.006452766 0.0064705815
000090 b8 cf aa bd 2c 8c b5 bd f0 dd a1 3c e0 c1 94 3c
       -0.083404005 -0.08864626 0.019759148 0.018158853
0000a0 78 2f 3d 3d c1 de bc 3d 69 e9 1f be c2 a1 a3 3d
       0.046187848 0.092221744 -0.15616383 0.07989837
0000b0 39 a9 39 3e ae 67 27 be a5 b9 2d bd 31 bf 36 bd
       0.1813096 -0.16348144 -0.042413373 -0.044615928
0000c0 54 c3 2b 3e 50 81 f3 bc 08 04 38 3d d2 12 3b 3e
       0.1677373 -0.029724747 0.04492572 0.18268898
0000d0 07 5c 58 3d 32 b5 f0 bc 38 b0 a5 bd 13 e1 97 3d
       0.05282214 -0.029383276 -0.08090252 0.074159764
0000e0 7c 8c 90 bc b6 48 01 bc 7f 6c aa bd c2 55 26 3e
       -0.017645113 -0.007890871 -0.08321475 0.16243652
0000f0 fc 7a 1f 3e e3 ad ed 3c e7 81 1b bd de 61 3d bc
       0.15574259 0.02901358 -0.03796568 -0.011558978
000100 30 1c 26 3d 5c 72 2b 3d c8 b8 fe 3d d2 f3 6f 3d
       0.040554225 0.04185711 0.12437588 0.058582135
000110 c0 8f 19 be 74 6d 38 bd 38 d3 92 bc ee ae 31 bd
       -0.14996243 -0.045026258 -0.017922983 -0.043379717
000120 2b 2a 07 be 62 d3 12 be ec f1 a3 3d ed b6 b8 bc
       -0.1319968 -0.14338449 0.08005127 -0.022548163
000130 23 c6 2b bd 2d 93 1a 3e 2a 9a d0 3d c0 90 77 bd
       -0.041937005 0.15095206 0.101856545 -0.06044078
000140 69 6a 3f bc f5 65 26 3e 76 a9 15 3d 9a 66 dd 3d
       -0.011683085 0.16249831 0.036538564 0.10810585
000150 ef 46 08 bd 46 ac cd 3d fc d8 4f 3d d1 31 d5 bc
       -0.033270773 0.10042624 0.05074404 -0.02602473
000160 d9 38 8e 3d 02 c7 4c 3c 95 ba 3a bd 8f e9 db 3d
       0.069444366 0.012498619 -0.045588095 0.10737907
000170 e8 39 7a bd ae 94 cd 3d a8 e6 36 bc 0b 0a b2 bd
       -0.06109038 0.10038124 -0.011163391 -0.08693322
000180 8e 88 3c bd af 5e 31 3d 04 d9 87 bc a4 54 12 be
       -0.046028666 0.043303188 -0.016582973 -0.142901
000190 c2 55 fb 3b be 70 94 bd cc aa 26 3d 24 3e 7a 3b
       0.0076701352 -0.07248066 0.04069023 0.0038184011
0001a0 fb c2 15 3d 83 09 62 3d 18 d4 29 3d 8d 60 8a 3d
       0.0365629 0.055184852 0.041462034 0.06756697
0001b0 c9 bc 2e be 78 2c 08 be f0 cb f9 bd d1 72 ab 3d
       -0.17064203 -0.13298213 -0.12197101 0.08371509
0001c0 0d f2 36 3e 90 29 3a bc 15 50 9c bd bc 96 20 3e
       0.17865773 -0.011362448 -0.07632462 0.156825
0001d0 e0 fa 6b 3d a6 da 15 3e 0d 7d aa bd 99 c5 17 3e
       0.0576123 0.14634189 -0.08324633 0.14821471
0001e0 ed fe 6f 3d 6e 9a 8e 3c b8 47 a0 3d 4c f7 21 bd
       0.058592726 0.017407622 0.07826179 -0.03954248
0001f0 33 16 06 3e 54 b3 19 be 7f 8e 1e be cd bd 31 3e
       0.13094406 -0.15009815 -0.15484045 0.1735756
000200 91 1b 37 be a5 3f 9e 3d 06 43 9f 3a d6 66 a5 bd
       -0.1788161 0.07726983 0.0012150712 -0.08076255
000210 e6 04 a7 3d b0 09 0f be fc 58 85 bd 3d 9e 95 bc
       0.08155231 -0.13968539 -0.06511113 -0.01826393
000220 0c df 2b 3e e5 bd b6 3c e0 aa 30 bc d9 8b 04 3e
       0.16784304 0.022307346 -0.010782927 0.12943973
000230 33 45 d6 3d 5c b7 e4 3d 8f 97 cb bd 26 c2 f3 bd
       0.104624175 0.111677855 -0.09941017 -0.11902265
000240 8d 66 33 3e 6c 48 37 bc cc ba cd bd 84 86 27 be
       0.17519589 -0.0111867 -0.10045394 -0.16359907
000250 40 ca 9b 3d ff 3f 20 3d 54 55 b3 bd 9d fa 1b 3e
       0.076069355 0.03912353 -0.087565094 0.1523232
000260 d1 5b 00 be 67 54 fe 3d ab 80 a0 3d 2c 32 be bd
       -0.12535025 0.12418442 0.078370415 -0.09286913
000270 4f e4 df bd d2 b4 d8 3c a9 cc 6c 3d 81 64 97 3d
       -0.10932218 0.02645341 0.057812367 0.073922165
000280 9c 75 0b 3d cb 81 11 3d d4 13 26 be 03 5c ff 3d
       0.034047708 0.03552417 -0.16218501 0.12468722
000290 9f 9a 0e 3e 65 f5 c3 bd c2 3d 6e bd 55 18 3c bd
       0.13926171 -0.0956829 -0.058164366 -0.045921642
0002a0 39 fb 25 be ff 60 79 3d 1f 7b f1 bd fd c6 32 3e
       -0.16209115 0.06088352 -0.117910616 0.1745872
0002b0 00 d4 bf bd ee 77 24 3e 6f f2 14 be e9 42 b7 3d
       -0.09366608 0.16061375 -0.14545606 0.08948309
0002c0 68 2c 2d 3e ed 0c 0d be b7 6d 1c be 39 2c 0a be
       0.16911471 -0.13774462 -0.15276228 -0.13493432
0002d0 e2 38 fa bc e1 d3 c5 bd 73 d2 01 be e4 3d b8 bc
       -0.030544702 -0.09659553 -0.12677936 -0.02249045
0002e0 2e 76 1e 3e b7 cc d9 3d b9 31 0a bc a4 9b ed bc
       0.1547477 0.106347494 -0.008434706 -0.02900488
0002f0 60 dd 0e 3e 5a 7a 2b be 75 d9 3b be 09 2e c9 bd
       0.13951635 -0.16745892 -0.18344672 -0.09823234
000300 dc 88 b6 3d 52 1e 80 bd 66 14 a3 3c 37 55 05 be
       0.089128226 -0.06255783 0.019907188 -0.13020788
000310 03 ad 32 3e d1 94 02 3e 93 6c 8d bc 4d 60 2d 3e
       0.17448811 0.12752081 -0.017263686 0.16931267
000320 51 43 ad 3d e7 4e ee 3c 2e 67 ab 3c c0 46 7c bd
       0.08460105 0.029090358 0.020923223 -0.06159091
000330 a9 e9 f4 bd 12 18 14 3e 85 5a 08 3e ec 63 75 bb
       -0.1195863 0.14462307 0.1331578 -0.0037443591
000340 20 af 13 3c 7a 4d 1a 3e d5 27 32 3e a2 91 ce 3d
       0.009013921 0.15068617 0.17398007 0.10086371
000350 0b 99 87 3d 7c f1 4b bd 9d 15 d1 bd 53 93 be bc
       0.066209875 -0.049790844 -0.102092005 -0.023263609
000360 de e0 cb 3c 85 ec 00 3e f5 eb 36 3d da 18 31 be
       0.024887498 0.12590225 0.04465862 -0.17294636
000370 c3 91 0c 3e ec 85 24 3e be fe a4 3c 6f c7 24 bd
       0.13727479 0.16066712 0.020141002 -0.040229257
000380 43 e8 0e be 1a 85 24 3e 0c 74 16 3e bd 3b f4 bd
       -0.13955788 0.16066399 0.14692706 -0.11925457
000390 02 eb a5 bd d9 55 1f 3e 92 3b e4 bd a8 0a 31 bd
       -0.08101465 0.15560092 -0.11144175 -0.043223053
0003a0 30 e5 8f bd 27 e3 1b 3d 75 88 b2 3b 80 98 f4 bd
       -0.07026136 0.038058426 0.005448396 -0.119431496
0003b0 34 75 00 be 40 fc 21 be 47 f3 cd bb a5 36 33 3e
       -0.1254471 -0.15818882 -0.0062851044 0.17501314
0003c0 be 1a bc bd be d0 30 3d 51 1d 02 bd e7 57 d9 3d
       -0.09184788 0.043167822 -0.03176624 0.10612469
0003d0 34 f8 33 3b d4 85 c1 3d a6 ba 23 3d b4 36 30 bc
       0.0027461173 0.09449354 0.039972924 -0.01075523
0003e0 5b 79 0d bd 82 6c 1d 3d ce b3 e6 bd c5 c8 77 bc
       -0.03453956 0.03843356 -0.11264764 -0.015123551
0003f0 57 79 ba bd b5 e7 ad 3b be 02 f1 bd 7d d0 99 3d
       -0.09105175 0.0053071626 -0.11768101 0.07510469

h_embedding.bias f4 [38]
000000 00 00 00 00 00 00 00 00 00 00 00 00 00 00 00 00
       0.0 0.0 0.0 0.0
000010 00 00 00 00 00 00 00 00 00 00 00 00 00 00 00 00
       0.0 0.0 0.0 0.0
000020 00 00 00 00 00 00 00 00 00 00 00 00 00 00 00 00
       0.0 0.0 0.0 0.0
000030 00 00 00 00 00 00 00 00 00 00 00 00 00 00 00 00
       0.0 0.0 0.0 0.0
000040 00 00 00 00 00 00 00 00 00 00 00 00 00 00 00 00
       0.0 0.0 0.0 0.0
000050 00 00 00 00 00 00 00 00 00 00 00 00 00 00 00 00
       0.0 0.0 0.0 0.0
000060 00 00 00 00 00 00 00 00 00 00 00 00 00 00 00 00
       0.0 0.0 0.0 0.0
000070 00 00 00 00 00 00 00 00 00 00 00 00 00 00 00 00
       0.0 0.0 0.0 0.0
000080 00 00 00 00 00 00 00 00 00 00 00 00 00 00 00 00
       0.0 0.0 0.0 0.0
000090 00 00 00 00 00 00 00 00
       0.0 0.0

initial_layer_norm.weight f4 [38]
000000 00 00 80 3f 00 00 80 3f 00 00 80 3f 00 00 80 3f
       1.0 1.0 1.0 1.0
000010 00 00 80 3f 00 00 80 3f 00 00 80 3f 00 00 80 3f
       1.0 1.0 1.0 1.0
000020 00 00 80 3f 00 00 80 3f 00 00 80 3f 00 00 80 3f
       1.0 1.0 1.0 1.0
000030 00 00 80 3f 00 00 80 3f 00 00 80 3f 00 00 80 3f
       1.0 1.0 1.0 1.0
000040 00 00 80 3f 00 00 80 3f 00 00 80 3f 00 00 80 3f
       1.0 1.0 1.0 1.0
000050 00 00 80 3f 00 00 80 3f 00 00 80 3f 00 00 80 3f
       1.0 1.0 1.0 1.0
000060 00 00 80 3f 00 00 80 3f 00 00 80 3f 00 00 80 3f
       1.0 1.0 1.0 1.0
000070 00 00 80 3f 00 00 80 3f 00 00 80 3f 00 00 80 3f
       1.0 1.0 1.0 1.0
000080 00 00 80 3f 00 00 80 3f 00 00 80 3f 00 00 80 3f
       1.0 1.0 1.0 1.0
000090 00 00 80 3f 00 00 80 3f
       1.0 1.0

initial_layer_norm.bias f4 [38]
000000 00 00 00 00 00 00 00 00 00 00 00 00 00 00 00 00
       0.0 0.0 0.0 0.0
000010 00 00 00 00 00 00 00 00 00 00 00 00 00 00 00 00
       0.0 0.0 0.0 0.0
000020 00 00 00 00 00 00 00 00 00 00 00 00 00 00 00 00
       0.0 0.0 0.0 0.0
000030 00 00 00 00 00 00 00 00 00 00 00 00 00 00 00 00
       0.0 0.0 0.0 0.0
000040 00 00 00 00 00 00 00 00 00 00 00 00 00 00 00 00
       0.0 0.0 0.0 0.0
000050 00 00 00 00 00 00 00 00 00 00 00 00 00 00 00 00
       0.0 0.0 0.0 0.0
000060 00 00 00 00 00 00 00 00 00 00 00 00 00 00 00 00
       0.0 0.0 0.0 0.0
000070 00 00 00 00 00 00 00 00 00 00 00 00 00 00 00 00
       0.0 0.0 0.0 0.0
000080 00 00 00 00 00 00 00 00 00 00 00 00 00 00 00 00
       0.0 0.0 0.0 0.0
000090 00 00 00 00 00 00 00 00
       0.0 0.0

layers.0.attention.Q.weight f4 [36, 38]
000000 c6 8c 1c 3c 92 86 87 be aa 29 00 bc 41 d9 c3 bc
       0.009555047 -0.26469857 -0.0078224335 -0.023907306
000010 0d 19 05 3d 2d 32 7b 3e ea 93 92 bd 8a 58 6b be
       0.032494593 0.2453086 -0.071571186 -0.22982994
000020 13 ba 5c bd 66 46 83 3e ea 90 23 be af 46 6b 3e
       -0.05388839 0.25639647 -0.15973249 0.22976182
000030 da f6 8f be 97 97 04 3e 5c e8 17 be 2c 9d 23 be
       -0.2811802 0.12948452 -0.14834732 -0.15977925
000040 69 20 77 3e c8 a3 4b be 9c 34 85 3e 3d 47 2f be
       0.24133457 -0.19886696 0.260167 -0.17117019
000050 4f 64 79 3e ad ec 41 3e d7 86 2f 3e 8d 1f 85 be
       0.24354671 0.18937941 0.17141281 -0.26000634
000060 b0 89 d3 bd 0f 7d 80 3d b1 39 ec bd 13 2f 31 be
       -0.10328996 0.06273853 -0.11534441 -0.17303114
000070 5f 63 52 be 8e 65 89 3e 79 9d 62 bd 24 ef 7b bd
       -0.2054572 0.26835293 -0.05532596 -0.06150736
000080 93 c9 78 bd 3c 57 45 3e ee 2c 5c be 5a d8 6c be
       -0.06073911 0.19271559 -0.21501514 -0.23129407
000090 15 11 b0 bd 38 22 ff 37 4c 7d 3e be 4e 87 0a be
       -0.08597008 3.0414303e-05 -0.18602484 -0.13528177
0000a0 ae 9e a3 bd a9 23 87 be c7 74 d0 bd e0 85 6a 3e
       -0.0798925 -0.26394394 -0.101785235 0.22902632
0000b0 54 93 1b be 95 e7 77 3e 55 7e a1 bb b3 5d 67 3d
       -0.1519292 0.24209435 -0.00492839 0.056485843
0000c0 b8 3c 25 be d6 22 06 3e 56 9a 45 3d 82 fd 8e 3e
       -0.16136444 0.13099226 0.04824289 0.27927786
0000d0 2f 5e 3c 3e 0c 1f 90 3e eb b4 95 bd ca 5b cd 3d
       0.18395303 0.28148687 -0.07309898 0.10027273
0000e0 21 e9 78 3d 5d 33 48 3e e6 30 6d be 8c 7c 76 3e
       0.060769204 0.19550844 -0.23163185 0.24070948
0000f0 ee b1 f0 3d 14 9e 79 be 84 7f 06 be 08 ef 58 3d
       0.117526874 -0.24376708 -0.13134581 0.052962333
000100 eb 57 99 3c ad a2 3e 3d 14 00 82 be 04 8e 86 3d
       0.01871868 0.04654186 -0.25390685 0.06570056
000110 f7 12 4d 3e 5c 7e 2d be bd 26 8e 3e c1 3e ac 3d
       0.20026766 -0.16942734 0.2776393 0.08410407
000120 37 4f b2 3d 3a 5b 8a 3e 20 52 8b 3e ae 77 72 be
       0.08706515 0.27022725 0.27211094 -0.23678467
000130 c5 94 f9 bd da 60 e4 3d d6 8c f7 bd 22 a4 9b b9
       -0.12186579 0.111512855 -0.12087409 -0.00029686192
000140 65 85 7d be 9f 80 55 bd 36 1f 8a be 63 9a 59 3e
       -0.24757917 -0.052124616 -0.26976937 0.212503
000150 92 52 15 3e 4a 3a 53 be be ae 44 3d 44 1b 82 bd
       0.1458228 -0.20627704 0.04801821 -0.06352857
000160 6c e2 4a be 2b 9e 40 3d 0d 77 0e 3d 04 ab cc 3c
       -0.19812936 0.04702584 0.034781504 0.02498389
000170 55 8f 17 3e d2 39 01 be 70 f0 18 be 3d ae 65 3e
       0.1480077 -0.12619713 -0.1493547 0.22429748
000180 eb 29 75 be 73 f7 6b be e5 89 b0 bd 2a 3e 13 3e
       -0.23941772 -0.23043613 -0.08620051 0.14379182
000190 a5 f5 f9 3d 89 41 b2 bd b1 fb d3 bc 74 b7 81 3d
       0.12205056 -0.08703906 -0.025876852 0.06333819
0001a0 92 3e 1d 3e e3 e1 a7 bc 19 ff b5 3d 0d fb a1 bc
       0.153559 -0.020493453 0.08886547 -0.01977303
0001b0 7a ba 63 3e 68 e0 88 3e 77 61 4b be 14 21 78 be
       0.22239104 0.26733708 -0.19861399 -0.24231368
0001c0 2c 1f 8e bd cd c9 74 3e 5a 1d 1d 3d f5 4f 1d 3e
       -0.06939539 0.23905106 0.03835807 0.15362532
0001d0 59 1f cf 3d dd d1 39 bd 42 dc 27 be b6 78 1e be
       0.10113401 -0.045366157 -0.16392615 -0.15475735
0001e0 c4 ae 13 bb d4 48 1e 3e b9 38 cf bc 87 ff ac 3d
       -0.0022534588 0.15457469 -0.025295602 0.084471755
0001f0 50 fd 4a 3e cc bd e0 3d c9 15 99 3b 69 74 35 be
       0.19823194 0.10973701 0.0046717864 -0.17720188
000200 69 63 2a be 8d 48 8b bd d1 34 58 3e 3d f7 49 be
       -0.16639484 -0.06800947 0.21113898 -0.1972322
000210 9e ad 7a 3e 25 5e 67 3e 91 19 4d 3e bf 00 ad bd
       0.24480292 0.22594507 0.20029284 -0.08447408
000220 07 dc 20 3c 52 54 57 3e 4f 5a 78 3e ea a8 27 be
       0.009818084 0.2102826 0.242532 -0.1637303
000230 75 51 d9 bd a0 0f 3e bd 1e fe be 3c f0 e6 5d 3e
       -0.1061124 -0.04640162 0.023314532 0.21670127
000240 cf 26 cd bd 64 46 8e be 8a f3 2a bd de 41 a9 bb
       -0.10017168 -0.2778808 -0.041736163 -0.0051653227
000250 6e 40 f3 bd d9 ba 06 3e 2c 75 09 bd c7 d1 b0 bd
       -0.11877523 0.13157214 -0.03355901 -0.08633762
000260 92 f7 8e bd 3b 23 31 3e b3 c4 1e bc 58 f7 83 3e
       -0.06980814 0.17298596 -0.009690451 0.25774646
000270 0f 89 c9 bc 7a 0d a6 3d 57 de 4c be 76 0d 79 3e
       -0.024601487 0.08108039 -0.20006691 0.24321541
000280 78 e8 24 be ce 51 1e ba 6f dd 68 3d 8e 58 25 3e
       -0.16104305 -0.00060394115 0.0568518 0.16147062
000290 ba d4 85 3e 08 1d 64 be 84 24 82 3e 39 9d 28 be
       0.2613886 -0.222767 0.25418484 -0.16466226
0002a0 66 7c 89 3e 04 c9 db 3c 3b 4d 2f 3e 83 78 83 3e
       0.2685272 0.02682925 0.17119305 0.2567788
0002b0 00 0c 2b 3e 80 01 26 3e 9c 5b 3d bd da 7e 4a be
       0.16703796 0.1621151 -0.046229944 -0.19774953
0002c0 74 63 4d 3e 60 9f 88 be 22 49 df 3d d4 af 95 3d
       0.2005747 -0.26684093 0.10902621 0.07308927
0002d0 08 1b 6b 3e 1f 8e 14 be d5 24 05 3b 5f a9 80 bc
       0.2295953 -0.1450734 0.0020316143 -0.015705762
0002e0 6e 2a 7e be 10 98 c0 3d f2 35 13 be 4f ff 8b 3e
       -0.24820873 0.094040036 -0.14376047 0.27343222
0002f0 c5 e5 88 3e 9c 3b df bd d8 dc d8 3c 72 03 33 be
       0.267378 -0.109000415 0.026472494 -0.17481783
000300 f7 17 8f 3e c4 53 15 be e1 7f 8b bd 2b d2 54 3e
       0.2794797 -0.14582735 -0.068115 0.20783298
000310 69 74 91 be 9c 63 83 be 8e 6a 5a 3e af 5e b0 3b
       -0.28409126 -0.25661933 0.2132971 0.005382381
000320 39 55 53 bc 10 c4 98 3c d0 ad 24 bd 67 fe ed bc
       -0.012898737 0.018648177 -0.040204823 -0.029051973
000330 28 9f 32 3d a1 5a 62 3d eb 1f 75 bc d6 5c 13 be
       0.043608814 0.05526221 -0.014961223 -0.14390883
000340 e9 eb be 3d d1 18 8b 3d 8f fb 21 be 56 dd 27 3e
       0.0932234 0.06791843 -0.15818618 0.16393027
000350 5a 3d 94 3c a0 34 22 bd df b8 b0 bd c3 42 2d be
       0.018095661 -0.03960097 -0.08629011 -0.16919999
000360 9e 4a 1e be e3 88 64 be bd 16 26 be 29 8c 77 3e
       -0.15458152 -0.22317843 -0.16219611 0.2417456
000370 09 0a 6b be 8c 8c df 3d 50 5e 49 bc 86 24 33 3e
       -0.22953047 0.10915479 -0.012290552 0.17494401
000380 77 63 00 3e 09 b8 b5 3d a5 2f a3 3c 9f ef 79 3e
       0.12537943 0.088729925 0.01992018 0.24407814
000390 3b 02 33 be a9 40 a6 3d d5 22 2c bd e3 a1 62 3d
       -0.1748132 0.08117802 -0.042025406 0.05533017
0003a0 d9 73 06 3e dd ba 6f be 0a be f1 bc 4f e5 5e be
       0.1313013 -0.23411126 -0.029509563 -0.21767162
0003b0 86 b9 8d 3e 27 8e 43 be 47 42 77 be e2 37 89 be
       0.27680606 -0.19097196 -0.24146377 -0.26800448
0003c0 49 1a 65 3e 48 88 7c be f3 16 43 be a5 93 4e be
       0.22373308 -0.24661362 -0.19051723 -0.2017351
0003d0 3e be 2e 3c 8f 97 fd bc 87 09 17 3e 12 90 23 be
       0.010665474 -0.030956058 0.14749728 -0.15972927
0003e0 14 6c 85 be f6 5f 4a be 53 29 2a 3e 0b c1 26 be
       -0.2605902 -0.19763169 0.16617326 -0.16284578
0003f0 5e f6 30 bd 6c c9 7d be 29 69 67 3d 4b 16 7a be
       -0.043203704 -0.24783868 0.056496773 -0.24422567

layers.0.attention.K.weight f4 [36, 38]
000000 18 8c 73 be 89 21 5d 3e 66 b9 f8 3d 07 ea 77 3e
       -0.2378391 0.21594824 0.12144737 0.24210368
000010 ba 11 05 3e 9f 99 78 be 92 a3 90 3d b0 ab 84 be
       0.12995043 -0.24277352 0.070624486 -0.25912237
000020 62 2a ba bc 7a 76 c5 bd d7 b9 7b 3e 8f 73 9d bb
       -0.022725288 -0.09641738 0.24582611 -0.0048050354
000030 48 d5 25 be 56 d6 fa bd 67 64 0f be 92 a0 bd bd
       -0.16194642 -0.122479126 -0.14003144 -0.09259142
000040 89 ec 27 3e f7 e8 33 3e 88 eb 8f be 53 d4 8e 3d
       0.16398825 0.17569338 -0.28109384 0.069740914
000050 12 e5 24 be 12 25 54 3e 9b a5 cf 3d 88 fa eb bd
       -0.16103008 0.20717266 0.101390086 -0.115223944
000060 fb 56 5a be 6b 4f 94 3d ca db 64 be 98 8b 80 be
       -0.21322243 0.0724171 -0.22349468 -0.25106502
000070 5c 07 8f 3e c2 1a 80 be 04 da 2d bd b9 73 08 bd
       0.27935302 -0.25020415 -0.042444244 -0.033313487
000080 21 ae 85 3e c9 d8 66 3e 0e 29 c1 3d eb 6f ff bc
       0.26109412 0.22543634 0.09431659 -0.031181296
000090 c2 bb 61 3e 2e 6b 78 3e 4c 96 8e 3e e5 12 02 3d
       0.2204428 0.24259636 0.27849042 0.0317563
0000a0 9b 3e f0 3d 84 d5 49 3e 1e 19 3b 3e d8 1c cd 3b
       0.11730691 0.19710356 0.182713 0.006259542
0000b0 7a 42 c9 3c dc 5a 8c 3e 62 30 52 be 91 c5 cc bd
       0.024567831 0.2741307 -0.20526269 -0.0999862
0000c0 8e 8c d7 bd bc 16 87 be 98 a0 30 3e 5b 9b 82 3e
       -0.105248556 -0.26384532 0.17248762 0.25509152
0000d0 dd 0c da 3d cf 4f fe 3d a8 fb 0b 3e ec e2 a8 3d
       0.10646985 0.12417566 0.13670218 0.08246407
0000e0 1b ef c9 3d 7c b9 2b 3e c5 46 03 3e ca cc 3f 3e
       0.09860059 0.16769975 0.12819965 0.18730465
0000f0 37 2b a8 bd 8f f0 08 be c7 0b 0f be 60 3c 14 bd
       -0.082113676 -0.13373016 -0.13969336 -0.03619039
000100 1f a0 7f be 7b 68 81 be 3a 12 f7 3c 96 60 83 be
       -0.24963425 -0.25275025 0.030160058 -0.25659627
000110 76 a5 d5 3d 7c 69 ba bd ee ad 2c be 26 2e 90 bd
       0.1043195 -0.09102151 -0.16863224 -0.07040052
000120 79 6d 17 3d a2 1d 08 3e fb ec 1f bb b7 c7 df bd
       0.036969636 0.13292554 -0.0024402726 -0.109267645
000130 b6 cc 4a 3c 17 b8 4e 3d 68 21 00 3e a7 0f 08 3e
       0.012377908 0.05046853 0.12512743 0.13287221
000140 46 dd 0f 3e ff a3 7d 3e 78 98 39 be a6 ac 64 3b
       0.14049253 0.24769591 -0.18124568 0.0034892946
000150 28 f1 50 3d 6a 9c 3b bc b7 95 56 3d b8 25 ed bd
       0.051011235 -0.011450866 0.052388873 -0.1157946
000160 d2 38 ab bd 5d ce 2c be 7c 6d 9c 3d 84 b7 8c 3d
       -0.08360447 -0.16875596 0.0763807 0.0687094
000170 db ba 46 3d 92 4a 8c 3e 66 d8 0b 3e 36 d8 d1 3d
       0.048518043 0.27400643 0.13656768 0.10246317
000180 5a 18 eb 3c bf 0c 37 3e 0a ca 36 be 4e 4c 83 bd
       0.028698135 0.17875956 -0.1785051 -0.06411038
000190 e3 36 2c 3e 1b 6a 86 3e e9 a0 bd bd 17 46 45 be
       0.16817813 0.26252827 -0.09259207 -0.19265018
0001a0 bb 3a 3d 3e 23 ef 29 be d9 c5 8f 3e fe aa 35 3e
       0.18479435 -0.1659513 0.28080633 0.1774101
0001b0 a9 96 3d be 65 69 35 be 4e 44 89 3e 6b 95 68 be
       -0.18514504 -0.17715986 0.26809925 -0.22713248
0001c0 01 b3 f4 3b 98 00 5f 3e d5 7d a7 bc 76 63 36 be
       0.007467628 0.2177757 -0.020445744 -0.17811379
0001d0 7f 12 ae bd cd 5e 22 be 69 fd 58 3e f0 01 41 3b
       -0.084996216 -0.15856476 0.21190418 0.0029450618
0001e0 4b 12 6c be 59 28 71 3e 11 49 3d be f4 52 d0 bd
       -0.23053853 0.23550548 -0.18484904 -0.10172072
0001f0 4d 7f 2c bd e9 c3 8a 3e e8 29 9b 3c e1 3f 84 3e
       -0.04211359 0.27102593 0.01894088 0.25829986
000200 8c 65 63 be 3e 92 5c be d0 51 de 3c 9b 63 6b be
       -0.22206706 -0.21540162 0.02713862 -0.22987215
000210 0f 94 7e bd 51 f7 18 3e 1d 78 74 3e 74 33 88 3e
       -0.06215292 0.14938094 0.23873945 0.26601756
000220 15 ff 5f be e9 e4 1a be 20 4f 77 3d 1a 65 a2 3d
       -0.2187465 -0.15126385 0.060378194 0.0792944
000230 2e c4 4f bd 1a 2a 74 3e 19 bc f4 3d 44 22 11 bd
       -0.0507242 0.23844185 0.11949939 -0.03543307
000240 c0 22 34 3e ec 9b 31 3e 08 8b bf 3d 73 32 73 3c
       0.17591381 0.17344636 0.0935269 0.014843571
000250 95 05 82 bd 0a 34 1d be 25 e2 99 3d 0e 1a 32 bd
       -0.06348721 -0.15351883 0.07513837 -0.04348188
000260 5f fa 1f be 97 78 60 be 69 b7 5a 3d ad 5e 24 be
       -0.15622853 -0.21921001 0.05339757 -0.16051741
000270 49 bb 02 bd d9 9f 97 bd 77 a9 6b 3e 04 b2 02 3e
       -0.03191689 -0.074035354 0.23013864 0.1276322
000280 58 62 7b 3e 96 88 38 be a8 ae 1c be 86 11 14 be
       0.24549234 -0.18020853 -0.15301001 -0.1445981
000290 b7 ef 05 3d 59 35 53 bd 41 cf 83 be a6 3a 46 3d
       0.032699313 -0.05156455 -0.2574406 0.048395775
0002a0 0a 2c dc bc 3e 09 3e 3e 3e 9a 68 3e bf bd 28 3d
       -0.026876468 0.18558213 0.22715089 0.04119658
0002b0 29 56 86 be e8 68 91 3e f4 6c 53 3e 18 eb 96 3c
       -0.2623761 0.2840035 0.20647031 0.018422648
0002c0 44 a1 3d 3d 68 30 70 3e cd ff 74 be 93 6f ad 3d
       0.046296373 0.23455966 -0.23925705 0.08468547
0002d0 0d da 6e 3e 8d c5 aa 3d 76 b9 64 bd 30 4c af 3d
       0.23325367 0.08338461 -0.05584093 0.085594535
0002e0 ce 3e 91 bd 1a 41 8f 3e 20 62 3a bc 90 b7 7b bd
       -0.07092057 0.27979356 -0.011375934 -0.061454356
0002f0 34 bc fa 3d 21 76 7c 3e 04 a3 e0 bc 8a 77 76 bd
       0.12242928 0.24654438 -0.027421482 -0.060172595
000300 1b 92 b1 bd b4 01 61 3e df 12 8d 3e b2 72 ab 3d
       -0.086704455 0.21973306 0.2755346 0.08371486
000310 ee 09 f2 bd f8 01 a1 bd 1c d7 28 be 9a 60 1e 3e
       -0.118183 -0.07861704 -0.16488308 0.15466538
000320 6b 56 dd 3d 64 fa 17 3e a8 1b 22 3d 60 76 40 3e
       0.108074985 0.1484161 0.039577156 0.18795156
000330 74 b6 48 3d 66 35 5f 3e 3c 35 7d be d4 68 49 3e
       0.049002126 0.21797714 -0.24727339 0.19668895
000340 11 54 50 be ac bc 9c bd 13 4a 37 be ee 03 fc 3c
       -0.20344569 -0.07653174 -0.17899351 0.030763593
000350 7b b8 48 3e ca 52 0e 3e da dc 44 be ab d8 0a 3e
       0.19601624 0.13898769 -0.19224873 0.13559215
000360 a2 ed 83 3e 1e e0 d2 bd e9 b5 99 bd fc 4e 1f be
       0.25767237 -0.10296653 -0.075054 -0.15557474
000370 3e 25 f2 3d b6 68 7b be 7f 2c 74 3e 51 4b 67 3e
       0.1182351 -0.24551663 0.23845099 0.22587325
000380 03 28 9a 3d 49 3f 6a 3e 62 77 6c 3e ca 3b 85 3e
       0.07527163 0.22875704 0.23092416 0.26022178
000390 84 da 35 be 38 67 42 be 9f a2 e9 b8 bd f5 8b be
       -0.17759138 -0.18984687 -0.00011140596 -0.2733592
0003a0 eb 70 17 3e 18 5a 1f 3e aa 79 52 be ae 9b bc bd
       0.14789169 0.15561712 -0.20554224 -0.09209381
0003b0 e5 b4 19 3e 9f e2 25 3d c5 f3 86 3e 91 e2 5d 3e
       0.15010412 0.040499326 0.26357856 0.2166846
0003c0 37 5a 17 be 82 6e 2e be 81 dd d7 bd 05 95 8c 3e
       -0.14780508 -0.17034343 -0.105402954 0.27457443
0003d0 e5 c1 1f be ca 94 59 3d 0e 01 4f bd b5 93 95 3d
       -0.15601309 0.053120412 -0.050538115 0.073035635
0003e0 2c e0 84 3d 28 5d e2 3d 92 a1 e3 3d af 9b 01 3e
       0.0648807 0.110529244 0.111148015 0.12657045
0003f0 4a 21 c3 bd ae 45 58 3d da e8 2e be 3a 91 17 bd
       -0.09527834 0.052800827 -0.17081013 -0.037003733

layers.0.attention.E.weight f4 [36, 38]
000000 b6 e2 09 3e 50 77 52 be 5a b8 16 be 3f 8b 60 be
       0.1346539 -0.20553327 -0.14718762 -0.21928118
000010 a8 74 7f be 7f 81 88 be f7 b6 84 3e e0 0a aa bd
       -0.24946845 -0.26661298 0.2592084 -0.083028555
000020 c9 06 4a be 92 67 13 be 0b ff 17 be 04 d9 5e 3e
       -0.19729151 -0.14394978 -0.14843385 0.21762472
000030 8d 4d 08 3d c2 6f 34 3d e2 7d 44 be a9 dc 78 be
       0.033277083 0.044051893 -0.19188645 -0.24302925
000040 11 34 90 be 55 b5 67 3e 23 96 34 be c8 12 27 be
       -0.28164724 0.22627766 -0.17635398 -0.16315758
000050 77 34 f5 bd 4b 61 84 be ff dd 54 3e 28 7d aa 3d
       -0.119728975 -0.2585548 0.2078781 0.08324653
000060 cc c7 1d be f1 1b 1e be 78 e8 83 bd 96 b3 46 3e
       -0.15408248 -0.15440346 -0.06440824 0.19404444
000070 a1 aa 69 be 0c 23 5a be c6 4d 85 3e db c1 0f 3d
       -0.22818996 -0.21302432 0.260359 0.035096984
000080 f6 8f 23 3c 34 8a 8c be 85 80 1c 3e 06 3b 25 be
       0.009983053 -0.2744919 0.15283401 -0.16135797
000090 22 e6 1b be f4 cc 04 be 99 69 3a 3e f5 6b 87 be
       -0.15224507 -0.12968808 0.18204345 -0.26449552
0000a0 f6 28 d0 3d 67 78 17 3e 8f 12 5b be 08 6b 80 3d
       0.10164063 0.14792024 -0.21393798 0.062704146
0000b0 84 c1 20 3e ae 62 14 3e 6a 8a e2 bd fd 40 d8 bd
       0.1569882 0.14490768 -0.11061557 -0.105592705
0000c0 9f d8 7d be 24 ea b6 3b 62 3f 8c be 7f b3 9c 3d
       -0.24789666 0.005582111 -0.27392107 0.07651424
0000d0 08 ca b9 bc c5 53 d6 bd 06 11 32 be fb 9a b9 3d
       -0.022679344 -0.104651965 -0.17389306 0.09062763
0000e0 42 e0 5a be af 26 63 3c 3d 87 38 3e 03 de 60 be
       -0.2137461 0.013864203 0.1802034 -0.21959691
0000f0 c8 7f f7 bd 21 cd 60 3e ca f2 ee 3d ab b6 80 be
       -0.12084919 0.2195325 0.11667402 -0.25139365
000100 6f 2c d8 bd a9 c9 ee bd cd c1 52 be 33 06 44 3e
       -0.1055535 -0.11659557 -0.20581742 0.1914299
000110 2f 14 83 3e 99 e0 f4 bc f0 c1 1c 3e 97 21 7e 3d
       0.25601336 -0.029892253 0.15308356 0.062043753
000120 71 c9 61 3a 2b 32 19 3e 7c 65 06 be fb 72 58 3e
       0.0008613086 0.14960544 -0.1312465 0.21137612
000130 03 53 57 be a3 d7 47 bc 2f bf 90 bd 45 ac 14 3e
       -0.2102776 -0.012197408 -0.070677154 0.1451884
000140 f7 10 d8 bd 73 27 62 be b7 66 8b be de 46 7d be
       -0.10550111 -0.22085361 -0.27226803 -0.24734065
000150 27 d4 61 be c4 14 b6 bd 55 4f 39 3e 94 0d 43 3e
       -0.22053586 -0.088906795 0.18096669 0.19048148
000160 13 9d 96 bb e0 27 02 3e 4b a9 18 3e 04 4c 04 3e
       -0.0045963614 0.12710524 0.1490833 0.12919623
000170 8f 24 c2 3d e8 36 45 bd bf 81 20 be aa ed 83 3e
       0.09479629 -0.048148066 -0.15674494 0.2576726
000180 24 66 f1 3d 05 bc 1f 3e 25 c2 1f 3e cc f5 94 bb
       0.1178706 0.15599068 0.15601404 -0.004545903
000190 ef ff 32 3e b7 6c 4a 3d 09 4f 8b bd b6 d1 69 be
       0.17480443 0.049420085 -0.06802184 -0.22833905
0001a0 5a d4 6c 3e b4 01 39 3e 86 33 ac bd e7 e6 7a be
       0.2312788 0.18067056 -0.08408265 -0.24502145
0001b0 f1 79 bb bd 52 c0 f2 3d f2 8f 42 be 7e b4 a5 bd
       -0.09154118 0.118530884 -0.19000223 -0.08091067
0001c0 f7 f1 93 3b 2d 49 17 be 11 d9 59 3e 7b 0a 6d 3e
       0.0045149284 -0.14774008 0.2127421 0.23148529
0001d0 1a c3 18 3e 2a e1 ce bc b5 54 4a bd 6f f1 8a be
       0.14918175 -0.025253851 -0.04939719 -0.27137324
0001e0 34 dd 64 be 62 b4 91 3e 30 8d 46 3e cb b5 89 3d
       -0.22350007 0.28457934 0.19389796 0.067241274
0001f0 ac 52 3b 3e 0c 09 01 3e 6d 01 13 3d 0a 59 67 3e
       0.18293256 0.12601107 0.03589003 0.2259256
000200 9c f9 52 be 14 0b 8e be d7 dd 55 bd d1 90 26 3e
       -0.20603031 -0.27742827 -0.052213516 0.1626618
000210 8a 3d d1 3d f3 d8 05 be cc fc 61 3e 6e 86 b7 3d
       0.10216816 -0.13071041 0.2206909 0.08961187
000220 a8 97 3b be 9a ac 21 bc 1a 40 1c 3e 47 c2 f8 3d
       -0.18319571 -0.009867812 0.15258828 0.121464305
000230 35 7f 5e be f7 1a 6e 3e 90 f2 b4 3c b6 26 65 be
       -0.21728213 0.23252474 0.022088319 -0.22378048
000240 29 3a 93 bd 02 b5 06 bd f4 88 6c be b3 11 8d 3e
       -0.071888275 -0.032887466 -0.23099118 0.27552566
000250 5e 3e 0c 3e c5 49 59 3e d2 b7 03 3e 00 bf 1d be
       0.13695666 0.21219547 0.1286309 -0.15404892
000260 1b 3a 6b be 4a 09 be bd c6 0e f1 3d 57 f8 4f 3e
       -0.22971384 -0.092791155 0.11770396 0.20309578
000270 77 98 64 bd d0 90 07 be 73 5b 8e bd 3c a9 d8 3d
       -0.055809464 -0.13238835 -0.06951036 0.10579154
000280 64 3f f2 bd 43 b6 9a 3d ba 36 01 be 56 e8 75 be
       -0.11828497 0.07554295 -0.12618533 -0.2401441
000290 10 f9 09 3d 9b cc 82 3e 43 d8 e0 3c b2 e5 d6 bc
       0.03368479 0.25546727 0.027446872 -0.026232574
0002a0 95 d0 8c 3e 04 b7 21 be d2 e3 3c 3e ee 9e 07 bd
       0.27502885 -0.15792471 0.18446282 -0.03311055
0002b0 72 62 e6 3c bc 0a 89 3e 22 cf 65 3e e5 27 4a be
       0.028123114 0.26766002 0.22442296 -0.19741781
0002c0 c3 ca 86 be 2b a9 05 3d a5 a0 2c 3e d0 98 27 bc
       -0.2632657 0.032632034 0.16858156 -0.010229304
0002d0 62 f9 1a 3e 4d cb 2c be c8 42 64 3e c9 a5 56 3e
       0.15134194 -0.16874428 0.222911 0.2096168
0002e0 09 dd 31 be 17 c0 56 be 4f 4e 10 3d 27 5d 8a bb
       -0.17369474 -0.20971714 0.03523093 -0.0042225304
0002f0 a0 18 12 3e 30 f6 3c 3e 67 9f 8a be 5a 6e 98 bc
       0.14267206 0.18453288 -0.2707474 -0.018607307
000300 22 46 21 be 07 89 6f 3d 38 91 22 3e 19 83 38 3e
       -0.1574941 0.05848029 0.15875709 0.1801876
000310 99 d4 86 be cf da 65 3e 29 bc 12 3e 46 ac 7e be
       -0.26334074 0.2244675 0.1432959 -0.24870405
000320 7d 97 3c 3a e2 a2 65 3d ba c5 15 be 4b 48 74 3e
       0.00071942044 0.05606354 -0.14626208 0.23855703
000330 bc 06 b3 3d fe 17 0a 3e bd fe 83 3e c5 93 8a 3d
       0.08741519 0.13485715 0.25780287 0.06766466
000340 58 f0 86 3c 8e 54 c8 bd 0f 86 19 be e9 aa cb bd
       0.016472027 -0.097817525 -0.14992546 -0.09944708
000350 b2 79 19 3e 14 2e 3e be 1d 01 8f 3e 50 48 8b be
       0.1498783 -0.18572265 0.27930537 -0.27203608
000360 07 9e 19 3e 81 93 42 3d b5 bb 89 bd 6e 63 09 3c
       0.15001689 0.047503952 -0.067252554 0.008385522
000370 62 00 94 bd 0a 4f 8e be ce 72 01 be ab 2a 3a 3e
       -0.072266355 -0.27794677 -0.12641451 0.18180339
000380 d1 70 1b be e5 44 3c 3e 6e a5 45 3e 01 37 3e be
       -0.15179755 0.18385656 0.19301388 -0.1857567
000390 78 02 57 be 35 30 39 3e 8b ee 87 3e 85 34 47 be
       -0.20997036 0.18084796 0.2654918 -0.19453628
0003a0 1d 5b b7 bd 90 1e 20 3d 6d 52 33 be af 94 a4 bd
       -0.08952925 0.039091647 -0.17511912 -0.08036172
0003b0 54 8c 7a 3e c8 52 5d be b3 00 44 3e 3e b7 88 3e
       0.24467593 -0.2161361 0.19140892 0.26702303
0003c0 8f 5b 39 be c7 2d 12 3e e3 78 77 3e ea 8d a0 3d
       -0.18101333 0.14275275 0.24167208 0.07839568
0003d0 cd cb 0e 3d b3 7a 8b bd 8c 37 48 3e c7 fb 33 3e
       0.03486233 -0.068105124 0.1955244 0.17576514
0003e0 88 fb 90 be 44 8a af 3c e7 ee 09 bd be 3d 83 3e
       -0.28316903 0.021428235 -0.0336751 0.25633043
0003f0 ff 10 32 3e da 91 83 3e 99 e6 e2 3d 61 6f 87 3e
       0.17389296 0.25697213 0.11079139 0.26452163
