interrupted_model.pth (torch, 584178 bytes, 170 tensors)

z_embedding.weight f4 [1000, 32]
00000000: 39f3 a3bf 224a 35c0 8dbc f03f 4c87 63bf
00000010: 0984 71bf 1dc0 603d 2c4a 3dbf 9344 30bf
00000020: 46bd cb3d 0cbd 55be 0f2e bcbf 03d1 9cbe
00000030: 96c0 993e 43db 0a3d 0188 7f3f c5b0 1d3e
00000040: 912d 0a40 d2d6 28bf a9e9 a13e fd2b 2d3f
00000050: 6c64 e8be 600e adbf feb1 08bf 2416 c9be
00000060: 2484 d6be 28dc b63f 35f3 8c3e b9fc c83f
00000070: 175c 613f f52e 76bf 27c2 30bf 1b52 173f
00000080: 8848 813e 12ce 3f3f d95c af3f 9dd9 d03e
00000090: f0ae 0dbf 21b9 a0be 3a25 9b3e 7328 d2bf
000000a0: 0f08 a23f b297 65bf 8f80 7bbe 7458 013f
000000b0: 011e aabe 541d 98bf 7746 a13d 8b6f 91be
000000c0: 39a5 35bf 04d8 52bf 1147 c9be 7977 983f
000000d0: d90e eabe 0735 74bd 2bc1 e73e 1e15 e23f
000000e0: 16d6 8a3f 8257 653f 455b f4be 03ba 4dbe
000000f0: 804d a1bf 558f f4be b358 733e f590 aabf
00000100: f1bb 303f 22e7 8cbe 559d 483f 8806 3fbe
00000110: 4f3a 0d40 4515 21bf 9b20 4c3f 6321 b13d
00000120: 2ade 613f 6822 7d3f f966 1fbf 0c2d 48be
00000130: 7da2 32bf eaf9 95bd 4027 cc3e 3053 223f
00000140: 21b7 1140 cee4 9b3e 9a3a bf3f 2855 dfbe
00000150: d90e d8bd 8718 79be b1c3 51be 1afc d7be
00000160: 0306 033f 2313 c43f b603 cdbf 12cb ba3e
00000170: f3cb 58bf 4de4 1b3f 058e a3be 8557 163f
00000180: e783 6e3e 801c 403f e736 96bf 58f1 7abf
00000190: afaa 52bf 1010 8c3f 3110 3f3f 0003 f6be
000001a0: ada4 003f f192 9cbd 2ef3 6fbd 9b22 9b3f
000001b0: e51a 46bf ec47 4bbf 7175 093d f3ab 9abc
000001c0: 248c 40bf be9d c43d 081c 3c3f 0afc 07bf
000001d0: 9a68 5a3f 7bdd 22bf b368 1d3e 8d48 3c3f
000001e0: d786 2dbf 4b3e b3bf 07d4 553e 6c0b 283f
000001f0: c352 f8be 875f ec3d ecfb 423f b04b 003f
00000200: 8b3d ab3f cf95 52be 4e54 ca3f d743 82bf
00000210: 808f c93d 1b2c 6d3e abaf 10bf 53b6 2e3f
00000220: 620c 3ebe f4d4 9e3f 0ac7 573e eca6 fd3d
00000230: a7dc 393f 766c 82be 6aa7 063f 7e20 623f
00000240: d998 92bf 2871 fabf 42ff 2dbf 81df f93f
00000250: f989 0ebf 34eb ad3e 600a 89bf 7dc3 65bf
00000260: f952 973f d70f fc3e 9005 40be 9da5 b3be
00000270: c852 10be 7671 42bf 0160 74bf 0396 26bf
00000280: f3a1 08bf 9603 8c3e a584 253f b071 623f
00000290: 5c7e b13f d9c9 20bf 8259 28bf 32fb 193f
000002a0: c974 cc3e a9d6 3abf 1da7 7a3e f3ae e5bf
000002b0: 2c90 a4be 71e1 1dbe ccb4 c7bc 33a5 4fbf
000002c0: f462 af3f 046e 073f 2c1c 82bf 7595 a83e
000002d0: 49aa aabe 8448 153f be14 a63f 579f 41bf
000002e0: 44ec d6be eb58 923f 67be 743e 040e 97be
000002f0: 6e8f ee3e 15ef b0bf a8a1 b7be cb54 59bf
00000300: ff0b 3d3f 6904 bf3c 133e f33f 47c4 a33f
00000310: b945 93bf c80f 98bf 4adb 7ebe d5c7 983e
00000320: 8877 873f f432 b5bf 5539 6b3e 1beb 123f
00000330: b5e0 0f3f e8a3 7e3f bd19 8a3f abb6 953f
00000340: 5e26 b7bf 1575 793f 3494 6bbd b71d 29bf
00000350: 9c9e 24bf eb79 9d3f c730 14bf 40a9 fa3e
00000360: 8250 3640 4ca2 d03e 6c71 11bf efe4 423f
00000370: 041f 3dbf e22e c03e 935a 7a3f bd4d 95be
00000380: c141 95bf be5b d2be cc78 763f f4a0 df3f
00000390: a3ed 313e d8f4 9a3f 9d78 d23e dd74 0940
000003a0: 12e7 2bbf bc74 58bf de7b 92be 80fd 253d
000003b0: a01f 26bf afa7 4a3f 49cd 943f 4b1e eb3b
000003c0: b6b7 2cbf 3fdd acbe 7c65 cb3f 72b0 e6bd
000003d0: e909 35be 0142 2abe d9c9 17bf dc8c 5dbe
000003e0: 55cf 28bf a5b3 ffbe 412d 1bbf 41da 03bf
000003f0: 8325 aa3f 2612 e1be 021d 0abf f6e9 e93d
-1.2808601 -2.8326497 1.8807541 -0.8887832 -0.94342095 0.054870714 -0.739413 -0.68854636
0.099482104 -0.20872897 -1.4701556 -0.30628213 0.30029744 0.03390051 0.998169 0.15399463
2.1590312 -0.6595279 0.3162358 0.67645246 -0.45389116 -1.3520012 -0.53396595 -0.39274704
-0.4189769 1.4285936 0.27529302 1.5702125 0.8803114 -0.961654 -0.6904625 0.5910966
0.2525065 0.74923813 1.370021 0.40791026 -0.5534506 -0.31391242 0.3030184 -1.6418594
1.2658709 -0.89684594 -0.2456076 0.50525594 -0.33226016 -1.188395 0.07874768 -0.28405413
-0.70955235 -0.82360864 -0.39312032 1.191146 -0.45714453 -0.059620883 0.45264563 1.7662694
1.0846584 0.8958665 -0.47725883 -0.20090489 -1.2601776 -0.47765604 0.23764305 -1.3325487
0.69036776 -0.2752009 0.7836507 -0.18654835 2.2066839 -0.6292308 0.7973725 0.08648946
0.8822962 0.98880625 -0.622665 -0.19548434 -0.6977919 -0.07323058 0.39873695 0.63408184
2.2768023 0.30448002 1.4939759 -0.43619657 -0.10549707 -0.24325763 -0.20484807 -0.42184526
0.5118105 1.531834 -1.6016757 0.36483055 -0.846862 0.60895234 -0.3194429 0.58727294
0.23292504 0.7504349 -1.1735505 -0.9802451 -0.8229169 1.0942402 0.7463408 -0.48049164
0.50251275 -0.07645214 -0.058581524 1.2119936 -0.7738479 -0.7940662 0.033559266 -0.01888082
-0.7521384 0.096003994 0.7348027 -0.53118956 0.8531586 -0.636192 0.15371971 0.73548204
-0.67783874 -1.4003385 0.20881663 0.6564243 -0.48500642 0.11541658 0.7616565 0.5011549
1.3378156 -0.2056496 1.5806978 -1.0176953 0.098418236 0.23161356 -0.5651805 0.68246955
-0.18559411 1.2408738 0.21072021 0.123853534 0.72602314 -0.25473374 0.52599204 0.8833083
-1.1452895 -1.9565783 -0.6796762 1.9521333 -0.5567928 0.33968508 -1.0706291 -0.89751416
1.1822196 0.49230835 -0.18752122 -0.3508729 -0.14094079 -0.7595438 -0.9545899 -0.6507265
-0.53372115 0.27346486 0.64655524 0.88454723 1.3866687 -0.62807995 -0.6576158 0.6014892
0.3993285 -0.72983795 0.24477811 -1.7944015 -0.32141244 -0.1541803 -0.024378203 -0.8111145
1.3702073 0.52902246 -1.0164847 0.32926527 -0.33333042 0.58313775 1.297508 -0.7563376
-0.4197713 1.1433386 0.23900758 -0.2950288 0.46593803 -1.3822962 -0.3586552 -0.8489501
0.7384643 0.023317533 1.9003319 1.2794274 -1.1505653 -1.1879816 -0.2488834 0.2983996
1.0583353 -1.4156175 0.22971089 0.5738999 0.5620225 0.9946885 1.0789105 1.1696371
-1.4308584 0.9744428 -0.057514384 -0.66060966 -0.6430452 1.2302831 -0.5788693 0.48957253
2.8486638 0.40748823 -0.56813693 0.76130575 -0.7387545 0.3753577 0.97794455 -0.29160872
-1.1660691 -0.4108562 0.9627807 1.7470994 0.17375807 1.210597 0.41107646 2.1477578
-0.6714946 -0.8455312 -0.28610128 0.04052496 -0.64892006 0.79162115 1.1625148 0.007175242
-0.6746782 -0.33762547 1.5890346 -0.11264123 -0.17679562 -0.16626741 -0.5929237 -0.21635765
-0.65941364 -0.49941745 -0.60615927 -0.51504904 1.3292698 -0.4395916 -0.5395051 0.11421578

x_embedding.weight f4 [371, 32]
00000000: 7d39 d6be 9e62 873f aa25 bdbe 4db0 a23f
00000010: e853 a93e 768d e3be f05c 10bf e316 22c0
00000020: d9d8 9d3f c29e 8bbf 13aa 0ebf 026d 0dbf
00000030: b1f4 053f ee89 88bf bfdd 40bf 2d20 dbbf
00000040: 6b0b 1c3e 7476 95bf e9ac fcbd 59a6 4ebf
00000050: bb10 c73e 786e 523f cddd 323e 0b58 563e
00000060: af9f 1d40 8cae 2a3e f6db 43bf 85c2 03bf
00000070: de20 debe 5d0a 4cbf 9cca a9bc 3f2e 7dbf
00000080: 35a5 0cbe fb3c 8dbf e73c 153f d551 d83f
00000090: 00d7 1bbf 8fe5 3a3f cb43 a53f 5ba0 a43d
000000a0: f38d dcbe efa2 8bbf 4fcf b73d a420 633f
000000b0: 3ff5 1d3f 8425 893d e005 41bf ecc5 c4bf
000000c0: 4797 89be 92dd 15c0 4421 22c0 c6cc d93f
000000d0: 95f2 46be 990b 043f e73b 5cbf e87b a23f
000000e0: cd85 17be 8e6d ca3f 581c a1bf 5ea9 26bf
000000f0: 2334 bcbe d24e b9bd 8713 05be 4b45 3d3d
00000100: 3dd7 27bf 4c79 25bf 2118 593f fe08 993f
00000110: 3029 99bf 7af0 af3f 462e bcbe f5ac 19bd
00000120: fbd6 05bf c2b1 253f 934a c53e e4d0 f03d
00000130: a719 803e 8204 dfbf 8810 b0bf 4104 15bf
00000140: 7aab 003f 94d3 423f b882 cfbe fc4d 343f
00000150: f821 05bf bba6 bbb2 310b bf3d 7280 033f
00000160: 094e b5bf decb 4bbf 1086 5e3f 998c 86bf
00000170: 462d a0bf 3661 d83e bc8d 7738 398d 863e
00000180: d359 a63f 0209 77bf 73f5 44bc 8f57 523f
00000190: ea6f 8d3f c634 ec3e c8af fc3e 7df7 30bf
000001a0: c678 7c3f ac3d 3a3f 6ee4 1dbf 4059 2d3f
000001b0: 9c34 903e 97ce edbe 16b7 143f fbf6 003f
000001c0: 475f 05bd d504 02bf 424e 8fbf 7aa0 e5be
000001d0: f365 8a3c edda 00c0 e325 4ac0 33b1 29bf
000001e0: df2c 98be 56c6 7f3f 4d09 f63f a965 7ebf
000001f0: 9c2f 04bf ec98 b3bf 7688 d23f ab89 433f
00000200: 4d2e abba 8510 973e 16ca a63f 0e22 19bf
00000210: ddea 2ebf 1811 a33f 0881 f1bd 07bb 86bf
00000220: 68a1 493d 4a2e 2b3f 9103 653e b978 85be
00000230: c881 0c3e c0ee 03bf ac75 ca3f 92be 383f
00000240: 5ff6 efbd b749 1240 0fca 1b40 c1df 033f
00000250: 4834 a83f f73c 173e 71c5 a83e 59a8 103e
00000260: f52a d43f e595 723f f553 0dbf 2d89 f2be
00000270: a538 433f f8ee 96bf 9684 d53e 4949 c23f
00000280: 80dd 67be 36d9 41ba 1864 80bf 9aeb 8b3f
00000290: ddf1 d23e a085 63be b16a 9fbf b735 0240
000002a0: 1877 0ec0 bf99 87bf c40f 92bf bf5f 353d
000002b0: 7932 2d3f fd0d 7ebf b580 8bbe 1aa6 f9b7
000002c0: bf4c bc3d 676c d73e 5bf9 50be c009 94be
000002d0: 7218 ddbf 69dd 343f adbb 223f c523 0f3e
000002e0: 97ae d1bf f7d8 88bc c4f6 38bf 88fa 043c
000002f0: 2bae 8e3f c493 d13f b007 3540 bc09 8d3f
00000300: 59e2 823f 9189 e1bf fd64 3fbf 3b10 7ebf
00000310: 0406 c0bd 36a5 8cbf d164 4ebe 7131 0840
00000320: aa2c fc3f 6bdb abbd f82b 6bbf 7f84 c4be
00000330: 65ae d33d d1c5 5cbf 900f f7bf d7ab b63f
00000340: eb7f 5dbf d7d2 91bf aae2 cebf d7f8 e33e
00000350: 3aa1 31bd 3c9d 0ebf 07b4 eebe c08e 7e3f
00000360: 37b6 853f 7b84 fb3e 7b7e 17bf 6705 c43f
00000370: 6f98 69bd 8e20 8f3d 38a3 71bf f2f6 8f3f
00000380: 28e8 943c b838 643e d77b ebbc f673 ab3f
00000390: 7e63 8bbf 0dd6 5d3f 543d 92bf ac50 f1be
000003a0: 8a4d 4e3c 7f51 9ebf 6f9a 1dbf 4919 1f3f
000003b0: d569 613f 3255 073d 374d 1c3f f253 983f
000003c0: f279 fd3f 6abd 4d3d 5607 a63f 2a78 96bf
000003d0: 39fd a2be 8299 1fbd e98e 57be 1a28 6ebf
000003e0: 1ed9 a4be 8b7c 483e 9491 b93f 8491 863f
000003f0: a9da 213e bafb 0b40 6bea 21bd 344e 91bf
-0.41840735 1.057697 -0.36942798 1.2710053 0.33071828 -0.44443864 -0.5639181 -2.532647
1.2331802 -1.0907824 -0.5572826 -0.5524446 0.52326494 -1.0667093 -0.7533836 -1.7119194
0.1523873 -1.1676774 -0.123376675 -0.80722576 0.38879952 0.8219981 0.17467423 0.20932023
2.4628713 0.16668147 -0.7650751 -0.5146869 -0.4338445 -0.79703313 -0.020726494 -0.9889869
-0.13734896 -1.1034235 0.58296055 1.6899973 -0.6087494 0.7300653 1.2911314 0.08038398
-0.4307705 -1.0909098 0.08975088 0.8872168 0.6170234 0.06696609 -0.7539959 -1.5372901
-0.26873228 -2.3416486 -2.5332804 1.7015617 -0.19428475 0.51580197 -0.86028904 1.2694063
-0.14797135 1.5814683 -1.2586775 -0.65102184 -0.36758527 -0.09048237 -0.1299573 0.04620866
-0.655628 -0.6463821 0.8480244 1.1955869 -1.1965694 1.3745263 -0.36754054 -0.03751846
-0.5228116 0.6472436 0.38533458 0.11758593 0.2501957 -1.7423251 -1.3755045 -0.58209616
0.5026165 0.7610409 -0.40529418 0.70431495 -0.5200496 -2.1845485e-08 0.093283065 0.51367867
-1.416444 -0.7960795 0.86923313 -1.0511657 -1.2513816 0.42261666 5.902139e-05 0.2627962
1.2996162 -0.9649812 -0.01202141 0.82164854 1.1049778 0.46134013 0.4935286 -0.6912764
0.98621786 0.72750354 -0.6167668 0.6771431 0.28165138 -0.46446678 0.58091867 0.5037686
-0.032561567 -0.50788623 -1.1195757 -0.44848996 0.016894316 -2.0133622 -3.1585624 -0.6628601
-0.29721734 0.9991201 1.9221588 -0.9937387 -0.51635146 -1.4031043 1.6447895 0.7638194
-0.0013060063 0.2950479 1.3030422 -0.5981759 -0.6832712 1.2739592 -0.11792189 -1.0525826
0.049226195 0.66867507 0.22364642 -0.26068667 0.13721383 -0.5153618 1.5817161 0.7216579
-0.117169134 2.2857492 2.4342077 0.51513296 1.3140955 0.1476935 0.32963136 0.1412672
1.657561 0.9475997 -0.55206233 -0.47370282 0.7625831 -1.1791677 0.41702718 1.5178615
-0.2264309 -0.00073947327 -1.0030546 1.0931275 0.41200152 -0.22218943 -1.2454435 2.0345285
-2.226019 -1.0593795 -1.1411061 0.044280764 0.6765514 -0.99240094 -0.27246633 -2.976046e-05
0.09194326 0.42074892 -0.20407622 -0.2891369 -1.7273085 0.70650345 0.6356762 0.13978489
-1.6381406 -0.01670502 -0.72251534 0.008116372 1.1146902 1.637322 2.8285942 1.1018596
1.0225326 -1.7620107 -0.7476347 -0.99243516 -0.093761474 -1.0987918 -0.20155646 2.1280177
1.970113 -0.0839146 -0.91863966 -0.38382336 0.103359975 -0.86239344 -1.9301624 1.4271191
-0.8652331 -1.1392468 -1.6162922 0.44525787 -0.04336665 -0.5570867 -0.46621725 0.9943657
1.0446233 0.49124512 -0.5917737 1.5314149 -0.057030138 0.06988631 -0.9438968 1.1247237
0.018177107 0.22287261 -0.028745575 1.3394763 -1.0889738 0.8665474 -1.1424966 -0.4713186
0.012591729 -1.2368621 -0.6156377 0.6214796 0.8805211 0.033040233 0.6105532 1.1900618
1.980284 0.050229467 1.2970989 -1.1755421 -0.3183382 -0.038964756 -0.2105061 -0.9302994
-0.32196897 0.1957876 1.4497552 1.0513158 0.15806068 2.1872392 -0.0395302 -1.1351991

e_embedding.weight f4 [2, 32]
00000000: c79a 8c3f f453 00c0 f9a3 ee3f 8ee4 023f
00000010: 08ec 923e 0654 cdbf c200 42be b32d 49bf
00000020: f09d da3e 4fcc 3a3f 6778 b9bf 4501 9e3f
00000030: 81b2 563f a1bd 063f 8b8e 8bbe 838d b63d
00000040: 8c30 a3bf 4e09 b43e 051b 463f 9e63 cc3f
00000050: 8304 a7be 152a 0dc0 4d26 c3bf 2575 28c0
00000060: dd74 6a3f 864e 68bf c0bd 993f 9430 133d
00000070: 6f29 83bf 3b41 16bf ae02 e4be 4407 5bbf
00000080: 739e 33be 39ed 9f3f e188 ab3f ffab 093f
00000090: ef0b 833f 7c8d 8ebd 39ba 9bbf 13eb 883f
000000a0: a69d 69bf 6395 df3e a3ba 81be f0b0 223f
000000b0: 6b1a 2dbe 8f70 c63f beed 5e3f 8384 8cbf
000000c0: 67e2 fe3c ef78 2a3d 7a83 0ebf 209b 9abf
000000d0: a506 e53e adae c1be 2aed 74bf 0d0f 863e
000000e0: 58b2 c6bf 4cff 3c3d 5d05 d2bf 116e e53f
000000f0: ec60 5dbf f146 1e3f c5a6 1fbf 5389 003f
1.0984734 -2.005124 1.864379 0.51129997 0.28695703 -1.6041267 -0.18945602 -0.78585356
0.42698622 0.72968 -1.4489869 1.2344137 0.83866125 0.526331 -0.2725719 0.0891371
-1.274919 0.3516335 0.7738498 1.5967901 -0.3262063 -2.2056935 -1.5246063 -2.63215
0.9158457 -0.9074482 1.2011032 0.035935 -1.024702 -0.58693284 -0.44533294 -0.8555796
-0.17540912 1.249427 1.3401147 0.5377807 1.0238017 -0.0696058 -1.2166206 1.0696739
-0.9125618 0.4366866 -0.25337705 0.63551235 -0.16904609 1.55031 0.87081516 -1.0977939
0.031113816 0.041619238 -0.5566937 -1.207859 0.44731632 -0.3782858 -0.95674384 0.26183358
-1.5523176 0.046141908 -1.6407887 1.7924215 -0.86476016 0.61827 -0.62363845 0.5020954

h_embedding.weight f4 [32, 128]
00000000: 6ffa 63be 6409 023e c525 cd3e e929 d6bd
00000010: 0851 0dbf 32e9 173e f945 663e 68b0 d4be
00000020: 94c3 06bf 8946 f53e 0541 10bf a72a 14bf
00000030: 4931 e73e 0148 1f3e 6c18 94be 708f 51be
00000040: 3caf 0e3f 403b d43e 2d0b 97be 1c3c 75be
00000050: 701a dbbd d72d 7a3e 6884 b93e 0e87 e8bd
00000060: 330b f2be a05b 823e 1561 bd3e 1eb5 07bf
00000070: fdc8 943e ac82 e7be c1b4 903e 2e06 453e
00000080: 7bc2 193e f279 ae3d 5dea 9fbc a5bb aa3c
00000090: c4e3 86be a676 8fbe 1a09 803d 0ac3 6a3d
000000a0: f946 163e eb0b 953e 0cb6 fcbe 1088 813e
000000b0: d6e3 123f 4e6e 04bf 961e 09be f9ec 10be
000000c0: 2bd1 073f 87dd bfbd e162 113e 62ee 133f
000000d0: f60a 2b3e 6529 bebd 4ef7 82be 5814 703e
000000e0: 8222 67bd e149 cbbc 88ae 86be 9a74 033f
000000f0: 5b05 fc3e 347e bc3d 06cc f4bd 611e 13bd
00000100: 6c3d bd3d 227e c53d 311d b63e 2513 193e
00000110: fe7c dfbe 3b31 e3bd d6e0 cabc 04ff d0bd
00000120: 4b3a c4be f525 d8be c273 5d3e fe2d 1cbd
00000130: a9ef c5bd 2215 e13e a0b9 913e 8fed 1ebe
00000140: 334c f0bc ffc5 f33e 18e9 a53d ce36 a23e
00000150: 8c5f 8fbd 1997 8f3e 9d5a 1b3e ad27 45bd
00000160: 4fd6 503e df38 083d 7c6a e1bd 1955 9b3e
00000170: fe21 33be f985 8f3e 4a8e b5bc ed50 73be
00000180: e036 e6bd c389 d03d 5280 adbc 07cb d4be
00000190: c925 043b c625 46be 4d09 f93d cc60 2d37
000001a0: c76a b73d 336f 0d3e ad73 cc3d 1c65 523e
000001b0: de69 02bf e127 d0be a039 b2be 0349 6a3e
000001c0: f5fd 063f 0818 fcbc e107 66be e096 ea3e
000001d0: 20fa 143e 5f14 e53e ad6e 67be 51aa dc3e
000001e0: 1024 183e ea39 4a3d a15c 573e dc8f eebd
000001f0: 39bc c03e 1866 e7be 8768 e7be 17b7 053f
00000200: c1df 10bf 9800 7a3e f5a7 873b 37e0 82be
00000210: 24ec 833e adee e1be 5a06 53be fbad 6dbd
00000220: c6d1 073f f322 903d 2308 0dbd 582f d13e
00000230: 1946 a93e c883 b43e 97cf a0be f288 c0be
00000240: 10fa 0d3f f64d 12bd 5e94 a2be 7955 04bf
00000250: 0dce 753e 58ce fc3d 94b2 8dbe 1c86 f63e
00000260: 8af0 cabe c44f c93e 80cb 7d3e 783d 96be
00000270: 95d7 b0be 3587 aa3d c7c9 3a3e d861 6f3e
00000280: 7c40 dc3d 8b73 e63d f12f 03bf e8c6 c93e
00000290: abbb e13e 8cfb 9abe 6e89 3bbe 0eee 14be
000002a0: 691c 03bf 8915 453e d7cc bebe 5767 0d3f
000002b0: 5caf 97be 22e4 013f aac1 ebbe 821e 913e
000002c0: 4ed3 083f c43a dfbe cb9a f7be c176 dabe
000002d0: 6c6f c6bd 3e1f 9cbe c1f6 ccbe 4dff 91bd
000002e0: 125a fa3e 520c ac3e c453 d8bc 7d6d bbbd
000002f0: 3cdd e13e 7482 07bf 1e76 14bf 8eed 9ebe
00000300: 8c63 7a3e ebdb 24be aa4b f83c 8bab bfbe
00000310: 7495 033f 8800 bc3e 191c bcbc fad6 fe3e
00000320: 3b5d 6e3e 7b44 a53d 8c10 0b3d eeca 21be
00000330: b35d aebe 8dd9 d63e 5b4f c43e 4b65 e4b9
00000340: 8359 c23c 0ea8 e03e 8932 033f be57 953e
00000350: 4296 303e 3107 fbbd 72a1 97be 4738 24bd
00000360: ea4f 923d de50 ba3e 4871 053e b962 02bf
00000370: 9100 cd3e eadd f03e d87a 0a3d 9994 bbbd
00000380: dbc7 cfbe 8108 f13e 7493 da3e 08fd adbe
00000390: 013b 60be 6e27 e93e 9957 a6be 9128 cebd
000003a0: eb55 3ebe 7519 af3d 6b5f 593c d7ce b1be
000003b0: 119a b8be 95ce f6be 238a 48ba de0c 043f
000003c0: b290 81be 6c40 033e bf12 b5bd 97cd 983e
000003d0: d691 cf3b 70fa 8e3e 1a8a b93d 74f4 edbb
000003e0: 5056 97bd 4fbd d03d 6429 a3be 4c44 38bd
000003f0: 1a4d 80be f976 7f3c 914a abbe 0f28 573e
-0.22263502 0.12698895 0.40067878 -0.104572125 -0.5520177 0.1483505 0.2248763 -0.41540837
-0.5264218 0.47905377 -0.5634921 -0.5787758 0.4515479 0.15554811 -0.28924882 -0.20464873
0.55736136 0.41451454 -0.29500714 -0.23948711 -0.10698402 0.24431549 0.3623383 -0.11353885
-0.4727417 0.2546053 0.3698813 -0.5301074 0.29059592 -0.45216882 0.28262904 0.19240639
0.15015595 0.08519353 -0.019520933 0.020841429 -0.26345646 -0.2802021 0.06251736 0.05731491
0.14675511 0.29110655 -0.4935764 0.2529912 0.573789 -0.5173081 -0.13390574 -0.14152898
0.5305354 -0.09368425 0.14197876 0.5778562 0.167034 -0.09285239 -0.25579304 0.2344526
-0.056429394 -0.024815502 -0.26305032 0.51349795 0.49222836 0.09203759 -0.11952977 -0.035917643
0.09240231 0.096431985 0.35569146 0.1494871 -0.4365005 -0.11093374 -0.024765413 -0.1020489
-0.38325724 -0.4221646 0.2162619 -0.0381298 -0.09664852 0.43961436 0.28461933 -0.15520309
-0.02933321 0.47611997 0.081011 0.31682438 -0.07000646 0.28044966 0.15171285 -0.04813354
0.20394252 0.03325736 -0.110066384 0.30338362 -0.17493436 0.280319 -0.022162575 -0.2376134
-0.11240935 0.10182526 -0.021179352 -0.41561148 0.0020164123 -0.19350347 0.12159977 1.0334141e-05
0.08955913 0.1381195 0.09983001 0.20546383 -0.5094279 -0.40655425 -0.3480959 0.22879414
0.5273126 -0.030773178 -0.22463943 0.45818233 0.1454854 0.44742104 -0.22600813 0.4309869
0.14857507 0.049371637 0.21031429 -0.11648533 0.37643602 -0.4519508 -0.45196936 0.522325
-0.5659142 0.24414289 0.004139895 -0.25561687 0.25766098 -0.44127408 -0.20607892 -0.05802725
0.53054464 0.07037916 -0.034431588 0.40856433 0.33061293 0.3525679 -0.31408378 -0.3760448
0.5545969 -0.03571888 -0.3175382 -0.5169292 0.24004383 0.123440444 -0.27675307 0.48149192
-0.39636642 0.3931867 0.2478466 -0.29343772 -0.34539476 0.0832657 0.18241034 0.23377168
0.10754487 0.11252507 -0.5124503 0.39409566 0.44088492 -0.3027004 -0.18314144 -0.14543936
-0.51215225 0.19246496 -0.37265655 0.5523581 -0.29625976 0.5073873 -0.4604619 0.28343588
0.53447425 -0.43599522 -0.48360285 -0.42668727 -0.09689221 -0.30492586 -0.40032008 -0.07128773
0.48896843 0.3360315 -0.02640713 -0.091517426 0.441141 -0.5293343 -0.5799273 -0.31040615
0.24452037 -0.16099517 0.030309517 -0.37435564 0.5139992 0.36719155 -0.022962617 0.4977339
0.23277752 0.08069702 0.033951327 -0.15800068 -0.34055862 0.41962853 0.38341793 -0.00043563018
0.023724323 0.43878216 0.51248986 0.29168504 0.17244819 -0.12257231 -0.2961536 -0.040092733
0.07144149 0.36389822 0.13031495 -0.5093189 0.40039495 0.47044307 0.03380856 -0.09159202
-0.40582165 0.470768 0.42690623 -0.3398211 -0.21897508 0.45537895 -0.32488707 -0.10066331
-0.18587463 0.085497774 0.013267378 -0.3472812 -0.36055043 -0.48204485 -0.00076499785 0.51582134
-0.25305706 0.12817544 -0.08841466 0.29844353 0.0063345237 0.27925444 0.09059544 -0.007261807
-0.0738951 0.10192358 -0.31867516 -0.044987008 -0.25058824 0.01559233 -0.33455327 0.21011375

h_embedding.bias f4 [32]
00000000: 5cf2 21b9 73e0 8439 ed33 253a 1465 e5b8
00000010: d36d 89b9 ebc2 4f39 b8c2 9c38 a1ad b8b9
00000020: fc79 8139 36df 1db8 e582 553a 5a39 10b9
00000030: 4540 49ba cc27 c6b9 5e1b c836 71a4 b7b8
00000040: 112b 5aba 84ac bb39 ac35 beb9 3d6e 6e39
00000050: 72df dbb9 d578 163a e86e 7a39 ad27 04ba
00000060: 1fbd 2c39 cd3c a539 0f46 4a3a 7dcd 0c3a
00000070: 2e01 86b9 0e60 1cba a8b5 46ba 0c1d 0f3a
-0.00015444442 0.0002534423 0.0006301988 -0.00010938398 -0.00026212502 0.00019813671 7.474929e-05 -0.00035224578
0.00024695683 -3.76396e-05 0.000814481 -0.00013754275 -0.00076771184 -0.00037795154 5.9636504e-06 -8.7567496e-05
-0.00083224574 0.00035795954 -0.00036279613 0.00022738516 -0.00041937415 0.0005740051 0.00023883174 -0.00050413125
0.00016473651 0.00031516553 0.0007716128 0.00053711963 -0.0002555935 -0.0005965241 -0.00075801695 0.00054593454

initial_layer_norm.weight f4 [32]
00000000: 2605 803f bef8 7f3f 4810 803f 41c6 7f3f
00000010: f6f6 7f3f 9fb2 7f3f 04e8 7f3f e506 803f
00000020: 7cfb 7f3f 22f4 7f3f 9ffb 7f3f 5dee 7f3f
00000030: 42e2 7f3f a5e1 7f3f efdf 7f3f 1dfa 7f3f
00000040: a01f 803f e504 803f c108 803f 59e2 7f3f
00000050: b702 803f d517 803f 44e1 7f3f 14b4 7f3f
00000060: acec 7f3f 5df3 7f3f d605 803f 18c3 7f3f
00000070: 65d2 7f3f e90a 803f 25a4 7f3f dfc6 7f3f
1.0001571 0.99988925 1.0004969 0.99911886 0.9998621 0.9988193 0.999634 1.0002104
0.9999311 0.9998189 0.9999332 0.9997309 0.9995462 0.9995368 0.9995107 0.9999102
1.0009651 1.0001494 1.0002671 0.99954754 1.0000829 1.0007273 0.99953103 0.9988415
0.9997051 0.9998072 1.0001781 0.99907064 0.9993041 1.000333 0.9985984 0.9991283

initial_layer_norm.bias f4 [32]
00000000: 1577 0ab9 709b 163a 9b13 253a 89cb 18b9
00000010: c8fd 3fb9 d447 373a 7aae 0039 2172 8836
00000020: 81cd a3b8 530b 37b9 aa1a 2b3a 4f1e d6b9
00000030: 60ba 87b8 b819 e9b9 7d3c d039 a92a b639
00000040: 3a74 30ba 270f 403a 52d5 05ba 5861 bd39
00000050: c984 39b8 1158 f8b9 ddd1 8739 5da6 d7b9
00000060: b2ff 0e3a f5f2 8139 f045 8439 9dbe 103a
00000070: 32c0 4437 b1ea a636 328d b3b6 9f4f 543a
-0.00013205067 0.0005745208 0.0006297172 -0.00014571672 -0.0001830972 0.0006991599 0.00012272029 4.066402e-06
-7.810724e-05 -0.00017456459 0.00065271056 -0.00040839842 -6.472017e-05 -0.00044460385 0.0003971792 0.0003474553
-0.00067311863 0.00073264766 -0.00051053346 0.00036121416 -4.4231103e-05 -0.0004736786 0.00025905567 -0.00041131946
0.00054549717 0.00024785814 0.0002522911 0.00055215677 1.1727259e-05 4.974507e-06 -5.351053e-06 0.00080990227

layers.0.attention.Q.weight f4 [32, 32]
00000000: 7bc4 e33c b28a 55bf 7966 c9bc 4d9d 8fbd
00000010: 6814 cf3d f649 433f ad76 5fbe d9d8 37bf
00000020: ac09 28be b469 4c3f fb91 f9be 4d92 363f
00000030: 88e4 60bf 97b8 ca3e 29e1 ebbe 20b4 ffbe
00000040: 1e18 403f daa9 1fbf b844 503f f91e 07bf
00000050: 735b 413f 9e75 163f b381 093f c2e7 4ebf
00000060: 8380 a4be 227d 493e 4145 b9be ed79 09bf
00000070: 76a6 23bf 7529 563f cd77 2abe 8967 41be
00000080: 9533 47be 127a 1e3f 1bad 30bf d0b2 3dbf
00000090: f58f 8dbe 234e 6db9 6bff 18bf 799c debe
000000a0: 8540 83be 7cd9 58bf a697 a6be d261 3c3f
000000b0: 94fe f9be ae0e 473f 618e 7bbc cc20 3a3e
000000c0: 34af 04bf 19ff d73e a25b 1f3e 22ec 653f
000000d0: c94e 173f b141 673f 11e6 70be db16 a53e
000000e0: 6e68 473e f6fb 203f fa9c 3ebf 62d4 453f
000000f0: f827 c13e e5b8 48bf 9763 d7be 2a1e 2e3e
00000100: 24fc 723d 68b2 183e 18d7 4fbf c581 563e
00000110: 94fe 233f 96d3 0abf e50c 633f a24e 893e
00000120: f33a 8f3e 0567 5c3f c6a8 5d3f cdee 41bf
00000130: c43f c7be 62d9 b63e acec c5be adce cfba
00000140: d43f 4abf 619d 2bbe c203 5dbf ba56 2e3f
00000150: 86ef ee3e f937 29bf 8adc 1d3e a65e 4fbe
00000160: bfba 22bf 81ff 193e c288 e53d 06e8 a23d
00000170: 9106 f23e fd8d cebe 6932 f3be 5a14 383f
00000180: 44b8 3ebf 8039 38bf cfd2 84be 40d5 df3e
00000190: 383c c23e f6ed 87be 3090 a3bd d8e5 493e
000001a0: f263 ef3e 9253 7dbd cf15 873e 49ae 6dbd
000001b0: 7d50 313f 8e72 553f 11e9 1dbf fa32 42bf
000001c0: 9406 5cbe e040 403f a836 f13d d21f f33e
000001d0: 49ab 9a3e bbd7 0ebe 2dd9 03bf 15fc f2be
000001e0: 153e fdbb e013 f83e 56bb a3bd 8924 853e
000001f0: efef 1d3f 6ba3 ab3e 9871 623c a94c 0cbf
00000200: 67b3 08bf 741e 61be ea5c 2e3f a81c 22bf
00000210: 738a 493f 8618 3a3f b5f6 243f 52c0 8bbe
00000220: 3162 043d b929 2d3f 41b6 473f 41d2 06bf
00000230: 484e aebe 78c9 18be 7fc9 993d ddd8 323f
00000240: 7a47 a5be ea05 65bf 0584 09be e2ac 84bc
00000250: b512 c4be aae9 d83e 9bb4 ddbd 0e6b 8ebe
00000260: 4885 67be 21c4 0e3f c3d7 00bd 027a 543f
00000270: 231f a3bd be7b 853e eb8a 24bf 0a5c 483f
00000280: 92a3 04bf 5d1b eaba bb8b 3a3e 6825 043f
00000290: 2534 573f e00c 37bf 6a7e 503f 202a 07bf
000002a0: 661b 5d3f cbc5 b03d 6f60 0c3f a2e4 523f
000002b0: 0533 093f 8e3d 053f 1599 17be 1b10 23bf
000002c0: 77aa 243f 55e2 5bbf 4262 b33e 136a 703e
000002d0: a4a1 3c3f 22b9 eebe 5bf5 db3b f5de 4bbd
000002e0: 084a 4cbf 7687 9a3e d59d ecbe c7e2 603f
000002f0: c7d3 5b3f 2a03 b3be c632 ad3d 4cf9 0fbf
00000300: d5ca 633f 439d eebe e1c8 5fbe ddcd 273f
00000310: 4c45 68bf 33f7 51bf f515 2e3f 9e47 933c
00000320: 6a14 29bd 25b1 743d b6b9 02be 559c bdbd
00000330: 9946 0d3e 12b0 333e f794 42bd 0b57 ecbe
00000340: 6206 983e edfc 5d3e 5766 01bf 922b 063f
00000350: 7f7d 6d3d 0b41 01be e655 8dbe dbc4 09bf
00000360: 66b8 fcbe e942 37bf 57ed 04bf 673b 453f
00000370: fede 3bbf 5bb3 b23e 0d41 21bd 9183 0f3f
00000380: 5309 cd3e 11fb 903e 2299 833d 57bf 453f
00000390: e8f0 0ebf 898d 833e 12f2 08be d710 343e
000003a0: d237 d53e fe43 3ebf 50aa bdbd 5b31 30bf
000003b0: 0c0d 623f ff9c 1bbf 0385 44bf 247c 5bbf
000003c0: bcdd 363f 0d0b 4abf 363a 1bbf dd35 24bf
000003d0: 0eb4 063d dda4 cabd 1fc0 f13e 50b2 01bf
000003e0: 46b6 55bf 188e 21bf 6a34 083f 4e91 04bf
000003f0: 143f 0dbe f885 49bf de41 373e 3b9c 47bf
0.02780365 -0.8341476 -0.024584996 -0.070124246 0.10111314 0.7628473 -0.21822615 -0.7181526
-0.1640994 0.7984879 -0.48744187 0.7131699 -0.8784871 0.39593956 -0.4607022 -0.49942112
0.750368 -0.6236855 0.81354856 -0.52781636 0.75530165 0.5877322 0.5371353 -0.80822384
-0.32129297 0.1967664 -0.3618565 -0.5370167 -0.63925874 0.8365701 -0.16647263 -0.18887152
-0.1945327 0.61905015 -0.6901414 -0.7410097 -0.27648893 -0.0002263119 -0.59764737 -0.43478754
-0.25635162 -0.84706855 -0.32537574 0.7358676 -0.4882704 0.77756774 -0.01535377 0.18176574
-0.5182984 0.42186812 0.15562299 0.89813435 0.5910459 0.9033461 -0.23525263 0.32244
0.1947343 0.6288446 -0.7445828 0.77277195 0.37725806 -0.78407127 -0.4206817 0.17003694
0.05932249 0.14911807 -0.8118758 0.2094794 0.6406033 -0.54229105 0.8869155 0.26817805
0.27974662 0.86094695 0.8658565 -0.75755006 -0.38915837 0.35712725 -0.3865713 -0.0015854441
-0.79003644 -0.16759254 -0.8633386 0.68101084 0.46667117 -0.6610103 0.1541616 -0.2025095
-0.635662 0.15038873 0.11207725 0.07954411 0.47270635 -0.40342703 -0.47499397 0.71906054
-0.7449992 -0.7196274 -0.25942084 0.43717384 0.37936568 -0.26548737 -0.07986486 0.19716585
0.4675594 -0.061847277 0.26383826 -0.05802754 0.6926344 0.8337792 -0.61683756 -0.75859034
-0.21486884 0.7509899 0.11778003 0.47485214 0.30208805 -0.13949482 -0.5150326 -0.47457948
-0.007728348 0.48452663 -0.07994716 0.26004437 0.61694235 0.33523116 0.013821028 -0.54804474
-0.53398746 -0.21984273 0.68110526 -0.63324976 0.7872688 0.7269367 0.64438945 -0.27295166
0.032320205 0.6764179 0.7801247 -0.5266457 -0.340441 -0.14920604 0.075091355 0.6986216
-0.32281095 -0.8946215 -0.13429268 -0.016195718 -0.38295522 0.42365772 -0.108254634 -0.2781605
-0.22609437 0.5576802 -0.031455766 0.8299867 -0.07964923 0.2607097 -0.6427447 0.7826544
-0.5181209 -0.0017860938 0.18217365 0.5161958 0.8406394 -0.7150402 0.8144289 -0.5279865
0.8636993 0.08631476 0.54834646 0.82380116 0.53593475 0.5204705 -0.1480449 -0.6369645
0.6432261 -0.8589223 0.35035902 0.23477964 0.73684144 -0.4662562 0.0067125983 -0.049773175
-0.7980046 0.30181473 -0.46214166 0.87846035 0.8587002 -0.3496335 0.0845695 -0.5623977
0.8898137 -0.46604356 -0.21853973 0.655485 -0.9073074 -0.8201782 0.68002254 0.017978486
-0.041279234 0.05973925 -0.12766156 -0.092583336 0.13796462 0.17547634 -0.047505345 -0.4616016
0.2969237 0.21678515 -0.50546783 0.52410233 0.05798101 -0.12622468 -0.27604598 -0.53816
-0.49359435 -0.7158647 -0.5192465 0.77043766 -0.73387134 0.34902462 -0.039368678 0.5606013
0.40046176 0.28316548 0.06425692 0.77245086 -0.55836344 0.2569392 -0.13373592 0.17584549
0.4164415 -0.743225 -0.09261 -0.6882531 0.8830116 -0.6078643 -0.7676546 -0.857363
0.7143209 -0.7892311 -0.606357 -0.6414469 0.032886557 -0.098947264 0.4721689 -0.5066271
-0.8348125 -0.6310744 0.5320498 -0.5178422 -0.13793594 -0.78720045 0.1789622 -0.77972764

layers.0.attention.K.weight f4 [32, 32]
00000000: 0e33 3ebf ce7d 2c3f ee66 c13e c2c0 3f3f
00000010: d317 cd3e 0e4e 42bf dc7f 5b3e cd37 50bf
00000020: 5fb3 8abd 6bb9 96be 0711 433f 17f9 6fbc
00000030: dcdb 01bf 1b35 c0be 1ad3 ddbe 17d7 93be
00000040: 769f 023f 5457 0b3f e639 60bf bd9e 5b3e
00000050: e935 fdbe 6f00 243f 634c a13e 9a07 b8be
00000060: aa52 2bbf 7b34 663e f7a3 31bf 3ead 47bf
00000070: b43e 5f3f 3fde 47bf 6260 05be 2695 d2bd
00000080: 5741 573f 2fc4 393f 16ba 9b3e bb5d ccbd
00000090: 94c5 353f eebc 473f ee63 653f 6328 d13d
000000a0: e336 c13e 1376 223f 28a0 163f 76bb 9f3c
000000b0: 9ef6 a13d db1e 623f f832 29bf 1daa a4be
000000c0: 18cd adbe 165f 59bf 37f4 0d3f c22f 523f
000000d0: 3475 af3e 487f cc3e d16c e13e 85c7 873e
000000e0: 4994 a23e 1e61 0a3f 3554 d33e 1d57 1a3f
000000f0: fa60 87be ea11 dcbe bcc3 e5be e9c5 eebd
00000100: 4d9f 4cbf 49d7 4ebf 7871 c63d 8a4c 51bf
00000110: dbbf aa3e 1820 95be 94e0 09bf cb5f 67be
00000120: 71fe f03d 8e9a d83e b875 fdbb 17f8 b2be
00000130: 7974 233d 450a 253e 1c6d cc3e 1255 da3e
00000140: 3c0e e63e 4b0f 4b3f da07 14bf 1c6e 373c
00000150: 4329 273e e2a8 16bd 2ce4 2b3e 3a11 bebe
00000160: 1848 89be 013d 0abf 5090 793e 3417 613e
00000170: cf7e 1f3e 282a 603f b194 df3e db35 a83e
00000180: 7b4c b63d 490d 0f3f 2b3b 0fbf 8780 48be
00000190: 044f 053f 77ef 533f c0e6 93be ecfb 19bf
000001a0: 5b03 113f 1cc4 03bf cd10 613f 3c8f 0d3f
000001b0: e2bc 15bf 99ea 0cbf f6a4 563f b168 37bf
000001c0: 3d33 c53c 7232 303f 6b93 80bd 2122 10bf
000001d0: eea8 86be 6d75 fdbe bbcb 293f 0e51 103c
000001e0: e017 3abf 765a 3d3f 6a14 12bf b151 a2be
000001f0: 0cd7 05be 1559 5a3f 70e5 703d d82b 513f
00000200: 65d9 36bf 212b 31bf 2bfc b13d 572b 3cbf
00000210: afbb 4cbe 5d1d f63e 922a 443f eff4 5a3f
00000220: 8492 33bf 0052 f8be 219f 453e 9182 823e
00000230: 5125 27be c123 443f f21e c43e a480 e9bd
00000240: 94a8 103f 5ea3 0e3f d7b5 993e 7108 423d
00000250: e116 50be 9e7b fcbe f68e 773e 5473 0fbe
00000260: 0d99 00bf 677a 34bf 8099 2f3e 46cf 03bf
00000270: 91dd d0bd 259a 73be 6b2b 3d3f 1461 d23e
00000280: 30e4 493f f472 14bf d835 fcbe 6de7 edbe
00000290: 8dde d73d 6100 2abe 3bc1 53bf 93df 1f3e
000002a0: 431a afbd 9db8 183f 1ec1 3a3f 30c9 073e
000002b0: ea1e 58bf fc58 693f 7b01 2a3f 2618 713d
000002c0: c15e 193e b727 413f a1bd 44bf 8a26 8b3e
000002d0: e8b6 3f3f 5317 893e 2d3b 38be c501 8d3e
000002e0: bc9f 69be 394e 663f 4215 14bd 4672 49be
000002f0: 0d83 c93e b5b5 4a3f 1f37 b3bd 8517 46be
00000300: 8ea3 8ebe 9313 343f 2c27 623f 6e04 883e
00000310: b43f c1be 4ab8 80be 4ac6 06bf 1a98 fe3e
00000320: b772 af3e fa03 f23e 76ba 003e dfef 193f
00000330: 0cab 203e 0064 323f 0bd0 49bf 4568 213f
00000340: eb7c 26bf 04ef 7abe eb1d 12bf de9a c83d
00000350: a4c6 1f3f a24f e33e e6aa 1dbf e728 de3e
00000360: afcb 533f 0286 a9be c1e7 74be aabd febe
00000370: 23cb c13e faa7 48bf 6731 433f 67c4 393f
00000380: 1d14 743e 5ea1 3a3f 930f 3c3f bef2 513f
00000390: b90d 10bf ed11 1abf 3eb3 f6b9 3c82 5ebf
000003a0: 7f27 ee3e 7876 fa3e db52 25bf 8adc 93be
000003b0: b31a f53e dfe2 023e f3be 543f 235b 303f
000003c0: 0827 f0be 9d17 0abf 8a7e aabe bde4 5e3f
000003d0: b8e5 fbbe ee37 2a3e 9a80 24be 7435 6c3e
000003e0: a8ab 533e dfda b23e b537 b43e 22db cc3e
000003f0: 91e6 99be 9cc0 2a3e b752 0abf 5ecd f1bd
-0.74296653 0.6737946 0.37773842 0.749035 0.4005724 -0.7590035 0.21435493 -0.81335145
-0.067724936 -0.29438338 0.76197857 -0.01464679 -0.50726104 -0.37540516 -0.4332512 -0.28875038
0.5102457 0.5443013 -0.87588346 0.21447273 -0.49455193 0.6406316 0.3150359 -0.359433
-0.6692301 0.22480957 -0.69390815 -0.7799872 0.8720505 -0.78073496 -0.13025048 -0.10282354
0.84084076 0.7256498 0.3041541 -0.09978815 0.71004605 0.7802266 0.89605606 0.10212781
0.37737188 0.63461417 0.5883813 0.019498568 0.079083666 0.8832833 -0.660934 -0.32161036
-0.33945537 -0.84910715 0.5545077 0.8210412 0.34269106 0.39940858 0.44028333 0.2651941
0.31753758 0.5405444 0.41275182 0.60289174 -0.26441175 -0.42982417 -0.44875896 -0.11658842
-0.79930574 -0.8079725 0.09689611 -0.81757414 0.333495 -0.29126048 -0.53858304 -0.22595136
0.11767281 0.42305416 -0.0077349804 -0.34954903 0.039906 0.16117199 0.39926994 0.42643028
0.44932735 0.7932021 -0.5782448 0.011195686 0.16324334 -0.036782153 0.1678626 -0.37122518
-0.26812816 -0.53999335 0.24371457 0.21981508 0.15575717 0.87564325 0.4366813 0.32853588
0.08901306 0.55879647 -0.5594966 -0.1958028 0.52073693 0.8278727 -0.28886986 -0.6015003
0.56645745 -0.51471114 0.8791626 0.55296683 -0.5849134 -0.5504547 0.8384546 -0.7164412
0.024072284 0.68826973 -0.06278118 -0.56302077 -0.26300758 -0.4950365 0.66326493 0.008808387
-0.7269268 0.7396616 -0.570624 -0.3170295 -0.13070315 0.8529218 0.05881256 0.81707525
-0.7142547 -0.69206434 0.08690675 -0.7350363 -0.1999347 0.48069277 0.7662746 0.8552999
-0.7014544 -0.4850006 0.19298984 0.2549024 -0.16322829 0.76617056 0.3830486 -0.114014894
0.5650723 0.5571803 0.30021545 0.04737133 -0.20321228 -0.49313062 0.24175629 -0.14008838
-0.50233537 -0.7049927 0.171484 -0.5148815 -0.101985104 -0.2378927 0.73894376 0.4108969
0.7886381 -0.57987905 -0.4925983 -0.46465626 0.10540495 -0.16601707 -0.8271672 0.1561263
-0.08549931 0.596567 0.72950923 0.1326034 -0.8442217 0.91151404 0.6640851 0.05886092
0.14977552 0.75451225 -0.7685185 0.2717784 0.7488847 0.26775607 -0.17991324 0.27540413
-0.2281484 0.8996311 -0.036153086 -0.19672498 0.39357796 0.7918351 -0.08750748 -0.1934491
-0.27859157 0.7034237 0.8834102 0.2656588 -0.37743914 -0.251406 -0.52646315 0.4972542
0.34267208 0.4726866 0.12571129 0.6013164 0.15690249 0.6968384 -0.78833073 0.6304973
-0.6503436 -0.2450524 -0.570769 0.097951636 0.62412477 0.44396693 -0.61588895 0.4339058
0.8273267 -0.33110052 -0.23916532 -0.49754077 0.37850294 -0.7838131 0.76247257 0.7256531
0.23835798 0.72902477 0.73461264 0.8201102 -0.5627094 -0.601836 -0.00047054322 -0.8691747
0.46514508 0.4891851 -0.6457955 -0.28879195 0.47871932 0.12781857 0.83103865 0.68889064
-0.46904778 -0.5394228 -0.33299667 0.87067777 -0.491987 0.16622898 -0.16064683 0.23067266
0.2067095 0.3493261 0.3519875 0.40010935 -0.3005872 0.16675037 -0.5403246 -0.11806749

layers.0.attention.E.weight f4 [32, 32]
00000000: f684 db3e 5e6c 29bf 8dbc f2be bc30 34bf
00000010: 3185 4dbf ebef 56bf f1a7 553f 39ea 88be
00000020: 6360 22bf 4150 ecbe 019d f2be 29d7 323f
00000030: 284b d93d 49f6 103e 0205 1ebf 3d22 48bf
00000040: c0d4 5ebf 7ec0 313f 77e0 10bf 555d 06bf
00000050: 569b c4be 7903 54bf 7842 2b3f bcc3 873e
00000060: 13e6 fdbe 6806 efbe 9b1d 54be 66ec 1f3f
00000070: e5c9 3bbf 502d 2fbf 372b 563f 8df5 e53d
00000080: 4982 003d db25 62bf 5a33 fc3e d38e 04bf
00000090: 44a6 fabe f58e d1be 6df1 153f 35d7 59bf
000000a0: d83a a73e 8b32 f33e ca61 2fbf dec6 4e3e
000000b0: e315 003f 3a30 ef3e e2f8 b5be bb41 aebe
000000c0: 0a25 43bf 1d61 843c e972 61bf d7cc 7b3e
000000d0: 2210 94bd 9417 acbe 9860 0fbf 237d 943e
000000e0: ab5d 30bf 9479 273d 5d7e 143f 3bff 34bf
000000f0: 644c c7be 53b7 343f 9dcc bf3e b488 4ebf
00000100: 272e acbe d15d c0be 53bf 29bf bc4c 1d3f
00000110: 9dda 523f 5f0b c0bd d685 fc3e 132e 4c3e
00000120: 71ab 493b 658f f53e f0d2 d6be 9bd2 2d3f
00000130: 3a93 2bbf cf2c 22bd 5624 69be fe75 ef3e
00000140: dd29 9cbe 9475 2dbf d0e0 5fbf 14cc 4bbf
00000150: a830 35bf 24d8 91be c02b 153f f6b9 1b3f
00000160: 8e8a 6dbc 344b c43e b20b f63e 0cf3 d43e
00000170: 6751 9c3e e1bc 1ebe 27e7 00bf 65b1 533f
00000180: c5f9 bf3e ca9f 003f b4a9 003f b5bf 69bc
00000190: 910e 103f 6665 1e3e a78b 60be dd01 3cbf
000001a0: 9e5f 3e3f 024d 143f d7a8 89be 8f63 49bf
000001b0: 473f 95be 7698 c33e b655 1cbf 267c 85be
000001c0: 2cfe 233c 497b e3be f3ce 2e3f fdab 3e3f
000001d0: f4f5 f43e 9a66 a6bd b30f 23be b8a4 5dbf
000001e0: e957 38bf f8dc 613f a1c9 1f3f 2b1d 5e3e
000001f0: 8c89 163f 5f5c cf3e 367b eb3d 5a99 393f
00000200: af0c 28bf 42cb 64bf e1b2 2cbe c693 053f
00000210: cb13 a83e df7d d2be e008 363f 2867 933e
00000220: 1bc5 16bf 70c3 03bd 4421 fa3e 1492 c73e
00000230: 362f 31bf 6497 3f3f 2973 903d 3647 38bf
00000240: 1d06 4cbe 3e50 bfbd 98d9 3dbf 823a 633f
00000250: 6cac e03e 1056 2e3f 0334 d43e 1b29 fcbe
00000260: 7f48 3dbf d77c 8dbe d364 c23e a55c 273f
00000270: b953 37be 630c dabe 603c 64be e198 ad3e
00000280: 8f75 c1be 16ae 783e 4166 d0be 96c8 45bf
00000290: 0f23 dd3d 3b86 4f3f 0f1b b63d 950c aebd
000002a0: 9cd6 623f 7501 02bf e281 173f a728 dbbd
000002b0: 6032 b93d 2eaa 5c3f 41d5 383f 09a8 22bf
000002c0: e1c8 4fbf 1e25 c33d ccef 0a3f 30ec 04bd
000002d0: 53b4 f83e a3a3 0abf 51e4 373f 9fc2 2b3f
000002e0: 6e28 0fbf 7aab 25bf 638a e93d 0128 67bc
000002f0: 7372 eb3e ced3 173f 5ae0 5ebf 5308 77bd
00000300: b342 00bf 57bf 3f3e c499 023f 02d7 133f
00000310: 7432 59bf 1333 353f e2b9 ec3e 8e29 4dbf
00000320: 4977 5a3b 760e 373e 74f6 eebe dff6 433f
00000330: 4011 8f3e 3fdb dd3e d206 543f c111 603e
00000340: 4af4 1c3d 9034 93be bb10 f6be 3567 a3be
00000350: 489b f53e 0332 18bf 8256 663f 799f 5ebf
00000360: ece8 f73e 7a9d 0d3e 98c8 5cbe cbef d43c
00000370: 3f04 6dbe c8d7 64bf 047c cfbe db1d 153f
00000380: b6d6 f8be 23a3 173f 3934 1f3f 0ff8 18bf
00000390: 9e26 2dbf 0c14 133f 39ff 5a3f 526f 20bf
000003a0: 039d 93be 479f 003e 73d5 0fbf 936d 84be
000003b0: fc8a 483f b253 32bf cbc7 1d3f 6d3b 5c3f
000003c0: 6c4d 0cbf 9c56 de3e 3d14 473f f158 813e
000003d0: f26c e53d 0518 60be f43b 213f 083c 103f
000003e0: 879d 69bf e851 843d 5c30 debd 777e 533f
000003f0: f25f 0f3f cbab 533f d196 b63e 39c2 593f
0.4287488 -0.6618098 -0.47409478 -0.7038686 -0.8028136 -0.83959836 0.83459383 -0.26741198
-0.63428324 -0.4615498 -0.4738541 0.6985956 0.10610038 0.1415645 -0.6172639 -0.78177243
-0.8704338 0.69434345 -0.56592506 -0.52486163 -0.38399762 -0.828178 0.668983 0.2651652
-0.49589595 -0.46684575 -0.20714419 0.6247009 -0.7335494 -0.68428516 0.8365969 0.11228476
0.03137425 -0.8833901 0.49257928 -0.5178043 -0.48954976 -0.4092938 0.5857151 -0.85094005
0.32662082 0.474995 -0.6850859 0.2019305 0.50033396 0.4671648 -0.35541445 -0.34034523
-0.7622839 0.016159588 -0.88065964 0.24589859 -0.072296396 -0.3361174 -0.56006765 0.29001722
-0.68892926 0.04088743 0.58005315 -0.7070195 -0.3892547 0.7059223 0.37460795 -0.8067734
-0.3362896 -0.37571576 -0.6630756 0.6144521 0.8236483 -0.09377169 0.4932086 0.19939451
0.0030772353 0.47960964 -0.41957808 0.67899483 -0.67021525 -0.039593514 -0.22767767 0.46769708
-0.3050069 -0.67757535 -0.8745241 -0.79608274 -0.7077737 -0.28485215 0.5826988 0.6083063
-0.014498366 0.38338625 0.48055798 0.4159168 0.30530855 -0.15501739 -0.5035271 0.8269256
0.37495247 0.5024382 0.50258946 -0.014266898 0.56272227 0.15468368 -0.21928273 -0.73440343
0.7436465 0.57930005 -0.26886627 -0.7866754 -0.2914984 0.38202256 -0.61068285 -0.2607128
0.01000933 -0.44429997 0.6828453 0.74481183 0.47843897 -0.081250384 -0.15923958 -0.86579466
-0.7200914 0.88227797 0.62417036 0.21690814 0.5880363 0.4050016 0.1149811 0.7249962
-0.65644354 -0.89372647 -0.16865112 0.5217861 0.328276 -0.41111657 0.7110729 0.2878964
-0.5889451 -0.032168806 0.48853505 0.38978636 -0.69212663 0.7484038 0.07053215 -0.7198366
-0.19924207 -0.09341477 -0.74160147 0.8876115 0.43881547 0.6810007 0.41445932 -0.4925011
-0.73938745 -0.27634308 0.37967548 0.6537574 -0.17903031 -0.42587575 -0.22288656 0.339057
-0.37785003 0.24285159 -0.40703014 -0.77259195 0.107977025 0.81064194 0.0889188 -0.084984936
0.8860872 -0.50783473 0.5918256 -0.10701113 0.090428114 0.86197174 0.722004 -0.6353765
-0.8116589 0.09528564 0.5427215 -0.03245181 0.48575076 -0.5415594 0.7183276 0.67093843
-0.55921066 -0.6471478 0.11403348 -0.014108659 0.45985755 0.59307563 -0.87061083 -0.060310673
-0.50101775 0.18725334 0.5101588 0.5774995 -0.8484261 0.7078106 0.46235567 -0.8014153
0.003333526 0.1787661 -0.46672404 0.7654857 0.27942848 0.43331334 0.82822907 0.21881773
0.03831891 -0.2875104 -0.4805964 -0.31914678 0.47970033 -0.5945131 0.8997575 -0.86962086
0.48419893 0.13829604 -0.21560895 0.025993248 -0.23146151 -0.89391756 -0.40524304 0.5824868
-0.4860131 0.592333 0.6218906 -0.5975351 -0.6763705 0.57452464 0.8554569 -0.6266986
-0.28830728 0.1256076 -0.5618507 -0.25864848 0.78337073 -0.6965896 0.61632985 0.86028177
-0.54805636 0.43425453 0.77765256 0.2526317 0.1120242 -0.21884163 0.62982106 0.563416
-0.9125599 0.06460935 -0.108490676 0.82614845 0.56005776 0.8268401 0.3566194 0.85061985

layers.0.attention.Q_2.weight f4 [32, 32]
00000000: 72d5 333f 075b 4d3f 4d0b aebe 003c 27be
00000010: cf4b 2abf c8f3 73be 57d3 003f 3ea9 0a3f
00000020: 19c6 54be 4f6c 4abf d044 a1be bd0f 37be
00000030: d417 b63e d745 92be 9947 633f a297 b13c
00000040: e368 a23e 04ce 55bb f906 ac3e 012b 323f
00000050: ebea 543f 90c6 a1bd 8ef1 963e 8ccc a1bd
00000060: 3852 543f 969e 67be e916 033f 0742 773e
00000070: 92f9 103f da96 76bd 8818 febe 4547 c3be
00000080: b712 493e c1ac 2ebf 812a 2e3f 1da7 213f
00000090: 0a77 e1bd 5eae 973e ac65 393e dac2 5cbe
000000a0: 58b9 883d 9774 41bf fc3f 13bf 2645 25be
000000b0: 3ce3 a6bd e2b8 553f 40d3 113e ffc6 55bf
000000c0: ed43 50bf bf4e fcbe 94a5 59bf 7c6c 133f
000000d0: a549 a8be a537 5bbf 4eb5 f5bd c117 633f
000000e0: e34b 3ebf ed2f 333f ef84 d03e adb3 0dbf
000000f0: 6b5d 053f 5560 793e 7aaa f53d 7664 5a3f
00000100: fb33 b33e 1724 b43e 7552 60bf 3a3b 3fbd
00000110: ce86 34bf f881 82be e23e ee3e d6eb 083f
00000120: f7b3 b3be eeeb 993e 71b9 10bf 75d0 b0be
00000130: d1dc edbe af9b d63e 6be5 22be 1edd a0bc
00000140: df99 a83e 08e5 e8bb 7fb3 15bf 1fdc 453b
00000150: 191d 863e 15bc bebe a117 0fbf 8f22 e43e
00000160: c0f7 673f 7487 a73d 3bfe 5abf 2ab4 61bf
00000170: 2318 00bf b526 31bf 1a7c 50bf 2fe3 53bf
00000180: 9a24 12bf 648c dabe 7282 31bf e2a0 32bf
00000190: 5515 5f3f 9b4b c5be e163 de3e a3e8 1abf
000001a0: fb4d 10bf 6956 03bd b577 983d 8c86 fabc
000001b0: 5b28 543e 1e2f e53e a0bf a83e f0c4 a9be
000001c0: ed21 533f a7fa 283f 78cc 283f 1f97 aa3e
000001d0: c434 473f b3f7 bbbc c106 9d3e 2370 143f
000001e0: bb11 20be 4564 f2bd a9a4 dbbc ebdf 17bf
000001f0: 0cdb 573f b029 1abf 1acc 833e 0a5a 2f3f
00000200: b04a 5bbf 4437 053e 0ba0 653d b240 b3be
00000210: dc81 c9be f609 60bf 399c 4c3f 584e 81be
00000220: d7f7 043e 388c 44bf 10b5 e8be cc6f 8d3e
00000230: 48b1 4e3f 5de6 493e 23e8 f93e 3efa 14bf
00000240: 2d8d f33e 4c04 55bf aa2e fa3e df16 af3e
00000250: a7c4 b8be dd02 483f 219d e4be 6cba 1f3e
00000260: f8e3 0c3c 4da4 523f 6494 05bf b364 babd
00000270: 8560 78be 7ec6 52bf 0d5d 2dbf 6d6a 61bf
00000280: 4815 21bf 07ce e4be 94dc c73e ca6f 323f
00000290: 02e9 f0be abe8 61bf 6603 583f af9d 9cbe
000002a0: d55d 00be ca0d 4e3f 00b6 0f3e a2c8 46bf
000002b0: 0eae 333f b82a 15bd 4478 4dbf a093 51bf
000002c0: 40c7 56bf 3f31 46be d5f1 1b3f 8693 8cbe
000002d0: 2b53 793e ce75 4c3f 4a31 1a3d 7c22 3dbf
000002e0: c202 5b3f 0688 fe3d 5619 503f e1a0 da3e
000002f0: ac1c 063f 92a7 93be cb91 593f 55f0 e4be
00000300: 6a0e a83e 3b4b 2ebd 9a0c c9be 928b fd3e
00000310: b70a e73e ccf5 3bbe 18ff 15bf e98e 16bf
00000320: b8fb 89ba 09f5 03bf 8d94 5b3f 8845 3bbf
00000330: e5fb 4d3f 1c55 82be 8dcc 133d 79b5 123e
00000340: 10da c13e b741 2cbd 67f6 833e 6fa8 edbe
00000350: 13cf 57bf 6eaf 133f 5e90 0fbf 37f5 f13d
00000360: dfc4 483f 5af9 173f 6108 0bbe 89dc 6c3e
00000370: 9002 8a3e cab4 20bf 6d91 eabe ef79 1bbf
00000380: f5af e2be 5a38 813e 86b1 09bf 78df db3c
00000390: 7a45 0dbf 9fae f03e 9bfb 1d3f c688 b63e
000003a0: 9ceb 0c3f e0b6 bebe 4341 413f 92de 5abf
000003b0: 3971 92be ab65 f2be a13d 22bf aaea 15bf
000003c0: bfca a8be 137a 16be f9c1 113f 3d7f af3e
000003d0: 9200 81be 246f 44bf 6a0e acbe f760 4bbf
000003e0: 3952 0ebf 460e 6f3e 0c05 59bf 632f 1dbf
000003f0: d502 56be 1193 233f 717e a2bd 027d cbbe
0.70247567 0.8021702 -0.33992997 -0.16331482 -0.66521925 -0.23823464 0.5032248 0.54164493
-0.20778693 -0.79071516 -0.31497812 -0.17877097 0.35565054 -0.2856891 0.88781124 0.02167875
0.31720647 -0.0032624016 0.3359907 0.6959687 0.83170956 -0.07899201 0.29481167 -0.07900342
0.82937956 -0.2261909 0.51206833 0.24146281 0.56630814 -0.060202457 -0.4962809 -0.38140312
0.19636045 -0.6823235 0.68033606 0.6314562 -0.11009033 0.2962522 0.18105191 -0.21558705
0.066759765 -0.75568527 -0.5751951 -0.1613966 -0.0814881 0.83485234 0.14240742 -0.8350677
-0.81353647 -0.49278829 -0.8501828 0.5758741 -0.32868686 -0.8563178 -0.11997472 0.8870812
-0.74334544 0.69995004 0.4072642 -0.5535229 0.5209567 0.24353154 0.119954064 0.8530954
0.35000595 0.35183784 -0.8762582 -0.046687342 -0.70518196 -0.25489783 0.4653235 0.5348486
-0.3509824 0.30062813 -0.5653296 -0.3453404 -0.46457532 0.41915652 -0.15907829 -0.019636687
0.32929894 -0.007107381 -0.58477014 0.0030191017 0.26194075 -0.3725287 -0.5589543 0.44557616
0.9061241 0.081801325 -0.85544175 -0.88165534 -0.5003683 -0.6919969 -0.81439364 -0.8276853
-0.570871 -0.42685235 -0.6933967 -0.6977674 0.87141925 -0.38534245 0.43435577 -0.60511225
-0.5636899 -0.03206483 0.07444707 -0.030581735 0.2071852 0.4476251 0.32958698 -0.33158064
0.8247364 0.66007465 0.65936995 0.3331842 0.7781489 -0.02294526 0.30669215 0.5798361
-0.15631764 -0.11835531 -0.026811915 -0.59326047 0.84318614 -0.6021986 0.25741655 0.68496764
-0.8566084 0.13009363 0.056060832 -0.35010296 -0.39356887 -0.875152 0.79925877 -0.25255084
0.12985168 -0.76776457 -0.4545064 0.27624357 0.8073926 0.19716783 0.4880992 -0.5819434
0.47568646 -0.8320968 0.48863727 0.34197137 -0.36087534 0.7812937 -0.4465113 0.15598458
0.008599274 0.82281953 -0.5217955 -0.09101238 -0.2425557 -0.82334125 -0.6772011 -0.8805302
-0.629231 -0.44688436 0.39035475 0.69701827 -0.4705277 -0.8824565 0.84380186 -0.30589053
-0.12535794 0.8048979 0.14034271 -0.7764989 0.7018746 -0.036417693 -0.80261636 -0.8186588
-0.8389778 -0.19354723 0.6091588 -0.274563 0.24348132 0.79867256 0.037644662 -0.73880744
0.85551083 0.12428288 0.8128866 0.42700866 0.523875 -0.28838784 0.8498809 -0.4471461
0.32823497 -0.042552214 -0.39267427 0.49520546 0.45125362 -0.18355483 -0.5859237 -0.58811814
-0.0010527289 -0.5154577 0.85773546 -0.7315297 0.80462486 -0.25455558 0.036083747 0.14327039
0.3786168 -0.042054858 0.25773928 -0.46417567 -0.84300345 0.5768956 -0.5607966 0.11814349
0.784254 0.59364855 -0.13577415 0.23131002 0.2695508 -0.6277586 -0.45814076 -0.6073293
-0.4427487 0.25238305 -0.53786504 0.026839957 -0.5518414 0.47008225 0.61712044 0.35651225
0.5504701 -0.37248898 0.75490206 -0.85495865 -0.28602007 -0.47343192 -0.6337529 -0.58561194
-0.32967183 -0.14695005 0.56936604 0.34276763 -0.25195748 -0.7673209 -0.33604747 -0.7944483
-0.5559421 0.23345289 -0.84773326 -0.6140043 -0.20899518 0.6389628 -0.07934273 -0.3974381
