interrupted_model.pth (torch, 505298 bytes, 74 tensors)

z_embedding.weight f4 [1000, 48]
0.84695643 0.24005729 0.12820259 1.0269593 -0.07522155 -1.7393616 -2.6096795 -0.9455615
0.99657965 0.33065498 0.48795614 2.2210543 -0.6170072 0.70168316 0.45170322 -2.147089
-0.13786626 1.2771354 -2.1038795 1.973893 0.8981769 -1.1921848 0.00634843 0.055922482
-0.90503186 2.1360962 -0.3192494 0.28064057 -2.1749272 -1.4957106 -0.3028812 1.6351726
-0.9777044 0.06957536 -0.17264363 0.76696116 1.1411517 0.8546411 2.1366181 -0.78995657
0.8209111 0.8332271 0.20252126 0.0015109488 -1.7961521 -0.7050011 0.3663208 1.3774433
-0.6796205 -0.485014 0.13880013 -1.4878972 -1.0045829 1.2036692 -1.1445189 0.15883315
0.1130143 0.3271929 -0.054641396 -0.78913265 -0.08036906 0.4373153 0.57189405 -0.93051875
0.21604712 0.21449248 -0.48533195 0.856801 -0.0760696 0.75221765 -1.3693819 -1.7481123
1.6041613 -1.2107513 -0.9786409 -1.716754 -0.29614976 0.5219745 -1.7423382 0.059616465
-0.6601874 -0.80162126 1.1420578 0.28205487 0.10071954 0.47322965 1.9409837 -1.565888
-0.18784994 0.63978356 0.64215696 -0.3720155 0.06854865 -0.79990137 -0.807505 -1.2201737
0.9013754 -0.21665391 -0.5199882 -0.59899765 0.5060212 0.87632823 -2.4651937 -1.6994454
0.58584315 -0.07075079 1.8516799 0.25007427 -0.95343864 0.7357247 -0.3393667 1.175949
0.7428431 -1.7678925 -0.30073264 0.7082745 0.09914687 1.4556093 -0.5702242 -0.5521998
-0.2483157 -0.9750995 -1.1132556 0.7975906 0.3878231 1.0901369 -0.47258374 0.16788736
1.1162704 -0.6152527 0.64927554 0.9816627 1.9993957 -0.8864755 0.3862778 0.64951015
-0.66026485 -0.8108214 2.34581 0.38464302 1.1465759 0.1116393 -0.22851548 -0.23726842
-3.59543 0.4821745 -1.605258 1.6858115 -0.37223986 0.013367406 0.5616021 0.3692314
-1.786435 -0.027768904 -0.576921 0.25298667 -0.25977033 -1.1494138 -0.6600129 -2.071473
1.6474841 -1.1666857 0.16347067 0.18616976 1.9322028 1.1697865 -0.4459712 1.4430002
0.16253331 0.40734994 0.85080796 0.5676567 2.6581135 -1.3717257 -1.3268702 -0.45956218
0.98950726 -1.1849627 0.4008069 -0.45665094 -0.24223778 -0.36789712 0.02324891 0.21097504
-0.045133065 0.23916285 0.9509082 1.8452468 0.1804041 0.90368307 0.35137117 -0.26144475
-1.3438396 -0.25733268 0.3866571 1.8858984 0.47403085 1.2100017 0.5209581 1.7906172
1.0556948 1.5701271 -0.6252612 -0.91962564 0.5300409 -1.3445338 1.7014703 0.34997097
-1.8566439 0.79510033 -0.8368422 1.0935297 0.660671 0.85235816 -1.0452261 0.790568
-1.2813647 -0.36235175 -0.6511 -0.086778745 0.5463573 1.0437673 0.40304422 0.60993266
-0.28348884 -1.0235451 -0.3936569 -0.31029555 -0.3480484 -1.4059119 0.17114931 -0.46154425
-0.86182976 -1.2942119 0.48413134 -0.7678917 -1.3704231 0.5752279 -0.8383256 -0.17073406
-1.9811602 0.5140449 0.447923 -0.5801944 0.3272172 1.4487523 0.25567973 -0.46665516
0.31141686 0.037199423 -0.5287713 -0.38541585 0.29026943 -0.024615556 -0.47164208 -0.7905347
00000000: 23d2 583f 94d1 753e 8a47 033e 6773 833f
00000010: c20d 9abd 67a3 debf fd04 27c0 5210 72bf
00000020: d81f 7f3f 9c4b a93e 63d5 f93e c125 0e40
00000030: 2ff4 1dbf 82a1 333f a545 e73e e869 09c0
00000040: d02c 0dbe 2c79 a33f f6a5 06c0 87a8 fc3f
00000050: ecee 653f 8399 98bf 7e06 d03b f90e 653d
00000060: 2bb0 67bf cdb5 0840 a874 a3be 1fb0 8f3e
00000070: 0232 0bc0 7273 bfbf 3f13 9bbe 564d d13f
00000080: d64a 7abf 877d 8e3d 7ec9 30be 9157 443f
00000090: 4211 923f c2c9 5a3f 5abe 0840 983a 4abf
000000a0: 3b27 523f 5f4e 553f bc61 4f3e 070b c63a
000000b0: 50e8 e5bf f47a 34bf 668e bb3e 1050 b03f
000000c0: 9cfb 2dbf c153 f8be 9f21 0e3e 6a73 bebf
000000d0: 2c96 80bf d511 9a3f 987f 92bf 28a5 223e
000000e0: 0b74 e73d d485 a73e a8cf 5fbd 9904 4abf
000000f0: 8998 a4bd cae7 df3e a667 123f 7a36 6ebf
00000100: 753b 5d3e eba3 5b3e 6e7d f8be 4f57 5b3f
00000110: 61ca 9bbd 5691 403f e847 afbf 25c2 dfbf
00000120: 2855 cd3f e6f9 9abf 3688 7abf 98be dbbf
00000130: f1a0 97be 1fa0 053f f004 dfbf 6530 743d
00000140: 0b02 29bf 0d37 4dbf f32e 923f 7f69 903e
00000150: 0c46 ce3d 284b f23e 2772 f83f 056f c8bf
00000160: bc5b 40be dbc8 233f 6664 243f d178 bebe
00000170: 3c63 8c3d 56c6 4cbf a6b8 4ebf a72e 9cbf
00000180: 8ac0 663f 86da 5dbe f21d 05bf e957 19bf
00000190: 9b8a 013f 0c57 603f bcc5 1dc0 6d87 d9bf
000001a0: d1f9 153f cae5 90bd d903 ed3f bc09 803e
000001b0: 8e14 74bf 7458 3c3f 79c1 adbe 7f85 963f
000001c0: f72a 3e3f 4d4a e2bf a1f9 99be 7a51 353f
000001d0: 840d cb3d 6851 ba3f 37fa 11bf f75c 0dbf
000001e0: 7946 7ebe 1fa0 79bf 297f 8ebf e62e 4c3f
000001f0: c090 c63e 9b89 8b3f 7ff6 f1be aaea 2b3e
00000200: f3e1 8e3f 3381 1dbf ec36 263f 3f4e 7b3f
00000210: 33ec ff3f 0ff0 62bf 34c6 c53e 4c46 263f
00000220: 1e07 29bf fe91 4fbf c021 1640 eeef c43e
00000230: 00c3 923f 25a3 e43d f6ff 69be 7ef6 72be
00000240: 861b 66c0 93df f63e 1879 cdbf acc8 d73f
00000250: 3996 bebe f702 5b3c 28c5 0f3f e60b bd3e
00000260: e7a9 e4bf 9d7b e3bc 18b1 13bf 7887 813e
00000270: 9e00 85be fe1f 93bf 9bf6 28bf 0393 04c0
00000280: c2e0 d23f f555 95bf db64 273e 49a3 3e3e
00000290: 6c52 f73f 90bb 953f 5656 e4be 3bb4 b83f
000002a0: 226f 263e 2c90 d03e 8dce 593f f351 113f
000002b0: 881e 2a40 b594 afbf e2d6 a9bf bc4b ebbe
000002c0: 5950 7d3f dcac 97bf 9036 cd3e 27ce e9be
000002d0: 2e0d 78be 035d bcbe 8074 be3c d709 583e
000002e0: 73dd 38bd 1be7 743e b86e 733f 0c31 ec3f
000002f0: dabb 383e c657 673f ece6 b33e 16dc 85be
00000300: f002 acbf 1cc1 83be ebf7 c53e 1e65 f13f
00000310: 2cb4 f23e 56e1 9a3f 835d 053f f232 e53f
00000320: 0221 873f edf9 c83f 1e11 20bf 966c 6bbf
00000330: c3b0 073f af19 acbf c7c9 d93f 652f b33e
00000340: 82a6 edbf b28b 4b3f 4a3b 56bf c8f8 8b3f
00000350: bc21 293f 2534 5a3f f8c9 85bf aa62 4a3f
00000360: c203 a4bf 2b86 b9be 7dae 26bf 0eb9 b1bd
00000370: 12de 0b3f 2b9a 853f d05b ce3e 8c24 1c3f
00000380: 7325 91be 8703 83bf 668d c9be 0fdf 9ebe
00000390: 6633 b2be ecf4 b3bf c441 2f3e 874f ecbe
000003a0: e0a0 5cbf bca8 a5bf 10e0 f73e 8d94 44bf
000003b0: 066a afbf 2342 133f 829c 56bf e9d4 2ebe
000003c0: a896 fdbf 7298 033f 2a56 e53e 9f87 14bf
000003d0: 0389 a73e b770 b93f 74e8 823e 6ded eebe
000003e0: 0872 9f3e 6c5e 183d 8e5d 07bf 3a55 c5be
000003f0: 329e 943e 90a6 c9bc 127b f1be 7b60 4abf

convs.0.bias f4 [48]
-0.004896654 0.002480404 -0.0076146335 -0.006076435 0.0057229735 -0.006952256 -0.0021607927 -0.0020918758
-0.0061472165 -0.00076393306 -0.0024751741 0.00449076 -0.0010932642 -0.0032618705 -0.0030389791 0.0048261103
0.0020013843 -0.004679692 -0.0018987354 -0.0047747805 -0.0053752577 -0.004124286 -0.0065728705 0.0038118577
-0.007419328 -0.003433059 0.0027122363 -0.009572546 -0.004875404 0.0016562728 0.0023188908 -0.00906153
-0.005925116 0.0031469222 -0.0091182105 -0.009577929 -0.008409825 -0.0015881927 -0.003309119 -0.0033484458
0.0033042615 0.00035251223 0.00016990748 -0.006857434 0.0030425503 -0.0065718144 0.0049803876 -0.006725926
00000000: 1c74 a0bb 468e 223b 2d84 f9bb d51c c7bb
00000010: c887 bb3b c0cf e3bb 169c 0dbb da17 09bb
00000020: 976e c9bb ae42 48ba 8836 22bb 3a27 933b
00000030: dc4b 8fba 1bc5 55bb 9c29 47bb 5924 9e3b
00000040: a829 033b 1a58 99bb fdde f8ba c375 9cbb
00000050: ee22 b0bb 0525 87bb 3c61 d7bb 5cd0 793b
00000060: d61d f3bb 2cfd 60bb c6bf 313b 2bd6 1cbc
00000070: dac1 9fbb 4b17 d93a 88f8 173b d076 14bc
00000080: 7a27 c2bb 983c 4e3b 8c64 15bc bfec 1cbc
00000090: 5dc9 09bc e72a d0ba cedd 58bb 9971 5bbb
000000a0: 4f8c 583b 64d1 b839 3129 3239 53b4 e0bb
000000b0: 8665 473b 6058 d7bb 8532 a33b 2865 dcbb

convs.0.lin.weight f4 [48, 113]
0.19884963 -0.00856114 -0.05982382 -0.021152172 0.054842744 0.0042807898 -0.18306391 0.17566027
0.16103789 -0.06060716 -0.029101787 0.039169956 0.10688184 -0.026851747 0.101658516 0.0772702
-0.15624577 0.09483986 0.035086583 0.014094115 -0.11933422 0.12643184 0.04447849 0.18775302
0.06127493 -0.15780286 -0.16666743 -0.14585213 0.03991569 -0.10881885 0.0788666 0.09965393
-0.03672322 -0.010170851 -0.16904911 -0.15623781 -0.12536353 -0.08244073 -0.15951885 -0.193551
-0.17739831 0.19920787 -0.18196712 0.13303038 0.1415518 0.0002575048 -0.051830444 -0.11677217
0.03820404 -0.02573444 -0.011768895 0.056251813 0.15198396 0.10713722 -0.082213506 -0.11457244
-0.12686442 -0.02513684 0.10163659 0.14033923 0.009023041 0.098659545 0.0030367142 0.04157036
-0.15160973 0.04871837 -0.030338503 0.08098501 0.16899174 0.17614609 0.18298936 -0.059482157
-0.09266104 0.07930924 0.17764573 0.11909812 0.082613885 0.12355173 0.16717355 0.060544737
0.17340186 -0.18422955 0.04617424 0.17077178 -0.014671325 0.11588174 0.11240982 -0.04826598
-0.09335642 0.17479958 -0.1020728 -0.12479513 0.10798221 0.15741089 -0.011924617 0.12086556
-0.055556122 -0.020627163 0.1377762 -0.114626616 -0.037592687 -0.020914031 -0.17905371 0.021487894
-0.120120205 -0.13574788 -0.0038607116 -0.107102364 0.0012587379 -0.08148702 -0.05604677 0.06915203
-0.17666051 -0.10664726 -0.14866254 0.16535902 -0.10250609 -0.17433038 -0.05186429 -0.12975194
0.1755116 0.13743062 0.02663496 0.17013149 0.105672106 0.18270327 0.06773858 -0.16929664
-0.069722444 0.03675687 -0.020951832 0.024826575 -0.14979048 -0.07798966 0.19446233 0.091173016
-0.0957316 -0.16866224 -0.1044522 0.14776757 0.15311082 -0.08342986 0.112211965 0.10367999
-0.100141704 -0.14166641 -0.15033293 -0.17919508 -0.19244155 0.06514388 0.12366644 -0.099428296
-0.018413458 0.09862938 -0.08040191 0.11878849 -0.18070139 -0.0022921094 -0.054786846 -0.19213966
-0.12103003 -0.08927643 -0.1236273 0.07257691 0.16397603 0.009616093 -0.023158945 0.14476469
0.016082417 -0.08051996 -0.119573094 0.17109796 -0.029767605 -0.17492677 0.04255426 -0.12916787
0.069996394 -0.024732893 0.12973745 0.04430356 -0.053597044 -0.18050554 0.13713337 -0.046124727
0.09880393 0.13015594 -0.18679711 0.09577968 -0.047367044 -0.08259856 0.15168872 -0.13566336
0.08087987 0.088823415 0.0679728 -0.14602509 -0.044788674 0.0056081964 0.18184742 -0.15102603
-0.19110967 0.097730756 -0.03783082 -0.07916874 -0.0736133 0.18380214 0.054688636 0.04281134
0.11232305 -0.009814397 -0.116700575 -0.032043558 -0.16055033 0.06279246 0.041851208 0.14065322
-0.08142457 0.06722475 0.009890769 0.08902573 -0.15688151 0.036078986 -0.11599875 0.09333611
0.1506581 0.1316781 -0.054157417 -0.16995965 -0.051864866 0.0032179572 0.17242268 0.15352105
-0.1772198 -0.010621309 -0.09358781 0.027694494 0.17783315 -0.020010222 -0.08637603 0.16086236
0.045918256 0.10304832 -0.0054064165 0.16556308 -0.094554305 -0.081671946 -0.029933123 0.058187313
0.005338297 -0.13065873 -0.15730439 -0.1756291 0.078327216 0.031273954 0.13200612 -0.14985883
00000000: 3d9f 4b3e 0644 0cbc d209 75bd 5247 adbc
00000010: c9a2 603d de45 8c3b 1b75 3bbe 49e0 333e
00000020: 1ee7 243e 373f 78bd df66 eebc ad70 203d
00000030: dee4 da3d 32f8 dbbc 5732 d03d d73f 9e3d
00000040: e4fe 1fbe 673b c23d f3b6 0f3d 01eb 663c
00000050: 8065 f4bd 5977 013e 142f 363d 5442 403e
00000060: 6cfb 7a3d 1397 21be deaa 2abe 435a 15be
00000070: a27e 233d 6bdc debd d084 a13d 5c17 cc3d
00000080: 166b 16bd a4a3 26bc 361b 2dbe cefc 1fbe
00000090: 4c5f 00be afd6 a8bd e958 23be 3c32 46be
000000a0: e7a7 35be 26fd 4b3e 9755 3abe 1e39 083e
000000b0: f4f2 103e b601 8739 294c 54bd 3f26 efbd
000000c0: d77b 1c3d 08d1 d2bc 53d2 40bc 4d68 663d
000000d0: afa1 1b3e c26a db3d 8e5f a8bd f5a4 eabd
000000e0: bfe8 01be c6eb cdbc d826 d03d 16b5 0f3e
000000f0: 61d5 133c 040e ca3d 9c03 473b af45 2a3d
00000100: 953f 1bbe ea8c 473d 7488 f8bc 78db a53d
00000110: 2c0c 2d3e a45f 343e 9061 3b3e 90a3 73bd
00000120: 12c5 bdbd e26c a23d c3e8 353e b7e9 f33d
00000130: 7831 a93d b008 fd3d 8b2f 2b3e c2fd 773d
00000140: 4290 313e aca6 3cbe 3321 3d3d ccde 2e3e
00000150: ff5f 70bc 6853 ed3d 1f37 e63d 8cb2 45bd
00000160: a731 bfbd a9fe 323e 8b0b d1bd 9794 ffbd
00000170: c725 dd3d 5230 213e 785f 43bc 5d88 f73d
00000180: d18e 63bd 4cfa a8bc 3415 0d3e 5cc1 eabd
00000190: cafa 19bd e753 abbc db59 37be 6107 b03c
000001a0: 9501 f6bd 7e01 0bbe fe03 7dbb 7c58 dbbd
000001b0: 3cfc a43a abe2 a6bd 4c91 65bd 949f 8d3d
000001c0: 7ee6 34be e169 dabd fe3a 18be e053 293e
000001d0: b7ee d1bd aa83 32be a66f 54bd b1dd 04be
000001e0: 50b9 333e 9dba 0c3e 8f31 da3c f336 2e3e
000001f0: 9e6a d83d 9116 3b3e 86ba 8a3d 195c 2dbe
00000200: a4ca 8ebd 5f8e 163d 2da3 abbc 1a61 cb3c
00000210: ad62 19be 0bb9 9fbd 2221 473e ebb8 ba3d
00000220: ee0e c4bd cbb5 2cbe 09eb d5bd 6250 173e
00000230: 15c9 1c3e 46dd aabd 63cf e53d 2d56 d43d
00000240: 1817 cdbd 0011 11be e0f0 19be ea7e 37be
00000250: 660f 45be 286a 853d d544 fd3d 10a1 cbbd
00000260: d2d7 96bc 33fe c93d c2a9 a4bd 6147 f33d
00000270: c909 39be 3737 16bb 2c68 60bd 42c0 44be
00000280: 98de f7bd 90d6 b6bd 4f30 fdbd 34a3 943d
00000290: 55e9 273e d18c 1d3c d4b7 bdbc 323d 143e
000002a0: 46bf 833c a6e7 a4bd bde2 f4bd 4e34 2f3e
000002b0: 31db f3bc 0120 33be 604d 2e3d 9544 04be
000002c0: 455a 8f3d a39c cabc e5d9 043e a677 353d
000002d0: 9388 5bbd 72d6 38be b16c 0c3e 48ed 3cbd
000002e0: b759 ca3d 9947 053e be47 3fbe 2328 c43d
000002f0: f203 42bd 6f29 a9bd 4a54 1b3e 56eb 0abe
00000300: 58a4 a53d 0de9 b53d 5335 8b3d 9a87 15be
00000310: 5474 37bd f6c4 b73b 3636 3a3e 91a6 1abe
00000320: 41b2 43be 1027 c83d 7df4 1abd 3823 a2bd
00000330: 92c2 96bd a136 3c3e 3101 603d f25a 2f3d
00000340: a109 e63d 91cc 20bc b600 efbd 1b40 03bd
00000350: 4e67 24be 5599 803d 2c6c 2b3d 6607 103e
00000360: edc1 a6bd 21ad 893d e40c 223c 1f53 b63d
00000370: 8ca5 20be 8fc7 133d c190 edbd 0127 bf3d
00000380: 1e46 1a3e a0d6 063e 2bd4 5dbd e709 2ebe
00000390: 4170 54bd 5de4 523b 928f 303e 9f34 1d3e
000003a0: 1b79 35be 0005 2ebc f7aa bfbd 90df e23c
000003b0: e519 363e 7aec a3bc ebe5 b0bd 1ab9 243e
000003c0: c814 3c3d ff0a d33d 4f28 b1bb 5e89 293e
000003d0: b0a5 c1bd 9f43 a7bd 4f36 f5bc d255 6e3d
000003e0: e2ec ae3b 67cb 05be 6714 21be 1dd8 33be
000003f0: 056a a03d 1e19 003d 9d2c 073e 9874 19be

convs.1.bias f4 [48]
-0.005972653 -0.0020992516 -0.0065507675 0.005120424 -0.004604269 -0.004987819 -0.007794053 0.00780233
0.0024294504 0.0017955309 0.0019614822 -0.003982772 0.007271293 0.0049107536 -0.0041022357 -0.0062417467
-0.0060494845 -0.0053472095 0.0023593707 0.0022060524 -0.0057236254 -0.0052444804 -0.0007686327 -0.0057908003
-0.005483212 -0.007183855 -0.0069736456 -0.00705551 0.0071063307 -0.0056999917 0.005070596 0.006769189
-0.00829174 -0.0021715246 -0.0031700719 -0.007919364 0.0020077429 0.004897641 -0.0025899762 0.005671439
-0.0037545115 0.0019750302 0.0070789508 0.0043951217 -0.008894509 0.0064317463 0.00038975806 -0.0034502887
00000000: 3fb6 c3bb 9993 09bb d2a7 d6bb 3bc9 a73b
00000010: 68df 96bb dc70 a3bb 4165 ffbb b0aa ff3b
00000020: 6a37 1f3b 0558 eb3a 368c 003b ea81 82bb
00000030: 0744 ee3b 63ea a03b 0c6c 86bb 9187 ccbb
00000040: c13a c6bb a537 afbb ac9f 1a3b 6b93 103b
00000050: 408d bbbb e4d9 abbb 117e 49ba c1c0 bdbb
00000060: 84ac b3bb 8b66 ebbb 2e83 e4bb e831 e7bb
00000070: 39dc e83b ffc6 babb 3e27 a63b 13d0 dd3b
00000080: 14da 07bc 2350 0ebb fbc0 4fbb 38c0 01bc
00000090: 5694 033b 647c a03b 97bc 29bb 7bd7 b93b
000000a0: 400e 76bb 826f 013b 8bf6 e73b f404 903b
000000b0: 46ba 11bc 66c1 d23b 7158 cc39 3d1e 62bb

convs.1.lin.weight f4 [48, 48]
0.029762868 -0.1889592 0.18018486 -0.013299722 -0.0774458 -0.05602474 -0.013319018 -0.14767894
0.1872151 -0.10066975 0.11164585 -0.10210511 -0.02372684 -0.036973536 -0.14113441 0.12514499
-0.22090843 0.2410411 0.12054942 0.20432091 0.15205501 -0.23981293 0.07258494 -0.14526312
-0.2114492 -0.19905937 -0.24296604 -0.1412301 -0.1322767 -0.186237 0.0782954 0.07377448
0.08320483 -0.10770465 0.02333099 0.044490047 0.026258154 0.24276593 0.15608054 0.032661065
0.12607983 0.2158898 -0.11501445 0.07894554 -0.15193778 0.016934913 -0.20559324 0.21992967
-0.115300514 -0.18248211 0.15553322 -0.0015943131 -0.087937385 -0.21484317 -0.2369594 -0.14688249
0.033261318 -0.10434941 0.07133188 0.1999277 0.21354295 0.007872859 -0.019871265 0.022501457
0.1705907 0.13247858 0.04833959 0.1507349 -0.20911711 -0.1716201 -0.0775198 -0.061246313
-0.19186148 0.018082974 -0.12492949 0.068830945 0.12787716 -0.11087625 0.038104072 0.19394685
0.102224 -0.0067462833 0.21896987 0.18304579 0.15013939 0.18141358 -0.0865154 -0.101982415
0.08239822 0.04870597 -0.08370823 0.11983807 0.24342747 -0.019147407 -0.097665034 -0.23644137
0.05728276 -0.15470856 0.17477323 0.006071809 -0.031985197 -0.0061803935 0.022254849 0.06003108
0.22806083 0.12225739 -0.1378353 0.003360016 0.0676055 -0.18524857 -0.119617954 -0.21151683
-0.22690316 -0.086300336 -0.17977512 0.16434155 0.13420254 -0.028067349 0.18574971 -0.006254229
0.055277456 0.17367463 -0.2035395 0.17972465 -0.15984876 -0.079964794 -0.07072289 0.18637843
-0.17074311 -0.037737567 0.19961102 -0.1152022 -0.18683611 0.23766525 -0.024492681 0.14573134
0.032849044 -0.19769058 -0.23214094 0.13179547 -0.2104429 0.06631692 -0.046505187 -0.10069064
-0.13193649 0.1119621 0.16996568 0.081251845 0.11999262 0.20833059 -0.03825811 -0.029061414
-0.02847513 0.14030656 0.14751016 0.1964804 -0.20640825 0.019500082 0.18578936 -0.04777108
0.23083563 -0.14140843 0.20017199 -0.16187574 0.050789624 -0.0945022 -0.11387967 -0.21151565
0.0054394337 0.070217215 0.11309736 0.08483598 -0.02934463 0.0951401 -0.09840504 -0.062446047
-0.10662889 -0.21835005 -0.15519534 -0.024930645 -0.21901429 -0.027945463 -0.065953046 0.049309514
-0.23045439 0.032562617 0.19646922 -0.10019978 0.14515853 0.08997656 -0.17642482 0.13325012
-0.055561103 -0.0074921288 -0.17304078 -0.20715213 0.08433711 0.20150101 -0.08303514 -0.123605534
0.2301154 0.19998409 0.03525072 -0.10207676 -0.09504653 -0.049940713 0.027021179 0.1512809
-0.0049083764 0.09854147 0.039909363 -0.069663994 0.10315669 0.18142344 0.17171013 -0.20474817
-0.1454714 -0.042130705 -0.005949859 -0.05049334 0.052814897 -0.23144811 -0.0656136 -0.04996171
-0.23127116 -0.04796241 -0.17032707 0.13147871 0.19721411 -0.22259215 0.069582276 -0.013095752
-0.1997306 0.2073377 -0.037833527 -0.15170449 0.220226 -0.028790949 -0.24282908 -0.1555094
0.0057006157 0.13647196 0.12194518 0.14197876 -0.15899695 0.18681933 0.113494985 0.10953013
-0.16536397 0.05457856 -0.0667845 -0.25109217 0.17587535 0.16800289 0.08009548 -0.25280365
00000000: 42d1 f33c 857e 41be 6182 383e 14e7 59bc
00000010: e79b 9ebd 337a 65bd 0338 5abc 2639 17be
00000020: 51b5 3f3e f12b cebd 94a6 e43d 7c1c d1bd
00000030: ca5e c2bc 9071 17bd 8a85 10be 0226 003e
00000040: d235 62be 7ad3 763e 9de2 f63d 8039 513e
00000050: 4fb4 1b3e 8591 75be 6aa7 943d dbbf 14be
00000060: 2486 58be 38d6 4bbe 17cc 78be a09e 10be
00000070: 8b73 07be eab4 3ebe 5759 a03d 1317 973d
00000080: 4b67 aa3d 4194 dcbd a220 bf3c 323b 363d
00000090: 571b d73c a297 783e 94d3 1f3e 9cc7 053d
000000a0: 121b 013e 3712 5d3e b28c ebbd 33ae a13d
000000b0: 9495 1bbe 16bb 8a3c 0987 52be 3e35 613e
000000c0: ad22 ecbd 97dc 3abe 1a44 1f3e 45f8 d0ba
000000d0: 8418 b4bd d9ff 5bbe 7ca5 72be 5d68 16be
000000e0: 053d 083d 25b5 d5bd 7316 923d d9b9 4c3e
000000f0: 01ab 5a3e 2afd 003c 10c9 a2bc fa54 b83c
00000100: 54af 2e3e 77a8 073e bcff 453d 405a 1a3e
00000110: cc22 56be 2ebd 2fbe b3c2 9ebd 6add 7abd
00000120: 5677 44be bf22 943c 08db ffbd 3df7 8c3d
00000130: 3bf2 023e 1613 e3bd 0413 1c3d 019a 463e
00000140: d15a d13d ed0f ddbb a339 603e 5b70 3b3e
00000150: 24be 193e 7bc4 393e fc2e b1bd 28dc d0bd
00000160: 66c0 a83d e97f 473d 386f abbd a96d f53d
00000170: 0d45 793e 06db 9cbc 9b04 c8bd b01d 72be
00000180: 54a1 6a3d ec6b 1ebe c1f7 323e 07f6 c63b
00000190: e902 03bd e684 cabb cd4f b63c 26e3 753d
000001a0: c788 693e 1562 fa3d b224 0dbe b733 5c3b
000001b0: c174 8a3d cdb1 3dbe 42fa f4bd de97 58be
000001c0: 4d59 68be 3bbe b0bd f816 38be 2749 283e
000001d0: 646c 093e 7fed e5bc 2c35 3e3e 47f0 ccbb
000001e0: 9d6a 623d c3d7 313e a96c 50be bd09 383e
000001f0: 65af 23be 95c4 a3bd 2ad7 90bd fdd9 3e3e
00000200: 48d7 2ebe b592 1abd d566 4c3e 22ef ebbd
00000210: f751 3fbe 855e 733e e0a4 c8bc 993a 153e
00000220: b88c 063d 666f 4abe 5bb6 6dbe 64f5 063e
00000230: 587e 57be 2ad1 873d 397c 3ebd e536 cebd
00000240: 5c1a 07be 634c e53d 7c0b 2e3e 5e67 a63d
00000250: b1be f53d 9d54 553e 89b4 1cbd 3412 eebc
00000260: ad44 e9bc 86ac 0f3e e70c 173e 2832 493e
00000270: af5c 53be a3be 9f3c 913f 3e3e 9cab 43bd
00000280: 2d60 6c3e 5fcd 10be e3f9 4c3e c1c2 25be
00000290: c808 503d 5f8a c1bd bf39 e9bd 8f97 58be
000002a0: 473d b23b 0bce 8f3d 979f e73d 7cbe ad3d
000002b0: 2664 f0bc d0d8 c23d 9588 c9bd 6dc7 7fbd
000002c0: 3f60 dabd 2897 5fbe 87eb 1ebe 5a3b ccbc
000002d0: 4845 60be e2ed e4bc 6412 87bd c6f8 493d
000002e0: 3cfc 6bbe 6160 053d 3a2f 493e 8b35 cdbd
000002f0: 70a4 143e a145 b83d b5a8 34be b872 083e
00000300: 0a94 63bd 8880 f5bb 9a31 31be b01f 54be
00000310: efb8 ac3d 4856 4e3e 540e aabd e624 fdbd
00000320: 5fa3 6b3e a1c8 4c3e 0f63 103d 9f0d d1bd
00000330: c1a7 c2bd a28e 4cbd 855b dd3c 61e9 1a3e
00000340: 72d6 a0bb 1cd0 c93d 0078 233d ffab 8ebd
00000350: d143 d33d 11c7 393e c8d4 2f3e 81a9 51be
00000360: 74f6 14be 3f91 2cbd 09f7 c2bb 1bd2 4ebd
00000370: 6f54 583d bc00 6dbe 6c60 86bd a6a4 4cbd
00000380: 59d2 6cbe 3b74 44bd 386a 2ebe 5ba2 063e
00000390: 7ff2 493e 32ef 63be 2781 8e3d 918f 56bc
000003a0: 2e86 4cbe 5650 543e 54f7 1abd 6c58 1bbe
000003b0: ed82 613e ffda ebbc 30a8 78be db3d 1fbe
000003c0: 3bcc ba3b 4ebf 0b3e 65be f93d e162 113e
000003d0: 19d0 22be 914d 3f3e 0f70 e83d 5551 e03d
000003e0: 2c55 29be c58d 5f3d 50c6 88bd 278f 80be
000003f0: ab18 343e f308 2c3e 1909 a43d 7b6f 81be

convs.2.bias f4 [48]
0.0074375966 -0.0070051365 0.011570512 0.0065099406 -0.0077690873 0.0054299515 0.007743668 -0.0068065
0.0033774853 -0.0066544847 -0.008903342 -0.0019576147 0.00020058763 0.00019717628 -0.009291102 0.010016506
0.0014305402 -0.0010142603 -0.007234457 -0.008627635 0.0018556913 -0.009454756 -0.0025903326 -0.007175446
0.0077543617 -0.0049707093 -0.00016295226 0.009213273 1.1165537e-05 -0.0029384384 -0.0070724413 -0.006487456
-0.0021291266 -0.004312856 0.00085769925 0.004308968 -0.003002584 -0.0068381466 0.00018802949 -0.0072440095
0.006461765 -0.006457376 0.0047391863 -0.0035731038 0.0067656627 -0.010853928 -0.0068525057 0.009285511
00000000: 15b7 f33b 588b e5bb 3f92 3d3c 5751 d53b
00000010: d493 febb bced b13b 98be fd3b 0f09 dfbb
00000020: cd58 5d3b dd0d dabb 53df 11bc 534b 00bb
00000030: d554 5239 1bc1 4e39 b539 18bc 451c 243c
00000040: f780 bb3a eef0 84ba 060f edbb ed5a 0dbc
00000050: ab3a f33a 1fe8 1abc 92c2 29bb 0120 ebbb
00000060: 4d18 fe3b 55e1 a2bb 2ade 2ab9 45f3 163c
00000070: 9e53 3b37 d192 40bb f0bf e7bb ba94 d4bb
00000080: d188 0bbb dc52 8dbb 39d7 603a 3e32 8d3b
00000090: 00c7 44bb 8812 e0bb c829 4539 285f edbb
000000a0: 37bd d33b 6598 d3bb 2d4b 9b3b bc2a 6abb
000000b0: 7eb2 dd3b acd4 31bc fc8a e0bb 4222 183c

convs.2.lin.weight f4 [48, 48]
-0.12807758 -0.064080074 -0.17289402 0.24492095 -0.017290302 -0.21942165 -0.123560674 0.0026801312
-0.14430311 -0.08413676 0.25293028 0.006170582 0.13207966 0.07350118 -0.14634937 -0.02566951
-0.17885315 -0.10585913 0.2312298 -0.1258939 -0.21787882 0.00562951 -0.012422498 0.19890945
-0.13937755 -0.013347275 -0.13763337 0.15307525 0.18931611 0.14871928 -0.09075645 0.2123183
0.19054005 -0.048386473 0.03475949 0.009213266 0.08164049 0.20371655 0.16183236 -0.013489833
-0.0049375757 0.11036288 0.2313969 0.2497572 0.07769465 0.02304443 0.24519295 -0.17081338
-0.17892246 -0.037512626 -0.2493922 -0.13171718 0.23051466 0.1375068 -0.03053472 0.20357125
0.034793522 0.007562709 -0.119059235 -0.10532764 -0.01469263 0.11895957 -0.11799163 0.17667265
-0.011163806 0.15089159 -0.017595224 -0.029843457 -0.1385117 -0.0035668607 0.24685526 -0.013882425
0.015715644 -0.18557529 -0.062109996 -0.108560994 0.15233482 -0.24260783 -0.17848618 -0.079487115
-0.00019787626 -0.045858007 0.10275552 -0.09055657 0.20422128 -0.11877594 0.14453378 -0.07937516
-0.14464246 0.13914278 0.026703324 0.031582296 -0.086664796 -0.22503042 -0.08208612 -0.23332329
-0.08540703 -0.17632304 0.0054685352 -0.21765324 -0.21586034 0.15660356 -0.06571622 0.20940137
-0.025808157 0.12446455 0.0025638884 -0.22510648 0.1817657 -0.06712377 -0.055705782 0.062200204
-0.07468907 0.02984272 -0.06514068 -0.1908481 -0.12131741 0.22112083 0.06347929 0.21498266
-0.100694224 -0.06907931 0.23289277 -0.051855728 0.085618354 0.1732617 -0.16093983 -0.13235638
0.16214907 0.03721945 -0.23795204 0.25802255 -0.12679607 0.25881445 -0.21782924 0.12752044
0.14062878 -0.16909598 0.017209103 -0.09763171 -0.041815013 0.18700479 -0.0220921 0.24882773
0.039522067 0.22541861 -0.055306274 0.24661215 0.15813932 0.17699414 -0.083645664 -0.03268721
0.06343433 -0.07368447 0.17597428 -0.1273819 -0.14552137 0.07152547 0.15016903 -0.17084113
0.21238576 0.113601774 0.013859259 0.05393914 -0.23224027 -0.066465 -0.0038807634 0.030569369
0.0026072536 -0.042819876 -0.21293816 -0.1145287 -0.22445346 -0.1713625 -0.077835925 0.17454416
0.1127009 0.077311225 -0.056002792 0.10442956 -0.027042728 0.19872332 -0.04635643 -0.0035477406
0.12935214 -0.14334014 -0.0046006697 -0.042924214 -0.034404784 0.04323884 -0.046689525 0.059331447
0.13403049 0.15644833 0.23910731 0.014014851 -0.10258843 0.03128401 0.05690362 -0.16720738
-0.1860513 -0.16596209 0.15959021 0.18469083 -0.031130282 0.06775078 0.09724541 -0.05170832
0.035197355 -0.07276528 -0.0024732486 -0.1610798 0.23385972 -0.13472946 0.048235256 0.1808042
0.07138622 0.17164381 0.16501091 0.07202248 -0.12593439 0.11143427 0.11004427 0.1515223
0.11974778 0.11993576 -0.2072478 0.18895325 -0.18012568 0.15186709 0.050317507 0.18565926
-0.12740879 -0.18493734 -0.20188828 -0.026529966 0.03654702 0.03801318 -0.13051654 0.05785508
-0.1726009 0.10888884 0.24058247 0.09659936 0.03829112 -0.05610324 0.11371253 -0.012314299
-0.058564097 0.0066130613 -0.0010635725 0.011672387 0.12353845 -0.013333845 0.19069913 0.15375973
00000000: c526 03be 6a3c 83bd 210b 31be 8fcc 7a3e
00000010: 64a4 8dbc 12b0 60be 610d fdbd 24a5 2f3b
00000020: 32c4 13be e54f acbd 1480 813e 9832 ca3b
00000030: e43f 073e c987 963d 9cdc 15be dd48 d2bc
00000040: 4825 37be accc d8bd 81c7 6c3e 55ea 00be
00000050: a01b 5fbe c177 b83b bc87 4bbc ebae 4b3e
00000060: fdb8 0ebe 87ae 5abc c3ef 0cbe c2bf 1c3e
00000070: 15dc 413e de49 183e 85de b9bd f869 593e
00000080: ee1c 433e e530 46bd f85f 0e3d 3df3 163c
00000090: 2133 a73d 129b 503e 62b7 253e 7604 5dbc
000000a0: 63cb a1bb ef05 e23d 4ff3 6c3e 5ac0 7f3e
000000b0: 5f1e 9f3d acc7 bc3c dc13 7b3e b4e9 2ebe
000000c0: 7337 37be d7a6 19bd ab60 7fbe dee0 06be
000000d0: 090c 6c3e 95ce 0c3e f323 fabc fb74 503e
000000e0: a783 0e3d 9ad0 f73b 54d5 f3bd 05b6 d7bd
000000f0: 5bb9 70bc 13a1 f33d 99a5 f1bd ade9 343e
00000100: 65e8 36bc 5383 1a3e dc23 90bc 447a f4bc
00000110: 03d6 0dbe fec1 69bb a0c7 7c3e 1c73 63bc
00000120: 18be 803c 7307 3ebe 0d67 7ebd 3a55 debd
00000130: a9fd 1b3e 306e 78be 15c5 36be 24ca a2bd
00000140: 017d 4fb9 9bd5 3bbd 7c71 d23d b975 b9bd
00000150: 621f 513e cd40 f3bd aa00 143e 728f a2bd
00000160: 271d 14be 727b 0e3e eec0 da3c 705c 013d
00000170: 507d b1bd 606e 66be c51c a8bd 4dec 6ebe
00000180: e2e9 aebd 078e 34be 6631 b33b 7ee0 5ebe
00000190: 7e0a 5dbe af5c 203e 3a96 86bd 506d 563e
000001a0: a16b d3bc 45e7 fe3d e906 283b 5082 66be
000001b0: ca20 3a3e 3078 89bd bf2b 64bd a4c5 7e3d
000001c0: 95f6 98bd b878 f43c 7a68 85bd af6d 43be
000001d0: 4375 f8bd 806d 623e 6e01 823d 6a24 5c3e
000001e0: c638 cebd 7479 8dbd 717b 6e3e ac66 54bd
000001f0: ad58 af3d 846b 313e 69cd 24be 6e88 07be
00000200: 680a 263e 6c73 183d b3a9 73be 881b 843e
00000210: d4d6 01be 5483 843e a10e 5fbe b894 023e
00000220: fe00 103e 7f27 2dbe 1bfa 8c3c 22f3 c7bd
00000230: 3846 2bbd 2f7e 3f3e 7efa b4bc b2cc 7e3e
00000240: e4e1 213d 23d4 663e d588 62bd e587 7c3e
00000250: 46ef 213e f43d 353e 6b4e abbd 06e3 05bd
00000260: dce9 813d e2e7 96bd 9a32 343e 6770 02be
00000270: 8e03 15be f27b 923d e9c5 193e faf0 2ebe
00000280: a77b 593e 0ca8 e83d f211 633c 4aef 5c3d
00000290: 65d0 6dbe cd1e 88bd 6854 7ebb 9d6c fa3c
000002a0: 75de 2a3b e563 2fbd 760c 5abe 068e eabd
000002b0: 21d7 65be a779 2fbe 7168 9fbd b4bb 323e
000002c0: bbcf e63d 5955 9e3d 2f63 65bd 2adf d53d
000002d0: b688 ddbc 207e 4b3e 3de0 3dbd 3681 68bb
000002e0: e374 043e c2c7 12be 37c1 96bb 4dd1 2fbd
000002f0: 08ec 0cbd 361b 313d 843d 3fbd 8805 733d
00000300: 4a3f 093e fe33 203e 8cd8 743e 8c9e 653c
00000310: e219 d2bd a923 003d c513 693d 6938 2bbe
00000320: 3b84 3ebe f7f1 29be 9e6b 233e 981f 3d3e
00000330: ef04 ffbc ecc0 8a3d 9a28 c73d 1acc 53bd
00000340: 1a2b 103d f705 95bd 3a16 22bb 1af2 24be
00000350: ec78 6f3e 85f6 09be 5592 453d bc24 393e
00000360: f032 923d 65c3 2f3e 9ff8 283e 8680 933d
00000370: f2f4 00be a737 e43d e45e e13d a928 1b3e
00000380: 533e f53d e1a0 f53d c438 54be f67c 413e
00000390: de72 38be 0c83 1b3e bb19 4e3d 761d 3e3e
000003a0: 7377 02be 3760 3dbe cdbb 4ebe 5f55 d9bc
000003b0: 54b2 153d b5b3 1b3d 21a6 05be 73f9 6c3d
000003c0: 4abe 30be 1d01 df3d 405b 763e e3d5 c53d
000003d0: 26d7 1c3d 83cc 65bd 1de2 e83d eac1 49bc
000003e0: e8e0 6fbd 61b2 d83b 9267 8bba 8a3d 3f3c
000003f0: ba01 fd3d 3376 5abc a246 433e 3173 1d3e

input_normalizer.weight f4 [113]
0.9964023 0.99361956 0.99696434 1.0005767 0.99666107 0.9938832 0.99953717 0.9906531
0.9906769 0.99488574 0.9926375 0.9900634 0.99084014 0.9964604 1.0052457 1.0069393
0.9941376 1.0022337 0.99369234 0.9935498 1.0031451 1.0073782 0.99159664 0.99294984
1.0002732 1.008208 1.0042617 0.99356496 1.0026546 0.9983458 0.9944833 1.0013844
0.9942457 0.99159926 1.0059531 1.0044162 0.99233747 0.994926 0.9935117 0.99073327
0.9985519 0.99654126 0.99725705 0.99322903 1.0015881 1.0061721 1.0033287 0.99231184
0.9942559 0.9920154 0.99234456 0.99242854 0.9906322 0.99280965 0.9927986 0.9922491
0.9946436 0.9921842 0.99281627 0.9934944 0.995043 0.9912307 0.9912801 0.9935977
0.9913463 0.9921355 0.9924356 0.99093616 0.9919299 0.9920639 0.9919865 0.9927379
0.9907867 0.99338573 0.9922373 0.99144256 0.9912123 0.9922246 0.99182546 0.99453056
0.99462676 0.9916164 0.9914394 0.991985 0.9914752 0.9922182 0.9912274 0.9922916
0.99281234 0.9922774 0.9927146 0.9927583 0.9941426 0.9926557 0.99263155 0.99238294
0.9931498 0.9926421 0.9909777 0.99281305 0.99343777 0.9925108 0.99207574 0.99323636
0.9912767 0.99215937 0.9939155 0.99242365 0.9918665 0.9917209 0.9946729 0.99398214
0.9929837
00000000: 3914 7f3f da5d 7e3f 0e39 7f3f e612 803f
00000010: 2e25 7f3f 216f 7e3f abe1 7f3f 719b 7d3f
00000020: 009d 7d3f d5b0 7e3f 7e1d 7e3f cc74 7d3f
00000030: b3a7 7d3f 0718 7f3f e4ab 803f 63e3 803f
00000040: cd7f 7e3f 3249 803f 9f62 7e3f 4859 7e3f
00000050: 0f67 803f c5f1 803f 47d9 7d3f f631 7e3f
00000060: f408 803f f60c 813f a68b 803f 465a 7e3f
00000070: fc56 803f 9793 7f3f 7596 7e3f 5d2d 803f
00000080: e386 7e3f 73d9 7d3f 12c3 803f b690 803f
00000090: d409 7e3f 78b3 7e3f c856 7e3f b2a0 7d3f
000000a0: 19a1 7f3f 541d 7f3f 3d4c 7f3f 4244 7e3f
000000b0: 0a34 803f 3fca 803f 136d 803f 2608 7e3f
000000c0: 8e87 7e3f b9f4 7d3f 4b0a 7e3f cc0f 7e3f
000000d0: 129a 7d3f c628 7e3f 0d28 7e3f 0904 7e3f
000000e0: f7a0 7e3f c9ff 7d3f 3529 7e3f a655 7e3f
000000f0: 23bb 7e3f 4cc1 7d3f 88c4 7d3f 6b5c 7e3f
00000100: dfc8 7d3f 98fc 7d3f 4210 7e3f fead 7d3f
00000110: 1eef 7d3f e6f7 7d3f d4f2 7d3f 1224 7e3f
00000120: 32a4 7d3f 874e 7e3f 4403 7e3f 2ecf 7d3f
00000130: 17c0 7d3f 6e02 7e3f 46e8 7d3f 8e99 7e3f
00000140: dc9f 7e3f 93da 7d3f f9ce 7d3f bbf2 7d3f
00000150: 52d1 7d3f 0302 7e3f 14c1 7d3f d306 7e3f
00000160: f328 7e3f e405 7e3f 8b22 7e3f 6825 7e3f
00000170: 2180 7e3f af1e 7e3f 1a1d 7e3f cf0c 7e3f
00000180: 113f 7e3f cb1d 7e3f b7b0 7d3f ff28 7e3f
00000190: f051 7e3f 3015 7e3f adf8 7d3f bd44 7e3f
000001a0: 4fc4 7d3f 28fe 7d3f 3f71 7e3f 7a0f 7e3f
000001b0: f7ea 7d3f 6ce1 7d3f e2a2 7e3f 9d75 7e3f
000001c0: 2e34 7e3f

input_normalizer.bias f4 [113]
0.0035800817 0.0043484503 0.0054610427 0.0024599761 -0.00056751503 0.0058453567 0.008139767 0.00447503
0.0043217344 0.003597148 0.0024943799 -0.0011150797 -0.0005780908 0.0021769446 -0.007588531 -0.007256322
-0.0060350248 -0.0002233751 -0.0055514104 0.004164946 -0.0022040647 0.006205909 -0.0022611835 -0.002804119
0.006651796 -0.003222861 0.0061603826 -0.0020744014 -0.00033214092 0.0036047986 0.00716728 0.0048125787
-0.0044376203 0.00422615 0.0019449492 0.0007306611 -0.002080899 0.00468938 -0.0038442062 -0.0018948026
0.0062247766 0.008869969 0.010512508 0.006043493 -0.007043284 0.0024034383 -0.003267969 0.0009332682
-0.0035257826 -0.003984954 -0.00037118676 0.001489779 -0.0058798245 -0.0035063142 -0.006628041 -0.008004912
-0.006186507 0.004485713 0.007446177 0.0022961642 0.0051209126 -0.0067968233 -0.007775102 -0.0047442303
0.0029657355 -0.005302338 -0.0034007814 -0.0066497 0.008902031 0.0057757953 0.005043252 -0.006587571
0.0038663552 0.00435358 0.006733929 -0.006164871 0.0067631784 -0.00040594256 0.0062442943 0.0015253436
-0.0033426536 0.0074822227 0.0071357037 0.0021816506 0.0046498138 0.0067522735 -0.0030349002 0.0059100655
0.004077568 -0.0055846707 -0.006184132 -0.010013442 -0.007810609 -0.003141872 0.0005867956 0.0021887976
0.0078524165 0.008020717 0.008197522 0.0059092077 -0.007126974 -0.00878917 0.0049793054 0.0045230957
-0.0019959295 0.0040561785 0.008526528 -0.0004451109 0.0051632025 -0.0037959707 -0.0001763522 -0.006079662
0.009183765
00000000: ce9f 6a3b 727d 8e3b 8cf2 b23b 8d37 213b
00000010: 4ac5 14ba 688a bf3b a85c 053c 46a3 923b
00000020: 569d 8d3b 21be 6b3b c078 233b de27 92ba
00000030: 048b 17ba 12ab 0e3b 36a9 f8bb 71c6 edbb
00000040: 75c1 c5bb cc39 6ab9 9be8 b5bb 197a 883b
00000050: 1272 10bb f05a cb3b 5d30 14bb 4fc5 37bb
00000060: 4ff7 d93b a336 53bb 09dd c93b aef2 07bb
00000070: 3323 aeb9 7c3e 6c3b 81db ea3b d6b2 9d3b
00000080: 7569 91bb 847b 8a3b aaed fe3a d689 3f3a
00000090: b15f 08bb 5fa9 993b 14ef 7bbb 065b f8ba
000000a0: 36f9 cb3b 5953 113c a83c 2c3c 7e08 c63b
000000b0: 59cb e6bb 0183 1d3b 6c2b 56bb 92a6 743a
000000c0: d110 67bb 3894 82bb d89b c2b9 b044 c33a
000000d0: 8bab c0bb 31ca 65bb 0a30 d9bb 0927 03bc
000000e0: 2fb8 cabb e3fc 923b 0fff f33b 3e7b 163b
000000f0: 54cd a73b e3b7 debb 48c6 febb 7d75 9bbb
00000100: c95c 423b 3cbf adbb a5df 5ebb bae5 d9bb
00000110: d3d9 113c e242 bd3b dd41 a53b 8ddc d7bb
00000120: ad62 7d3b 7aa8 8e3b 4aa8 dc3b b002 cabb
00000130: a79d dd3b b0d4 d4b9 f09c cc3b 0aee c73a
00000140: 6c10 5bbb 6f2d f53b 9fd2 e93b 06fa 0e3b
00000150: 775d 983b 2d42 dd3b 2de5 46bb 39a9 c13b
00000160: 1f9d 853b 9dff b6bb 42a4 cabb 6b0f 24bc
00000170: 23f0 ffbb dde7 4dbb 30d3 193a ee71 0f3b
00000180: 6ca7 003c 5369 033c e64e 063c 07a2 c13b
00000190: 6489 e9bb 7300 10bc 7129 a33b 7a36 943b
000001a0: 24ce 02bb b1e9 843b dab2 0b3c c65d e9b9
000001b0: 1530 a93b d2c5 78bb 2feb 38b9 e737 c7bb
000001c0: 8177 163c

input_normalizer.running_mean f4 [113]
-0.8085286 0.1676212 -0.38647282 1.14511 0.19292195 -0.13630398 -0.8056169 0.25985482
0.33967677 0.48405808 -0.19687277 0.5949131 -0.4111551 -0.2896033 0.4029599 -1.1431943
-0.3106292 0.24062291 -0.8404589 1.0474025 0.8872672 -0.08306575 -0.3176641 0.44180247
-0.7082766 0.82545495 -0.24060532 0.36585933 -0.09234493 -0.7846358 -0.26341927 0.5871974
-0.34387326 -0.35290703 0.045398097 0.263442 0.3739563 0.14657171 1.0361395 -0.29048827
0.29629913 0.07898218 0.38124764 0.19844075 -1.0350468 0.018300999 0.22806217 0.49505794
168.25494 -0.0009657529 -0.0037797135 0.0015308314 -0.00012853442 -0.012863577 0.006844883 0.0022129198
0.00051552645 0.0018954505 -0.00528538 -0.0013299867 0.0019394475 0.008023498 -8.210121e-05 2.8581766e-05
-0.004670867 -0.0030239082 0.000101815596 0.00070023315 0.0037005274 -0.0067612226 0.008454574 -8.994102e-06
0.0057959477 -0.0029129842 -0.007576321 0.0046513495 -0.00021458733 -0.0042944844 0.002928963 0.0051106745
0.0070334533 0.0006026047 0.0034918613 -0.0096794395 -0.0090946695 0.00897712 -0.0029873722 0.0010443842
0.0010543984 0.0056856447 0.00662401 -0.0012329028 0.0065799356 -0.0039026567 -0.0064375857 -0.0005289917
-0.00016419188 0.009573308 0.0029734904 -0.0005785694 -0.0045527364 -0.00011425797 -0.0019512738 0.015575728
0.003584921 0.0032893387 0.008503313 -0.0044535464 0.0024184885 5.3159834e-05 0.0038205676 0.0039551873
-0.008018528
00000000: bbfb 4ebf e4a4 2b3e c4df c5be f792 923f
00000010: 558d 453e 4593 0bbe e93c 4ebf b10b 853e
00000020: 1dea ad3e 76d6 f73e 0499 49be 3a4c 183f
00000030: ec82 d2be e246 94be c350 ce3e 3154 92bf
00000040: ca0a 9fbe da65 763e 5128 57bf 4911 863f
00000050: f123 633f 601e aabd dea4 a2be ef33 e23e
00000060: 9e51 35bf 0451 533f 3e61 76be ea51 bb3e
00000070: 571f bdbd e4dd 48bf e4de 86be 9252 163f
00000080: 2810 b0be 3bb0 b4be 5bf3 393d dfe1 863e
00000090: 3377 bf3e e516 163e 38a0 843f e1ba 94be
000000a0: 85b4 973e 69c1 a13d e432 c33e 0d34 4b3e
000000b0: 6a7c 84bf faeb 953c 2189 693e 3c78 fd3e
000000c0: 4441 2843 942a 7dba 12b5 77bb 2ea6 c83a
000000d0: 32c7 06b9 c1c1 52bc 0a4b e03b a206 113b
000000e0: 6524 073a c470 f83a fb30 adbb f352 aeba
000000f0: 0f35 fe3a fd74 033c c02d acb8 e0c2 ef37
00000100: 130e 99bb c32c 46bb d585 d538 da8f 373a
00000110: 8c84 723b 3f8d ddbb 0e85 0a3c 60e5 16b7
00000120: efeb bd3b c4e7 3ebb c942 f8bb 596a 983b
00000130: d902 61b9 bfb8 8cbb d8f3 3f3b 7277 a73b
00000140: e278 e63b 1ef8 1d3a b6d7 643b 8396 1ebc
00000150: cf01 15bc c514 133c cac7 43bb b8e3 883a
00000160: bd33 8a3a a54e ba3b 390e d93b 5a99 a1ba
00000170: 809c d73b b7c3 7fbb 62f2 d2bb 08ac 0aba
00000180: ec2a 2cb9 5dd9 1c3c e4de 423b 23ab 17ba
00000190: 1f2f 95bb c89d efb8 e2c1 ffba 5731 7f3c
000001a0: fef0 6a3b f291 573b 7b51 0b3c 0eef 91bb
000001b0: 817f 1e3b f0f7 5e38 7d62 7a3b 849a 813b
000001c0: 2560 03bc

input_normalizer.running_var f4 [113]
2.8859787 0.18603636 0.6085465 0.67613435 0.60503453 1.8887022 2.1826527 1.2177024
1.3636975 0.33483955 0.41518167 1.8139484 0.5400793 0.79732937 0.62513036 1.525589
1.5923971 1.1986246 1.2973063 1.2130792 0.41865426 1.0941556 0.27895808 0.5921798
0.45022586 1.2951647 0.4233852 0.28696907 3.3861682 1.0785514 0.5196365 0.8962448
0.6080819 0.47291327 0.1578538 0.44507396 0.56371325 1.0107095 0.9003195 0.37744954
0.5668383 0.7195433 0.22568624 0.84229463 0.6624324 0.5365493 0.4064425 0.63588065
2607.0393 0.49766853 0.49732965 0.49633184 0.5012036 0.49821696 0.5036229 0.49774936
0.49923083 0.5003735 0.5010065 0.4980273 0.49967107 0.49961895 0.50344664 0.5026458
0.4988773 0.5011401 0.50439507 0.5031587 0.49982643 0.5010138 0.4993596 0.50095326
0.5011088 0.49539304 0.5000881 0.4992428 0.49961752 0.49915326 0.500527 0.50186336
0.49890327 0.50189126 0.5045721 0.50350606 0.4955265 0.501103 0.5011924 0.49714997
0.49571684 0.5004258 0.49874946 0.5025599 0.4998271 0.50383455 0.4979913 0.49941492
0.50155026 0.5006076 0.50081235 0.49698314 0.5017542 0.5005785 0.4953866 0.50113827
0.50351363 0.5023704 0.500235 0.50354916 0.5017367 0.49868342 0.49838468 0.5008942
0.5013093
00000000: e0b3 3840 5180 3e3e b4c9 1b3f 2417 2d3f
00000010: 8be3 1a3f fec0 f13f 95b0 0b40 acdd 9b3f
00000020: a48d ae3f 1770 ab3e b192 d43e 762f e83f
00000030: a342 0a3f c71d 4c3f 8b08 203f 8046 c33f
00000040: abd3 cb3f 886c 993f 220e a63f 2e46 9b3f
00000050: da59 d63e 4a0d 8c3f 98d3 8e3e 1899 173f
00000060: 0184 e63e f5c7 a53f f2c5 d83e 9ced 923e
00000070: fbb6 5840 f90d 8a3f e606 053f 4d70 653f
00000080: 41ab 1b3f b021 f23e 6da4 213e bce0 e33e
00000090: 834f 103f ee5e 813f 577b 663f 1141 c13e
000000a0: 511c 113f fd33 383f 4b1a 673e 9fa0 573f
000000b0: 2b95 293f 4c5b 093f 3b19 d03e 13c9 223f
000000c0: a1f0 2245 69ce fe3e fea1 fe3e 351f fe3e
000000d0: e14e 003f 4b16 ff3e 6eed 003f 01d9 fe3e
000000e0: 2f9b ff3e 7a18 003f f641 003f 6ffd fe3e
000000f0: e3d4 ff3e 0ece ff3e e1e1 003f 65ad 003f
00000100: d86c ff3e b84a 003f 0920 013f 02cf 003f
00000110: 40e9 ff3e 7142 003f 10ac ff3e 793e 003f
00000120: ab48 003f 28a4 fd3e c605 003f c19c ff3e
00000130: decd ff3e 0491 ff3e 8a22 003f 1e7a 003f
00000140: 4070 ff3e f27b 003f a32b 013f c6e5 003f
00000150: a6b5 fd3e 4948 003f 254e 003f 718a fe3e
00000160: 99ce fd3e e81b 003f 175c ff3e c4a7 003f
00000170: 56e9 ff3e 4dfb 003f b7f8 fe3e 50b3 ff3e
00000180: 9965 003f d227 003f 3d35 003f 9374 fe3e
00000190: f772 003f ea25 003f 50a3 fd3e 994a 003f
000001a0: 45e6 003f 599b 003f 670f 003f 99e8 003f
000001b0: d171 003f 6f53 ff3e 472c ff3e 9a3a 003f
000001c0: ce55 003f

lin1.weight f4 [48, 96]
0.14872374 -0.0686339 0.17066754 -0.002299582 0.010982638 -0.13450532 -0.025844876 -0.084646255
0.1653624 0.055042766 -0.035231426 0.052629292 -0.061574552 -0.17232786 0.05324112 -0.16834186
-0.14733553 -0.13621178 0.06233454 -0.079236165 0.19216147 -0.19118594 0.10145305 0.11868275
-0.14859378 0.17700444 -0.15159386 0.14167345 0.08640134 -0.03959722 0.19551602 -0.018607168
-0.13453464 -0.07662784 0.010437734 0.14760834 0.023127468 0.15434174 0.08414267 0.20491648
-0.08998053 0.011126238 0.2040555 -0.15576042 0.04302257 -0.19719881 0.061453417 -0.0530612
0.14462584 -0.1004436 0.072629064 -0.12571466 -0.1871131 -0.1529925 0.030809574 0.0025835251
0.12828554 0.07113444 0.18410456 0.05980611 0.024196457 -0.11210868 -0.12503698 -0.089273185
-0.07317501 0.11818967 -0.12483152 -0.07244188 0.120999895 -0.09130916 0.15165746 -0.0907866
0.12218778 0.15858577 -0.09054834 -0.17235072 -0.03172939 -0.1344016 -0.0376927 0.11496738
0.19415274 0.19973193 -0.15932634 -0.055436675 0.10248859 0.043833826 -0.18517113 -0.085214116
0.039035566 0.029149681 -0.1783793 0.087022066 -0.07215782 0.011306357 0.110338815 0.08562847
0.18476708 -0.07077234 -0.20680359 -0.14592831 0.019496175 -0.16619393 0.011971519 -0.15666112
0.09279407 0.1913489 0.1295435 -0.07215238 -0.07800773 -0.17154899 -0.11072334 -0.14132777
-0.036301315 0.18830146 0.16409253 0.16517869 -0.19565019 0.15701334 -0.15021881 -0.18277195
-0.054568987 0.03687556 0.05106469 0.17026109 0.16605794 -0.1534384 0.09281972 0.11859907
0.028882626 0.19416982 0.14616038 -0.03976555 0.060480747 0.023560002 -0.20127495 0.036711868
-0.011223306 -0.13809174 0.08325872 0.09847563 -0.20459862 0.12608327 -0.08495936 0.08278066
-0.11418299 -0.1371307 0.02794169 0.1642319 -0.12298602 0.1378946 -0.14224698 -0.03557292
-0.19484189 -0.12602496 0.055243 0.09772254 0.044642515 0.16885176 -0.08256061 -0.20057477
-0.057186108 0.18064798 -0.06089125 0.13725342 -0.15848829 -0.07514142 0.06177222 -0.14710703
-0.17104813 -0.03308466 0.19332461 0.16775668 -0.05798533 0.009789778 0.19540355 0.18448904
-0.1448945 0.051224913 -0.17705894 -0.1686413 0.009919156 -0.039530266 -0.2024096 -0.095481716
0.17510684 0.14340383 -0.16574124 -0.05469452 0.02473938 -0.036448162 -0.14747488 0.07182194
-0.15175113 0.050710097 0.0078089354 -0.03740996 -0.13026159 -0.015816027 -0.16367544 0.16271658
-0.024464412 -0.16070622 0.0048886775 0.1026818 -0.0020655661 -0.15561295 -0.051021315 -0.13847077
0.1038289 0.1397007 -0.1715556 -0.043637946 0.048648443 -0.1630916 0.061321586 0.15120552
-0.08381938 0.05544596 0.03238479 -0.042049654 -0.1364038 -0.14570154 0.18362273 0.07863497
0.03327107 0.11041636 0.1332888 -0.08543194 -0.038999498 -0.18169637 -0.090890534 0.16181372
0.12828542 -0.06304938 0.03756461 -0.05813478 -0.114616774 -0.2029936 -0.1888277 -0.054512464
0.06835248 0.15633999 -0.023245338 -0.04530994 -0.17658111 0.05422519 0.11182214 -0.004273826
-0.18820444 0.18127885 -0.034507975 -0.005589011 -0.03204993 -0.00416187 -0.07212217 0.03537509
00000000: 094b 183e ee8f 8cbd 79c3 2e3e 95b4 16bb
00000010: 86f0 333c c3bb 09be a2b8 d3bc 045b adbd
00000020: c354 293e 8674 613d d44e 10bd d091 573d
00000030: 9935 7cbd b776 30be 5c13 5a3d cf61 2cbe
00000040: 20df 16be 1a7b 0bbe 8152 7f3d 9246 a2bd
00000050: fac5 443e 3fc6 43be 9ec6 cf3d f10f f33d
00000060: f828 18be a740 353e 6c3b 1bbe d812 113e
00000070: 30f3 b03d b230 22bd 5a35 483e 0f6e 98bc
00000080: 73c3 09be 0fef 9cbd 0803 2b3c a426 173e
00000090: d175 bd3c c30b 1e3e fe52 ac3d a0d5 513e
000000a0: b647 b8bd d34a 363c edf3 503e a97f 1fbe
000000b0: 6f38 303d 7cee 49be 94b6 7b3d b356 59bd
000000c0: cc18 143e 60b5 cdbd 8cbe 943d 58bb 00be
000000d0: 949a 3fbe 11aa 1cbe 5c64 fc3c 5c50 293b
000000e0: 495d 033e efae 913d e885 3c3e 40f7 743d
000000f0: a637 c63c 3c99 e5bd b209 00be dcd4 b6bd
00000100: c8dc 95bd 6d0d f23d aba7 ffbd 695c 94bd
00000110: cbce f73d 4c00 bbbd 184c 1b3e 53ee b9bd
00000120: 963d fa3d 4f64 223e 6871 b9bd b57c 30be
00000130: adf6 01bd 93a0 09be a963 1abd 0574 eb3d
00000140: facf 463e 8786 4c3e 7226 23be 9111 63bd
00000150: 8ae5 d13d 198b 333d 809d 3dbe bd84 aebd
00000160: c2e3 1f3d 50cb ee3c 10a9 36be a038 b23d
00000170: 7bc7 93bd 4c3e 393c 51f9 e13d fb5d af3d
00000180: 9533 3d3e 17f1 90bd 52c4 53be 3b6e 15be
00000190: 71b6 9f3c be2e 2abe 3124 443c c66b 20be
000001a0: d10a be3d f7f0 433e 0da7 043e a1c4 93bd
000001b0: 84c2 9fbd 8aaa 2fbe ebc2 e2bd 3ab8 10be
000001c0: b0b0 14bd 19d2 403e df07 283e 9a24 293e
000001d0: 8658 48be 1bc8 203e f6d2 19be 9228 3bbe
000001e0: bb83 5fbd d40a 173d 3529 513d ec58 2e3e
000001f0: 180b 2a3e f51e 1dbe 4418 be3d 12e4 f23d
00000200: 429b ec3c 74d4 463e 11ab 153e 34e1 22bd
00000210: a9ba 773d e800 c13c 051b 4ebe 2f5f 163d
00000220: f5e1 37bc ec67 0dbe 8c83 aa3d 97ad c93d
00000230: 4d82 51be f91b 013e 2cff adbd e888 a93d
00000240: c5d8 e9bd fd6b 0cbe f9e5 e43c 682c 283e
00000250: 18e0 fbbd 3e34 0d3e 31a9 11be e9b4 11bd
00000260: a284 47be b00c 01be 7c46 623d c122 c83d
00000270: 12db 363d 7ae7 2c3e 8915 a9bd 7963 4dbe
00000280: fb3b 6abd c9fb 383e 1a69 79bd 298c 0c3e
00000290: c14a 22be bfe3 99bd de04 7d3d 3aa3 16be
000002a0: 3e27 2fbe c883 07bd e3f6 453e 68c8 2b3e
000002b0: 0682 6dbd 4e65 203c de17 483e b2ea 3c3e
000002c0: 395f 14be 37d1 513d f04e 35be 4eb0 2cbe
000002d0: f583 223c 7dea 21bd 7644 4fbe eb8b c3bd
000002e0: 354f 333e 74d8 123e 12b8 29be 5c07 60bd
000002f0: 3eaa ca3c ab4a 15bd a803 17be 6217 933d
00000300: a664 1bbe 64b5 4f3d 19e2 ff3b 303b 19bd
00000310: 4b63 05be 9d90 81bc 899a 27be 2d9f 263e
00000320: 9769 c8bc 2c90 24be 3331 a03b d64a d23d
00000330: 735e 07bb 0059 1fbe bafb 50bd 48cb 0dbe
00000340: 3fa4 d43d b30d 0f3e 45ac 2fbe b4bd 32bd
00000350: 9743 473d 7c01 27be 582c 7b3d 9fd5 1a3e
00000360: 7fa9 abbd 4e1b 633d eaa5 043d 423c 2cbd
00000370: 70ad 0bbe c932 15be 9907 3c3e 5f0b a13d
00000380: 3f47 083d f921 e23d dc7c 083e f1f6 aebd
00000390: f0bd 1fbd 9d0e 3abe d124 babd 7fb2 253e
000003a0: 415d 033e 0920 81bd 59dd 193d bc1e 6ebd
000003b0: 33bc eabd 8edd 4fbe 0c5c 41be 7648 5fbd
000003c0: 63fc 8b3d 9717 203e 026d bebc ea96 39bd
000003d0: aed1 34be 3c1b 5e3d 0203 e53d 730b 8cbb
000003e0: aab8 40be 2aa1 393e 3c58 0dbd 0624 b7bb
000003f0: ca46 03bd 4c60 88bb cab4 93bd 78e5 103d

lin1.bias f4 [48]
0.0065476047 -0.0006455686 -0.004795344 -0.008717107 0.005088496 0.0026645344 -0.0015777223 -0.00059577
-0.0078110695 -0.002728988 -0.0043126824 -0.0061759204 -0.0045382953 -0.004170386 0.0066680205 -0.0047905743
0.0041348957 -0.008173925 -0.0036225806 0.00030485628 -0.007806625 0.003173494 -0.0027682679 -0.0046197088
0.007181692 -0.009094632 -0.0056242524 -0.0020614252 0.0045797057 -0.0047913264 0.0035104796 0.0033768862
-0.00688438 -0.0031630783 -0.0029617616 -0.009266592 0.0045746253 -0.0038990723 0.0059857164 0.004234233
-0.008617344 0.004781044 -0.0066790264 -3.695224e-05 -0.0038718025 -0.008477933 0.0004164093 -0.0010738453
00000000: 4a8d d63b 603b 29ba 4322 9dbb 32d2 0ebc
00000010: 66bd a63b 789f 2e3b 93cb ceba 732d 1cba
00000020: 00f4 ffbb d2d8 32bb 6751 8dbb 605f cabb
00000030: fbb5 94bb bca7 88bb 697f da3b 40fa 9cbb
00000040: 057e 873b edeb 05bc d168 6dbb 1ed5 9f39
00000050: b8ce ffbb 65fa 4f3b d46b 35bb ed60 97bb
00000060: 6654 eb3b a701 15bc a64b b8bb fa18 07bb
00000070: 5b11 963b 8f00 9dbb 1310 663b c04e 5d3b
00000080: 5d96 e1bb a64b 4fbb 1d1a 42bb e7d2 17bc
00000090: bde6 953b 9487 7fbb d423 c43b 52bf 8a3b
000000a0: c32f 0dbc 4eaa 9c3b bcdb dabb 2afd 1ab8
000000b0: 11be 7dbb 07e7 0abc 8351 da39 45c0 8cba

lin2.weight f4 [1, 48]
0.023651453 -0.06099073 0.33509183 -0.17991936 -0.3503561 -0.1364879 0.009569759 0.019948618
-0.047593612 -0.29084942 -0.27136767 -0.26681203 0.22564377 0.3325168 0.26564273 -0.2406833
-0.2779763 -0.060634363 0.23192559 -0.25072494 -0.2921349 -0.28885335 -0.19367085 0.21107231
-0.13366322 -0.24947488 -0.17056856 -0.32603267 -0.24038492 -0.3418526 -0.26973775 0.079649046
0.15911692 0.10387736 0.31867605 0.027003815 0.2229787 0.06751462 -0.31396398 -0.011249448
-0.21314642 -0.32980874 -0.23722433 -0.1296557 0.20159017 -0.2951684 -0.27576137 -0.23839866
00000000: b1c0 c13c 6ad1 79bd 2891 ab3e c83c 38be
00000010: e061 b3be 7cc3 0bbe 7aca 1c3c 496b a33c
00000020: 85f1 42bd 37ea 94be b4f0 8abe 969b 88be
00000030: 290f 673e a43f aa3e 5302 883e af75 76be
00000040: e952 8ebe bd5b 78bd e77d 6d3e 055f 80be
00000050: b592 95be 96e4 93be a751 46be 5723 583e
00000060: 03df 08be 5876 7fbe 86a9 2ebe c1ed a6be
00000070: 7727 76be 4e07 afbe 111b 8abe 0a1f a33d
00000080: 8cef 223e a7bd d43d 8229 a33e 1b37 dd3c
00000090: 8754 643e 1b45 8a3d e3bf a0be 9b4f 38bc
000000a0: 0e43 5abe b1dc a8be efea 72be 77c4 04be
000000b0: a76d 4e3e 5020 97be 9830 8dbe c71e 74be
