interrupted_model.pth (torch, 526418 bytes, 158 tensors)

z_embedding.weight f4 [1000, 32]
0.8438814 0.23517026 0.13232966 1.0355144 -0.077226974 -1.7331923 -2.6139073 -0.93684214
1.0002806 0.33176345 0.49512592 2.2156773 -0.61364144 0.69879794 0.44567126 -2.150858
-0.14085202 1.2758695 -2.1102564 1.9799752 0.90859026 -1.2026832 0.0074625015 0.053990632
-0.90546 2.1326628 -0.3101969 0.27318397 -2.1825187 -1.4901408 -0.3064955 1.6367309
-0.9845343 0.073530376 -0.16434819 0.76241326 1.14813 0.85848737 2.1395457 -0.7901793
0.81989545 0.8369037 0.20165093 0.0046561817 -1.802751 -0.7056753 0.35779905 1.3819157
-0.67715484 -0.48735523 0.13448584 -1.4964852 -1.0012878 1.2084606 -1.1518764 0.15879233
0.11454716 0.3232775 -0.04953431 -0.7933919 -0.08325911 0.44409508 0.5769628 -0.93575686
0.21643916 0.21394894 -0.4883591 0.8602963 -0.081450336 0.75653934 -1.3768066 -1.7475642
1.6069459 -1.2133446 -0.9840137 -1.7198206 -0.2937952 0.52357936 -1.7382922 0.058413673
-0.6630143 -0.8049191 1.1464666 0.28375542 0.10482837 0.469113 1.9463482 -1.5705633
-0.18848835 0.6459713 0.64077085 -0.37937734 0.06711944 -0.80096316 -0.8111664 -1.2150036
0.90707505 -0.21573767 -0.52495056 -0.6082869 0.5154899 0.8717295 -2.471839 -1.7093072
0.57824516 -0.07412065 1.8452492 0.24859191 -0.95470965 0.7378699 -0.3329608 1.1797303
0.7469723 -1.7732488 -0.29635298 0.7023391 0.09537514 1.4477206 -0.57355785 -0.5515789
-0.25174865 -0.96545184 -1.1219622 0.8052038 0.3918245 1.0850226 -0.4723043 0.17570089
1.123367 -0.6217794 0.6412732 0.9907438 2.001887 -0.8909794 0.38750523 0.6559747
-0.66243637 -0.8113146 2.3528216 0.3776641 1.1481502 0.11854997 -0.22231907 -0.24149449
-3.6014934 0.49120644 -1.6058444 1.6749816 -0.37375927 0.0064079873 0.56380004 0.3609101
-1.7942325 -0.021387894 -0.5809735 0.26043937 -0.25229678 -1.153309 -0.6535963 -2.0682466
1.6506097 -1.1599925 0.16794147 0.17896324 1.9236599 1.1610385 -0.44456628 1.4486762
0.16093636 0.41455558 0.8417825 0.57507825 2.6589859 -1.3762337 -1.3284599 -0.4535319
0.98425686 -1.1900617 0.39125994 -0.44670084 -0.24546474 -0.36096898 0.024009138 0.20266147
-0.045612853 0.23538208 0.9437045 1.8542254 0.1771934 0.9008434 0.3578953 -0.26886365
-1.3406484 -0.26003447 0.3872637 1.8925214 0.47881535 1.2160996 0.51806426 1.7936331
1.0497677 1.575422 -0.63173413 -0.92420226 0.52322155 -1.3413986 1.7075735 0.3510476
-1.8549942 0.7999357 -0.8374886 1.1003135 0.6535348 0.8610868 -1.0436053 0.791823
-1.2834253 -0.369034 -0.6580706 -0.088591166 0.5511594 1.051827 0.4089739 0.6114741
-0.27934256 -1.0153283 -0.4023304 -0.3168741 -0.35583097 -1.4107864 0.16655557 -0.4565577
-0.86008066 -1.286893 0.48646566 -0.761194 -1.3696625 0.57426846 -0.838813 -0.17339732
-1.9908291 0.5236841 0.45755613 -0.5898373 0.33683348 1.458417 0.26527876 -0.4762901
0.32103005 0.046402857 -0.5384112 -0.39504156 0.2998779 -0.03362823 -0.48127756 -0.8001877
00000000: 9d08 583f 79d0 703e 6d81 073e bc8b 843f
00000010: 2d29 9ebd 3fd9 ddbf 424a 27c0 e3d4 6fbf
00000020: 3209 803f e6dc a93e 2581 fd3e a8cd 0d40
00000030: 9b17 1dbf 6ce4 323f 062f e43e a8a7 09c0
00000040: 833b 10be b14f a33f 710e 07c0 d46f fd3f
00000050: 5f99 683f 86f1 99bf 0088 f43b 4825 5d3d
00000060: 3acc 67bf 8c7d 0840 21d2 9ebe c5de 8b3e
00000070: 63ae 0bc0 efbc bebf faec 9cbe 6680 d13f
00000080: 710a 7cbf 1897 963d e44a 28be 842d 433f
00000090: edf5 923f d4c5 5b3f 51ee 0840 3149 4abf
000000a0: abe4 513f 523f 563f 957d 4e3e e292 983b
000000b0: 8bc0 e6bf 23a7 34bf 7031 b73e 9de2 b03f
000000c0: 055a 2dbf a086 f9be a8b6 093e d48c bfbf
000000d0: 332a 80bf d6ae 9a3f b070 93bf 759a 223e
000000e0: b497 ea3d a184 a53e 7de4 4abd bb1b 4bbf
000000f0: c183 aabd 6e60 e33e d6b3 133f c38d 6fbf
00000100: 3aa2 5d3e 6e15 5b3e 340a fabe 613c 5c3f
00000110: 6fcf a6bd 90ac 413f 333b b0bf 2fb0 dfbf
00000120: 67b0 cd3f e04e 9bbf 52e8 7bbf 1523 dcbf
00000130: 536c 96be 4c09 063f 5c80 debf 2d43 6f3d
00000140: 4ebb 29bf 2e0f 4ebf 6bbf 923f 6448 913e
00000150: 42b0 d63d 942f f03e f021 f93f 3808 c9bf
00000160: 1703 41be 605e 253f 8f09 243f bf3d c2be
00000170: eb75 893d ec0b 4dbf 9aa8 4fbf 3d85 9bbf
00000180: 1236 683f 56ea 5cbe 2963 06bf b1b8 1bbf
00000190: 25f7 033f aa29 5f3f 9c32 1ec0 94ca dabf
000001a0: e007 143f 91cc 97bd 2031 ec3f e18e 7e3e
000001b0: da67 74bf 0be5 3c3f d779 aabe 6701 973f
000001c0: 9439 3f3f d1f9 e2bf 94bb 97be 7fcc 333f
000001d0: 0b54 c33d e94e b93f b0d4 12bf 4634 0dbf
000001e0: 33e5 80be da27 77bf 759c 8fbf d621 4e3f
000001f0: 399d c83e 05e2 8a3f dfd1 f1be efea 333e
00000200: 7dca 8f3f ef2c 1fbf 7b2a 243f 63a1 7d3f
00000210: eb1e 0040 3a17 64bf 1667 c63e f5ed 273f
00000220: 6e95 29bf 50b2 4fbf a194 1640 305d c13e
00000230: 96f6 923f 54ca f23d 9ca7 63be 554a 77be
00000240: de7e 66c0 697f fb3e 4f8c cdbf cc65 d63f
00000250: 605d bfbe 18fa d13b 3355 103f 35c9 b83e
00000260: 69a9 e5bf aa35 afbc aeba 14bf 4f58 853e
00000270: 0b2d 81be a19f 93bf 1652 27bf 275e 04c0
00000280: 2e47 d33f a27a 94bf d9f8 2b3e 2442 373e
00000290: 7d3a f63f e99c 943f 319e e3be 396e b93f
000002a0: 80cc 243e a140 d43e 0f7f 573f 5438 133f
000002b0: d32c 2a40 6d28 b0bf f90a aabf 5535 e8be
000002c0: 42f8 7b3f f153 98bf 3953 c83e f9b5 e4be
000002d0: 1c5b 7bbe edd0 b8be d0ae c43c 7d86 4f3e
000002e0: 8bd4 3abd 0008 713e 9e96 713f 4257 ed3f
000002f0: 3072 353e ac9d 663f 0e3e b73e 7fa8 89be
00000300: 5e9a abbf 3d23 85be 6d47 c63e 243e f23f
00000310: 4927 f53e 27a9 9b3f dc9f 043f c595 e53f
00000320: ca5e 863f 6ea7 c93f 54b9 21bf 8598 6cbf
00000330: d9f1 053f f3b2 abbf c591 da3f 83bc b33e
00000340: 7370 edbf 96c8 4c3f a765 56bf 13d7 8c3f
00000350: 0f4e 273f 2f70 5c3f dc94 85bf eab4 4a3f
00000360: 4847 a4bf 06f2 bcbe 5177 28bf 496f b5bd
00000370: c818 0d3f 44a2 863f 0765 d13e 9189 1c3f
00000380: fd05 8fbe 47f6 81bf 40fe cdbe 523d a2be
00000390: 7a2f b6be a694 b4bf 8b8d 2a3e eec1 e9be
000003a0: 3f2e 5cbf e9b8 a4bf 0712 f93e 9cdd 42bf
000003b0: 1a51 afbf 4203 133f 73bc 56bf 118f 31be
000003c0: 7dd3 febf 2910 063f cc44 ea3e 94ff 16bf
000003d0: 7075 ac3e 69ad ba3f 9ed2 873e 4cdc f3be
000003e0: 0d5e a43e ec10 3e3d 51d5 09bf e342 cabe
000003f0: 9989 993e c1bd 09bd 036a f6be 1ad9 4cbf

x_embedding.weight f4 [371, 32]
-0.015082038 0.10612359 -0.88814944 -1.0493796 -0.61406016 0.44701594 1.0066754 -0.22019678
-0.36764097 -1.9527875 1.4253616 -0.37852472 -0.61484677 -1.5124884 -0.72267824 -0.19415584
2.567221 1.0761449 0.9708617 0.4310957 -1.3170468 1.1329743 1.8334846 0.6327296
-0.09823991 -0.09913484 0.87230325 -0.29175302 -0.87365204 0.08057382 -0.5526866 -0.40978068
1.2887143 -0.29286695 0.13666339 -1.9646387 -1.1058544 0.10848331 -0.1835941 -0.7873822
-0.12741016 -0.82114404 1.0254357 0.7431092 -1.4574896 0.2907273 1.211942 2.2680657
-0.26501638 1.5904604 -0.8460997 -0.03907251 2.0355866 -0.93553466 -0.02172274 0.30888128
1.0767082 -0.8960342 0.40751144 0.2101195 -1.0257262 -1.4902221 1.9717512 -0.32168537
-0.8818303 1.0310495 -1.3648793 0.2478692 -0.16156398 -0.6246711 0.08661067 0.98902327
0.35533315 -0.07310831 -2.7962253 -2.312206 1.997685 0.04445762 1.2915872 -1.5643833
0.31582126 1.3393837 1.4979099 0.02738841 1.5707891 -0.09795763 0.30883914 1.0641525
-1.5750343 -0.8357991 1.2078707 -1.1295956 2.929845 -0.36853364 0.14437717 0.46867967
-1.3243684 2.2354937 -1.15878 -0.46633404 -1.1725544 0.41860697 0.41207927 0.6787395
-0.25805667 0.12849529 -1.2650446 0.46014112 -0.59183747 1.3031545 -0.12724525 0.9517536
1.9436069 0.105351366 -1.1005892 -0.2606769 0.08432822 -0.32423624 -0.83762294 -1.0050355
-0.8286348 0.36265618 -0.78999233 -0.39746997 -0.54617995 0.35309854 0.8999763 -0.26645464
-1.1393132 0.78962153 -0.944944 -1.0748296 0.8916564 -0.3175802 0.3378177 -1.40072
-0.38024005 -0.3388465 0.0744056 0.5447841 0.71541315 2.1519337 1.2827096 -2.146771
-0.6322106 -0.47960216 -1.8846462 0.9356251 0.12539604 0.5276106 1.2885599 -0.15131895
2.4341645 0.90641934 -0.10631928 0.63203084 -0.43363875 -1.5930392 0.67824936 0.79759705
1.5020498 1.5827225 -1.4583073 0.77514714 0.98360085 0.014559073 0.46890438 0.09221896
0.78258705 1.529235 1.0543919 -0.69754213 -0.29884607 0.18768203 -0.12840675 1.263899
-0.8437701 0.2948679 1.0120871 -0.9259052 -1.6419555 -0.26887855 -0.2625451 0.75203
-0.9328999 -0.4323238 -0.2770639 -0.7919922 0.43793485 -0.48905158 -0.40054297 0.41819677
0.2863693 0.5553942 -2.0563114 -0.34777278 0.9735847 0.049057208 -0.9016176 -0.23329914
0.702821 -0.36332414 0.14599708 -1.1976956 -0.1207087 -0.21690263 0.6414892 1.3476092
1.0585428 -0.4042954 -0.1288456 -1.130824 -1.6248938 -0.73463476 0.5102546 1.0834682
-2.1446095 -0.76693356 0.47775918 -0.90897363 1.2787068 -0.42437625 0.67432815 -0.0959593
-0.9829852 -1.5641967 -0.9217203 0.23162842 0.17826787 0.58715624 -0.10482208 0.3342801
-0.049232118 -0.9040254 -0.3573977 0.8385575 -0.13904019 -0.07963829 -1.4927536 0.3403093
0.8375788 1.5222864 1.1439967 0.10623493 -0.58830756 -2.665929 -0.47915286 0.038600963
1.6394883 0.63253576 0.21773334 -0.21241046 0.24512054 -0.45049626 -0.17382345 0.51747036
00000000: a71a 77bc 5357 d93d c35d 63bf 1252 86bf
00000010: 0c33 1dbf 46df e43e bdda 803f 447b 61be
00000020: 703b bcbe f1f4 f9bf 4072 b63f fecd c1be
00000030: 9966 1dbf 3899 c1bf 7101 39bf cad0 46be
00000040: 594d 2440 1ebf 893f 648a 783f 93b8 dc3e
00000050: fd94 a8bf 4d05 913f a0af ea3f 91fa 213f
00000060: 0232 c9bd 3507 cbbd 444f 5f3f a760 95be
00000070: a9a7 5fbf e303 a53d de7c 0dbf c6ce d1be
00000080: 97f4 a43f a8f2 95be 7df1 0b3e 4879 fbbf
00000090: a38c 8dbf 7f2c de3d 1700 3cbe e191 49bf
000000a0: cf77 02be 7f36 52bf 7a41 833f 683c 3e3f
000000b0: 058f babf 35da 943e ea20 9b3f fd27 1140
000000c0: 3ab0 87be 3594 cb3f fd99 58bf 7f0a 20bd
000000d0: 0d47 0240 337f 6fbf e3f3 b1bc b025 9e3e
000000e0: 93d1 893f 7f62 65bf 57a5 d03e 9129 573e
000000f0: ff4a 83bf 99bf bebf 5862 fc3f f2b3 a4be
00000100: a1bf 61bf 6ef9 833f 5db4 aebf 6cd1 7d3e
00000110: 0771 25be 72ea 1fbf ef60 b13d a130 7d3f
00000120: 3aee b53e cfb9 95bd 5bf5 32c0 2ffb 13c0
00000130: 24b4 ff3f 3119 363d bb52 a53f b63d c8bf
00000140: 53b3 a13e ed70 ab3f 83bb bf3f a95d e03c
00000150: 9e0f c93f 039e c8bd 2a20 9e3e 2636 883f
00000160: b99a c9bf eef6 55bf 829b 9a3f 9796 90bf
00000170: 9582 3b40 71b0 bcbe 9cd7 133e c8f6 ef3e
00000180: e784 a9bf 5412 0f40 e752 94bf 56c3 eebe
00000190: 4316 96bf a753 d63e 0efc d23e dfc1 2d3f
000001a0: 0120 84be 4594 033e fbec a1bf 9e97 eb3e
000001b0: a982 17bf c4cd a63f 944c 02be 20a6 733f
000001c0: 1cc8 f83f 75c2 d73d 1be0 8cbf 7177 85be
000001d0: 46b4 ac3d 4b02 a6be 756e 56bf 01a5 80bf
000001e0: 6921 54bf 12ae b93e f03c 4abf 2f81 cbbe
000001f0: 73d2 0bbf 55c9 b43e d964 663f be6c 88be
00000200: 04d5 91bf a324 4a3f dae7 71bf 0494 89bf
00000210: 9843 643f df99 a2be 71f6 ac3e cb4a b3bf
00000220: d3ae c2be 4a7d adbe f761 983d f976 0b3f
00000230: 5125 373f 48b9 0940 d42f a43f b264 09c0
00000240: 8ed8 21bf 6a8e f5be 163c f1bf 2085 6f3f
00000250: d267 003e 7d11 073f 88ef a43f 5bf3 1abe
00000260: 5ac9 1b40 190b 683f ecbd d9bd c6cc 213f
00000270: e605 debe b5e8 cbbf c0a1 2d3f 522f 4c3f
00000280: 2b43 c03f a796 ca3f d0a9 babf 0b70 463f
00000290: 44cd 7b3f 2e89 6e3c 3c14 f03e 4bdd bc3d
000002a0: a057 483f f9bd c33f 50f6 863f 1f92 32bf
000002b0: 5a02 99be b82f 403e 0f7d 03be 71c7 a13f
000002c0: 5101 58bf edf8 963e 128c 813f 2008 6dbf
000002d0: 992b d2bf 73aa 89be 506c 86be 0a85 403f
000002e0: 87d2 6ebf 8c59 ddbe 52db 8dbe 00c0 4abf
000002f0: ff38 e03e f864 fabe f813 cdbe e31d d63e
00000300: ff9e 923e 502e 0e3f 9b9a 03c0 460f b2be
00000310: d93c 793f 36f0 483d 69d0 66bf f8e5 6ebe
00000320: 14ec 333f 9f05 babe 4280 153e 174e 99bf
00000330: 1f36 f7bd b91b 5ebe a338 243f 757e ac3f
00000340: 557e 873f cfff cebe 1af0 03be d7be 90bf
00000350: 85fc cfbf 0611 3cbf 0ca0 023f 16af 8a3f
00000360: 4841 09c0 c255 44bf da9c f43e 7fb2 68bf
00000370: aaac a33f d847 d9be c5a0 2c3f 4f86 c4bd
00000380: eba4 7bbf 9937 c8bf ddf5 6bbf 0030 6d3e
00000390: da8b 363e df4f 163f f5ac d6bd c326 ab3e
000003a0: 9ea7 49bd 356e 67bf d5fc b6be b4ab 563f
000003b0: 8d60 0ebe 6619 a3bd 8d12 bfbf 053d ae3e
000003c0: 906b 563f 48da c23f 7c6e 923f b391 d93d
000003d0: 539b 16bf 959e 2ac0 8653 f5be 0b1c 1e3d
000003e0: c1da d13f dded 213f 7df5 5e3e 2182 59be
000003f0: e100 7b3e 72a7 e6be c6fe 31be f078 043f

e_embedding.weight f4 [2, 32]
-0.6698835 -1.477076 0.5789825 0.24758229 0.3304593 1.0010713 -0.99730885 0.27940232
0.37489867 1.0791813 -2.6907299 1.489861 0.9129568 -1.9438803 -0.15921925 0.33173418
-0.10385262 -0.734597 0.11770259 0.31467754 0.6001326 1.49111 0.8090531 0.6928136
0.6718835 0.49227512 -1.1613312 -0.4632427 -0.10078836 -0.37831616 0.63007545 -0.26198608
1.8789921 0.13521187 1.0163184 0.54239714 0.9053708 1.3338608 -0.044543933 -0.5055406
1.8102393 1.4150524 0.037685156 -0.70933884 -0.61537087 -0.461265 0.18817589 -0.10617274
-2.257887 -0.83014727 1.9073979 -0.014792568 -1.1082816 1.586809 1.2645551 0.533612
0.5045607 -0.5677582 0.008008445 -0.019641325 -0.1059898 -1.5138537 -0.54453284 -1.5583463
00000000: 7c7d 2bbf d410 bdbf 3238 143f 3686 7d3e
00000010: f631 a93e 1b23 803f a24f 7fbf d20d 8f3e
00000020: b8f2 bf3e 9d22 8a3f eb34 2cc0 c4b3 be3f
00000030: 89b7 693f 12d1 f8bf 5f0a 23be 10d9 a93e
00000040: afb0 d4bd 8d0e 3cbf 0e0e f13d 6a1d a13e
00000050: 4aa2 193f b1dc be3f 1b1e 4f3f 3b5c 313f
00000060: 8f00 2c3f 7c0b fc3e 80a6 94bf 262e edbe
00000070: 216a cebd a8b2 c1be a04c 213f 0a23 86be
00000080: d082 f03f fb74 0a3e b916 823f 8ada 0a3f
00000090: 61c6 673f f3bb aa3f b373 36bd 1c6b 01bf
000000a0: ecb5 e73f 7020 b53f c05b 1a3d 3b97 35bf
000000b0: f288 1dbf ed2a ecbe 2eb1 403e 1871 d9bd
000000c0: 3881 10c0 8884 54bf 9d25 f43f 875c 72bc
000000d0: 2cdc 8dbf 8f1c cb3f f1dc a13f cc9a 083f
000000e0: e42a 013f 9a58 11bf da35 033c d8e6 a0bc
000000f0: 2e11 d9bd f5c5 c1bf 8166 0bbf e477 c7bf

h_embedding.weight f4 [32, 128]
-0.07414797 0.042506166 0.13355441 -0.03467625 -0.18409967 0.04953126 0.07509696 -0.13848522
-0.17568408 0.159699 -0.18779463 -0.19314173 0.15075761 0.05180901 -0.09654554 -0.06848188
0.18567298 0.13830322 -0.09874785 -0.07985093 -0.03576284 0.0816725 0.12106621 -0.03773952
-0.15756826 0.08480115 0.123481646 -0.17692885 0.096848086 -0.15082505 0.09438224 0.06393214
0.050098315 0.02835448 -0.0068060625 0.006824854 -0.08797048 -0.09349976 0.020840986 0.019153073
0.04871669 0.097271 -0.164714 0.084272906 0.19123651 -0.17243226 -0.04473556 -0.047058705
0.17692113 -0.031352215 0.047385458 0.19269143 0.055714216 -0.030992044 -0.08533202 0.0782201
-0.018611204 -0.008322906 -0.087770864 0.17133011 0.16426969 0.030602109 -0.04004435 -0.012191846
0.04277462 0.044148833 0.1311856 0.061789576 -0.15817305 -0.0474915 -0.018904287 -0.04575481
-0.13922378 -0.15123495 0.084434174 -0.023782702 -0.044233106 0.15921687 0.10743331 -0.063749984
-0.012322748 0.17139529 0.038539093 0.11402478 -0.035092387 0.105924696 0.05352234 -0.027449615
0.07324653 0.013182933 -0.048084095 0.113258205 -0.064435154 0.105877236 -0.0117746 -0.09169292
-0.048548795 0.045674093 -0.01749091 -0.150725 0.008090084 -0.076449074 0.04291807 0.004027463
0.038564764 0.05820629 0.043732133 0.07126634 -0.1799849 -0.14026307 -0.12864907 0.08829859
0.18843944 -0.011984556 -0.080503486 0.16541137 0.060766645 0.15435429 -0.08780416 0.15632965
0.06180075 0.018360712 0.08254672 -0.041707482 0.1381134 -0.15831621 -0.16331816 0.18307906
-0.18860649 0.08150045 0.0012815978 -0.085184395 0.0860174 -0.14733334 -0.06867605 -0.019263903
0.17703265 0.0235287 -0.011373306 0.13652672 0.11035248 0.11779235 -0.104853 -0.12553929
0.18478808 -0.011799186 -0.10595392 -0.17255633 0.080234244 0.041265592 -0.09235939 0.16066308
-0.13221332 0.13098367 0.082661286 -0.09795383 -0.1153077 0.027901767 0.060977664 0.07796949
0.03591186 0.03746916 -0.17106484 0.131514 0.14688645 -0.10092165 -0.061348934 -0.048435908
-0.17096584 0.064216964 -0.124366365 0.18414608 -0.09879441 0.16940755 -0.15341996 0.0943824
0.17837395 -0.1452863 -0.1611262 -0.14232214 -0.032217063 -0.10188425 -0.13372068 -0.023721827
0.16322032 0.112170145 -0.008896517 -0.030592931 0.14715505 -0.1766275 -0.19349065 -0.10361067
0.0940081 -0.06598295 0.020997131 -0.13733692 0.18404154 0.13450274 -0.018208893 0.17858276
0.08923306 0.030683089 0.022068797 -0.06496309 -0.12613378 0.15254137 0.14044836 -0.0039493674
0.009507444 0.15893643 0.1835057 0.10638612 0.06983495 -0.052516952 -0.10768166 -0.024537321
0.026250118 0.13279554 0.047103733 -0.1824154 0.14479074 0.16946384 0.021243745 -0.042431857
-0.14719886 0.16946055 0.1549715 -0.1257839 -0.0854503 0.16412026 -0.11754332 -0.045589566
-0.07410825 0.04014217 0.005746702 -0.12597051 -0.13231547 -0.16684985 -0.0066292216 0.18459532
-0.096876666 0.045531314 -0.03350548 0.111935146 0.0028964705 0.09966718 0.042161487 -0.011344092
-0.036430646 0.040537845 -0.11881523 -0.015951583 -0.09603695 0.005597736 -0.12412419 0.07921676
00000000: e4da 97bd f21a 2e3d 7dc2 083e af08 0ebd
00000010: a084 3cbe 4ae1 4a3d 6fcc 993d 12cf 0dbe
00000020: 87e6 33be 2288 233e 3c4d 40be f2c6 45be
00000030: 3460 1a3e af35 543d abb9 c5bd 3a40 8cbd
00000040: 0f21 3e3e 5c9f 0d3e 503c cabd e288 a3bd
00000050: 0e7c 12bd e943 a73d 90f1 f73d c194 1abd
00000060: 9359 21be 3aac ad3d f2e3 fc3d d62c 35be
00000070: 4a58 c63d e271 1abe 7a4b c13d dbee 823d
00000080: e433 4d3d a847 e83c 6405 dfbb 06a3 df3b
00000090: de29 b4bd cd7c bfbd b7ba aa3c e8e6 9c3c
000000a0: 278b 473d 0536 c73d c9aa 28be 4697 ac3d
000000b0: 81d3 433e 1592 30be a23c 37bd a1c0 40bd
000000c0: d02a 353e 2e6b 00bd 4117 423d e750 453e
000000d0: 9734 643d 07e3 fdbc 8ec2 aebd dc31 a03d
000000e0: 8676 98bc cc5c 08bc 36c1 b3bd 2971 2f3e
000000f0: 5036 283e 46b1 fa3c 8b05 24bd 4fc0 47bc
00000100: 7134 2f3d 68d5 343d 8555 063e 1117 7d3d
00000110: 1ef8 21be 7286 42bd 2add 9abc 6569 3bbd
00000120: ae90 0ebe 56dd 1abe d3eb ac3d f1d3 c2bc
00000130: c62d 35bd bf09 233e ff05 dc3d 5a8f 82bd
00000140: 5ae5 49bc 3f82 2f3e 2bdb 1d3d d385 e93d
00000150: 09bd 0fbd 0cef d83d 3e3a 5b3d 04de e0bc
00000160: 4702 963d 3bfd 573c d4f3 44bd ebf3 e73d
00000170: 94f6 83bd 2ad6 d83d 40ea 40bc 7fc9 bbbd
00000180: 1adb 46bd c214 3b3d 1949 8fbc a857 1abe
00000190: 468c 043c 5591 9cbd dcca 2f3d cff8 833b
000001a0: 16f6 1d3d b869 6e3d 7720 333d 16f4 913d
000001b0: f64d 38be 1fa1 0fbe 95bc 03be e4d5 b43d
000001c0: 45f6 403e df5a 44bc 03df a4bd 9961 293e
000001d0: 72e6 783d 0d0f 1e3e abd2 b3bd e114 203e
000001e0: c922 7d3d 3469 963c 410e a93d 77d5 2abd
000001f0: 996d 0d3e a51d 22be e03c 27be 1479 3b3e
00000200: 0f22 41be b5e9 a63d 49fb a73a 2875 aebd
00000210: e429 b03d 8dde 16be 07a6 8cbd 55cf 9dbc
00000220: 0c48 353e 43bf c03c 1a57 3abc a9cd 0b3e
00000230: 7b00 e23d 1e3d f13d 2bbd d6bd 5f8d 00be
00000240: 1639 3d3e 5f51 41bc 5efe d8bd 9bb2 30be
00000250: da51 a43d 1c06 293d eb26 bdbd dd84 243e
00000260: ee62 07be 9520 063e 524a a93d 059c c8bd
00000270: 7226 ecbd 3f92 e43c b7c3 793d 78ae 9f3d
00000280: 5118 133d 4379 193d 9f2b 2fbe 9bab 063e
00000290: 6769 163e 03b0 cebd 0549 7bbd bb64 46bd
000002a0: ab11 2fbe 2f84 833d cbb3 febd ca90 3c3e
000002b0: b954 cabd 2c79 2d3e 1f1a 1dbe 8f4b c13d
000002c0: a9a7 363e efc5 14be 44fe 24be e5bc 11be
000002d0: 0af6 03bd b1a8 d0bd 13ee 08be 4754 c2bc
000002e0: 3a23 273e 76b9 e53d b2c2 11bc 079e fabc
000002f0: d0af 163e d7dd 34be 6a22 46be d531 d4bd
00000300: 5287 c03d 1222 87bd 2d02 ac3c 0da2 0cbe
00000310: 6375 3c3e 16bb 093e d12a 95bc 66de 363e
00000320: d3bf b63d 1a5b fb3c 9fc9 b43c 5e0b 85bd
00000330: 3729 01be ce33 1c3e b2d1 0f3e b269 81bb
00000340: 1cc5 1b3c 3bc0 223e ebe8 3b3e f7e0 d93d
00000350: a005 8f3d 041c 57bd 3488 dcbd 7e02 c9bc
00000360: 7d0a d73c 8efb 073e d8ef 403d 1acb 3abe
00000370: 0644 143e ee87 2d3e 5d07 ae3c 07cd 2dbd
00000380: 4cbb 16be 1187 2d3e d9b0 1e3e 7fcd 00be
00000390: 9100 afbd 240f 283e 8dba f0bd 20bc 3abd
000003a0: 11c6 97bd 1e6c 243d d54e bc3b 6afe 00be
000003b0: b57d 07be b0da 2abe f139 d9bb 8e06 3d3e
000003c0: 4667 c6bd 0b7f 3a3d 0b3d 09bd 413e e53d
000003d0: b6d2 3d3b 4e1e cc3d 86b1 2c3d 92dc 39bc
000003e0: 4d38 15bd 030b 263d 6655 f3bd e5ac 82bc
000003f0: 05af c4bd 376d b73b d334 febd 663c a23d

h_embedding.bias f4 [32]
0.0 0.0 0.0 0.0 0.0 0.0 0.0 0.0
0.0 0.0 0.0 0.0 0.0 0.0 0.0 0.0
0.0 0.0 0.0 0.0 0.0 0.0 0.0 0.0
0.0 0.0 0.0 0.0 0.0 0.0 0.0 0.0
00000000: 0000 0000 0000 0000 0000 0000 0000 0000
00000010: 0000 0000 0000 0000 0000 0000 0000 0000
00000020: 0000 0000 0000 0000 0000 0000 0000 0000
00000030: 0000 0000 0000 0000 0000 0000 0000 0000
00000040: 0000 0000 0000 0000 0000 0000 0000 0000
00000050: 0000 0000 0000 0000 0000 0000 0000 0000
00000060: 0000 0000 0000 0000 0000 0000 0000 0000
00000070: 0000 0000 0000 0000 0000 0000 0000 0000

initial_layer_norm.weight f4 [32]
1.0 1.0 1.0 1.0 1.0 1.0 1.0 1.0
1.0 1.0 1.0 1.0 1.0 1.0 1.0 1.0
1.0 1.0 1.0 1.0 1.0 1.0 1.0 1.0
1.0 1.0 1.0 1.0 1.0 1.0 1.0 1.0
00000000: 0000 803f 0000 803f 0000 803f 0000 803f
00000010: 0000 803f 0000 803f 0000 803f 0000 803f
00000020: 0000 803f 0000 803f 0000 803f 0000 803f
00000030: 0000 803f 0000 803f 0000 803f 0000 803f
00000040: 0000 803f 0000 803f 0000 803f 0000 803f
00000050: 0000 803f 0000 803f 0000 803f 0000 803f
00000060: 0000 803f 0000 803f 0000 803f 0000 803f
00000070: 0000 803f 0000 803f 0000 803f 0000 803f

initial_layer_norm.bias f4 [32]
0.0 0.0 0.0 0.0 0.0 0.0 0.0 0.0
0.0 0.0 0.0 0.0 0.0 0.0 0.0 0.0
0.0 0.0 0.0 0.0 0.0 0.0 0.0 0.0
0.0 0.0 0.0 0.0 0.0 0.0 0.0 0.0
00000000: 0000 0000 0000 0000 0000 0000 0000 0000
00000010: 0000 0000 0000 0000 0000 0000 0000 0000
00000020: 0000 0000 0000 0000 0000 0000 0000 0000
00000030: 0000 0000 0000 0000 0000 0000 0000 0000
00000040: 0000 0000 0000 0000 0000 0000 0000 0000
00000050: 0000 0000 0000 0000 0000 0000 0000 0000
00000060: 0000 0000 0000 0000 0000 0000 0000 0000
00000070: 0000 0000 0000 0000 0000 0000 0000 0000

layers.0.attention.Q.weight f4 [30, 32]
0.010438855 -0.28918225 -0.008545981 -0.026118647 0.03550023 0.26799878 -0.078191265 -0.2510884
-0.05887288 0.28011224 -0.17450719 0.251014 -0.30718836 0.14146137 -0.16206893 -0.17455827
0.26365718 -0.21726145 0.28423154 -0.18700284 0.2660739 0.20689633 0.18726788 -0.284056
-0.112843916 0.06854162 -0.12601337 -0.1890359 -0.22446126 0.29317462 -0.060443416 -0.06719658
-0.06635726 0.21054108 -0.23490329 -0.25268796 -0.09392201 3.322752e-05 -0.20323148 -0.14779486
-0.08728228 -0.28835782 -0.111200005 0.25021043 -0.16598211 0.26448724 -0.0053842487 0.061710585
-0.17629008 0.14310859 0.052705187 0.3051101 0.20096804 0.30752343 -0.079860374 0.10954761
0.06639014 0.21359228 -0.25305697 0.26297426 0.12839769 -0.2663147 -0.14349484 0.05786116
0.020450091 0.05084682 -0.27739233 0.071777634 0.21879171 -0.18509877 0.30331996 0.0918834
0.09511837 0.2952223 0.29728022 -0.2586864 -0.13313794 0.1218274 -0.13205452 -0.0003243206
-0.27047938 -0.05694596 -0.2947221 0.23215878 0.15931089 -0.22535695 0.052459724 -0.069404736
-0.21645562 0.051375564 0.037998673 0.027294813 0.1616979 -0.13786991 -0.16316949 0.2450442
-0.261563 -0.25175065 -0.09417376 0.15709206 0.1333398 -0.09508987 -0.02827037 0.06919675
0.16776267 -0.022389024 0.09708521 -0.021601966 0.24296144 0.29206482 -0.21698509 -0.26472685
-0.07581422 0.26116243 0.041906055 0.16783513 0.11048855 -0.04956237 -0.17908874 -0.16907187
-0.0024618958 0.1688723 -0.027635356 0.0922851 0.2165677 0.1198873 0.00510391 -0.19359243
-0.18178579 -0.0743001 0.23066859 -0.21547548 0.26744634 0.24684419 0.21881923 -0.09228764
0.010726221 0.22973299 0.26496536 -0.17887478 -0.11592742 -0.050693605 0.025471045 0.23674537
-0.109437205 -0.30358377 -0.04559661 -0.0056430968 -0.12976153 0.1437421 -0.0366631 -0.094323546
-0.07626515 0.18898655 -0.010586784 0.2815871 -0.026877038 0.08858004 -0.2185724 0.26571196
-0.17593896 -0.00065980357 0.06211039 0.17640609 0.28556612 -0.24337216 0.27769604 -0.17989293
0.29336503 0.029310862 0.1870278 0.28052992 0.18248838 0.17711017 -0.05050605 -0.21604066
0.21912713 -0.29152277 0.119110756 0.07984977 0.25083205 -0.15849218 0.0022195315 -0.01715849
-0.27116716 0.10273841 -0.1570578 0.29872373 0.29210952 -0.11908257 0.028921107 -0.19098787
0.3053306 -0.15931587 -0.0744154 0.2270568 -0.31036872 -0.2803557 0.23302633 0.0058802324
-0.014091824 0.020373067 -0.043923628 -0.03173918 0.047642477 0.060373772 -0.016345084 -0.15721989
0.10184624 0.074200645 -0.17281786 0.17909324 0.019769447 -0.043263916 -0.094271645 -0.1848504
-0.16887976 -0.24382165 -0.17719868 0.2641062 -0.25076124 0.11925123 -0.013427385 0.19112572
0.13697658 0.096937135 0.021762727 0.26665452 -0.1909828 0.0886867 -0.045912605 0.060448013
0.1434462 -0.25576574 -0.032239094 -0.23780547 0.30240965 -0.20863618 -0.2637983 -0.29279393
0.24442759 -0.2694245 -0.2081394 -0.22039488 0.011651994 -0.033819385 0.16114026 -0.17450365
-0.28469387 -0.21591192 0.18154371 -0.17790844 -0.047199894 -0.2707629 0.061722524 -0.26681566
00000000: bb07 2b3c b20f 94be 7104 0cbc c6f6 d5bc
00000010: b068 113d 2337 893e be22 a0bd a98e 80be
00000020: b024 71bd df6a 8f3e 03b2 32be e884 803e
00000030: cb47 9dbe 40db 103e 66f5 25be 67bf 32be
00000040: 13fe 863e c979 5ebe cc86 913e ac7d 3fbe
00000050: d73a 883e a2dc 533e 27c3 3f3e ca6f 91be
00000060: b61a e7bd 8d5f 8c3d a609 01be a192 41be
00000070: 2cd9 65be fc1a 963e 8493 77bd 5c9e 89bd
00000080: 51e6 87bd 1598 573e 7d8a 70be 5160 81be
00000090: 2f5a c0bd c75d 0b38 ea1b 50be 8957 17be
000000a0: 0dc1 b2bd a3a3 93be d4bc e3bd 951b 803e
000000b0: 37f7 29be df6a 873e 5a6e b0bb 3dc4 7c3d
000000c0: 6385 34be 0f8b 123e 65e1 573d 6437 9c3e
000000d0: 91ca 4d3e b673 9d3e d68d a3bd 7f5a e03d
000000e0: 8ef7 873d efb7 5a3e af90 81be 90a4 863e
000000f0: af7a 033e 665a 88be 50f0 12be d3ff 6c3d
00000100: f386 a73c c144 503d 5e06 8ebe 2700 933d
00000110: ef0a 603e 888a 3dbe c14c 9b3e 5d2d bc3d
00000120: 6ccd c23d 6127 973e 1d35 983e 8b72 84be
00000130: 5055 08be a580 f93d 4d39 07be 9309 aab9
00000140: 467c 8abe 2b40 69bd d1e5 96be 08bb 6d3e
00000150: 6522 233e f9c3 66be 02e0 563d 1224 8ebd
00000160: 8ba6 5dbe 2f6f 523d 7fa4 1b3d 5f99 df3c
00000170: 2294 253e c52d 0dbe e715 27be deec 7a3e
00000180: 96eb 85be 76e5 80be 2cde c0bd bedc 203e
00000190: 3b8a 083e 7abe c2bd 4397 e7bc 07b7 8d3d
000001a0: fac9 2b3e 3069 b7bc 9cd4 c63d 9bf6 b0bc
000001b0: e2ca 783e 8589 953e 5731 5ebe 478a 87be
000001c0: 7c44 9bbd 15b7 853e afa5 2b3d f9dc 2b3e
000001d0: d247 e23d e901 4bbd 0a63 37be 2d21 2dbe
000001e0: c257 21bb dcec 2c3e 8b63 e2bc f8ff bc3d
000001f0: ecc3 5d3e 7987 f53d b33e a73b 183d 46be
00000200: 0e26 3abe a72a 98bd 6334 6c3e 9ba5 5cbe
00000210: baee 883e b9c4 7c3e 2612 603e 4d01 bdbd
00000220: 08bd 2f3c 203f 6b3e 8aa9 873e f32a 37be
00000230: 5b6b edbd 19a4 4fbd a7a8 d03c 616d 723e
00000240: 9d20 e0bd 556f 9bbe 83c3 3abd bae9 b8bb
00000250: 35e0 04be 2131 133e 0c2c 16bd b42c c1bd
00000260: e730 9cbd b185 413e 3174 2dbc 2f2c 903e
00000270: 3c2d dcbc 7469 b53d 71d1 5fbe 660b 883e
00000280: 5829 34be abf6 2cba 7767 7e3d cca3 343e
00000290: b935 923e 8d36 79be 2d2e 8e3e da35 38be
000002a0: f133 963e 551d f03c 3784 3f3e 9ea1 8f3e
000002b0: 3cde 3a3e 5e5c 353e 6fdf 4ebd c339 5dbe
000002c0: dd62 603e 7942 95be 57f0 f33d 4788 a33d
000002d0: 0f6d 803e c64b 22be 8f75 113b f68f 8cbc
000002e0: 6cd6 8abe 8468 d23d c3d3 20be 51f2 983e
000002f0: 618f 953e 90e1 f3bd f5eb ec3c 5392 43be
00000300: 4b54 9c3e b323 23be 1a67 98bd 9481 683e
00000310: a6e8 9ebe c88a 8fbe 749e 6e3e f7ae c03b
00000320: 65e1 66bc 6be5 a63c 43e9 33bd f100 02bd
00000330: c224 433d 7d4a 773d 20e6 85bc 40fe 20be
00000340: c394 d03d 82f6 973d 2af7 30be 3864 373e
00000350: 89f3 a13c 8135 31bd 7e11 c1bd 6c49 3dbe
00000360: d1ee 2cbe 62ac 79be 9273 35be ee38 873e
00000370: c763 80be fd39 f43d 89fe 5bbc 76b6 433e
00000380: 9743 0c3e fa86 c63d bf47 b23c f186 883e
00000390: ff90 43be 5fa1 b53d db0e 3cbd 5698 773d
000003a0: 90e3 123e baf3 82be 240d 04bd 4783 73be
000003b0: 70d5 9a3e b9a4 55be 9210 87be 16e9 95be
000003c0: 3a4b 7a3e 02f2 89be 7f22 55be 32af 61be
000003d0: 01e8 3e3c 3286 0abd f401 253e 16b1 32be
000003e0: 65c3 91be 0418 5dbe 98e6 393e a12d 36be
000003f0: ad54 41bd 6fa1 8abe c2d0 7c3d 109c 88be

layers.0.attention.K.weight f4 [30, 32]
-0.2598384 0.2359227 0.13268082 0.26449743 0.1419704 -0.26522923 0.077157006 -0.28309026
-0.024827298 -0.105335645 0.26856416 -0.0052494844 -0.1769259 -0.13380802 -0.15298386 -0.1011558
0.17915659 0.19194439 -0.30709404 0.0761917 -0.1759248 0.22633539 0.11076831 -0.12588175
-0.23294474 0.07911543 -0.24416715 -0.27428764 0.3051922 -0.27334717 -0.04637019 -0.036394868
0.2852444 0.24628842 0.10304054 -0.034065455 0.24083298 0.26503566 0.30424982 0.034693647
0.12815739 0.21533494 0.19961332 0.0068385275 0.02684027 0.29948682 -0.22424877 -0.10923458
-0.11498368 -0.2882501 0.18844213 0.27868658 0.116317935 0.13566147 0.14934665 0.090091705
0.1077208 0.18321139 0.14005767 0.20462967 -0.0897089 -0.14609973 -0.15261452 -0.039537873
-0.27272454 -0.27612877 0.032949757 -0.2803305 0.113968685 -0.09944067 -0.18423012 -0.07691232
0.0403892 0.14522068 -0.002665989 -0.11937451 0.0135228215 0.05513669 0.13670127 0.14516242
0.1534876 0.2706069 -0.19801028 0.0038120418 0.055729594 -0.0125100305 0.05723466 -0.1265052
-0.09133759 -0.1843653 0.083445646 0.075064786 0.053005792 0.29935107 0.14919972 0.11194065
0.031352613 0.19529419 -0.19501619 -0.07004037 0.18373401 0.28681123 -0.10115651 -0.21046965
0.20188718 -0.18130119 0.30677992 0.1938199 -0.2022703 -0.19354653 0.2928975 -0.24814144
0.008158357 0.2379192 -0.022336902 -0.19458868 -0.09285806 -0.17323144 0.23150457 0.0032174697
-0.25186256 0.2572889 -0.20194691 -0.11112953 -0.046008952 0.29609486 0.020692846 0.28219166
-0.24260747 -0.2353255 0.029648848 -0.2511345 -0.06790184 0.16319814 0.260822 0.29062322
-0.23897979 -0.16525522 0.06596296 0.08662885 -0.05541601 0.26049688 0.13055266 -0.038710505
0.19218522 0.18948953 0.102177806 0.01621655 -0.069359556 -0.16771878 0.082088396 -0.0475038
-0.17067912 -0.23948617 0.058336657 -0.1753647 -0.03486909 -0.08088336 0.25142565 0.13943772
0.2681995 -0.19687718 -0.1671629 -0.15797292 0.035723884 -0.056334086 -0.28125295 0.052872214
-0.029362446 0.20274782 0.24816154 0.045007117 -0.28664497 0.3102728 0.22556809 0.02012668
0.050578624 0.2562556 -0.2613875 0.092518575 0.2548288 0.09109739 -0.06100602 0.09351173
-0.07748047 0.30567348 -0.012428167 -0.067138664 0.13375355 0.26934886 -0.029957872 -0.06573834
-0.09472431 0.24005759 0.3010206 0.09145819 -0.12911452 -0.08588883 -0.18013418 0.16897139
0.11807154 0.16214406 0.043237902 0.20533642 0.05353465 0.23813926 -0.2701453 0.21488199
-0.2222637 -0.083610654 -0.19554977 0.033609115 0.21414706 0.15184356 -0.21003106 0.14813395
0.28150618 -0.11249058 -0.081996225 -0.16996486 0.12917142 -0.26822606 0.26050687 0.24676572
0.082233995 0.24991626 0.25228384 0.2842914 -0.19401796 -0.20740704 -0.00012171062 -0.29864398
0.16157115 0.17001116 -0.22455418 -0.10061216 0.16398822 0.04424537 0.28795865 0.23672716
-0.16147652 -0.1860996 -0.11515236 0.29997158 -0.17044374 0.058033865 -0.055212714 0.07979117
0.07088193 0.120752804 0.12142882 0.13827777 -0.10409125 0.057684716 -0.18660948 -0.040426448
00000000: 8a09 85be b895 713e 7bdd 073e 356c 873e
00000010: b060 113e 20cc 87be 7e04 9e3d 35f1 90be
00000020: 9e62 cbbc 37ba d7bd 3e81 893e de03 acbb
00000030: 102c 35be f804 09be cda7 1cbe c62a cfbd
00000040: d374 373e 128d 443e 6e3b 9dbe 650a 9c3d
00000050: a125 34be 77c4 673e 7fda e23d 25e7 00be
00000060: 1189 6ebe 4507 a23d f406 7abe 6e6f 8cbe
00000070: 2742 9c3e 29f4 8bbe abee 3dbd c912 15bd
00000080: 8e0b 923e 0833 7c3e eb06 d33d 3888 0bbd
00000090: ec9c 763e c1b2 873e a2c6 9b3e ed1a 0e3d
000000a0: b13b 033e c380 5c3e 6f67 4c3e ba15 e03b
000000b0: 20e0 db3c 5656 993e 78a1 65be 61b6 dfbd
000000c0: 907c ebbd 8495 93be f9f6 403e 02b0 8e3e
000000d0: 1938 ee3d d7ea 0a3e 54ee 183e 0082 b83d
000000e0: b99c dc3d c49b 3b3e 476b 0f3e 718a 513e
000000f0: 4db9 b7bd 2b9b 15be fb46 1cbe 77f2 21bd
00000100: 8da2 8bbe c060 8dbe 53f6 063d 7b87 8fbe
00000110: 6a68 e93d 8da7 cbbd d2a6 3cbe 3584 9dbd
00000120: 256f 253d bbb4 143e e0b7 2ebb a07a f4bd
00000130: d38e 5d3c 03d7 613d 6bfb 0b3e 75a5 143e
00000140: da2b 1d3e fd8c 8a3e 35c3 4abe 73d3 793b
00000150: b744 643d dff6 4cbc e46e 6a3d 948a 01be
00000160: 340f bbbd 42ca 3cbe 8de5 aa3d 91bb 993d
00000170: 9a1c 593d 8b44 993e d0c7 183e 2441 e53d
00000180: 996b 003d 33fb 473e 53b2 47be 5371 8fbd
00000190: c524 3c3e ecd8 923e 252b cfbd 5b85 57be
000001a0: 83bb 4e3e 05a7 39be 4212 9d3e b978 463e
000001b0: f21f 4fbe 1031 46be a9f6 953e ca18 7ebe
000001c0: a1aa 053c 17a1 733e e1fb b6bc 4142 47be
000001d0: 5e2c bebd 9563 31be 890f 6d3e 2fdc 523b
000001e0: 21f4 80be 5fbb 833e 2ccb 4ebe e197 e3bd
000001f0: e273 3cbd bf99 973e 0b84 a93c 6d7b 903e
00000200: 186e 78be 2bf9 70be 24e2 f23c b494 80be
00000210: 1f10 8bbd 6a1d 273e 768a 853e 91cc 943e
00000220: 1eb7 74be aa38 29be 9717 873d 776a b13d
00000230: e6fb 62bd d95f 853e 99af 053e e88e 1ebd
00000240: 34cc 443e 8b09 423e 9942 d13d 92d8 843c
00000250: 620c 8ebd 79be 2bbe f61d a83d 5893 42bd
00000260: 82c6 2ebe dd3b 75be 6bf2 6e3d ce92 33be
00000270: e4d2 0ebd 2da6 a5bd ddba 803e c3c8 0e3e
00000280: 7251 893e 2c9a 49be c02c 2bbe a7c3 21be
00000290: 3553 123d 92be 66bd 6300 90be 8990 583d
000002a0: 8389 f0bc 209d 4f3e 0f1e 7e3e 6259 383d
000002b0: 21c3 92be 14dc 9e3e 52fb 663e b5e0 a43c
000002c0: 882b 4f3d ef33 833e 95d4 85be 617a bd3d
000002d0: ec78 823e 4591 ba3d 73e1 79bd 1483 bf3d
000002e0: 15ae 9ebd 3c81 9c3e 839f 4bbc ff7f 89bd
000002f0: b1f6 083e 18e8 893e 366a f5bc d3a1 86bd
00000300: d2fe c1bd a8d1 753e 5f1f 9a3e 6e4e bb3d
00000310: 9936 04be 7ce6 afbd 1875 38be d606 2d3e
00000320: 7ecf f13d 1809 263e 3a1a 313d b643 523e
00000330: 2647 5b3d c7da 733e 7c50 8abe 060a 5c3e
00000340: 1899 63be 103c abbd 333e 48be b6a9 093d
00000350: 5e49 5b3e e17c 1b3e 6212 57be 6db0 173e
00000360: 9421 903e 7661 e6bd a3ed a7bd 450b 2ebe
00000370: 8345 043e ed54 89be 2861 853e 27b0 7c3e
00000380: 4c6a a83d 0cea 7f3e 592b 813e a48e 913e
00000390: a5ac 46be 8362 54be e43e ffb8 dde7 98be
000003a0: e872 253e 6817 2e3e 88f1 65be c00d cebd
000003b0: 87ec 273e a23a 353d 516f 933e 9b68 723e
000003c0: 1a5a 25be e590 3ebe 00d5 ebbd e095 993e
000003d0: ce88 2ebe ebb4 6d3d ba26 62bd 8e69 a33d
000003e0: 8c2a 913d 3f4d f73d acaf f83d b098 0d3e
000003f0: cb2d d5bd cf46 6c3d 8e16 3fbe 3496 25bd

layers.0.attention.E.weight f4 [30, 32]
0.1471089 -0.22454436 -0.16080195 -0.23956393 -0.2725434 -0.29127374 0.28318426 -0.0907084
-0.21554029 -0.15726462 -0.16216347 0.23775424 0.036355097 0.048126537 -0.20963527 -0.2655086
-0.3076986 0.24720755 -0.1926661 -0.17824908 -0.13080348 -0.2824702 0.22710608 0.09094654
-0.16833457 -0.16868524 -0.07036578 0.21199286 -0.24929672 -0.23272832 0.2844413 0.038343333
0.01090645 -0.29988143 0.16697061 -0.17628302 -0.16632721 -0.14168377 0.19888183 -0.28896043
0.11104203 0.16160233 -0.2337265 0.06850406 0.17150907 0.15831114 -0.12084711 -0.11535966
-0.27082622 0.006098436 -0.2992578 0.083591536 -0.024777105 -0.1143319 -0.18997756 0.09901036
-0.23351686 0.015146594 0.19687156 -0.23990884 -0.13202731 0.2398385 0.12746595 -0.27464667
-0.11531682 -0.12738025 -0.22485481 0.20913649 0.27969372 -0.03265718 0.16724326 0.06778258
0.0009409766 0.16344342 -0.14338635 0.23092766 -0.22972755 -0.013325626 -0.07721454 0.15861782
-0.11525959 -0.24128179 -0.29745188 -0.2702188 -0.24093466 -0.09713036 0.19770548 0.20810035
-0.005021509 0.13886203 0.16287299 0.14114642 0.10356461 -0.05260159 -0.1712433 0.28150642
0.12877321 0.17041928 0.17044479 -0.004966383 0.19097324 0.05399127 -0.074313626 -0.24945961
0.25267127 0.19738196 -0.09186 -0.26768506 -0.10000841 0.12949458 -0.20757678 -0.08839462
0.0049325437 -0.16140552 0.23242 0.25289688 0.16298053 -0.027589744 -0.053966254 -0.2964743
-0.24417304 0.3109019 0.21183285 0.073460855 0.19985318 0.13766666 0.03920973 0.24682291
-0.22508739 -0.30308938 -0.057043083 0.17770745 0.111618355 -0.14280066 0.24110404 0.09790066
-0.20014067 -0.01078055 0.16670217 0.13269933 -0.23737995 0.25403246 0.024131412 -0.24447939
-0.07853769 -0.03592944 -0.25235707 0.3010108 0.14962466 0.2318228 0.14052881 -0.1682979
-0.25096157 -0.10137401 0.12859116 0.22188143 -0.060971644 -0.1446338 -0.07593983 0.11557688
-0.12922592 0.08253041 -0.13785702 -0.26235658 0.036800515 0.2790971 0.02998561 -0.028658994
0.30046806 -0.17253219 0.20152497 -0.03617316 0.030724404 0.29241762 0.24518129 -0.21567826
-0.28761685 0.035650384 0.18417476 -0.011175479 0.16534054 -0.18435253 0.24352948 0.22900562
-0.18976091 -0.22911523 0.038489666 -0.0046130996 0.15586874 0.20160152 -0.29579058 -0.020328417
-0.17206174 0.06388951 0.17344156 0.19685432 -0.28769884 0.24522996 0.15655027 -0.2717083
0.0007859643 0.06124922 -0.1597908 0.2606227 0.09550078 0.14733097 0.28164873 0.0739234
0.017995631 -0.1068653 -0.16379303 -0.10864559 0.1637415 -0.20290133 0.30514014 -0.29719844
0.16389292 0.0518979 -0.073473185 0.009161153 -0.07895073 -0.30365586 -0.1381074 0.19861957
-0.16583829 0.20086265 0.21086699 -0.20293854 -0.22939187 0.19757576 0.29004887 -0.2125302
-0.097810395 0.042707484 -0.19131702 -0.08779489 0.2673076 -0.23612793 0.20911357 0.2917217
-0.19775642 0.15595688 0.2640259 0.08564701 0.03808697 -0.07440461 0.21360971 0.1920228
-0.3093612 0.02341027 -0.036789928 0.2800401 0.18997745 0.28074116 0.12103921 0.28898895
00000000: b7a3 163e f5ee 65be 44a9 24be 3f50 75be
00000010: cf8a 8bbe d521 95be 87fd 903e 53c5 b9bd
00000020: 98b6 5cbe fa09 21be 2e0e 26be d975 733e
00000030: 15e9 143d 5520 453d a1aa 56be bef0 87be
00000040: ac8a 9dbe fa23 7d3e 434a 45be ed86 36be
00000050: 59f1 05be ef9f 90be 7f8e 683e 2e42 ba3d
00000060: e65f 2cbe d3bb 2cbe ef1b 90bd a814 593e
00000070: a447 7fbe 5550 6ebe 4aa2 913e e60d 1d3d
00000080: f8b0 323c 0f8a 99be 58fa 2a3e 8983 34be
00000090: ae51 2abe 8d15 11be aea7 4b3e 9ff2 93be
000000a0: 016a e33d 157b 253e 0056 6fbe db4b 8c3d
000000b0: 13a0 2f3e 511c 223e b17e f7bd af41 ecbd
000000c0: bca9 8abe 64d5 c73b 5238 99be 0a32 ab3d
000000d0: 5bf9 cabc d826 eabd 7a89 42be f2c5 ca3d
000000e0: 0b1f 6fbe 6b29 783c b398 493e aaaa 75be
000000f0: 2b32 07be 3998 753e 6f86 023e 7d9e 8cbe
00000100: 3a2b ecbd f86f 02be 5740 66be e027 563e
00000110: 0434 8f3e 89c3 05bd d141 2b3e 98d1 8a3d
00000120: dfab 763a b65d 273e dfd3 12be 4d78 6c3e
00000130: b33d 6bbe ba53 5abc a822 9ebd b66c 223e
00000140: 380d ecbd 9312 77be 9d4b 98be 1e5a 8abe
00000150: 93b7 76be 48ec c6bd 4e73 4a3e 4218 553e
00000160: 788b a4bb d931 0e3e 2dc8 263e b088 103e
00000170: af19 d43d c474 57bd 675a 2fbe 9c21 903e
00000180: 20dd 033e 6482 2e3e 1489 2e3e 0abd a2bb
00000190: 7d8e 433e f325 5d3d be31 98bd 5772 7fbe
000001a0: 215e 813e 7f1e 4a3e 1821 bcbd 040e 89be
000001b0: 36d1 ccbd 3a9a 043e 028f 54be 3d08 b5bd
000001c0: 2da1 a13b 7d47 25be 82ff 6d3e b37b 813e
000001d0: 5ee4 263e e303 e2bc b80b 5dbd 7bcb 97be
000001e0: 7f08 7abe 892e 9f3e b6ea 583e a572 963d
000001f0: 50a6 4c3e 7df8 0c3e 629a 203d 25bf 7c3e
00000200: 4f7d 66be 882e 9bbe 02a6 69bd f1f8 353e
00000210: 2a98 e43d 563a 12be fae3 763e 2480 c83d
00000220: adf1 4cbe e7a0 30bc f9b3 2a3e 55e2 073e
00000230: bb13 73be 8b10 823e 3daf c53c ce58 7abe
00000240: 5ed8 a0bd c02a 13bd f234 81be 161e 9a3e
00000250: 3537 193e f562 6d3e c9e6 0f3e 4956 2cbe
00000260: 097e 80be 2d9d cfbd 67ad 033e e334 633e
00000270: 67bd 79bd e21a 14be 5786 9bbd 92b3 ec3d
00000280: cd53 04be b405 a93d 642a 0dbe 9a53 86be
00000290: 23bc 163d d1e5 8e3e 62a4 f53c 44c6 eabc
000002a0: f3d6 993e 47ac 30be 905c 4e3e 4f2a 14bd
000002b0: bfb1 fb3c c3b7 953e ce10 7b3e c3da 5cbe
000002c0: 8442 93be 2306 123d 4f98 3c3e 5b19 37bc
000002d0: 084f 293e e9c6 3cbe cb5f 793e 7380 6a3e
000002e0: af50 42be 2f9d 6abe 57a7 1d3d 7c29 97bb
000002f0: 0e9c 1f3e a170 4e3e dd71 97be c887 a6bc
00000300: f430 30be 81d8 823d aa9a 313e 2e94 493e
00000310: 434d 93be 901d 7b3e b74e 203e 5a1d 8bbe
00000320: 2c09 4e3a 76e0 7a3d 33a0 23be 5770 853e
00000330: ea95 c33d eedd 163e 4334 903e 2765 973d
00000340: 936b 933c 32dc dabd 5cb9 27be 9481 debd
00000350: daab 273e 5ec5 4fbe 543b 9c3e 652a 98be
00000360: 8cd3 273e e492 543d 1c79 96bd a918 163c
00000370: ecb0 a1bd c878 9bbe 076c 0dbe ee62 4b3e
00000380: 83d1 29be f0ae 4d3e 84ed 573e 1fcf 4fbe
00000390: b4e5 6abe 4d51 4a3e 4981 943e 84a1 59be
000003a0: d150 c8bd 0bee 2e3d 9ce8 43be cfcd b3bd
000003b0: 8bdc 883e 85cb 71be de21 563e 8c5c 953e
000003c0: a980 4abe 29b3 1f3e 672e 873e b367 af3d
000003d0: 1501 1c3d 7261 98bd 81bc 5a3e a0a1 443e
000003e0: 9764 9ebe e5c6 bf3c 09b1 16bd 6a61 8f3e
000003f0: 7389 423e 4ebd 8f3e 68e3 f73d 5cf6 933e

layers.0.attention.V.weight f4 [30, 32]
0.2414449 0.27799967 -0.11801638 -0.05668724 -0.23025264 -0.0824697 0.17390338 0.18703808
-0.07274483 -0.27332962 -0.10791736 -0.06223898 0.12250144 -0.09910258 0.3068394 0.007571053
0.10920213 -0.00088460854 0.11847791 0.23900451 0.28805372 -0.027499387 0.10141373 -0.027645925
0.28425145 -0.07937542 0.17919326 0.08331708 0.19602427 -0.021177555 -0.17246763 -0.13145961
0.06717036 -0.23412661 0.23307717 0.21693227 -0.03771518 0.10160994 0.061860517 -0.07373626
0.023179458 -0.25921854 -0.19604559 -0.055269063 -0.027694525 0.2874273 0.049203467 -0.28454673
-0.27853313 -0.1684428 -0.29192355 0.19697596 -0.11298272 -0.29519027 -0.041150577 0.30428708
-0.25363946 0.24102512 0.14026508 -0.18985325 0.17879304 0.0838149 0.04122493 0.2911104
0.11986694 0.12214421 -0.3008844 -0.016469909 -0.24369319 -0.08902425 0.15990227 0.18412016
-0.122024834 0.10328978 -0.19526958 -0.12027972 -0.15895276 0.14502867 -0.05506992 -0.0066635823
0.11335345 -0.0023190656 -0.2035692 0.0010335019 0.09065398 -0.1289473 -0.19224873 0.15350138
0.30971324 0.028275803 -0.2984572 -0.30549616 -0.17215426 -0.2388432 -0.28191966 -0.28541124
-0.19525203 -0.1474149 -0.23808947 -0.24130718 0.30031866 -0.13312212 0.14913404 -0.20774367
-0.19511983 -0.011095506 0.025300715 -0.0105499225 0.07096278 0.15476607 0.11375853 -0.11326818
0.2832643 0.22606732 0.2287237 0.114087015 0.2682118 -0.008115636 0.105228655 0.19943538
-0.05329835 -0.040984847 -0.009289873 -0.20444047 0.28963587 -0.20788549 0.089501955 0.2352248
-0.29593688 0.04625749 0.01965326 -0.124343045 -0.13890854 -0.3066636 0.2772923 -0.089244105
0.046401896 -0.2661082 -0.15877162 0.10011574 0.27872664 0.07156421 0.1725172 -0.2006472
0.16665581 -0.28975025 0.17414498 0.12001865 -0.1277587 0.27348718 -0.15554218 0.054508187
0.0027850668 0.28863043 -0.18534862 -0.032460134 -0.08532391 -0.28700188 -0.23874235 -0.30666906
-0.21603823 -0.15688793 0.1345225 0.24386369 -0.16338679 -0.3087514 0.29049307 -0.106058195
-0.043836832 0.27692103 0.04875378 -0.2713167 0.2404476 -0.013132213 -0.28102225 -0.28046063
-0.29042596 -0.06718182 0.21292691 -0.09548028 0.084902614 0.2781155 0.012993555 -0.25482705
0.2932232 0.043035902 0.28271544 0.14946568 0.18126386 -0.09975279 0.29587215 -0.15503767
0.1129631 -0.014799466 -0.13525933 0.1756625 0.1563067 -0.06444243 -0.20239441 -0.20244938
-0.00034221378 -0.1779232 0.29767725 -0.25429812 0.27567253 -0.08865667 0.012431542 0.048985373
0.13063806 -0.014485455 0.08987717 -0.16018872 -0.29138255 0.20061515 -0.19369888 0.04091602
0.26863116 0.20610756 -0.04757923 0.08085568 0.09312954 -0.21791223 -0.15934707 -0.20983706
-0.16165523 0.097614214 -0.19490913 0.012673851 -0.19930038 0.17165989 0.22172397 0.13251965
0.1991264 -0.1385198 0.26768228 -0.30236417 -0.108674176 -0.17218985 -0.22746304 -0.20982555
-0.12257665 -0.056524757 0.205636 0.12638365 -0.09693665 -0.2727301 -0.12505236 -0.28187677
-0.19966705 0.091547824 -0.30001506 -0.22033809 -0.08197976 0.22927666 -0.03434218 -0.14597161
00000000: 553d 773e f955 8e3e 92b2 f1bd e130 68bd
00000010: 59c7 6bbe e0e5 a8bd ba13 323e e986 3f3e
00000020: 3efb 94bd dcf1 8bbe c703 ddbd 4dee 7ebd
00000030: 09e2 fa3d 4bf6 cabd 0e1a 9d3e 9916 f83b
00000040: 5ea5 df3d 13e5 67ba 8ca4 f23d 99bd 743e
00000050: c77b 933e 6546 e1bc 00b2 cf3d b579 e2bc
00000060: 6889 913e 958f a2bd 707e 373e 25a2 aa3d
00000070: 96ba 483e 8d7c adbc 5b9b 30be 599d 06be
00000080: 9d90 893d e3be 6fbe c8ab 6e3e 7e23 5e3e
00000090: 3c7b 1abd df18 d03d 7461 7d3d 0903 97bd
000000a0: d9e2 bd3c 4bb8 84be 2dc0 48be d061 62bd
000000b0: a1df e2bc ac29 933e 9389 493d 1cb0 91be
000000c0: e59b 8ebe 457c 2cbe 0177 95be 11b4 493e
000000d0: 7c63 e7bd 2e23 97be 828d 28bd 84cb 9b3e
000000e0: 08dd 81be 4acf 763e a6a1 0f3e e468 42be
000000f0: 8615 373e 25a7 ab3d 79db 283d 6c0c 953e
00000100: cc7c f53d be26 fa3d 850d 9abe e7eb 86bc
00000110: b58a 79be 5952 b6bd 6cbd 233e ff89 3c3e
00000120: 28e8 f9bd 9889 d33d c0f4 47be 3755 f6bd
00000130: 83c4 22be 6582 143e ff90 61bd 2e5a dabb
00000140: db25 e83d 77fb 17bb 7274 50be 9276 873a
00000150: cba8 b93d c30a 04be dadc 44be 772f 1d3e
00000160: bc92 9e3e a8a2 e73c 62cf 98be fe69 9cbe
00000170: 3549 30be 5093 74be c657 90be 6c21 92be
00000180: 26f0 47be eef3 16be bacd 73be 3b19 77be
00000190: 5ec3 993e 2a51 08be 98b6 183e c2ba 54be
000001a0: 7ecd 47be edc9 35bc 7243 cf3c 95d9 2cbc
000001b0: ef54 913d ff7a 1e3e 3bfa e83d 26f9 e7bd
000001c0: 0508 913e 317e 673e 8c36 6a3e 74a6 e93d
000001d0: 0f53 893e 72f7 04bc 1f82 d73d ca38 4c3e
000001e0: 5f4f 5abd badf 27bd 8d34 18bc d858 51be
000001f0: 274b 943e efdf 54be cd4c b73d c5de 703e
00000200: 0a85 97be 7e78 3d3d e0ff a03c 91a7 febd
00000210: 0a3e 0ebe 0303 9dbe 42f9 8d3e 9dc5 b6bd
00000220: ea0f 3e3d 563f 88be 0795 22be 7b09 cd3d
00000230: 42b5 8e3e 4290 923d 59a8 303e 7676 4dbe
00000240: d2a7 2a3e 255a 94be 1053 323e 57cc f53d
00000250: 2dd3 02be 8306 8c3e 7346 1fbe fa43 5f3d
00000260: ab85 363b 5ec7 933e 07cc 3dbe ebf4 04bd
00000270: 4dbe aebd e9f1 92be e078 74be ba03 9dbe
00000280: 2039 5dbe 3ba7 20be 44c0 093e 67b7 793e
00000290: de4e 27be aa14 9ebe 82bb 943e 0a35 d9bd
000002a0: 408e 33bd 98c8 8d3e 0bb2 473d 06ea 8abe
000002b0: e537 763e 7e28 57bc 26e2 8fbe 8998 8fbe
000002c0: b6b2 94be 9f96 89bd 8309 5a3e 2a8b c3bd
000002d0: 6ce1 ad3d 2865 8e3e ebe2 543c b178 82be
000002e0: 5a21 963e 6a46 303d 14c0 903e 880d 193e
000002f0: 3c9d 393e 314b ccbd 8e7c 973e 32c2 1ebe
00000300: 3359 e73d 7679 72bc 6c81 0abe dfe0 333e
00000310: dd0e 203e 65fa 83bd 7b40 4fbe e44e 4fbe
00000320: 286b b3b9 8031 36be 2769 983e 5d33 82be
00000330: f324 8d3e a191 b5bd abad 4b3c e3a4 483d
00000340: fcc5 053e 6754 6dbc 8611 b83d 8308 24be
00000350: 1830 95be 0f6e 4d3e 0059 46be 8e97 273d
00000360: 068a 893e dc0d 533e 70e2 42bd aa97 a53d
00000370: b3ba be3d 6224 5fbe e12b 23be 87df 56be
00000380: f388 25be f6e9 c73d 4296 47be fca5 4f3c
00000390: 6615 4cbe 9cc7 2f3e 9c0b 633e 3bb3 073e
000003a0: cae7 4b3e 22d8 0dbe a70d 893e 7acf 9abe
000003b0: 9190 debd 8952 30be 12ec 68be 82dc 56be
000003c0: 7709 fbbd 8186 67bd 3e92 523e b76a 013e
000003d0: b986 c6bd 48a3 8bbe ba0d 00be 2752 90be
000003e0: 8575 4cbe 6d7d bb3d 939b 99be 4fa0 61be
000003f0: 01e5 a7bd 80c7 6a3e 63aa 0cbd 9579 15be
