interrupted_model.pth (torch, 942482 bytes, 158 tensors)

z_embedding.weight f4 [1000, 48]
0	0x3f561e73	0.8364021
1	0x3e8186e9	0.2529824
2	0x3e09b6b5	0.13448603
3	0x3f859bd6	1.0438182
4	0xbd8f061f	-0.069835894
5	0xbfddc483	-1.7325596
6	0xc027e6d3	-2.6234634
7	0xbf6edba0	-0.9330387
8	0x3f7de2d0	0.99174213
9	0x3ea4a1b4	0.3215462
10	0x3eff541e	0.49868864
11	0x400e9485	2.227815
12	0xbf1f70fc	-0.62281775
13	0x3f35659c	0.7085817
14	0x3edd6043	0.43237504
15	0xc007e321	-2.1232378
16	0xbe1483aa	-0.14503351
17	0x3fa1a073	1.262709
18	0xc00690a8	-2.102579
19	0x3ff837e5	1.9392058
20	0x3f63dc66	0.89008176
21	0xbf990f20	-1.1957741
22	0x3bd4eb49	0.0064977747
23	0x3d11ad65	0.035565753
24	0xbf68b890	-0.9090662
25	0x4008a159	2.1348479
26	0xbea11ed5	-0.31468835
27	0x3e97a2e6	0.2961647
28	0xc00a2387	-2.1584184
29	0xbfbf9118	-1.4966154
30	0xbe954141	-0.29151347
31	0x3fcea310	1.6143513
32	0xbf7bd7dc	-0.9837625
33	0x3d925257	0.07144611
34	0xbe350e0e	-0.17681143
35	0x3f4120f3	0.754409
36	0x3f94c89a	1.1623719
37	0x3f5c8bba	0.86150706
38	0x40076102	2.115296
39	0xbf4a0e12	-0.7892772
40	0x3f4f0215	0.8086255
41	0x3f59ad86	0.850304
42	0x3e4ef167	0.20209275
43	0x3ce66e95	0.028128901
44	0xbfe50af7	-1.7893971
45	0xbf2c5af3	-0.6732628
46	0x3ebc0228	0.36720395
47	0x3fb14764	1.3849912
48	0xbf26a407	-0.65094036
49	0xbeff9609	-0.49919155
50	0x3e0e7b1c	0.1391415
51	0xbfbff70f	-1.4997271
52	0xbf7d93b0	-0.9905348
53	0x3f9790f0	1.1841106
54	0xbf8d5b63	-1.1043514
55	0x3e2e9436	0.17048725
56	0x3dd3ebd0	0.10347712
57	0x3ea61277	0.32435963
58	0xbd55a834	-0.052162364
59	0xbf5154fa	-0.8177029
60	0xbd91738e	-0.071021184
61	0x3ee0ac31	0.43881372
62	0x3f0c078c	0.54699016
63	0xbf70974a	-0.9398085
64	0x3e5e57ec	0.21713227
65	0x3e612608	0.21987164
66	0xbefee9e4	-0.4978782
67	0x3f5efdb0	0.87105846
68	0xbd9a59b2	-0.07536639
69	0x3f42f9c5	0.7616237
70	0xbfadf40d	-1.3590103
71	0xbfda45ff	-1.7052611
72	0x3fcc54c4	1.5963368
73	0xbf9b614c	-1.2139068
74	0xbf77361c	-0.9656694
75	0xbfdd7943	-1.7302631
76	0xbe91b3e5	-0.2845756
77	0x3f072dab	0.5280406
78	0xbfdd7466	-1.7301147
79	0x3da1aa9f	0.078938715
80	0xbf215682	-0.63022625
81	0xbf4c0009	-0.79687554
82	0x3f909f87	1.1298684
83	0x3e86504f	0.26233146
84	0x3da658d0	0.081224084
85	0x3ee7cc7f	0.45273206
86	0x3ff54bb5	1.9163729
87	0xbfc8bf85	-1.5683447
88	0xbe415c00	-0.18882751
89	0x3f202744	0.62559915
90	0x3f1fd57e	0.6243514
91	0xbec815ac	-0.39079034
92	0x3d84e44d	0.064888574
93	0xbf4da6c6	-0.803326
94	0xbf5241bc	-0.8213155
95	0xbf9ab21c	-1.2085605
96	0x3f5b34cc	0.85627437
97	0xbe5781ca	-0.21045604
98	0xbf070302	-0.52738965
99	0xbf0f0852	-0.5587207
100	0x3eef2e5c	0.46715057
101	0x3f5aa726	0.854113
102	0xc0176072	-2.3652616
103	0xbfd33578	-1.6500692
104	0x3f0edf56	0.55809534
105	0xbd971d3f	-0.07378625
106	0x3fe35d74	1.7762895
107	0x3e60c0a3	0.21948485
108	0xbf6bf164	-0.9216521
109	0x3f30d9ba	0.69082224
110	0xbea21b59	-0.3166149
111	0x3f9094f9	1.1295463
112	0x3f370e13	0.7150585
113	0xbfd9dba4	-1.7020154
114	0xbe8c79cc	-0.27436674
115	0x3f29e1b2	0.6636001
116	0x3def0d8a	0.11672504
117	0x3fb4e429	1.4132129
118	0xbf0e3ed5	-0.55564624
119	0xbf033e29	-0.51266724
120	0xbe70ea05	-0.23526771
121	0xbf6e85f8	-0.9317317
122	0xbf8b754d	-1.0895172
123	0x3f461e92	0.77390397
124	0x3ec886a7	0.39165232
125	0x3f83eaae	1.0305994
126	0xbee4a7d1	-0.44659284
127	0x3e1cb2e4	0.15302616
128	0x3f8931f9	1.0718375
129	0xbf17f0da	-0.59351885
130	0x3f1d1bfe	0.6137084
131	0x3f736ced	0.9508808
132	0x3ff3aef2	1.9037764
133	0xbf60cfa3	-0.8781683
134	0x3eb3d4ba	0.35123235
135	0x3f26a7e6	0.6509994
136	0xbf2610c9	-0.6486936
137	0xbf4ab452	-0.79181397
138	0x40111ac6	2.2672591
139	0x3ebb0211	0.36525014
140	0x3f90f72f	1.1325434
141	0x3e03bc31	0.12864758
142	0xbe6801ee	-0.22656986
143	0xbe8430b8	-0.2581842
144	0xc0643602	-3.5657964
145	0x3ef5a436	0.47976846
146	0xbfcd7f0f	-1.60544
147	0x3fd76d3a	1.6830208
148	0xbec28e63	-0.37999257
149	0x3c88308f	0.016624717
150	0x3f11433f	0.56743234
151	0x3eb4bdb1	0.35300973
152	0xbfe25fc2	-1.7685473
153	0xbcd2d563	-0.025736516
154	0xbf1339c5	-0.57510024
155	0x3e7a8fb8	0.24468887
156	0xbe86179e	-0.26189893
157	0xbf94dad1	-1.1629277
158	0xbf222e95	-0.6335233
159	0xc001b814	-2.0268602
160	0x3fce932b	1.6138662
161	0xbf94785f	-1.1599234
162	0x3e3b173d	0.18270583
163	0x3e30cd96	0.17265925
164	0x3ff4d23b	1.9126657
165	0x3f94c672	1.1623061
166	0xbee26dd1	-0.44224408
167	0x3fb83d28	1.4393663
168	0x3e33143f	0.17488192
169	0x3ec9b2d7	0.39394256
170	0x3f5467e5	0.8297103
171	0x3f11a64d	0.5689438
172	0x402812e0	2.626152
173	0xbfabbb01	-1.3416444
174	0xbfa8325a	-1.3140366
175	0xbeef2a77	-0.46712086
176	0x3f782e19	0.9694534
177	0xbf966345	-1.1749045
178	0x3ecb0805	0.39654556
179	0xbedef589	-0.43546703
180	0xbe79d63e	-0.24398133
181	0xbec40771	-0.38286927
182	0xbb1e7e1d	-0.0024184056
183	0x3e63222b	0.22181003
184	0xbd87ae9c	-0.06625101
185	0x3e617f93	0.22021322
186	0x3f718208	0.94339037
187	0x3fe95d77	1.8231648
188	0x3e432318	0.19056356
189	0x3f650470	0.89459896
190	0x3eb3754a	0.35050422
191	0xbe8cdaf1	-0.2751079
192	0xbfa81e44	-1.3134236
193	0xbe801a6d	-0.2502016
194	0x3ec09f7a	0.3762167
195	0x3fef64cb	1.8702635
196	0x3ef226a3	0.47295102
197	0x3f973af2	1.1814864
198	0x3f03a053	0.5141651
199	0x3fe26485	1.7686926
200	0x3f85ba6b	1.0447515
201	0x3fc663f1	1.549925
202	0xbf2109ad	-0.6290539
203	0xbf64dad9	-0.89396435
204	0x3f024cdd	0.50898534
205	0xbfaa84bf	-1.3321761
206	0x3fd6c970	1.6780224
207	0x3ebd36e6	0.36955947
208	0xbfeb62a2	-1.8389475
209	0x3f4a8985	0.7911609
210	0xbf51e3dc	-0.8198831
211	0x3f88cb72	1.0687087
212	0x3f233cb8	0.63764524
213	0x3f5a0f8e	0.85179985
214	0xbf82ac36	-1.0208805
215	0x3f458a1a	0.7716385
216	0xbfa3e4f9	-1.2804252
217	0xbeb6d730	-0.3571105
218	0xbf2556f4	-0.64585805
219	0xbdb3c640	-0.087780476
220	0x3f093456	0.53595483
221	0x3f820a1a	1.0159333
222	0x3ed2906c	0.4112581
223	0x3f1acee2	0.6047193
224	0xbe856a31	-0.2605758
225	0xbf7f7851	-0.99792963
226	0xbec1381d	-0.37738124
227	0xbe9d9d67	-0.3078415
228	0xbea981f2	-0.33106953
229	0xbfb167a5	-1.3859755
230	0x3e3209f6	0.17386612
231	0xbee0e1ef	-0.43922374
232	0xbf55c065	-0.83496696
233	0xbfa2817c	-1.2695765
234	0x3efa216b	0.4885362
235	0xbf3e0a08	-0.74234056
236	0xbfad196c	-1.3523383
237	0x3f14947f	0.5803909
238	0xbf513e73	-0.81735915
239	0xbe2ebbd7	-0.17063843
240	0xbfe4dba2	-1.7879527
241	0x3eaa7e5e	0.33299536
242	0x3e89fe4f	0.26951835
243	0xbecb5789	-0.39715222
244	0x3e208f1e	0.15679595
245	0x3fa0e5a6	1.2570083
246	0x3dc0c126	0.0941184
247	0xbe93286e	-0.28741783
248	0x3e11fbb2	0.1425617
249	0x315ce927	3.2146745e-09
250	0xbeb1c844	-0.34723103
251	0xbe57802e	-0.2104499
252	0x3dfd9161	0.123812445
253	0xa7db8274	-6.092615e-15
254	0xbe959a85	-0.29219452
255	0xbf1a7fce	-0.60351264

x_embedding.weight f4 [371, 48]
0	0x3ccebcbc	0.02523648
1	0x3d417041	0.047226194
2	0x3e05b915	0.13058884
3	0xbf1b3a88	-0.60636187
4	0x3e203c2d	0.15647955
5	0xbe831cc4	-0.25607884
6	0xbdb88646	-0.090099856
7	0xbb29f48e	-0.002593312
8	0x3e863a7f	0.26216504
9	0xbe02c51e	-0.12770507
10	0x3f93fbdb	1.1561235
11	0xbc205f03	-0.009788278
12	0xbff166e0	-1.885952
13	0xbc71be4b	-0.014754842
14	0xbedd630f	-0.43239638
15	0xbde69502	-0.1125889
16	0x3f0595cb	0.5218169
17	0xbdd0f87d	-0.102036454
18	0xa0e950b5	-3.9525143e-19
19	0xbed83344	-0.42226613
20	0xbfe892b6	-1.8169773
21	0xbec47b86	-0.3837549
22	0x3d586fce	0.052841
23	0xbe88c369	-0.26711586
24	0xbf5acc1a	-0.85467684
25	0x3e9d6060	0.3073759
26	0x3e383a92	0.17991093
27	0x3e5a35e5	0.21309622
28	0x3b1d522c	0.0024005277
29	0xbebdcd0a	-0.37070495
30	0xbf61c70d	-0.8819435
31	0xbe3d79df	-0.18503521
32	0xbf6e08ba	-0.92982066
33	0x3eb4aab8	0.35286498
34	0xbf1a8956	-0.6036581
35	0x3b6ba221	0.003595479
36	0x81453b91	-3.6225922e-38
37	0xbfde3fe8	-1.7363253
38	0x3eed4bc5	0.4634687
39	0xbb6f2007	-0.0036487596
40	0xb45df968	-2.0672962e-07
41	0x3ede12e3	0.43373784
42	0xbe306e8b	-0.17229669
43	0x3f175606	0.59115636
44	0x3dba434e	0.090948686
45	0xbd893850	-0.06700194
46	0x3f9b703b	1.2143625
47	0x3c1364f2	0.008996235
48	0x3f9d2ebc	1.2279887
49	0xbc15a561	-0.009133668
50	0xbf1bdac1	-0.60880667
51	0xbde94b17	-0.113912754
52	0xbe87d07e	-0.26526254
53	0xbf19effa	-0.601318
54	0x3e0d290b	0.13785188
55	0xbca52554	-0.020159401
56	0x3f4b37a2	0.79381764
57	0x3f0bcd48	0.5461011
58	0xbfd272de	-1.6441305
59	0x3ecc59de	0.39912313
60	0x3e81e2d8	0.2536838
61	0xbfcae416	-1.5850856
62	0x3faab44b	1.3336271
63	0x3ee859fa	0.45381147
64	0xbf8bd338	-1.0923834
65	0x3e512e91	0.2042792
66	0xbf13aa93	-0.5768215
67	0xbf60dbff	-0.8783569
68	0xbf1cd3c8	-0.6126065
69	0xbe061aab	-0.1309611
70	0xbe657733	-0.22408752
71	0x3d134a99	0.035959814
72	0x3f9d7ab2	1.2303069
73	0xbe2f33b8	-0.17109573
74	0x3f2cd141	0.67506796
75	0x3e26a2bb	0.16273014
76	0xbf496d4a	-0.78682387
77	0x3edba74f	0.42901084
78	0x3f0288e4	0.5099013
79	0x3fcd13a5	1.602162
80	0x3b8b6d12	0.0042549456
81	0xbf05a237	-0.52200645
82	0xbe547b72	-0.20750216
83	0xbba8ac77	-0.0051475125
84	0x3f5193c8	0.8186612
85	0xbf19c94d	-0.60072786
86	0x3db212cc	0.086949915
87	0x3e58fd68	0.21190417
88	0xbfbd8f38	-1.4809332
89	0xbffb9072	-1.9653456
90	0x3cedc96d	0.029026711
91	0x3e6b3283	0.22968487
92	0xbb014d07	-0.001972975
93	0xbf347636	-0.70492876
94	0xbfcad7b4	-1.5847077
95	0xbf730cce	-0.94941413
96	0xbd051ca7	-0.032498028
97	0x3ef926bf	0.48662373
98	0xbeadafd3	-0.33923206
99	0x3ee5d562	0.4488936
100	0x3eb4e89d	0.3533372
101	0xbf7f035e	-0.9961451
102	0xbf6bc3bc	-0.9209554
103	0xbf5e7bce	-0.8690766
104	0xb8e5a428	-0.000109501474
105	0xbe96defe	-0.29467005
106	0xbe98fc0e	-0.29879802
107	0xbd412c1f	-0.047161218
108	0xbed1a06f	-0.40942714
109	0xbf708e25	-0.93966895
110	0xbec5e1c9	-0.38648823
111	0xbefa73bf	-0.48916432
112	0xbf2f971e	-0.6858996
113	0xbe6285b5	-0.22121318
114	0x3fc1919e	1.5122564
115	0x3e97d2f8	0.29653144
116	0x3e4e998c	0.20175761
117	0x3f54974c	0.8304336
118	0x3f3ffd2a	0.7499567
119	0xc00751a4	-2.114358
120	0x3e95e3a6	0.29275244
121	0x35909678	1.0772628e-06
122	0xbf06fb2b	-0.52727
123	0xbf868451	-1.050913
124	0xbe2f8d10	-0.17143655
125	0xbf34a844	-0.7056925
126	0xaaad64a0	-3.0800796e-13
127	0x371df0df	9.414011e-06
128	0x3f3edd8f	0.7455682
129	0x3d499406	0.04921343
130	0x3f868d38	1.0511847
131	0xbfb7b93e	-1.4353406
132	0x3fceda9d	1.6160465
133	0x3d56923c	0.052385554
134	0x3f376d14	0.71650815
135	0xbacd33f0	-0.0015655737
136	0xbf273143	-0.6530954
137	0x398dfb56	0.00027080876
138	0x3dc05261	0.093907125
139	0xbf2d2b18	-0.6764388
140	0x3e36c8c3	0.17850022
141	0xbfc39f9c	-1.5283084
142	0x3fa7f53e	1.3121717
143	0x3fad07e5	1.3518034
144	0x3f2fcf3b	0.68675584
145	0x3d3c1fbb	0.045928698
146	0x3f9b1efb	1.211883
147	0xbfdbf0d3	-1.7182869
148	0xbe729480	-0.23689461
149	0xbe7e9f6b	-0.248655
150	0xa9a0a57b	-7.1341336e-14
151	0x3f11e439	0.56988865
152	0xbfda6cb0	-1.7064419
153	0xbe325889	-0.17416586
154	0xbf051035	-0.51977855
155	0x3e9d64b6	0.307409
156	0x8df5dd64	-1.5152589e-30
157	0xbe9eef19	-0.31041792
158	0xbf9a7fe1	-1.2070276
159	0x3ebd9005	0.3702394
160	0xb96baacf	-0.00022474978
161	0xc015819f	-2.3360364
162	0x3e4bd61e	0.19905898
163	0x3de00607	0.109386496
164	0x3e3b5c22	0.18296865
165	0xbf8f9803	-1.1218265
166	0x3f47648c	0.778878
167	0xbee69cd1	-0.45041516
168	0xbf4f0308	-0.80864
169	0x3ed3fb5b	0.41402707
170	0x3f3b3e50	0.73141956
171	0xbd58e10c	-0.052948996
172	0xbec215c0	-0.3790722
173	0x3f8ab325	1.083592
174	0xc0185711	-2.380314
175	0x3f01c84a	0.5069624
176	0x3f59e6b4	0.8511765
177	0x3fbc7889	1.4724284
178	0xbe92a357	-0.28640243
179	0x3efe1a7d	0.49629584
180	0x3e2dc503	0.16969685
181	0x3c7c41ee	0.015396578
182	0x3f6a663d	0.91562253
183	0x3ea82201	0.32838443
184	0xbfd36f82	-1.6518404
185	0x3dd798e0	0.105272055
186	0xa56fd8ed	-2.0803443e-16
187	0x3fb1c066	1.388684
188	0x3e928e3d	0.28624144
189	0xbfc1b88f	-1.5134448
190	0xbf49d1cb	-0.78835744
191	0x403ae16f	2.9200094
192	0x3e8c6f9d	0.27428904
193	0xbfd5ce7d	-1.670364
194	0xbecd13c1	-0.40054134
195	0x3ed3f5be	0.41398424
196	0x3eb87edc	0.36034286
197	0x3fb8cfd0	1.4438419
198	0x321b4313	9.037438e-09
199	0x3f1b69bc	0.6070821
200	0x3fb74883	1.4319004
201	0xbb4452ac	-0.0029956503
202	0x3eda0269	0.42579964
203	0x3e7278fa	0.23678961
204	0xbebbb614	-0.36662352
205	0x3fb163e9	1.3858615
206	0x8000d116	-7.5006e-41
207	0xbe4c86c5	-0.19973285
208	0xbf59002d	-0.84765893
209	0x3f46fa86	0.7772602
210	0xbe805ba1	-0.25069907
211	0x9ca0f391	-1.0650872e-21
212	0x3db1d606	0.086834
213	0x3ffe7e25	1.9882246
214	0xbf02844a	-0.5098311
215	0x3f2f849c	0.6856172
216	0x3c2325e9	0.009957769
217	0x3e9485f2	0.29008442
218	0xbec7f800	-0.39056396
219	0x3d615d75	0.05502077
220	0xbfee0ad9	-1.859706
221	0x3fae360a	1.3610241
222	0x3e50e5fd	0.20400234
223	0x3e4412c1	0.19147779
224	0x3e5e717d	0.2172298
225	0xbf036f06	-0.51341283
226	0xbea12a23	-0.3147746
227	0x3f304ee5	0.68870384
228	0xbb536e92	-0.003226195
229	0x4015d20a	2.3409448
230	0x3f2b4284	0.6689837
231	0xbf158f91	-0.5842219
232	0xbe9e3f6c	-0.30907762
233	0xbe8bd2cf	-0.27309272
234	0xbe11d47d	-0.14241214
235	0xbf87d0ce	-1.0610597
236	0x3e4ecb8a	0.20194831
237	0x3fe4976a	1.7858708
238	0xbdbc16c5	-0.091840304
239	0x3e3bc7b4	0.183379
240	0x3f638421	0.8887349
241	0xbe0294b9	-0.12752046
242	0xbef66b4c	-0.48128736
243	0x3f9e6a45	1.2376181
244	0x3f37a3f2	0.71734536
245	0x3df5cbc7	0.12001758
246	0x3fad9378	1.3560629
247	0x3c016d09	0.007899531
248	0x3efd53fc	0.49478137
249	0x3e8ea4d8	0.2786014
250	0x3f42a3f2	0.7603141
251	0xbf078b20	-0.5294666
252	0x3ede79a9	0.43452194
253	0x3fbf5639	1.4948188
254	0xb8af18f8	-8.349301e-05
255	0x3e81abff	0.25326535

e_embedding.weight f4 [2, 48]
0	0xbea348e6	-0.31891555
1	0xbf5dd90a	-0.866593
2	0x800089b9	-4.9406e-41
3	0xbc2cd83a	-0.010549599
4	0xc0173b97	-2.363012
5	0x2ec9c82a	9.175978e-11
6	0xb5ad2100	-1.2899109e-06
7	0x3fa192a8	1.2622881
8	0xbdef8f97	-0.116973095
9	0xbba12cd0	-0.004918672
10	0x3d23ec85	0.040020484
11	0x3f09a3b0	0.5376539
12	0x3e9563e4	0.29177773
13	0xbfc6d4d4	-1.55337
14	0x3f625f88	0.8842702
15	0xbfbf10db	-1.4927019
16	0xbf6d7b9e	-0.9276675
17	0x3f7d29a0	0.9889164
18	0xbf2d54de	-0.6770762
19	0xbdc2134c	-0.09476337
20	0x3daffff5	0.08593742
21	0x3f7ae34a	0.98003066
22	0x3fd49c4e	1.66102
23	0xbed425cd	-0.4143509
24	0xbe06deb3	-0.1317089
25	0x3f97a515	1.1847254
26	0x3f0261e8	0.50930643
27	0x3f55a2c9	0.83451515
28	0xbeffd33a	-0.4996584
29	0x3d2186f1	0.03943533
30	0x4010c27b	2.2618701
31	0x3f48e6c4	0.7847712
32	0x3df5c886	0.120011374
33	0x3dda9f45	0.106749095
34	0xbf9ef984	-1.2419896
35	0xbf196317	-0.59916824
36	0xbf7a6f9d	-0.9782656
37	0x3f0a2370	0.53960323
38	0xbf358609	-0.70907646
39	0x3f399a0e	0.72500694
40	0x3f705731	0.93883044
41	0xbf4b8ef0	-0.7951498
42	0xbefb2d8e	-0.49058193
43	0xbe717132	-0.23578337
44	0x3fd2632e	1.6436517
45	0x3e1b7fcb	0.15185468
46	0x3fa93b57	1.3221234
47	0x3d17d9b6	0.03707286
48	0xbf436553	-0.76326483
49	0xbda84f23	-0.08218219
50	0xbf939eed	-1.1532875
51	0x3e95a025	0.29223743
52	0x3e446f22	0.19183019
53	0xbf807e31	-1.003851
54	0xbf223e0e	-0.6337594
55	0xbfd75af3	-1.682463
56	0x3ebdf6bc	0.37102306
57	0xbefb95a7	-0.49137613
58	0x3dbef7c2	0.093246
59	0x3d5d6e1c	0.054060087
60	0xbe89194e	-0.26777118
61	0x3fb7a3a8	1.4346819
62	0x3f2c3350	0.67265797
63	0xbfa69eec	-1.3017249
64	0xbe391be9	-0.18077053
65	0xbf352121	-0.70753676
66	0x3f5eda7e	0.8705214
67	0xbeabaf7f	-0.3353233
68	0xbed79d8c	-0.42112386
69	0x3f87803f	1.0586013
70	0x3f3bbd9e	0.7333621
71	0x3ec480bb	0.38379464
72	0x3f5d7524	0.8650687
73	0x3f843ee7	1.0331696
74	0xbe9d833d	-0.3076419
75	0x3e9d9734	0.3077942
76	0xbf1d52b0	-0.61454296
77	0xbffc331e	-1.97031
78	0x3f9386f9	1.1525565
79	0x40095fbe	2.1464686
80	0x3e185e89	0.14879812
81	0x3f49533c	0.7864263
82	0xbdcee5e7	-0.10102444
83	0xbf51c162	-0.81935704
84	0xbf11a2c5	-0.5688899
85	0x4008ff34	2.1405764
86	0xbe93a7f2	-0.2883907
87	0x3fced195	1.6157709
88	0xbfe2a4e7	-1.7706574
89	0x3f801f07	1.0009469
90	0xbc5ee724	-0.013604913
91	0x40619167	3.5244997
92	0x3ed15602	0.4088593
93	0xc03089e3	-2.758416
94	0x3e0f6ace	0.14005587
95	0xbe434dfb	-0.19072716

h_embedding.weight f4 [48, 160]
0	0xbd34c6b9	-0.04413483
1	0x3ab6ce22	0.001394693
2	0x3e16830b	0.14698426
3	0xbd90c353	-0.07068505
4	0xbe3263e0	-0.17420912
5	0x3d6fa34c	0.05850534
6	0x3d685b20	0.05672753
7	0xbe026321	-0.12733127
8	0xbe09e403	-0.13465886
9	0x3e0c7c65	0.13719328
10	0xbe18fd26	-0.14940318
11	0xbe3c4543	-0.18385796
12	0x3e073f2f	0.13207696
13	0x3d8b85fd	0.068126656
14	0xbd989552	-0.074503556
15	0xbd2e0810	-0.042488158
16	0x3e1e4010	0.15454125
17	0x3e01fab6	0.12693295
18	0xbda7f509	-0.082010336
19	0xbd860c22	-0.06545283
20	0xbd8ec8cb	-0.06971892
21	0x3d93b01c	0.072113246
22	0x3db7274b	0.089430414
23	0xbd93b496	-0.072121784
24	0xbdd8306b	-0.1055611
25	0x3d557372	0.05211205
26	0x3d9c16a0	0.07621503
27	0xbe45300c	-0.1925661
28	0x3d8dade7	0.06917935
29	0xbdd6a625	-0.10480908
30	0x3d8d0310	0.0688535
31	0x3d61e2bc	0.05514787
32	0x3cc80af5	0.024419287
33	0x3d06189d	0.032738317
34	0x3cb6892e	0.02228221
35	0x3cbf9a47	0.023388995
36	0xbd8e6c8a	-0.06954296
37	0xbd8be496	-0.06830709
38	0x3d02387c	0.03179215
39	0xbc1b7735	-0.00948887
40	0x3cf475a2	0.029841248
41	0x3dbcd340	0.0921998
42	0xbe167fc7	-0.1469718
43	0x3d33eca3	0.043926846
44	0x3e3a9f53	0.1822484
45	0xbe31cea9	-0.17363991
46	0xbd8ac977	-0.067767076
47	0xbd84f3f2	-0.064918414
48	0x3e145f65	0.14489515
49	0xbd16bcde	-0.03680121
50	0x3d284407	0.0410805
51	0x3e2a59ae	0.16635773
52	0x3d305c65	0.043056864
53	0xbcbdf59a	-0.023188401
54	0xbd833bc6	-0.06407885
55	0x3da680c7	0.08130031
56	0xbb6ddd15	-0.0036295105
57	0xbc12c498	-0.008958004
58	0xbd9ed550	-0.0775553
59	0x3e153eb0	0.14574695
60	0x3e10af30	0.14129329
61	0x3d198876	0.037483655
62	0xbd19638d	-0.037448455
63	0xbc6e7cb3	-0.014556098
64	0x3d2c6373	0.04208703
65	0x3d19da08	0.037561446
66	0x3de235ea	0.110454395
67	0x3d583063	0.05278052
68	0xbe0a7059	-0.1351942
69	0xbd302340	-0.043002367
70	0xbc9f9998	-0.019482419
71	0xbd0c0b64	-0.03419055
72	0xbe06e351	-0.13172652
73	0xbdff6ab6	-0.12471525
74	0x3d85d5a1	0.06534887
75	0xbc657236	-0.014004281
76	0xbd13f752	-0.036124535
77	0x3e0798c3	0.13241868
78	0x3db51be4	0.0884321
79	0xbd87cc88	-0.06630808
80	0xbc181123	-0.009281429
81	0x3e21babb	0.15793888
82	0x3cfb34c0	0.030664802
83	0x3de078e9	0.10960562
84	0xbcc68422	-0.024232928
85	0x3daf91fd	0.08572767
86	0x3d40a2b9	0.047030184
87	0xbcb40fd8	-0.021980211
88	0x3d94d84e	0.07267819
89	0x3c5c7674	0.013455976
90	0xbd356e39	-0.04429457
91	0x3dba3abc	0.09093234
92	0xbd377ed6	-0.044798695
93	0x3dc90aaf	0.09816491
94	0xbc9f0889	-0.01941325
95	0xbdad938a	-0.084754065
96	0xaf60013c	-2.037312e-10
97	0x2dbe2490	2.1616736e-11
98	0x800088fb	-4.914e-41
99	0xbdce70c9	-0.10080106
100	0x3c208621	0.009797604
101	0xbd3b7da5	-0.04577412
102	0x3ac403b6	0.0014954719
103	0x3a9e1280	0.0012059957
104	0x3cd748a0	0.026279747
105	0x3d122f90	0.03568989
106	0x39057541	0.00012727549
107	0x3d207116	0.039170347
108	0xbddc8e11	-0.107692845
109	0xbd920f9d	-0.07131884
110	0xbd99a7d8	-0.07502717
111	0x3d659cbb	0.056057673
112	0x3db87525	0.090067185
113	0xbb9ee872	-0.004849487
114	0xb7bfe52f	-2.2875696e-05
115	0x3de54e98	0.11196631
116	0x3cbfacfb	0.023397913
117	0x3d80855c	0.06275436
118	0xbd60bb69	-0.05486623
119	0x3dc07cc4	0.09398797
120	0x3cfffbd6	0.031248014
121	0x3c163496	0.009167811
122	0x3d44bfa4	0.048034325
123	0xbce3a553	-0.027788794
124	0x3dd6a158	0.10479993
125	0xbd9a02f1	-0.07520092
126	0xbde0176c	-0.10941967
127	0x3ca4b940	0.020107865
128	0xbdfd7ea0	-0.123776674
129	0x3d556ddd	0.052106727
130	0x3b196f13	0.0023412153
131	0xbd760302	-0.060061462
132	0x38706083	5.7310343e-05
133	0xbdbc275c	-0.09187195
134	0xbd33ffe2	-0.0439452
135	0x000088f5	4.9131e-41
136	0x3df717d6	0.12065093
137	0x3c698ac0	0.014254272
138	0xbc2cdf1f	-0.010551243
139	0x3da97dfb	0.08275982
140	0x3d865226	0.06558637
141	0x3d342396	0.04397925
142	0xbd800b67	-0.06252175
143	0xbdb5852a	-0.0886329
144	0x3dd5bdbd	0.1043658
145	0xbbc31e85	-0.005954566
146	0xbd7dc2ad	-0.061953235
147	0xbdeb67b1	-0.11494387
148	0x3d488979	0.04895923
149	0x3d12caaa	0.035837807
150	0xbd0de24f	-0.034639653
151	0x3dae43c5	0.0850902
152	0xbc0ca512	-0.008584278
153	0x3dc04dd0	0.093898416
154	0x380c160b	3.339913e-05
155	0xbd84b180	-0.06479168
156	0xbd61c756	-0.055121742
157	0x3c92409e	0.017853078
158	0x3d2b332a	0.04179684
159	0x3d761cdc	0.060086116
160	0x3d503c09	0.050838504
161	0x3d1bdb6f	0.038051065
162	0xbe00ad86	-0.12566194
163	0x3e028ee0	0.12749815
164	0x3e0a6b92	0.13517597
165	0xbde625ea	-0.112377
166	0xbd9d7d69	-0.07689936
167	0xbd7049a2	-0.05866397
168	0xbdf8e1c5	-0.12152437
169	0x3d8f47f1	0.069961436
170	0xbdb9a6a8	-0.0906499
171	0x3e3ee85e	0.18643329
172	0xbdc8ae66	-0.09798889
173	0x3e26bb77	0.1628245
174	0xbdea7ec3	-0.11449959
175	0x3d898c81	0.06716252
176	0x3e10f29b	0.14155047
177	0xbdc8a6a3	-0.097974084
178	0xbe2be8e1	-0.16788055
179	0xbdc41f55	-0.095762886
180	0xbcb8377b	-0.022487393
181	0xbdebd2d6	-0.11514823
182	0xbdd4ebfc	-0.10396573
183	0xbc9999b3	-0.018750047
184	0x3dfcba2b	0.12340196
185	0x3e018474	0.12648183
186	0xbc88506a	-0.016639907
187	0xbcadceed	-0.021216834
188	0x3dd269d9	0.10274095
189	0xbe2f66eb	-0.17129104
190	0xbe22be3f	-0.15892886
191	0xbd76f09e	-0.060288064
192	0x3d688fe4	0.05677785
193	0xbd329062	-0.043594725
194	0xbb1863b6	-0.0023252792
195	0xbdc49ec0	-0.09600592
196	0x3e3ee513	0.18642072
197	0x3e07b2a4	0.1325174
198	0x3bb312bc	0.00546488
199	0x3e0fff47	0.14062224
200	0x3db79c0e	0.08965312
201	0x3d1be829	0.038063202
202	0x3c13bcab	0.00901715
203	0xbd8de84b	-0.06929072
204	0xbe0daf9d	-0.13836522
205	0x3df3fcfc	0.11913487
206	0x3e013877	0.12619196
207	0x3cab2138	0.020889863
208	0x3b3b9f15	0.0028628756
209	0x3e187d0e	0.14891455
210	0x3e2459f1	0.16049935
211	0x3db1ca60	0.08681178
212	0x3d84e38b	0.06488713
213	0xbd26ce54	-0.040724114
214	0xbdb7fd5a	-0.0898387
215	0xbc88c898	-0.016697213
216	0x3ce6f8ff	0.028194902
217	0x3decd082	0.11563207
218	0x3d42e53e	0.047581904
219	0xbe22678f	-0.15859817
220	0x3ded9312	0.11600317
221	0x3e20056e	0.15627071
222	0x3c84c938	0.01620923
223	0xbd0545bb	-0.032537203
224	0xbe041728	-0.12899458
225	0x3e1982ba	0.14991274
226	0x3e0d8fbd	0.13824363
227	0xbddd7fec	-0.10815415
228	0xbd848244	-0.06470159
229	0x3e124430	0.14283824
230	0xbdbece8c	-0.093167394
231	0xbd0d6558	-0.034520477
232	0xbd8a6a83	-0.06758597
233	0x3d0604da	0.03271947
234	0x3ab2fa6e	0.0013654956
235	0xbde6034d	-0.11231098
236	0xbde7a5af	-0.113108985
237	0xbe1e8fdc	-0.15484565
238	0xbb990406	-0.004669669
239	0x3e261afc	0.16221231
240	0xbdbeec7a	-0.09322448
241	0x3d36a2cd	0.044588853
242	0xbceb1836	-0.028698068
243	0x3dc0693e	0.09395073
244	0x3c1aa7fc	0.009439465
245	0x3daab8be	0.08336018
246	0x3d14dcbc	0.03634332
247	0xbcc0688a	-0.023487348
248	0xbccab0a2	-0.024742428
249	0x3d00bfc5	0.031432886
250	0xbdde8bd7	-0.10866516
251	0xbc95a88a	-0.018268842
252	0xbdaf98e8	-0.085740864
253	0x3b9d6d0c	0.004804259
254	0xbddeaf3a	-0.108732656
255	0x3d74786c	0.059685156

h_embedding.bias f4 [48]
0	0xbc3b0a50	-0.011416033
1	0x3c110926	0.008852279
2	0xbbb72b5a	-0.0055898847
3	0xba19b3f6	-0.0005863303
4	0x3b1e1b31	0.0024125094
5	0x3c37168c	0.011174809
6	0xbb8e9f3e	-0.0043524792
7	0x3b966fc2	0.0045909593
8	0x39ad1cd6	0.00033018616
9	0xbb8ad2dc	-0.004236562
10	0xbc30fdbc	-0.0108026825
11	0x3bbbbafb	0.005729077
12	0xbc61d3f6	-0.013783446
13	0x3cb90521	0.022585453
14	0xbb966834	-0.0045900587
15	0x3c912a7d	0.017720455
16	0x3b50c438	0.0031855237
17	0x3c8f8338	0.017518625
18	0xbbc3152e	-0.0059534525
19	0xbbefdb74	-0.007319862
20	0xba6abf27	-0.00089548755
21	0x3ba070ad	0.0048962445
22	0xb99671bb	-0.00028694965
23	0xbc664091	-0.01405348
24	0xbc95d1fc	-0.018288605
25	0xbb689534	-0.0035489323
26	0x3b488468	0.0030596498
27	0x3c140b0b	0.009035836
28	0xbc8bf940	-0.017086625
29	0x3c8b8c14	0.017034568
30	0x3b9c715a	0.0047742547
31	0xbc412d9b	-0.011790658
32	0xbbac4ceb	-0.005258193
33	0x3bd58699	0.0065162894
34	0x3c032ea6	0.008006727
35	0x3c4d6e74	0.012538541
36	0xbc28d141	-0.010303796
37	0xbc8baecc	-0.017051123
38	0x3c1e36bd	0.009656605
39	0x3c5a6271	0.013329134
40	0xbc505373	-0.012715208
41	0xbba026ef	-0.0048874537
42	0x3c372570	0.011178359
43	0xbc59205e	-0.013252346
44	0xbbd8a50f	-0.0066114734
45	0x3bb05469	0.005381156
46	0x3c31c75b	0.010850753
47	0xbbdabd68	-0.006675411

initial_layer_norm.weight f4 [48]
0	0x3f7d9494	0.9905484
1	0x3f80ad79	1.005294
2	0x3f8075d3	1.0035957
3	0x3f7cf88b	0.98816746
4	0x3f800555	1.0001627
5	0x3f7e5b73	0.9935829
6	0x3f7e5720	0.9935169
7	0x3f801770	1.0007153
8	0x3f800122	1.0000346
9	0x3f7f28f0	0.9967184
10	0x3f7c4e95	0.98557407
11	0x3f79dd85	0.97603637
12	0x3f7cab67	0.9869904
13	0x3f793a5e	0.97354686
14	0x3f7c5446	0.9856609
15	0x3f7bf394	0.98418546
16	0x3f804da9	1.00237
17	0x3f811fd1	1.0087835
18	0x3f803d09	1.0018626
19	0x3f7f037e	0.99614704
20	0x3f7ddd52	0.99165833
21	0x3f7c2fc0	0.9851036
22	0x3f7d18a2	0.9886571
23	0x3f7ed970	0.99550533
24	0x3f7ebe75	0.99509364
25	0x3f7dfb95	0.9921201
26	0x3f7b817a	0.9824444
27	0x3f7cd52b	0.9876277
28	0x3f80467a	1.0021508
29	0x3f7f1786	0.9964527
30	0x3f7f0a76	0.9962534
31	0x3f7fcd0f	0.9992227
32	0x3f7d409d	0.9892672
33	0x3f7e59cb	0.99355763
34	0x3f7f0b64	0.99626756
35	0x3f7d29db	0.9889199
36	0x3f7d6a0d	0.98989946
37	0x3f807486	1.003556
38	0x3f7ee711	0.9957133
39	0x3f817aa9	1.0115558
40	0x3f7a8dfc	0.978729
41	0x3f7ff449	0.99982125
42	0x3f809dc8	1.0048151
43	0x3f7babe6	0.9830917
44	0x3f7ec9df	0.9952678
45	0x3f7e288c	0.9928062
46	0x3f798914	0.9747479
47	0x3f7e68f9	0.99378926

initial_layer_norm.bias f4 [48]
0	0xbacaf136	-0.0015483263
1	0xbb0916ec	-0.0020918204
2	0xbba8c256	-0.00515012
3	0xbaaf6b15	-0.0013383353
4	0x3c0b5773	0.008504736
5	0x3bf488c9	0.007462595
6	0x3a1c428a	0.0005960843
7	0x3bfd50c8	0.007730577
8	0x3c02ac7a	0.007975692
9	0x3c9807b7	0.018558366
10	0xbbdad433	-0.006678128
11	0x3baa8b41	0.0052045886
12	0xbbb59d6e	-0.0055424487
13	0x3bb22fd2	0.0054378295
14	0xba92a757	-0.0011188787
15	0x3c98fbe0	0.01867479
16	0x3a622084	0.0008626061
17	0x3b8e4a20	0.0043423325
18	0xbb8dcf72	-0.004327708
19	0xbbb636af	-0.005560718
20	0x3a6abee8	0.0008954839
21	0x3ad71489	0.0016409318
22	0x3b323b7d	0.0027196102
23	0xbbba06e7	-0.0056770924
24	0xbc93d7fe	-0.018047329
25	0x3bacb2d7	0.005270343
26	0xbb131ece	-0.002244878
27	0x3c0eff73	0.008727896
28	0xbcb5c352	-0.022187863
29	0x3ca1c1c4	0.019745715
30	0x3c2e0643	0.01062161
31	0xbbfb3936	-0.007666732
32	0xbb9e7f3d	-0.0048369453
33	0x3b9785b4	0.004624093
34	0x3c1a61a1	0.009422691
35	0x3c38b13e	0.011272727
36	0xbb88411b	-0.004158152
37	0xbc296996	-0.010340115
38	0x3b0aa721	0.0021156745
39	0x3caf4867	0.021396829
40	0x3b9d037c	0.004791675
41	0x3bee726e	0.0072768247
42	0x3a25f195	0.0006330249
43	0xbc9960dc	-0.018722944
44	0xbc365ce8	-0.011130549
45	0x3c19a061	0.009376616
46	0x3ccf0f8a	0.025275964
47	0xba476293	-0.0007605936

layers.0.attention.Q.weight f4 [48, 48]
0	0x394da68b	0.00019612366
1	0xbe492101	-0.19641496
2	0xbba31a11	-0.0049774726
3	0xbc42b11b	-0.011883046
4	0x3ccf6359	0.025315927
5	0x3e2a2993	0.16617422
6	0xbd50e152	-0.050996132
7	0xbe29891f	-0.16556214
8	0xbd2fd9c8	-0.0429323
9	0x3e37eed1	0.17962195
10	0xbe001b49	-0.12510408
11	0x3e1e6471	0.15468003
12	0xbe606fe8	-0.21917689
13	0x3dac5e77	0.08416455
14	0xbdd1bb6c	-0.10240826
15	0xbdf60df2	-0.120143786
16	0x3e35be11	0.17748286
17	0xbe090850	-0.13382077
18	0x3e44c70a	0.19216552
19	0xbe0016d4	-0.12508708
20	0x3e12828c	0.14307612
21	0x3e0391b2	0.12848547
22	0x3dfa81ea	0.122318104
23	0xbe49bd65	-0.19701155
24	0xbdab3f94	-0.08361736
25	0x3d447d42	0.047971018
26	0xbda9dd8f	-0.08294212
27	0xbdddb8c1	-0.10826255
28	0xbe092d66	-0.13396224
29	0x3e36b3ac	0.17841977
30	0xbd0e9d07	-0.03481772
31	0xbd53613e	-0.05160641
32	0xbd362c07	-0.04447558
33	0x3e0ecc44	0.13945109
34	0xbe09a1fc	-0.13440698
35	0xbe242a4a	-0.16031757
36	0xbd575521	-0.05257142
37	0xba54ed7e	-0.00081225473
38	0xbe067a4e	-0.13132593
39	0xbdbf2c00	-0.09334564
40	0xbd47e599	-0.048802946
41	0xbe28cc97	-0.16484295
42	0xbda47247	-0.08029609
43	0x3e2a4be1	0.16630508
44	0xbde6299c	-0.11238405
45	0x3e1cbc9c	0.15306324
46	0xbb318d2c	-0.0027092202
47	0x3d211c88	0.03933385
48	0xbe084425	-0.13307245
49	0x3de4b956	0.111681625
50	0x3d1cb012	0.03825385
51	0x3e737886	0.23776445
52	0x3e247fc2	0.1606436
53	0x3e73f557	0.23824058
54	0xbd6d9baa	-0.05800978
55	0x3db30f58	0.08743161
56	0x3d666321	0.05624688
57	0x3e303072	0.1720598
58	0xbe4ae503	-0.19813924
59	0x3e52e46a	0.20594946
60	0x3dd7aa6b	0.105305515
61	0xbe562a41	-0.20914556
62	0xbde81c67	-0.11333542
63	0x3d361dfe	0.044462197
64	0x3ca45380	0.020059347
65	0x3d18dc7b	0.03731964
66	0xbe67d60d	-0.22640248
67	0x3d70a4a5	0.058750767
68	0x3e30c070	0.17260909
69	0xbe10e5b0	-0.14150119
70	0x3e719385	0.2359143
71	0x3d9bba6b	0.07603916
72	0x3da010d9	0.078157134
73	0x3e716e46	0.23577222
74	0x3e715784	0.23568541
75	0xbe4f0c72	-0.20219591
76	0xbdd33e8f	-0.103146665
77	0x3dbc3ef6	0.09191696
78	0xbddd4471	-0.1080407
79	0x3b970217	0.0046084034
80	0xbe5d78a3	-0.2162805
81	0xbd474149	-0.048646245
82	0xbe70e0c1	-0.23523237
83	0x3e3e8894	0.18606788
84	0x3e014ff6	0.12628159
85	0xbe39ce3a	-0.18145075
86	0x3d2b09e1	0.041757468
87	0xbd606faa	-0.05479399
88	0xbe2f72b7	-0.17133604
89	0x3d22b582	0.03972388
90	0x3cdb8060	0.026794612
91	0x3c97c0c0	0.018524528
92	0x3e068c5b	0.13139479
93	0xbddf854f	-0.109140985
94	0xbe05824f	-0.1303799
95	0x3e48a585	0.1959439
96	0xbdc2931d	-0.09500716
97	0xbe0cb998	-0.13742673
98	0xbd45938f	-0.048236426
99	0x3d8f6d73	0.07003298
100	0x3d8318ba	0.064012006
101	0xbd20aab7	-0.039225306
102	0xbbd0409e	-0.006355359
103	0x3d057a58	0.03258738
104	0x3dbc3acd	0.09190903
105	0xbc02ee29	-0.007991352
106	0x3d6735ee	0.056447916
107	0xbbfe0730	-0.0077523217
108	0x3e0dabca	0.13835064
109	0x3dfc6423	0.12323787
110	0xbdc8e2e9	-0.09808905
111	0xbe14be63	-0.14525752
112	0xbd128434	-0.03577061
113	0x3defc3b7	0.117072515
114	0x3c85c9fa	0.016331661
115	0x3dab458b	0.08362874
116	0x3d004227	0.031313088
117	0xbc9cde91	-0.019149097
118	0xbd9642a1	-0.07336927
119	0xbdaa4298	-0.08313483
120	0x3ad9a70d	0.0016605571
121	0x3dbef746	0.093245074
122	0xbc46f94c	-0.012144398
123	0x3cedf4ac	0.029047333
124	0x3d9f5d2f	0.07781445
125	0x3d29bf63	0.041442286
126	0x3a78e81b	0.00094950356
127	0xbdcf8727	-0.101332
128	0xbdaf5919	-0.08561916
129	0xbd1537b2	-0.03643007
130	0x3dae55f2	0.085124865
131	0xbdc28c6e	-0.09499441
132	0x3ddf61ee	0.109073505
133	0x3dc08713	0.09400763
134	0x3dd5364d	0.10410748
135	0xbd20b99f	-0.039239522
136	0x3b5abddd	0.0033377327
137	0x3d9f5a7a	0.07780929
138	0x3e29c847	0.16580306
139	0xbdb63e7f	-0.08898639
140	0xbd6324e5	-0.055455107
141	0xbc656243	-0.014000478
142	0x3c0d6000	0.008628845
143	0x3dd5566b	0.104168735
144	0xbda00739	-0.078138776
145	0xbe77bc2f	-0.2419288
146	0xbd214413	-0.03937156
147	0xbbddaf7b	-0.0067653037
148	0xbdc918df	-0.09819197
149	0x3dd0421a	0.10168858
150	0xbccbbbfa	-0.024869908
151	0xbd914532	-0.07093276
152	0xbd710cdb	-0.05885015
153	0x3e15caf6	0.14628205
154	0xbb7e71f7	-0.0038825253
155	0x3e5be809	0.21475233
156	0xbca622ab	-0.020280203
157	0x3d8e550a	0.06949814
158	0xbe296e33	-0.16545944
159	0x3e55f952	0.2089589
160	0xbe087bed	-0.13328524
161	0xbae208e2	-0.0017245079
162	0x3d34d56f	0.04414886
163	0x3e0e96ce	0.13924715
164	0x3e5932cf	0.21210788
165	0xbe3df908	-0.18552029
166	0x3e55a255	0.20862706
167	0xbe0d53b2	-0.13801458
168	0x3e6cb961	0.23117591
169	0x3cc2f97a	0.0238006
170	0x3e16862d	0.14699621
171	0x3e5bc2b6	0.21460995
172	0x3e0955cd	0.13411637
173	0x3e045657	0.12923561
174	0xbd307818	-0.04308328
175	0xbe27a901	-0.16373064
176	0x3e2c427e	0.1682224
177	0xbe68a3a6	-0.22718677
178	0x3daf006c	0.08545002
179	0x3d813713	0.06309333
180	0x3e3eb6a0	0.18624353
181	0xbdf91483	-0.121621154
182	0x3b9b501a	0.0047397735
183	0xbc59b2ea	-0.013287285
184	0xbe50d568	-0.20393908
185	0x3d98f4f0	0.07468593
186	0xbe0287f2	-0.12747172
187	0x3e6a336b	0.22871177
188	0x3e69ff4b	0.22851293
189	0xbdbd7529	-0.09250862
190	0x3cb8a91a	0.022541571
191	0xbe15f568	-0.14644396
192	0x3e78287c	0.24234194
193	0xbe0628ac	-0.13101453
194	0xbd81c34b	-0.06336077
195	0x3e32e428	0.17469847
196	0xbe7ca97a	-0.24674025
197	0xbe66ac09	-0.22526564
198	0x3e405c86	0.18785295
199	0x3c0196cb	0.007909487
200	0xbc0c8117	-0.008575699
201	0x3c98729d	0.01860934
202	0xbcfbf5a9	-0.030756788
203	0xbcd4cfb1	-0.025977941
204	0x3d284fa9	0.041091595
205	0x3d46cc95	0.04853495
206	0xbc2df7a2	-0.010618122
207	0xbe01f1c0	-0.12689877
208	0x3dae3956	0.0850703
209	0x3d6182c7	0.05505636
210	0xbe114c1d	-0.14189191
211	0x3e135be4	0.14390522
212	0x3c887f7b	0.01666235
213	0xbcfe95ae	-0.031077232
214	0xbd9f498b	-0.07777699
215	0xbe124d2b	-0.1428725
216	0xbe06b324	-0.13154274
217	0xbe456b43	-0.19279198
218	0xbe0fb978	-0.14035594
219	0x3e51d706	0.20492181
220	0xbe47ba3f	-0.19504641
221	0x3db7d3b0	0.08975923
222	0xbc3ce186	-0.011528378
223	0x3e20efdb	0.15716498
224	0x3dda3ac8	0.10655743
225	0x3d967311	0.07346166
226	0x3c6def09	0.014522322
227	0x3e56e3df	0.20985363
228	0xbe1a65da	-0.15077916
229	0x3d8c0826	0.06837492
230	0xbd10d2f5	-0.035357434
231	0x3d44dc67	0.048061755
232	0x3de5d395	0.11221997
233	0xbe4c9dd2	-0.19982079
234	0xbcf2cb77	-0.029638035
235	0xbe44da39	-0.1922387
236	0x3e784649	0.24245562
237	0xbe269ac2	-0.16269973
238	0xbe5774ed	-0.21040697
239	0xbe6bc270	-0.23023391
240	0x3e4121ca	0.18860546
241	0xbe592ad7	-0.21207748
242	0xbe236df5	-0.15959914
243	0xbe2f7b5b	-0.171369
244	0x3c14b9d8	0.009077512
245	0xbca74a27	-0.0204211
246	0x3df89345	0.121374644
247	0xbe0e2832	-0.13882521
248	0xbe6a9a4d	-0.22910424
249	0xbe300052	-0.17187622
250	0x3e0f1876	0.13974175
251	0xbe10972e	-0.1412017
252	0xbd1ec9d1	-0.038766686
253	0xbe5c91d6	-0.21540007
254	0x3d3e0f75	0.04640146
255	0xbe5920c9	-0.21203913

layers.0.attention.K.weight f4 [48, 48]
0	0xbe1d4013	-0.15356474
1	0x3e20b17c	0.15692705
2	0x3d959438	0.07303661
3	0x3e064a7e	0.13114354
4	0x3db0bfe9	0.08630354
5	0xbe297eec	-0.16552323
6	0x3d05f427	0.032703545
7	0xbe21391f	-0.15744446
8	0xbca41ef9	-0.0200343
9	0xbd56da66	-0.052454375
10	0x3e206bb9	0.15666093
11	0x3acfad29	0.0015844452
12	0xbdd14d5d	-0.10219834
13	0xbd9612fb	-0.07327839
14	0xbdc4411f	-0.09582733
15	0xbd4a7b8f	-0.04943424
16	0x3df39975	0.11894504
17	0x3e002c35	0.12516864
18	0xbe4c7655	-0.19967015
19	0x3d2577d3	0.040397476
20	0xbdc8c5a2	-0.098033205
21	0x3e0a3a91	0.13498904
22	0x3d84d01e	0.06485008
23	0xbd83026f	-0.063969485
24	0xbe11fe68	-0.14257205
25	0x3d49b9b1	0.049249355
26	0xbe075ac4	-0.13218218
27	0xbe24dab1	-0.16099049
28	0x3e25f0b4	0.16205102
29	0xbe118076	-0.1420916
30	0xbd03bcd6	-0.03216251
31	0xbc89e924	-0.016834803
32	0x3e2c5381	0.16828729
33	0x3e02b32f	0.12763666
34	0x3d554b67	0.052073862
35	0xbc8c56c2	-0.017131213
36	0x3e256273	0.16150837
37	0x3e125f8f	0.14294265
38	0x3e5194a9	0.20466866
39	0x3c98bb55	0.018644014
40	0x3d9258a7	0.07145815
41	0x3df1ef93	0.11813273
42	0x3df0aa16	0.11751191
43	0x3b3418dd	0.002748064
44	0x3c96df10	0.018416911
45	0x3e285d58	0.16441858
46	0xbe08059d	-0.13283391
47	0xbd8b12de	-0.06790708
48	0xbdc570c3	-0.09640648
49	0xbe6a8764	-0.2290321
50	0x3e19401b	0.1496586
51	0x3e61a1aa	0.22034326
52	0x3db76bcb	0.08956107
53	0x3dd7f4c6	0.10544734
54	0x3de90ffa	0.113800004
55	0x3d849814	0.06474319
56	0x3dab0277	0.083500795
57	0x3e0ae71a	0.13564721
58	0x3de1234f	0.10993063
59	0x3e20651b	0.15663569
60	0xbd9ffedf	-0.07812285
61	0xbdea5b61	-0.114432104
62	0xbdf1bb06	-0.1180325
63	0xbcfb6029	-0.030685501
64	0xbe5cc61a	-0.21559945
65	0xbe5a67f0	-0.21328712
66	0x3cbdb51e	0.023157652
67	0xbe5fbff3	-0.21850567
68	0x3daebe75	0.085324205
69	0xbd98468c	-0.07435331
70	0xbe11e635	-0.14247973
71	0xbd8dac56	-0.06917636
72	0x3d10438e	0.035220675
73	0x3de7302f	0.11288487
74	0xbb3a9ef0	-0.0028476082
75	0xbdc3b48a	-0.095559195
76	0x3c57bb38	0.013167195
77	0x3d489f0a	0.048979796
78	0x3ddd46ee	0.108045444
79	0x3ddb9fed	0.10723863
80	0x3df15ba5	0.11785058
81	0x3e5ea091	0.21740939
82	0xbe1cec14	-0.15324432
83	0x3bbda6a7	0.005787689
84	0x3d4137b4	0.047172263
85	0xbc4560bc	-0.012046989
86	0x3d4a613d	0.04940914
87	0xbdc6b02d	-0.097015716
88	0xbd9d1185	-0.07669357
89	0xbe1594f2	-0.146076
90	0x3d92a624	0.07160595
91	0x3d6fc86e	0.058540754
92	0x3d2c899f	0.042123433
93	0x3e713fcd	0.23559494
94	0x3df31e0d	0.11870966
95	0x3dbe946c	0.09305653
96	0x3c4bc83a	0.012437874
97	0x3dc5f5dc	0.096660346
98	0xbdabcc41	-0.08388568
99	0xbc8fea04	-0.017567642
100	0x3d89b352	0.06723656
101	0x3e0ac1e5	0.13550527
102	0xbce051b0	-0.027382702
103	0xbd9aa27e	-0.07550524
104	0x3da4cc49	0.08046777
105	0xbd7744f6	-0.0603685
106	0x3e0c259d	0.13686223
107	0x3d90040e	0.07032023
108	0xbd9a980f	-0.07548534
109	0xbda565ab	-0.08076032
110	0x3e0b2fb6	0.13592419
111	0xbdc67e82	-0.09692098
112	0x3b415b51	0.0029503892
113	0x3de8c1c1	0.113650806
114	0xbc0fecb1	-0.008784459
115	0xbd86b879	-0.06578154
116	0xbcd60bde	-0.026128706
117	0xbd9295a5	-0.07157449
118	0x3dc02e0d	0.093837835
119	0xb9455cf9	-0.00018822019
120	0xbddd6c9a	-0.1081173
121	0x3dd593ed	0.10428605
122	0xbd8a58b5	-0.06755201
123	0xbd3c9158	-0.046037048
124	0xbc52668e	-0.012841834
125	0x3de1c630	0.110241294
126	0x3c07c069	0.00828562
127	0x3de43899	0.11143608
128	0xbdd4ae55	-0.10384814
129	0xbda498fb	-0.08036991
130	0x3c337622	0.010953458
131	0xbe02dae3	-0.12778811
132	0xbd10a300	-0.0353117
133	0x3d6be741	0.057593588
134	0x3e09ed51	0.13469435
135	0x3dd33fa2	0.10314871
136	0xbdb0f85a	-0.08641119
137	0xbd84ee08	-0.06490713
138	0x3cfe0fd8	0.031013414
139	0x3cc3bb26	0.02389295
140	0xbc9491b3	-0.018135881
141	0x3dbcc9a6	0.09218149
142	0x3d52e19d	0.051484693
143	0xbc900d2b	-0.017584404
144	0x3e16ac18	0.14714086
145	0x3e13a535	0.1441849
146	0x3da38513	0.07984366
147	0x3c28789b	0.010282661
148	0xbd60cb55	-0.054881413
149	0xbe030e15	-0.1279834
150	0x3d7d45b3	0.06183405
151	0xbceb39bc	-0.028714053
152	0xbe03cd67	-0.12871324
153	0xbe32c6b2	-0.17458609
154	0x3d33187d	0.043724526
155	0xbe039e38	-0.12853324
156	0xbcbcc7a1	-0.02304441
157	0xbd7aa7ac	-0.06119506
158	0x3e427179	0.18988599
159	0x3dd6d23d	0.104893185
160	0x3e53520a	0.20636764
161	0xbe1e0489	-0.15431418
162	0xbe01876a	-0.12649313
163	0xbdf4a11f	-0.11944794
164	0x3ce985bc	0.028506152
165	0xbd3b8993	-0.045785498
166	0xbe59b16b	-0.21259086
167	0x3d31bd22	0.04339326
168	0xbcac6f4c	-0.021049164
169	0x3e1c8318	0.15284383
170	0x3e40be0a	0.18822494
171	0x3cf6f0c3	0.030144101
172	0xbe5c6bb4	-0.2152546
173	0x3e65f1f4	0.22455579
174	0x3e312b85	0.17301758
175	0x3c880f24	0.016608782
176	0x3d2908f5	0.041268308
177	0x3e42627c	0.18982881
178	0xbe4a0dba	-0.19731799
179	0x3d8dc50f	0.069223516
180	0x3e470093	0.19433813
181	0x3d914bfe	0.070945725
182	0xbd4a0f6d	-0.049331117
183	0x3d890762	0.06690861
184	0xbd63240e	-0.055454306
185	0x3e6f56ab	0.23372905
186	0xbc247617	-0.01003792
187	0xbd4cee9e	-0.05003225
188	0x3dca3e37	0.09875148
189	0x3e4d531b	0.20051233
190	0xbcb6f421	-0.022333207
191	0xbd548851	-0.051887814
192	0xbd9e7094	-0.07736316
193	0x3e401c33	0.18760757
194	0x3e7bb386	0.24580202
195	0x3d994522	0.07483889
196	0xbddf866d	-0.109143116
197	0xbd85ec11	-0.06539167
198	0xbe077a73	-0.13230304
199	0x3e094308	0.13404477
200	0x3dcce28a	0.100041464
201	0x3dfd3755	0.12364069
202	0x3d05b785	0.03264572
203	0x3e2122b9	0.15735902
204	0x3d3ec6d5	0.04657634
205	0x3e3b1e44	0.18273264
206	0xbe585a9d	-0.21128316
207	0x3e271a69	0.16318668
208	0xbe37da1e	-0.17954299
209	0xbd8ee32b	-0.069769226
210	0xbe19609f	-0.14978264
211	0x3cc075de	0.023493703
212	0x3e2df311	0.16987254
213	0x3df69feb	0.12042221
214	0xbe2a3a5c	-0.16623825
215	0x3de0e93d	0.10981987
216	0x3e67a64d	0.22622032
217	0xbdc7cd90	-0.09756005
218	0xbd8cf468	-0.06882554
219	0xbe0e7551	-0.1391194
220	0x3de09c0e	0.10967265
221	0xbe548ee9	-0.20757641
222	0x3e57df89	0.21081366
223	0x3e4338c5	0.19064625
224	0x3d87fa4c	0.06639537
225	0x3e4d6b2c	0.20060414
226	0x3e512626	0.20424709
227	0x3e611be5	0.21983297
228	0xbe22d168	-0.15900195
229	0xbe24dd98	-0.16100156
230	0xbba7668a	-0.005108659
231	0xbe721481	-0.23640634
232	0x3df603f1	0.120124705
233	0x3e0e503b	0.13897793
234	0xbe2cbaae	-0.16868088
235	0xbd981fdc	-0.07427952
236	0x3dfe4afd	0.12416647
237	0x3cec0680	0.028811693
238	0x3e70fcb0	0.23533893
239	0x3e4049e3	0.18778186
240	0xbe0233c2	-0.12715057
241	0xbe0f2d5d	-0.13982148
242	0xbdc6296a	-0.09675868
243	0x3e70ad5b	0.2350363
244	0xbe002266	-0.12513122
245	0x3d30e5ba	0.043187834
246	0xbd5915ec	-0.052999422
247	0x3d651694	0.055929735
248	0x3d46d652	0.048544236
249	0x3dc85736	0.09782259
250	0x3dbe243e	0.092842564
251	0x3dec76e7	0.11546116
252	0xbdb721ea	-0.089420155
253	0x3d4cdab2	0.05001325
254	0xbe1d3360	-0.1535163
255	0xbccc6c29	-0.024953919

layers.0.attention.E.weight f4 [48, 48]
0	0x3de3f4db	0.11130687
1	0xbe132844	-0.14370829
2	0xbe037372	-0.12837008
3	0xbe28e3c2	-0.16493133
4	0xbe2c40a8	-0.1682154
5	0xbe6b13a3	-0.2295671
6	0x3e5c327d	0.21503635
7	0xbd97a202	-0.074039474
8	0xbe1d6833	-0.1537178
9	0xbdf97866	-0.12181167
10	0xbd3c2280	-0.04593134
11	0x3d1bf3dc	0.03807436
12	0x3cc4a01d	0.02400213
13	0x3d24ac7c	0.040203556
14	0xbe211c94	-0.15733558
15	0xbe57e44f	-0.21083187
16	0xbe607e65	-0.21923216
17	0x3e407e88	0.18798268
18	0xbe15eb66	-0.14640579
19	0xbe09f3f5	-0.13471968
20	0xbdce8d5c	-0.10085556
21	0xbe5eb695	-0.21749337
22	0x3e34b459	0.17646922
23	0x3d8c896c	0.06862149
24	0xbe02a67e	-0.12758824
25	0xbe03c625	-0.12868555
26	0xbd5e8ff1	-0.054336492
27	0x3e1bb3ca	0.15205303
28	0xbe4646ac	-0.19362897
29	0xbe3f08f2	-0.18655756
30	0x3e65db49	0.22446932
31	0x3d06591a	0.032799818
32	0x3c0c7784	0.008573417
33	0xbe699ef9	-0.2281455
34	0x3dddd871	0.108322985
35	0xbe0e61c5	-0.13904484
36	0xbe04b5d9	-0.12959994
37	0xbde0991f	-0.109667055
38	0x3e12d374	0.14338475
39	0xbe665ed6	-0.22497115
40	0x3daeb432	0.08530463
41	0x3e031672	0.12801531
42	0xbe02f9d4	-0.12790614
43	0x3d69519c	0.056962594
44	0x3e03725d	0.12836595
45	0x3dfca2ee	0.12335764
46	0xbd6a7f2a	-0.05725018
47	0xbdacb2e0	-0.08432555
48	0xbe514603	-0.20436864
49	0x3baa3ef7	0.0051954943
50	0xbe6b6631	-0.22988202
51	0x3d5acca4	0.053417817
52	0xbc7f9eef	-0.015601858
53	0xbdb05d5b	-0.08611556
54	0xbe10c922	-0.14139226
55	0x3da2f027	0.07955962
56	0xbe286e8b	-0.16448419
57	0x3c579f78	0.013160579
58	0x3d431687	0.047628906
59	0xbd1fd185	-0.039018173
60	0xbdba005c	-0.090821
61	0x3e3d1c48	0.1846782
62	0x3dbeeff8	0.09323114
63	0xbe58c5ba	-0.21169177
64	0xbd99f817	-0.075180225
65	0xbdc1bad0	-0.0945946
66	0xbe31308c	-0.17303675
67	0x3e1beb6c	0.15226525
68	0x3e53edb4	0.20696145
69	0xbcddc7be	-0.027072784
70	0x3dfd9598	0.12382048
71	0x3d3a7902	0.04552556
72	0xbaa22232	-0.001236981
73	0x3dfcecbd	0.12349842
74	0xbdcd140a	-0.10013588
75	0x3e1cc242	0.15308478
76	0xbe2eed92	-0.17082813
77	0xbc0aec4b	-0.008479188
78	0xbd7c130f	-0.061541613
79	0x3dfb761a	0.122783855
80	0xbd69d0df	-0.05708396
81	0xbe3cc117	-0.18433033
82	0xbe3b4349	-0.18287386
83	0xbe516fc8	-0.20452797
84	0xbe36f170	-0.17865539
85	0xbda09576	-0.078410074
86	0x3e1135c2	0.14180663
87	0x3e245fd3	0.16052179
88	0xbb0029ec	-0.0019556237
89	0x3dd5d24e	0.10440503
90	0x3d9aaf98	0.07553023
91	0x3de13ec1	0.109982975
92	0x3d92c03e	0.071655735
93	0xbd223c52	-0.039608307
94	0xbd99bbba	-0.07506509
95	0x3e451c30	0.19249034
96	0x3dbc88a6	0.09205751
97	0x3d8b6d10	0.068079114
98	0x3e0171e0	0.12641096
99	0xbb1cc2ba	-0.0023919777
100	0x3d9e041e	0.07715629
101	0x3d212b75	0.039348084
102	0xbd56fce9	-0.052487288
103	0xbe42cf14	-0.19024307
104	0x3e1b0dc1	0.15141965
105	0x3e097447	0.13423263
106	0xbb8a78d8	-0.0042258315
107	0xbd5f1300	-0.05446148
108	0xbd782eec	-0.060591623
109	0x3dc7b3c2	0.09751083
110	0xbe11f094	-0.1425193
111	0xbd886f4f	-0.066618554
112	0x3b203fe3	0.0024452142
113	0xbdeb4418	-0.11487597
114	0x3e2aa6e9	0.16665234
115	0x3e24ea3b	0.16104977
116	0x3ddc40b3	0.10754528
117	0xbca2cbe1	-0.019872608
118	0xbd1902ad	-0.037356067
119	0xbe37ee14	-0.17961913
120	0xbe32722e	-0.17426369
121	0x3e6890b3	0.22711448
122	0x3e06f1ff	0.13178252
123	0x3d25045f	0.04028737
124	0x3e0e9f09	0.13927855
125	0x3dd799d9	0.10527391
126	0x3cef1d42	0.029188756
127	0x3e4274e8	0.18989909
128	0xbd9aa4c4	-0.07550958
129	0xbe5af729	-0.21383347
130	0xbcd5951d	-0.02607208
131	0x3e03178f	0.12801956
132	0x3d9dcae5	0.07704715
133	0xbddfebe7	-0.10933667
134	0x3e184694	0.14870673
135	0x3d98455d	0.07435105
136	0xbe1cd0ce	-0.15314028
137	0xbbf66457	-0.0075192857
138	0x3d3a2167	0.04544201
139	0x3dd537c9	0.10411031
140	0xbe16dcfb	-0.14732735
141	0x3e49dabe	0.1971235
142	0x3b9dd0e1	0.00481616
143	0xbe0deaf9	-0.13859166
144	0xbd6fe7a8	-0.058570534
145	0xbc8c21c4	-0.017105944
146	0xbe446d10	-0.19182229
147	0x3e3831d7	0.17987762
148	0x3d8e8542	0.06959011
149	0x3e316420	0.17323351
150	0x3dcf2fa2	0.10116507
151	0xbe059aab	-0.13047282
152	0xbe236b21	-0.15958835
153	0xbd945ff8	-0.07244867
154	0x3c6df782	0.0145243425
155	0x3cf310a6	0.029671025
156	0xbd2422e3	-0.040072333
157	0xbde07c4e	-0.10961209
158	0xbd5ab55b	-0.05339561
159	0x3db2fac4	0.08739236
160	0xbd9f2774	-0.07771197
161	0x3d73f4d6	0.059559666
162	0xbdce1320	-0.100622416
163	0xbe355ad3	-0.17710428
164	0x3cca653a	0.024706472
165	0x3e568909	0.20950712
166	0x3cb73f3d	0.022369022
167	0xbc903ffb	-0.017608633
168	0x3e62c861	0.22146751
169	0xbe030a25	-0.12796839
170	0x3e077bbd	0.13230796
171	0xbcaa0879	-0.020755993
172	0x3caf342d	0.021387184
173	0x3e677fef	0.22607397
174	0x3e3d7d36	0.18504795
175	0xbe2ab30a	-0.1666986
176	0xbdf3423f	-0.1187787
177	0x3cda68d9	0.026661323
178	0x3dc53347	0.09628921
179	0xbc133a26	-0.008986032
180	0x3df16b19	0.117880054
181	0xbe11cc6b	-0.14238136
182	0x3e22b290	0.15888429
183	0x3e34a130	0.17639613
184	0xbe16e060	-0.1473403
185	0xbe2daf1a	-0.16961327
186	0x3c32e9f3	0.010920036
187	0xbb404403	-0.0029337413
188	0x3dd36d8c	0.10323629
189	0x3e21002a	0.15722719
190	0xbdddeca8	-0.10836154
191	0xbc56d863	-0.013113114
192	0xbe0d2804	-0.13784796
193	0x3d0b1d1d	0.03396331
194	0x3e04f2fb	0.12983315
195	0x3e0f69df	0.1400523
196	0xbe2f5325	-0.17121561
197	0x3e3d7629	0.18502106
198	0x3de9b9f2	0.114124194
199	0xbe60b17f	-0.2194271
200	0x3bbd3e73	0.005775267
201	0x3d27774e	0.040885262
202	0xbd269295	-0.040667135
203	0x3d507ce1	0.050900344
204	0x3d8244a2	0.06360747
205	0x3df777a4	0.120833665
206	0x3e5fe32a	0.21864
207	0x3d5693e9	0.052387152
208	0x3bf05d88	0.0073353685
209	0xbdb2ee42	-0.0873685
210	0xbdf6cf54	-0.120512635
211	0xbdae5672	-0.08512582
212	0x3def52de	0.116857275
213	0xbe1b8be9	-0.1519009
214	0x3e738232	0.23780134
215	0xbe558d87	-0.2085477
216	0x3e067dd5	0.13133939
217	0x3d3b0b5c	0.04566513
218	0xbd70997a	-0.058740117
219	0x3c3ab35c	0.011395302
220	0xbd8650f0	-0.06558406
221	0xbe7b294c	-0.24527472
222	0xbdd0af63	-0.10189702
223	0x3e2653a0	0.16242838
224	0xbdad942f	-0.084755294
225	0x3e22d6ee	0.15902302
226	0x3e072387	0.13197146
227	0xbe25e301	-0.16199876
228	0xbe37ecef	-0.17961477
229	0x3e257bfb	0.16160576
230	0x3e5239b9	0.20529832
231	0xbe253c4f	-0.16136287
232	0xbda9295e	-0.08259843
233	0x3d1dad80	0.03849554
234	0xbdce471f	-0.10072159
235	0xbd83a860	-0.06428599
236	0x3e4c4ac7	0.199504
237	0xbe458a67	-0.19291078
238	0x3dd82354	0.10553613
239	0x3e4bfda6	0.19920978
240	0xbe1d9fd0	-0.15392995
241	0x3da08d32	0.07839431
242	0x3e4ab3a2	0.19795087
243	0x3d71204b	0.058868688
244	0x3cc71a17	0.024304433
245	0xbd7d4f3a	-0.061843134
246	0x3e1dcaeb	0.15409438
247	0x3e1409ab	0.14456813
248	0xbe51e5db	-0.20497839
249	0x3c494478	0.012284391
250	0xbb18eb59	-0.0023333638
251	0x3d7e0edb	0.062025886
252	0x3e0007e2	0.12503007
253	0x3e635611	0.222008
254	0x3dc04f92	0.09390177
255	0x3e5f8bda	0.21830693
