interrupted_model.pth (torch, 584178 bytes, 170 tensors)

z_embedding.weight f4 [1000, 32]
0	0xbfa3f628	-1.2809496
1	0xc03561c4	-2.8340921
2	0x3ff0c511	1.881014
3	0xbf638fb2	-0.88891137
4	0xbf718527	-0.943438
5	0x3d616415	0.055027086
6	0xbf3d20af	-0.73877996
7	0xbf305e04	-0.68893456
8	0x3dcb023d	0.09912536
9	0xbe55f3ce	-0.20893785
10	0xbfbc20b0	-1.4697475
11	0xbe9cded7	-0.30638763
12	0x3e99eff7	0.3006589
13	0x3d07eba8	0.033183724
14	0x3f7fcc9d	0.9992159
15	0x3e1e0620	0.15432024
16	0x400a241f	2.1584547
17	0xbf292ddf	-0.6608562
18	0x3ea2456f	0.316936
19	0x3f2d49af	0.6769056
20	0xbee84839	-0.45367602
21	0xbfad38ee	-1.3532999
22	0xbf091e59	-0.5356193
23	0xbec8e593	-0.3923765
24	0xbed69253	-0.41908512
25	0x3fb6e1cf	1.4287661
26	0x3e8caea3	0.27476987
27	0x3fc93708	1.5719919
28	0x3f61851e	0.88093746
29	0xbf765265	-0.96219474
30	0xbf30c51f	-0.6905078
31	0x3f178170	0.5918188
32	0x3e810b6f	0.25204036
33	0x3f3fec88	0.74970293
34	0x3fafafc8	1.3725519
35	0x3ed14995	0.4087645
36	0xbf0dd610	-0.5540476
37	0xbea09633	-0.31364593
38	0x3e9ae62c	0.30253732
39	0xbfd28d50	-1.6449375
40	0x3fa2354e	1.2672517
41	0xbf65f073	-0.8982002
42	0xbe7c1f53	-0.24621324
43	0x3f01798a	0.5057608
44	0xbeaa0b3f	-0.33211705
45	0xbf983935	-1.1892458
46	0x3da0d565	0.07853202
47	0xbe91bb33	-0.28463134
48	0xbf35d7d3	-0.71032447
49	0xbf5353e5	-0.8254989
50	0xbec983a0	-0.39358234
51	0x3f98c9f4	1.1936631
52	0xbeeabba0	-0.45846272
53	0xbd752096	-0.05984553
54	0x3ee802a2	0.4531451
55	0x3fe265b3	1.7687286
56	0x3f8b06c8	1.0861444
57	0x3f65a3de	0.89703166
58	0xbef4828c	-0.4775585
59	0xbe4e56be	-0.20150277
60	0xbfa18456	-1.2618511
61	0xbef48b81	-0.47762683
62	0x3e745706	0.23861322
63	0xbfaadef9	-1.3349296
64	0x3f314747	0.69249386
65	0xbe8d48ab	-0.27594504
66	0x3f49ab0d	0.7877663
67	0xbe3fbbd4	-0.18723994
68	0x400d8a21	2.2115557
69	0xbf21984b	-0.63123006
70	0x3f4c9660	0.79916954
71	0x3db29608	0.087200224
72	0x3f627252	0.8845569
73	0x3f7e4749	0.9932752
74	0xbf1fc595	-0.6241086
75	0xbe493a35	-0.1965111
76	0xbf338ac9	-0.70133644
77	0xbd97bb3f	-0.07408761
78	0x3ecd11a9	0.40052536
79	0x3f230b9a	0.6368958
80	0x40120ff5	2.282224
81	0x3e9bf34e	0.30459064
82	0x3fbfb7ef	1.4978007
83	0xbedfd910	-0.43720293
84	0xbdd85e44	-0.10564855
85	0xbe79972b	-0.24374072
86	0xbe52b5e6	-0.20577201
87	0xbed8e651	-0.42363217
88	0x3f037de7	0.51363987
89	0x3fc513f9	1.539672
90	0xbfcd856b	-1.6056341
91	0x3ebb7995	0.36616197
92	0xbf59afc6	-0.85033834
93	0x3f1c8328	0.6113763
94	0xbea45a7c	-0.32100284
95	0x3f16ef57	0.58958954
96	0x3e703dcc	0.23461074
97	0x3f40b2fc	0.7527311
98	0xbf968fa0	-1.1762581
99	0xbf7b71be	-0.9822043
100	0xbf530fe8	-0.82446146
101	0x3f8c4efd	1.0961605
102	0x3f3fc75d	0.7491358
103	0xbef6aea1	-0.48180106
104	0x3f00dc09	0.50335747
105	0xbd9cd564	-0.076578885
106	0xbd6c9abc	-0.057764754
107	0x3f9b931d	1.215427
108	0xbf469e88	-0.7758565
109	0xbf4bc1c0	-0.79592514
110	0x3d086be9	0.033306036
111	0xbc9b0a4c	-0.018925808
112	0xbf40f9bf	-0.7538108
113	0x3dc45bb4	0.095878035
114	0x3f3c7c05	0.7362674
115	0xbf082a12	-0.53189194
116	0x3f5ad9f0	0.85488796
117	0xbf23b3bf	-0.63946146
118	0x3e1d9263	0.15387873
119	0x3f3cc7df	0.7374248
120	0xbf2e0a65	-0.6798461
121	0xbfb39d0c	-1.4032302
122	0x3e56511e	0.20929381
123	0x3f28aa61	0.6588498
124	0xbef8b62d	-0.4857649
125	0x3decd6cd	0.115644075
126	0x3f43896b	0.7638156
127	0x3f00cb72	0.5031043
128	0x3fabce53	1.342234
129	0xbe52ecf6	-0.20598206
130	0x3fcb1c31	1.5867978
131	0xbf82987d	-1.0202786
132	0x3dc9ea78	0.098591745
133	0x3e6e1817	0.23251377
134	0xbf113100	-0.56715393
135	0x3f2f4db7	0.6847796
136	0xbe3e1e60	-0.18566275
137	0x3f9f90af	1.2466029
138	0x3e58eaf0	0.21183372
139	0x3e0017f8	0.12509143
140	0x3f3aad71	0.729209
141	0xbe82b02a	-0.25525028
142	0x3f06f56e	0.52718246
143	0x3f62e7e0	0.88635063
144	0xbf92d65f	-1.1471671
145	0xbffb65a7	-1.9640397
146	0xbf2eb949	-0.6825147
147	0x3ffb1902	1.9617007
148	0xbf0ef529	-0.55842835
149	0x3eaec696	0.34135884
150	0xbf895fb8	-1.0732336
151	0xbf668e82	-0.900612
152	0x3f97fe40	1.1874466
153	0x3efd852f	0.49515674
154	0xbe40cd8e	-0.18828413
155	0xbeb49643	-0.3527089
156	0xbe100656	-0.14064917
157	0xbf433e2f	-0.7626676
158	0xbf74d88d	-0.9564293
159	0xbf276fa4	-0.65404725
160	0xbf093f8b	-0.53612584
161	0x3e8cd2b7	0.27504513
162	0x3f265b9f	0.6498355
163	0x3f637cf6	0.8886255
164	0x3fb200cb	1.3906492
165	0xbf21637a	-0.63042414
166	0xbf28b9fd	-0.65908796
167	0x3f1a71f2	0.60330117
168	0x3eccd596	0.40006703
169	0xbf3b5243	-0.73172396
170	0x3e7a30d8	0.24432695
171	0xbfe69917	-1.8015469
172	0xbea59138	-0.32337356
173	0xbe1edcbe	-0.15513894
174	0xbccedd09	-0.025251882
175	0xbf5034ab	-0.81330365
176	0x3fb045a9	1.3771259
177	0x3f07f719	0.53111416
178	0xbf829f61	-1.0204889
179	0x3ea977ad	0.33099118
180	0xbeaabcba	-0.33347112
181	0x3f1603ff	0.5859985
182	0x3fa6b8cd	1.3025147
183	0xbf427648	-0.7596173
184	0xbed80048	-0.42187715
185	0x3f92d206	1.1470344
186	0x3e76cbc0	0.24101162
187	0xbe97d3bd	-0.2965373
188	0x3eefb01d	0.4681405
189	0xbfb1e6bf	-1.3898543
190	0xbeb85c98	-0.36008143
191	0xbf5aecbe	-0.8551749
192	0x3f3e1bd2	0.742612
193	0x3cc5b50a	0.024134178
194	0x3ff4e24b	1.9131559
195	0x3fa4b8d5	1.2868906
196	0xbf940160	-1.156292
197	0xbf995496	-1.1978939
198	0xbe805ce9	-0.25070885
199	0x3e9a1771	0.3009601
200	0x3f889d84	1.067307
201	0xbfb6a646	-1.4269493
202	0x3e6d094a	0.23148075
203	0x3f14081a	0.5782486
204	0x3f10e3df	0.56597704
205	0x3f7fc261	0.99905974
206	0x3f8b5dcc	1.0888
207	0x3f96c802	1.1779788
208	0xbfb82e3e	-1.4389112
209	0x3f7b8967	0.98256534
210	0xbd6ec29c	-0.058291063
211	0xbf2b05d8	-0.6680579
212	0xbf25abde	-0.64715374
213	0x3f9f5fe9	1.2451144
214	0xbf150a0d	-0.5821846
215	0x3efce447	0.49392912
216	0x4037331f	2.8624952
217	0x3ed2e01a	0.411866
218	0xbf12b9be	-0.5731467
219	0x3f439fab	0.7641551
220	0xbf3e04b5	-0.7422593
221	0x3ec1e9a9	0.3787358
222	0x3f7bd7e6	0.9837631
223	0xbe96b6f0	-0.29436445
224	0xbf95d3c8	-1.1705256
225	0xbed35505	-0.41275802
226	0x3f773c8f	0.9657678
227	0x3fe01ebf	1.7509383
228	0x3e32a300	0.17444992
229	0x3f9b8477	1.21498
230	0x3ed2c28e	0.41164058
231	0x4009c643	2.152726
232	0xbf2c48e2	-0.6729871
233	0xbf59a00e	-0.8500985
234	0xbe938a1e	-0.28816313
235	0x3d280d8e	0.04102855
236	0xbf26d98e	-0.6517571
237	0x3f4b4aee	0.7941121
238	0x3f9552d0	1.1665897
239	0x3c002e2a	0.007823506
240	0xbf2cdb88	-0.6752248
241	0xbeacd59e	-0.33756727
242	0x3fcc4fc7	1.5961846
243	0xbde8db6c	-0.113699764
244	0xbe353fdb	-0.1770014
245	0xbe2ac05c	-0.16674942
246	0xbf181b4e	-0.59416664
247	0xbe5f3715	-0.21798356
248	0xbf29657c	-0.6617048
249	0xbf0060d5	-0.50147754
250	0xbf1bdc47	-0.6088299
251	0xbf04485a	-0.516729
252	0x3faaa0a5	1.3330275
253	0xbee20f4d	-0.441523
254	0xbf0a7457	-0.5408377
255	0x3deb3d32	0.114862815

x_embedding.weight f4 [371, 32]
0	0xbee42ef9	-0.44567087
1	0x3f8b98a3	1.0905956
2	0xbec2fada	-0.3808201
3	0x3fa6d580	1.3033905
4	0x3eacb365	0.33730617
5	0xbef0106a	-0.46887523
6	0xbf187389	-0.5955129
7	0xc02470f8	-2.569395
8	0x3fa16ca8	1.2611284
9	0xbf8e96a1	-1.1139718
10	0xbf158286	-0.5840229
11	0xbf1155da	-0.56771624
12	0x3f0b32cd	0.5437439
13	0xbf8b0e0a	-1.0863659
14	0xbf4710ea	-0.77760184
15	0xbfde999b	-1.7390627
16	0x3e21445e	0.15748736
17	0xbf991f00	-1.1962585
18	0xbe0274cf	-0.12739871
19	0xbf54fc1a	-0.83197176
20	0x3ed33c66	0.41257018
21	0x3f599b6e	0.8500279
22	0x3e3fc384	0.18726927
23	0x3e6049f6	0.21903214
24	0x401fbe09	2.4959738
25	0x3e334e75	0.17510398
26	0xbf4b21a7	-0.79348224
27	0xbf0ae21a	-0.54251254
28	0xbee6402f	-0.44970843
29	0xbf53a90e	-0.8267983
30	0xbcab8881	-0.020939114
31	0xbf82ab48	-1.0208521
32	0xbe2e7d2a	-0.17039934
33	0xbf922637	-1.1417912
34	0x3f1eabc0	0.6198082
35	0x3fdd28e7	1.7278107
36	0xbf258c81	-0.64667517
37	0x3f445612	0.7669383
38	0x3faa0776	1.3283527
39	0x3deaf778	0.11472982
40	0xbeedb70c	-0.46428716
41	0xbf907de9	-1.1288425
42	0x3df7e94d	0.121050455
43	0x3f6cbf78	0.9247966
44	0x3f274373	0.65337294
45	0x3dc026f2	0.09382428
46	0xbf4acc74	-0.7921822
47	0xbfc9b179	-1.5757285
48	0xbe9b9f06	-0.30394763
49	0xc0185521	-2.3801959
50	0xc0249a31	-2.571911
51	0x3fdebd20	1.7401466
52	0xbe6ccb3c	-0.23124403
53	0x3f0d5c09	0.5521856
54	0xbf65e35c	-0.8980005
55	0x3fa76adf	1.307949
56	0xbe3ba577	-0.18324839
57	0x3fcf58d8	1.6198988
58	0xbfa607fa	-1.2971184
59	0xbf306d39	-0.6891666
60	0xbecf659e	-0.40507215
61	0xbdfbce72	-0.12295236
62	0xbe17051e	-0.14748046
63	0x3d7d9d9b	0.061917882
64	0xbf31a235	-0.69388133
65	0xbf2f43cd	-0.6846283
66	0x3f62ea42	0.886387
67	0x3f9df5b2	1.2340605
68	0xbf9e15e5	-1.2350432
69	0x3fb4de54	1.4130349
70	0xbecf94d5	-0.40543237
71	0xbd9145f5	-0.07093421
72	0xbf0f9a13	-0.56094474
73	0x3f2f7c4c	0.68549037
74	0x3ed8b5f8	0.4232633
75	0x3e1db28a	0.15400138
76	0x3e9350c8	0.2877257
77	0xbfe3f406	-1.7808845
78	0xbfb4fe63	-1.4140133
79	0xbf1ecb49	-0.6202894
80	0x3f0a6d12	0.5407268
81	0x3f4ca2ea	0.7993609
82	0xbee2f2fd	-0.4432601
83	0x3f3e1b1e	0.7426013
84	0xbf0ee4e3	-0.55818003
85	0xbc0a74c1	-0.008450688
86	0x3e0453b1	0.1292255
87	0x3f0d42e2	0.5518018
88	0xbfba3c21	-1.45496
89	0xbf559c5f	-0.8344173
90	0x3f6858c5	0.9076045
91	0xbf8b7815	-1.0896021
92	0xbfa51a5f	-1.2898673
93	0x3eebd56e	0.4606127
94	0x3c68b08f	0.014202251
95	0x3e99cb34	0.30037844
96	0x3fab4742	1.3381121
97	0xbf806f1d	-1.0033909
98	0xbd28687d	-0.041115273
99	0x3f5c2907	0.860001
100	0x3f925bf1	1.1434308
101	0x3effb0b3	0.49939498
102	0x3f0818cf	0.53162855
103	0xbf3ac421	-0.7295552
104	0x3f832732	1.0246336
105	0x3f440bb2	0.76580346
106	0xbf27ad55	-0.6549886
107	0x3f37251b	0.71540993
108	0x3ea37c2b	0.3193067
109	0xbf00a5c9	-0.5025297
110	0x3f1e7e02	0.6191102
111	0x3f0ab8d8	0.541883
112	0xbd8625d8	-0.06550187
113	0xbf0bc6e8	-0.5460038
114	0xbf943a50	-1.1580296
115	0xbef919ad	-0.48652402
116	0x3d41e772	0.047339864
117	0xc0035315	-2.051946
118	0xc04c9f0a	-3.197207
119	0xbf337c77	-0.70111793
120	0xbeab7bac	-0.33492792
121	0x3f84ce21	1.0375406
122	0x3ffaf96b	1.9607366
123	0xbf841dc5	-1.0321585
124	0xbf0df24b	-0.55447835
125	0xbfb886f1	-1.4416181
126	0x3fd777a0	1.6833382
127	0x3f4d5920	0.8021412
128	0xbcb58115	-0.022156278
129	0x3eaa5dd8	0.33274722
130	0x3fabb782	1.3415377
131	0xbf22ea08	-0.63638353
132	0xbf38b719	-0.72154385
133	0x3fa7fe59	1.3124496
134	0xbe1e0c0a	-0.1543428
135	0xbf8ba684	-1.0910192
136	0x3dab0402	0.08350374
137	0x3f34f9dd	0.7069376
138	0x3e85a801	0.2610474
139	0xbe98b59f	-0.29826066
140	0x3e321507	0.17390834
141	0xbf0db151	-0.5534869
142	0x3fcf648e	1.6202562
143	0x3f428c6a	0.75995505
144	0xbe1d4386	-0.1535779
145	0x4014c231	2.3243525
146	0x401e42ae	2.4728198
147	0x3f0da24c	0.5532577
148	0x3fad21ca	1.3525937
149	0x3e3cf06c	0.18451089
150	0x3ebc2014	0.36743224
151	0x3e36488a	0.17801109
152	0x3fd91a28	1.6961107
153	0x3f7c6a9d	0.9860018
154	0xbf171918	-0.59022665
155	0xbf0303b4	-0.51177526
156	0x3f4d0805	0.8009036
157	0xbf9bdb8b	-1.2176374
158	0x3ee8f790	0.45501375
159	0x3fc737e3	1.556393
160	0xbe8716f1	-0.2638469
161	0xbca36657	-0.01994626
162	0xbf854f15	-1.0414759
163	0x3f90d775	1.1315752
164	0x3ee663ab	0.44997916
165	0xbe84e806	-0.2595827
166	0xbfa457bb	-1.2839273
167	0x4004adeb	2.073115
168	0xc010ef85	-2.264619
169	0xbf8c854b	-1.0978178
170	0xbf96fc06	-1.1795661
171	0x3da03865	0.078232564
172	0x3f36fe68	0.71481943
173	0xbf83f1de	-1.0308187
174	0xbe9ec3af	-0.3100867
175	0xbc5944eb	-0.01326106
176	0x3e02ec23	0.12785392
177	0x3eeae04d	0.45874253
178	0xbe77280d	-0.24136372
179	0xbea75480	-0.32681656
180	0xbfe207e8	-1.7658663
181	0x3f3eaaa1	0.7447911
182	0x3f2c85a9	0.6739145
183	0x3e34bf4f	0.17651103
184	0xbfd69db8	-1.6766882
185	0xbd411131	-0.047135536
186	0xbf42c4a4	-0.760813
187	0x3d11eea9	0.035627995
188	0x3f939a38	1.1531439
189	0x3fd682e4	1.6758695
190	0x4037809c	2.8672247
191	0x3f91f5ac	1.1403098
192	0x3f87cd89	1.0609599
193	0xbfe67927	-1.8005723
194	0xbf4933d4	-0.7859471
195	0xbf83f2fd	-1.0308529
196	0xbe04d8f9	-0.12973393
197	0xbf919122	-1.1372416
198	0xbe74922d	-0.23883887
199	0x400aa9c1	2.166611
200	0x40008e71	2.008694
201	0xbdf4fa35	-0.11961786
202	0xbf750002	-0.95703137
203	0xbed7ee75	-0.42174116
204	0x3e0ed8a8	0.13949835
205	0xbf66985c	-0.9007623
206	0xbffbffaf	-1.9687403
207	0x3fbb9a0c	1.4656386
208	0xbf67528d	-0.9036034
209	0xbf96bf29	-1.1777087
210	0xbfd3d19f	-1.6548346
211	0x3ef771c8	0.48328996
212	0xbd9e4582	-0.07728101
213	0xbf186302	-0.59526074
214	0xbf011881	-0.50428015
215	0x3f843246	1.0327842
216	0x3f8aa1a0	1.0830574
217	0x3f0782ea	0.52934134
218	0xbf2145ce	-0.6299714
219	0x3fc8f41e	1.5699499
220	0xbdbbe0cc	-0.09173736
221	0x3dd754b9	0.105142064
222	0xbf7b77de	-0.9822978
223	0x3f94e313	1.1631798
224	0x3d4875e3	0.04894055
225	0x3e854210	0.26026964
226	0xbd7ad511	-0.061238352
227	0x3fb0619e	1.377979
228	0xbf904f50	-1.1274204
229	0x3f67a8b7	0.90491813
230	0xbf97299c	-1.1809573
231	0xbf02674d	-0.50938874
232	0x3d2b930a	0.041888274
233	0xbfa33e7e	-1.2753446
234	0xbf276360	-0.6538601
235	0x3f28e287	0.65970653
236	0x3f6b3cdd	0.91889745
237	0x3d8737c6	0.06602435
238	0x3f2615e2	0.6487714
239	0x3f9d4098	1.2285337
240	0x40013517	2.0188653
241	0x3dad31b0	0.08456743
242	0x3faaf4bd	1.3355938
243	0xbf9b64b3	-1.2140106
244	0xbeb653c0	-0.3561077
245	0xbd947dcd	-0.07250557
246	0xbe7dc7f9	-0.24783315
247	0xbf77fc6c	-0.9686954
248	0xbeb83108	-0.35974908
249	0x3e6e9d10	0.23302102
250	0x3fbe7fd6	1.4882762
251	0x3f8b7d00	1.0897522
252	0x3e47aa71	0.19498612
253	0x400e741a	2.2258363
254	0xbd95befc	-0.07311818
255	0xbf963a6e	-1.1736581

e_embedding.weight f4 [2, 32]
0	0x3f8d0f2f	1.1020259
1	0xc000ac73	-2.0105255
2	0x3fef2684	1.8683629
3	0x3f036f35	0.51341563
4	0x3e93dac5	0.28877845
5	0xbfce0238	-1.6094427
6	0xbe40f340	-0.18842793
7	0xbf491835	-0.7855256
8	0x3edba3de	0.42898458
9	0x3f3b4aff	0.7316131
10	0xbfba36c9	-1.4547969
11	0x3f9e6f7c	1.2377772
12	0x3f56b095	0.8386319
13	0x3f073f65	0.5283111
14	0xbe8c6a95	-0.27425066
15	0x3db70303	0.08936121
16	0xbfa378a6	-1.2771194
17	0x3eb3df7a	0.35131437
18	0x3f467761	0.7752591
19	0x3fcd04f6	1.6017139
20	0xbea6b462	-0.32559496
21	0xc00d48ed	-2.207576
22	0xbfc38944	-1.5276265
23	0xc028d0e0	-2.6377487
24	0x3f6aa72b	0.9166133
25	0xbf68ae1f	-0.9089069
26	0x3f9a5f64	1.2060361
27	0x3d112613	0.0354367
28	0xbf83a6d1	-1.0285283
29	0xbf172fdd	-0.5905741
30	0xbee467ab	-0.44610342
31	0xbf5c1d01	-0.85981756
32	0xbe3392a1	-0.17536403
33	0x3f9ff36c	1.2496161
34	0x3fab9a4f	1.3406466
35	0x3f09d4db	0.53840417
36	0x3f831399	1.0240356
37	0xbd8f8741	-0.070082195
38	0xbf9bcffa	-1.2172844
39	0x3f88f3d4	1.069941
40	0xbf698678	-0.9122081
41	0x3edfe64f	0.437304
42	0xbe81bfa1	-0.25341514
43	0x3f22dca9	0.6361795
44	0xbe2d3ea6	-0.1691843
45	0x3fc6880f	1.5510272
46	0x3f5f0861	0.8712216
47	0xbf8ca00b	-1.0986341
48	0x3d00715d	0.03135811
49	0x3d28c3fd	0.041202534
50	0xbf0e75be	-0.5564841
51	0xbf9ab7fb	-1.2087396
52	0x3ee4ce9a	0.44688874
53	0xbec16d7b	-0.3777884
54	0xbf74ef90	-0.95678043
55	0x3e861fd4	0.26196158
56	0xbfc6d0eb	-1.5532507
57	0x3d3da2f5	0.046297986
58	0xbfd208ef	-1.6408976
59	0x3fe595b7	1.7936314
60	0xbf5d81b2	-0.86526024
61	0x3f1e3ca5	0.61811286
62	0xbf1fe5ee	-0.6246022
63	0x3f00764f	0.50180525

h_embedding.weight f4 [32, 128]
0	0xbebdd19d	-0.37073985
1	0x3e59a1af	0.21253084
2	0x3f2af31c	0.66777205
3	0xbe318ada	-0.17338124
4	0xbf6ba5c8	-0.9204984
5	0x3e7d999d	0.2476563
6	0x3ec03f8b	0.3754848
7	0xbf3142d6	-0.6924261
8	0xbf60e028	-0.87842035
9	0x3f4c6a2a	0.79849494
10	0xbf70608b	-0.9389731
11	0xbf7738af	-0.9657087
12	0x3f40f840	0.753788
13	0x3e84a18e	0.25904506
14	0xbef72815	-0.48272768
15	0xbeaf5049	-0.3424094
16	0x3f6da953	0.92836493
17	0x3f310734	0.69151616
18	0xbefccb64	-0.49373925
19	0xbecc6b1a	-0.39925462
20	0xbe371b11	-0.17881419
21	0x3ed114e3	0.40836248
22	0x3f1af6fa	0.60533106
23	0xbe4139f1	-0.18869759
24	0xbf49aff8	-0.7878413
25	0x3ed91749	0.42400578
26	0x3f1e0e77	0.6174082
27	0xbf62780b	-0.8846442
28	0x3ef7ee5d	0.48424044
29	0xbf410e5a	-0.75412524
30	0x3ef19e58	0.4719112
31	0x3ea3aa92	0.31966072
32	0x3e80406e	0.25049156
33	0x3e112cc9	0.1417724
34	0xbd0b635f	-0.034030315
35	0x3d0bc5e4	0.03412427
36	0xbee13455	-0.4398524
37	0xbeef5c00	-0.46749878
38	0x3dd56965	0.10420493
39	0x3dc420a2	0.09576537
40	0x3e796df0	0.24358344
41	0x3ef90386	0.486355
42	0xbf52d57b	-0.82356995
43	0x3ed7bd18	0.42136455
44	0x3f74c861	0.95618254
45	0xbf5cb69a	-0.8621613
46	0xbe650bca	-0.22367778
47	0xbe70f0c9	-0.23529352
48	0x3f627584	0.88460565
49	0xbe2085f9	-0.15676107
50	0x3e729d12	0.2369273
51	0x3f76a521	0.96345717
52	0x3e8ea0df	0.2785711
53	0xbe1eade5	-0.15496023
54	0xbeda7332	-0.42666012
55	0x3ec83e53	0.3911005
56	0xbdbe9427	-0.093056016
57	0xbd2a73ff	-0.04161453
58	0xbee0b183	-0.4388543
59	0x3f5b4d74	0.8566506
60	0x3f5243e4	0.8213484
61	0x3e1caecc	0.15301055
62	0xbe4d06ee	-0.20022175
63	0xbd79b062	-0.060959227
64	0x3e5b018d	0.2138731
65	0x3e620ac3	0.22074418
66	0x3f27eae7	0.6559281
67	0x3e9e2e6b	0.3089479
68	0xbf4a7625	-0.79086524
69	0xbe73280f	-0.2374575
70	0xbdc19475	-0.09452144
71	0xbe6a43be	-0.22877404
72	0xbf3234d9	-0.6961189
73	0xbf4194ac	-0.7561748
74	0x3ed826c8	0.42217088
75	0xbdf388ed	-0.11891351
76	0xbe627937	-0.22116552
77	0x3f4bcc2e	0.7960843
78	0x3f0983bf	0.53716654
79	0xbea33330	-0.3187499
80	0xbd7c5eb0	-0.06161374
81	0x3f5b62ce	0.8569764
82	0x3e4551f6	0.19269547
83	0x3f11f3a4	0.5701239
84	0xbe33ac4b	-0.17546193
85	0x3f079568	0.5296235
86	0x3e890467	0.2676117
87	0xbe0c8ac3	-0.13724808
88	0x3ebb82d9	0.36623266
89	0x3d86fe45	0.06591467
90	0xbe7630ca	-0.24042049
91	0x3f10f873	0.56629103
92	0xbea4f438	-0.32217574
93	0x3f0785da	0.52938616
94	0xbd7124d1	-0.058873
95	0xbeeabbdf	-0.4584646
96	0xbe7891e0	-0.24274397
97	0x3e69d9f2	0.22837046
98	0xbdb31b60	-0.08745456
99	0xbf40ed92	-0.75362504
100	0x3d25af57	0.04045042
101	0xbec3b5aa	-0.38224536
102	0x3e5bbd92	0.21459034
103	0x3ca4f703	0.020137316
104	0x3e45739c	0.19282383
105	0x3e950213	0.29103145
106	0x3e5fe894	0.21866065
107	0x3eb6711c	0.3563317
108	0xbf666173	-0.89992446
109	0xbf338967	-0.70131534
110	0xbf24abba	-0.64324534
111	0x3ee20b5e	0.44149297
112	0x3f7133d6	0.9421972
113	0xbd757197	-0.05992278
114	0xbece16c4	-0.40251744
115	0x3f53b9ff	0.8270568
116	0x3e9b9007	0.30383322
117	0x3f4592d0	0.77177143
118	0xbee0c756	-0.4390208
119	0x3f481a19	0.7816482
120	0x3e9e35bd	0.30900374
121	0x3dbc0380	0.09180355
122	0x3ed351d1	0.41273358
123	0xbe558ad4	-0.2085374
124	0x3f30c900	0.690567
125	0xbf4aa50e	-0.79158103
126	0xbf510c18	-0.8165908
127	0x3f6a5759	0.9153953
128	0xbf716a93	-0.94303244
129	0x3ed0a422	0.40750223
130	0x3bd1fa1b	0.0064079887
131	0xbeda1272	-0.42592198
132	0x3edc345d	0.430087
133	0xbf3c9630	-0.7366667
134	0xbeafcf88	-0.3433802
135	0xbdc5432a	-0.09631951
136	0x3f629a10	0.8851633
137	0x3df0ef14	0.117643505
138	0xbd68ece0	-0.056866527
139	0x3f2ec113	0.6826336
140	0x3f0d404d	0.5517624
141	0x3f16c633	0.5889618
142	0xbf06363b	-0.524265
143	0xbf20b0b7	-0.62769645
144	0x3f6c875c	0.9239404
145	0xbd71a5b6	-0.058995925
146	0xbf079efb	-0.5297696
147	0xbf5cdf42	-0.86278164
148	0x3ecd6651	0.40117124
149	0x3e5347a3	0.20632796
150	0xbeec70a6	-0.46179694
151	0x3f4da614	0.8033154
152	0xbf293ba9	-0.6610666
153	0x3f27a8ba	0.6549183
154	0x3ed39ce7	0.41330644
155	0xbefac306	-0.48976916
156	0xbf139807	-0.5765385
157	0x3e0edb67	0.13950883
158	0x3e9c1a52	0.3048883
159	0x3ec79a16	0.38984746
160	0x3e37de65	0.1795593
161	0x3e3fd794	0.1873458
162	0xbf5af687	-0.8553242
163	0x3f285681	0.65756994
164	0x3f3c03c0	0.7344322
165	0xbf012e02	-0.5046083
166	0xbe9d0da3	-0.30674466
167	0xbe77fdea	-0.24217954
168	0xbf5ad616	-0.8548292
169	0x3ea4653b	0.32108483
170	0xbf1f305f	-0.62183183
171	0x3f6bb4fc	0.92073035
172	0xbefce9e7	-0.49397203
173	0x3f58d777	0.84703773
174	0xbf4460a7	-0.7670998
175	0x3ef19e73	0.471912
176	0x3f645193	0.8918697
177	0xbf39f76a	-0.7264315
178	0xbf4e3dd5	-0.805631
179	0xbf362c1e	-0.7116107
180	0xbe24f38c	-0.16108531
181	0xbf02696f	-0.5094213
182	0xbf2b2998	-0.6686034
183	0xbdf2e959	-0.11860914
184	0x3f50ec08	0.81610155
185	0x3f0f93ea	0.56085074
186	0xbd36335e	-0.04448258
187	0xbe1ca2c5	-0.15296467
188	0x3f3c5bc3	0.7357752
189	0xbf62154d	-0.8831375
190	0xbf77ab04	-0.96745324
191	0xbf049f25	-0.51805335
192	0x3ef0a927	0.47004053
193	0xbea8ea96	-0.32991475
194	0x3dd702b8	0.104985654
195	0xbf2fca90	-0.6866846
196	0x3f6b92bb	0.9202077
197	0x3f2c29db	0.67251366
198	0xbdba7586	-0.09104447
199	0x3f6495ff	0.89291376
200	0x3ee46fc8	0.44616532
201	0x3e1d18f0	0.15341544
202	0x3de1fc06	0.11034398
203	0xbea64e36	-0.32481545
204	0xbf217385	-0.63066894
205	0x3f4340c1	0.7627068
206	0x3f33c61e	0.7022418
207	0xbca1c41e	-0.019746836
208	0x3d42b663	0.04753722
209	0x3f4b704a	0.79468215
210	0x3f6ae326	0.9175285
211	0x3f082c9a	0.53193057
212	0x3eb2c708	0.34917474
213	0xbe867182	-0.26258475
214	0xbf09d521	-0.53840834
215	0xbdfb431d	-0.1226866
216	0x3e06668e	0.13125059
217	0x3f29fa72	0.66397774
218	0x3e712bce	0.23551866
219	0xbf697de0	-0.91207695
220	0x3f395508	0.7239537
221	0x3f58e9ea	0.84731925
222	0x3dd98935	0.10621873
223	0xbe594049	-0.21215929
224	0xbf3c6a1e	-0.7359942
225	0x3f58e8d5	0.84730273
226	0x3f465d10	0.7748575
227	0xbf2100de	-0.6289195
228	0xbedac0b5	-0.4272515
229	0x3f5212ed	0.8206013
230	0xbf167498	-0.5877166
231	0xbe696b28	-0.22794783
232	0xbebdb795	-0.37054124
233	0x3e4d8725	0.20071085
234	0x3ceb628a	0.02873351
235	0xbf213e05	-0.6298526
236	0xbf295d22	-0.66157734
237	0xbf55915c	-0.83424926
238	0xbd07c437	-0.03314611
239	0x3f6c4832	0.9229766
240	0xbef80117	-0.4843833
241	0x3e691ecd	0.22765656
242	0xbe2b8c4e	-0.1675274
243	0x3f0f46e9	0.55967575
244	0x3c6d4763	0.014482352
245	0x3eff25e2	0.4983359
246	0x3e57dde8	0.21080744
247	0xbd6853b6	-0.056720458
248	0xbe3a8660	-0.18215322
249	0x3e4f8dc3	0.20268922
250	0xbf181560	-0.59407616
251	0xbda3581e	-0.079757914
252	0xbef5dac6	-0.48018473
253	0x3ce54884	0.02798868
254	0xbf1ee104	-0.62062097
255	0x3ecacb7f	0.3960838

h_embedding.bias f4 [32]
0	0x00000000	0.0
1	0x00000000	0.0
2	0x00000000	0.0
3	0x00000000	0.0
4	0x00000000	0.0
5	0x00000000	0.0
6	0x00000000	0.0
7	0x00000000	0.0
8	0x00000000	0.0
9	0x00000000	0.0
10	0x00000000	0.0
11	0x00000000	0.0
12	0x00000000	0.0
13	0x00000000	0.0
14	0x00000000	0.0
15	0x00000000	0.0
16	0x00000000	0.0
17	0x00000000	0.0
18	0x00000000	0.0
19	0x00000000	0.0
20	0x00000000	0.0
21	0x00000000	0.0
22	0x00000000	0.0
23	0x00000000	0.0
24	0x00000000	0.0
25	0x00000000	0.0
26	0x00000000	0.0
27	0x00000000	0.0
28	0x00000000	0.0
29	0x00000000	0.0
30	0x00000000	0.0
31	0x00000000	0.0

initial_layer_norm.weight f4 [32]
0	0x3f800000	1.0
1	0x3f800000	1.0
2	0x3f800000	1.0
3	0x3f800000	1.0
4	0x3f800000	1.0
5	0x3f800000	1.0
6	0x3f800000	1.0
7	0x3f800000	1.0
8	0x3f800000	1.0
9	0x3f800000	1.0
10	0x3f800000	1.0
11	0x3f800000	1.0
12	0x3f800000	1.0
13	0x3f800000	1.0
14	0x3f800000	1.0
15	0x3f800000	1.0
16	0x3f800000	1.0
17	0x3f800000	1.0
18	0x3f800000	1.0
19	0x3f800000	1.0
20	0x3f800000	1.0
21	0x3f800000	1.0
22	0x3f800000	1.0
23	0x3f800000	1.0
24	0x3f800000	1.0
25	0x3f800000	1.0
26	0x3f800000	1.0
27	0x3f800000	1.0
28	0x3f800000	1.0
29	0x3f800000	1.0
30	0x3f800000	1.0
31	0x3f800000	1.0

initial_layer_norm.bias f4 [32]
0	0x00000000	0.0
1	0x00000000	0.0
2	0x00000000	0.0
3	0x00000000	0.0
4	0x00000000	0.0
5	0x00000000	0.0
6	0x00000000	0.0
7	0x00000000	0.0
8	0x00000000	0.0
9	0x00000000	0.0
10	0x00000000	0.0
11	0x00000000	0.0
12	0x00000000	0.0
13	0x00000000	0.0
14	0x00000000	0.0
15	0x00000000	0.0
16	0x00000000	0.0
17	0x00000000	0.0
18	0x00000000	0.0
19	0x00000000	0.0
20	0x00000000	0.0
21	0x00000000	0.0
22	0x00000000	0.0
23	0x00000000	0.0
24	0x00000000	0.0
25	0x00000000	0.0
26	0x00000000	0.0
27	0x00000000	0.0
28	0x00000000	0.0
29	0x00000000	0.0
30	0x00000000	0.0
31	0x00000000	0.0

layers.0.attention.Q.weight f4 [32, 32]
0	0x3d526bba	0.051372267
1	0xbfb62970	-1.4231396
2	0xbd2c43e8	-0.042056948
3	0xbe039f14	-0.12853652
4	0x3e32e60b	0.17470567
5	0x3fa8d165	1.3188902
6	0xbec50465	-0.38479915
7	0xbf9e2a6f	-1.23567
8	0xbe945749	-0.28972843
9	0x3fb072cf	1.3785037
10	0xbf5bd9f2	-0.85879433
11	0x3f9e1e6f	1.2353038
12	0xbfc18119	-1.5117522
13	0x3f323808	0.69616747
14	0xbf4c2e5e	-0.7975825
15	0xbf5bea6b	-0.8590457
16	0x3fa61545	1.2975241
17	0xbf88db83	-1.069199
18	0x3fb30b16	1.3987758
19	0xbf6b9808	-0.92028856
20	0x3fa79afe	1.3094175
21	0x3f825409	1.0181895
22	0x3f6bed84	0.92159295
23	0xbfb2eec8	-1.397912
24	0xbf0e2a59	-0.5553337
25	0x3eacb400	0.3373108
26	0xbf1ec1bf	-0.62014383
27	0xbf6e27be	-0.9302939
28	0xbf8d648d	-1.1046311
29	0x3fb8ad3f	1.442787
30	0xbe984c58	-0.29745746
31	0xbea95064	-0.33069146
32	0xbea73301	-0.326561
33	0x3f849fca	1.0361264
34	0xbf93f86e	-1.156019
35	0xbf9f2c61	-1.2435418
36	0xbeeca755	-0.46221414
37	0x392b76db	0.00016352108
38	0xbf80050b	-1.0001539
39	0xbf3a32b3	-0.7273361
40	0xbedbec72	-0.4295383
41	0xbfb5a47d	-1.4190823
42	0xbf0c1828	-0.5472436
43	0x3f9d9cdb	1.2313493
44	0xbf511c72	-0.8168403
45	0x3fa69b20	1.301609
46	0xbcd910c8	-0.02649726
47	0x3e9b7db7	0.3036935
48	0xbf5e18f6	-0.8675684
49	0x3f344b4a	0.7042738
50	0x3e84cce3	0.25937566
51	0x3fc031f5	1.5015246
52	0x3f7d3015	0.9890149
53	0x3fc1b721	1.5134012
54	0xbec93909	-0.39301327
55	0x3f0a0339	0.5391117
56	0x3ea74836	0.3267228
57	0x3f868bd2	1.051142
58	0xbf9f67e3	-1.2453579
59	0x3fa5a725	1.2941633
60	0x3f21c2be	0.6318778
61	0xbfa7c1d2	-1.3106024
62	0xbf34c7dd	-0.7061747
63	0x3e91cab0	0.2847495
64	0x3dce1c67	0.10064011
65	0x3e801e2a	0.25023013
66	0xbfaebc33	-1.3651184
67	0x3eb4db5a	0.35323602
68	0x3f89d248	1.0767298
69	0xbf6931ef	-0.9109182
70	0x3fbf1147	1.4927148
71	0x3ee78459	0.4521816
72	0x3eefab08	0.46810174
73	0x3fb9f774	1.4528642
74	0x3fbb4350	1.4629917
75	0xbfa2f3b0	-1.2730618
76	0xbf27bb90	-0.6552057
77	0x3f197bb2	0.5995437
78	0xbf265e24	-0.649874
79	0xbad13308	-0.0015960643
80	0xbfaa616b	-1.331098
81	0xbe8f7c59	-0.28024557
82	0xbfb9a6ca	-1.4504025
83	0x3f923dda	1.1425126
84	0x3f48b4d9	0.7840095
85	0xbf8df4fd	-1.109039
86	0x3e842e8e	0.25816768
87	0xbeaee0be	-0.3415584
88	0xbf885990	-1.0652332
89	0x3e81733b	0.25283226
90	0x3e3f7d3a	0.18700114
91	0x3e098c6c	0.13432473
92	0x3f4bb6b4	0.7957566
93	0xbf2db1b7	-0.67849296
94	0xbf4d9151	-0.8029986
95	0x3f9a5bc0	1.205925
96	0xbfa4c391	-1.2872182
97	0xbf9e953b	-1.2389292
98	0xbeed49b8	-0.46345305
99	0x3f45e93b	0.77309006
100	0x3f27fcab	0.65619916
101	0xbeef98a6	-0.4679615
102	0xbe0e76f7	-0.13912569
103	0x3eae5a95	0.34053484
104	0x3f535ab5	0.8256028
105	0xbde1a726	-0.11018209
106	0x3ef49fb8	0.47778106
107	0xbdd9b86b	-0.10630878
108	0x3f990be2	1.1956751
109	0x3fb7fa47	1.4373254
110	0xbf88aef2	-1.0678389
111	0xbfa6c1c4	-1.3027883
112	0xbebf071b	-0.3731011
113	0x3fa482f8	1.2852468
114	0x3e532e0f	0.20623039
115	0x3f537214	0.82595944
116	0x3f0b32b2	0.5437423
117	0xbe79c34a	-0.24390903
118	0xbf619f96	-0.88134134
119	0xbf5500f3	-0.83204573
120	0xbc468094	-0.012115616
121	0x3f54c096	0.8310636
122	0xbe0b43c0	-0.13600063
123	0x3ee88775	0.45415846
124	0x3f886ba3	1.0657848
125	0x3f1709f9	0.5899959
126	0x3ccdc383	0.025117641
127	0xbf73e54e	-0.95271766
128	0xbf65056f	-0.89461416
129	0xbebb3672	-0.36564976
130	0x3f914d8b	1.1351789
131	0xbf87bb82	-1.0604098
132	0x3fa8784f	1.3161715
133	0x3f9b7e04	1.2147832
134	0x3f89d6b8	1.0768652
135	0xbee88919	-0.45417097
136	0x3d5836a0	0.05278647
137	0x3f90b6ab	1.1305746
138	0x3fa6e83a	1.303962
139	0xbf615a94	-0.88028836
140	0xbf120cd6	-0.57050836
141	0xbe7f76ad	-0.24947615
142	0x3e005b9e	0.12534949
143	0x3f95217b	1.1650842
144	0xbf09df9e	-0.5385684
145	0xbfbf3bd3	-1.4940132
146	0xbe65c728	-0.22439253
147	0xbce38041	-0.027771117
148	0xbf237a9a	-0.6385895
149	0x3f35179c	0.7073915
150	0xbe38c23d	-0.18042846
151	0xbeedaa56	-0.46419019
152	0xbec029f9	-0.37532023
153	0x3f6e17d2	0.93005097
154	0xbd556716	-0.052100264
155	0x3fb160a5	1.3857619
156	0xbe077176	-0.13226876
157	0x3edf318e	0.43592495
158	0xbf89aeea	-1.0756505
159	0x3fa760a1	1.3076364
160	0xbf5da7b9	-0.8658405
161	0xbb54cca7	-0.0032470615
162	0x3e9c7f9b	0.30566105
163	0x3f5e3e60	0.86813927
164	0x3fb3e24d	1.4053437
165	0xbf994e1d	-1.1976963
166	0x3faeed2d	1.366613
167	0xbf62a2f4	-0.88529897
168	0x3fb8cbf3	1.443724
169	0x3e13b548	0.14424622
170	0x3f6ba016	0.92041147
171	0x3fb0b62a	1.3805592
172	0x3f65e809	0.8980718
173	0x3f5f2175	0.87160426
174	0xbe7e84b7	-0.24855314
175	0xbf8816a5	-1.063191
176	0x3f8a085f	1.0783805
177	0xbfb7a2de	-1.4346578
178	0x3f160f86	0.58617437
179	0x3ec93231	0.39296106
180	0x3f9e0119	1.2344085
181	0xbf47accb	-0.77998036
182	0x3c32f5e1	0.01092288
183	0xbdacef90	-0.084441304
184	0xbfaad054	-1.3344827
185	0x3f016f20	0.5056019
186	0xbf45de2e	-0.77292144
187	0x3fbc2c18	1.4700956
188	0x3fb8017d	1.4375454
189	0xbf16066f	-0.58603567
190	0x3e11be77	0.14232813
191	0xbf709d48	-0.9398999
192	0x3fc05583	1.5026096
193	0xbf48b674	-0.784034
194	0xbebb80d0	-0.36621714
195	0x3f8f071b	1.1174043
196	0xbfc381f5	-1.5274035
197	0xbfb09a12	-1.3797019
198	0x3f92c9c0	1.1467819
199	0x3ced0fa4	0.028938122
200	0xbd8e0716	-0.06934945
201	0x3dcd55ab	0.100261055
202	0xbe5d58e1	-0.21615936
203	0xbe1ff1ff	-0.15619658
204	0x3e70167c	0.23446077
205	0x3e981f6b	0.2971147
206	0xbda4bcd9	-0.08043832
207	0xbf461275	-0.77371913
208	0x3f004f62	0.5012113
209	0x3ebaf64a	0.3651603
210	0xbf59b91a	-0.8504807
211	0x3f61a10a	0.8813635
212	0x3dc7403c	0.097290486
213	0xbe5a05cd	-0.21291275
214	0xbeed88dc	-0.46393478
215	0xbf68e1d5	-0.9096959
216	0xbf54c2fe	-0.83110034
217	0xbf99969a	-1.1999085
218	0xbf5f3e01	-0.87203985
219	0x3fa65daf	1.299734
220	0xbf9df5ad	-1.2340599
221	0x3f163cd4	0.58686566
222	0xbd8754bb	-0.06607958
223	0x3f70c9bf	0.9405784
224	0x3f2c919a	0.6740967
225	0x3ef44034	0.47705233
226	0x3ddb5734	0.10709992
227	0x3fa7f89f	1.3122748
228	0xbf709ba6	-0.939875
229	0x3edf765a	0.43644983
230	0xbe675ed1	-0.22594763
231	0x3e984f4f	0.29748008
232	0x3f34b82d	0.7059353
233	0xbfa11cb3	-1.2586883
234	0xbe2276ed	-0.15865679
235	0xbf95cc6f	-1.1703013
236	0x3fbe7e7c	1.488235
237	0xbf836c9a	-1.0267518
238	0xbfa62c08	-1.2982187
239	0xbfb86fdb	-1.4409136
240	0x3f99f851	1.2028905
241	0xbfa9b74f	-1.3259066
242	0xbf831c7e	-1.024307
243	0xbf8ad4ce	-1.0846193
244	0x3d6adfe5	0.05734243
245	0xbe2a6da0	-0.16643381
246	0x3f4b02da	0.79301226
247	0xbf5bd8cf	-0.858777
248	0xbfb355a4	-1.401051
249	0xbf8801e3	-1.0625576
250	0x3f64b75c	0.89342284
251	0xbf6022ea	-0.87553275
252	0xbe6ddb84	-0.2322827
253	0xbfaa8f22	-1.3324931
254	0x3e9b856b	0.30375227
255	0xbfa8129c	-1.3130679

layers.0.attention.K.weight f4 [32, 32]
0	0xbfa3ad74	-1.2787309
1	0x3f949cd1	1.1610357
2	0x3f272822	0.6529561
3	0x3fa69cc5	1.3016592
4	0x3f32dc33	0.6986725
5	0xbfa712c7	-1.3052605
6	0x3ec26941	0.37970927
7	0xbfb2530c	-1.3931594
8	0xbdfa3a46	-0.12218146
9	0xbf04b4c9	-0.51838356
10	0x3fa92c92	1.3216727
11	0xbcd3a1ee	-0.02583405
12	0xbf5ee606	-0.8706974
13	0xbf2893ad	-0.65850335
14	0xbf40bc41	-0.7528725
15	0xbefee169	-0.4978135
16	0x3f61b577	0.8816752
17	0x3f71d1c8	0.94460726
18	0xbfc171e3	-1.511288
19	0x3ebffa99	0.37495878
20	0xbf5da327	-0.86577076
21	0x3f8e92c6	1.1138542
22	0x3f0b8cec	0.54511905
23	0xbf1e974d	-0.61949617
24	0xbf92bc98	-1.1463804
25	0x3ec75883	0.38934717
26	0xbf99ce51	-1.2016088
27	0xbfacc78a	-1.3498394
28	0x3fc03f32	1.5019286
29	0xbfac2fe0	-1.345211
30	0xbe69ad22	-0.22819951
31	0xbe376833	-0.17910843
32	0x3fb3ae6c	1.4037604
33	0x3f9b2464	1.212048
34	0x3f01d091	0.5070887
35	0xbe2bab13	-0.16764478
36	0x3f97b4a6	1.1852005
37	0x3fa6f391	1.304308
38	0x3fbfa73a	1.4972908
39	0x3e2ed57d	0.17073627
40	0x3f21753d	0.63069516
41	0x3f87a4d8	1.0597181
42	0x3f7b7b28	0.98234797
43	0x3d09d8eb	0.033654135
44	0x3e074207	0.13208781
45	0x3fbca726	1.473851
46	0xbf8d4249	-1.1035854
47	0xbf099e44	-0.5375712
48	0xbf10dc76	-0.56586397
49	0xbfb5931e	-1.4185522
50	0x3f6d683b	0.9273717
51	0x3faf8ce8	1.3714876
52	0x3f128ac9	0.5724302
53	0x3f2ae973	0.66762465
54	0x3f3c272f	0.7349729
55	0x3ee300a3	0.44336423
56	0x3f07b60b	0.5301215
57	0x3f66d137	0.90162987
58	0x3f30734e	0.6892594
59	0x3f80e684	1.0070348
60	0xbee209b7	-0.44148037
61	0xbf380ffe	-0.718994
62	0xbf404522	-0.7510549
63	0xbe473eeb	-0.19457595
64	0xbfabcb79	-1.342147
65	0xbfadf06f	-1.3589
66	0x3e260bbd	0.16215415
67	0xbfb09602	-1.3795779
68	0x3f0f951b	0.5608689
69	0xbefa8f15	-0.48937288
70	0xbf6819c8	-0.9066434
71	0xbec1cb6d	-0.37850514
72	0x3e4b8931	0.19876553
73	0x3f36f47b	0.714668
74	0xbc56f552	-0.013120012
75	0xbf166497	-0.5874724
76	0x3d884af9	0.06654925
77	0x3e8aed4d	0.2713417
78	0x3f2c38cf	0.67274183
79	0x3f36e1b1	0.7143813
80	0x3f415eb8	0.75535154
81	0x3faa75fc	1.3317256
82	0xbf797625	-0.974459
83	0x3c99aea2	0.01876003
84	0x3e8c6bbf	0.27425954
85	0xbd7c2ba2	-0.06156505
86	0x3e903692	0.28166634
87	0xbf1f605f	-0.62256426
88	0xbee62448	-0.44949555
89	0xbf684560	-0.9073086
90	0x3ed241ac	0.4106573
91	0x3ebd23b1	0.36941293
92	0x3e858ec9	0.260855
93	0x3fbc9141	1.4731828
94	0x3f3bf7cc	0.73424983
95	0x3f0d0707	0.5508885
96	0x3e1dff4c	0.1542942
97	0x3f760a27	0.9610924
98	0xbf75b07f	-0.95972437
99	0xbeb07abf	-0.34468648
100	0x3f6779c6	0.90420187
101	0x3fb4ab16	1.4114711
102	0xbefee1dd	-0.49781695
103	0xbf849444	-1.0357747
104	0x3f7e5886	0.99353826
105	0xbf646925	-0.8922294
106	0x3fc13f3b	1.5097421
107	0x3f742eab	0.9538371
108	0xbf7ed416	-0.9954237
109	0xbf73d681	-0.9524918
110	0x3fb8808e	1.4414232
111	0xbf9c4f35	-1.2211672
112	0x3d2473a6	0.040149353
113	0x3f95dec6	1.170861
114	0xbde120ab	-0.10992559
115	0xbf75269e	-0.9576205
116	0xbee9f90c	-0.4569782
117	0xbf5a3e7e	-0.85251606
118	0x3f91d45a	1.139293
119	0x3c81b647	0.015833987
120	0xbf9ea746	-1.2394798
121	0x3fa21254	1.2661843
122	0xbf7e6bca	-0.99383223
123	0xbf0c016c	-0.5468967
124	0xbe67db1c	-0.22642177
125	0x3fba842a	1.4571583
126	0x3dd08ebf	0.10183477
127	0x3fb1c223	1.3887371
128	0xbf98d2ce	-1.1939332
129	0xbf943c84	-1.1580968
130	0x3e15694f	0.14590953
131	0xbf9e31df	-1.235897
132	0xbeab1751	-0.33416227
133	0x3f4d9a8f	0.8031396
134	0x3fa44c12	1.2835715
135	0x3fb711cf	1.430231
136	0xbf9689ce	-1.1760805
137	0xbf503202	-0.81326306
138	0x3ea634ab	0.32462057
139	0x3eda46f6	0.42632264
140	0xbe8ba179	-0.2727163
141	0x3fa417a5	1.2819716
142	0x3f2479c3	0.64248294
143	0xbe43138c	-0.19050425
144	0x3f721f74	0.94579244
145	0x3f6eba0a	0.93252623
146	0x3f00ba52	0.502843
147	0x3da37135	0.07980577
148	0xbeaec399	-0.34133604
149	0xbf534c8e	-0.8253869
150	0x3eced632	0.40397793
151	0xbe6f6394	-0.2337783
152	0xbf570752	-0.83995545
153	0xbf96db76	-1.1785724
154	0x3e92fd67	0.28708956
155	0xbf5cee83	-0.8630144
156	0xbe2fb7d4	-0.17159969
157	0xbecbcce7	-0.39804766
158	0x3f9e60d2	1.2373297
159	0x3f2fab5d	0.68620855
160	0x3fa8f1c4	1.3198781
161	0xbf7808b4	-0.9688828
162	0xbf529945	-0.8226512
163	0xbf470552	-0.77742493
164	0x3e340694	0.17580634
165	0xbe8df1ab	-0.2772344
166	0xbfb12ac2	-1.3841174
167	0x3e8538a0	0.26019764
168	0xbe13f7d4	-0.14450008
169	0x3f7f6e19	0.9977737
170	0x3f9c5273	1.2212662
171	0x3e62ceab	0.2214915
172	0xbfb49047	-1.410653
173	0x3fc3727f	1.5269316
174	0x3f8e1709	1.110078
175	0x3dcad9f3	0.09904852
176	0x3e7ee257	0.2489103
177	0x3fa16bb2	1.2610991
178	0xbfa4a743	-1.2863544
179	0x3ee91e10	0.45530748
180	0x3fa0859d	1.2540776
181	0x3ee58959	0.4483135
182	0xbe99b73f	-0.30022618
183	0x3eeb9eb0	0.46019506
184	0xbec339e7	-0.38130113
185	0x3fc08cce	1.504297
186	0xbd7a8531	-0.061162177
187	0xbea92b0a	-0.3304065
188	0x3f28821c	0.6582353
189	0x3fa9ab1c	1.3255343
190	0xbe16f7f9	-0.14743032
191	0xbea5a3c7	-0.32351515
192	0xbeeeacd9	-0.46616247
193	0x3f97379c	1.1813846
194	0x3fbd9e7c	1.481399
195	0x3ee67212	0.45008904
196	0xbf22a9ee	-0.6354054
197	0xbed8699f	-0.42268082
198	0xbf62f0c3	-0.88648623
199	0x3f54e08b	0.83155125
200	0x3f14c05b	0.5810601
201	0x3f4c4699	0.79795223
202	0x3e59e43e	0.21278474
203	0x3f81587c	1.0105128
204	0x3e86e3ec	0.26345766
205	0x3f960242	1.1719439
206	0xbfaa2b8b	-1.3294538
207	0x3f875bcd	1.057489
208	0xbf8c022c	-1.0938163
209	0xbed2ac1c	-0.41146934
210	0xbf765c97	-0.9623503
211	0x3e295e5c	0.16539901
212	0x3f86e549	1.0538722
213	0x3f3f4c7d	0.74726087
214	0xbf844d8b	-1.0336164
215	0x3f3aa011	0.7290049
216	0x3fb15398	1.3853636
217	0xbf0db863	-0.55359477
218	0xbece9abd	-0.4035243
219	0xbf5620f5	-0.8364404
220	0x3f22bc49	0.6356855
221	0xbfa8f60c	-1.3200088
222	0x3fa41941	1.2820207
223	0x3f9b715c	1.214397
224	0x3ecf341c	0.40469444
225	0x3f9d6d6a	1.2299016
226	0x3f9eeb35	1.241553
227	0x3fb314bd	1.3990704
228	0xbf746e8c	-0.9548118
229	0xbf82a665	-1.020703
230	0xba1d0421	-0.000598969
231	0xbfbc1f3b	-1.4697031
232	0x3f4b8dd2	0.79513276
233	0x3f562fe3	0.8366682
234	0xbf8d7389	-1.1050884
235	0xbefd82be	-0.4951381
236	0x3f4e9960	0.8070278
237	0x3e5ef7f4	0.21774274
238	0x3fb5641e	1.4171178
239	0x3f951e8b	1.1649946
240	0xbf4b6f4e	-0.7946671
241	0xbf6a74b9	-0.91584355
242	0xbf1112dd	-0.5666941
243	0x3fbcf552	1.4762366
244	0xbf56bb68	-0.8387971
245	0x3e923a17	0.28559944
246	0xbe8b1e56	-0.27171582
247	0x3ec90c66	0.39267272
248	0x3eb29998	0.34882808
249	0x3f18211e	0.5942553
250	0x3f18fb25	0.59758216
251	0x3f2e3541	0.6805001
252	0xbf032371	-0.51225954
253	0x3e9158e0	0.2838812
254	0xbf6b192b	-0.9183528
255	0xbe4bb940	-0.19894886

layers.0.attention.E.weight f4 [32, 32]
0	0x3f395578	0.7239604
1	0xbf8d71f4	-1.1050401
2	0xbf4a95be	-0.7913474
3	0xbf96e800	-1.1789551
4	0xbfabae42	-1.3412554
5	0xbfb77ab6	-1.4334323
6	0x3fb26234	1.3936219
7	0xbee48e6e	-0.44639915
8	0xbf87c5f5	-1.0607287
9	0xbf4620e2	-0.77393925
10	0xbf4c4cdb	-0.7980477
11	0x3f95c42c	1.1700492
12	0x3e3734e3	0.17891268
13	0x3e7286f6	0.23684296
14	0xbf840db8	-1.0316687
15	0xbfa73fd5	-1.3066355
16	0xbfc1d361	-1.5142633
17	0x3f9bb89c	1.2165713
18	0xbf72ba8b	-0.9481589
19	0xbf6090c7	-0.8772091
20	0xbf24caa8	-0.6437173
21	0xbfb1ef0d	-1.3901078
22	0x3f8f0f0e	1.1176469
23	0x3ee52809	0.44757107
24	0xbf541328	-0.8284173
25	0xbf548442	-0.8301431
26	0xbeb14ca7	-0.34628794
27	0x3f8589e7	1.043271
28	0xbf9d0982	-1.2268527
29	0xbf9299b1	-1.1453153
30	0x3fb32ce9	1.399808
31	0x3e4139de	0.18869731
32	0x3d5bd8aa	0.053673424
33	0xbfbce6c8	-1.4757929
34	0x3f525b41	0.8217049
35	0xbf5e16af	-0.8675336
36	0xbf518bbe	-0.81853855
37	0xbf327fc2	-0.6972619
38	0x3f7a8f3d	0.97874814
39	0xbfb605ab	-1.422048
40	0x3f0be534	0.5464661
41	0x3f4b97e1	0.79528624
42	0xbf933aa9	-1.1502277
43	0x3eac9bc4	0.3371259
44	0x3f5812fe	0.8440398
45	0x3f477268	0.77908945
46	0xbf183f88	-0.5947194
47	0xbf1155b9	-0.5677143
48	0xbfaa9959	-1.3328048
49	0x3cf5dba4	0.03001196
50	0xbfbc8238	-1.472724
51	0x3ed29fc7	0.41137525
52	0xbdf9b8c4	-0.12193444
53	0xbf100a41	-0.56265646
54	0xbf6f5770	-0.93492794
55	0x3ef97985	0.48725525
56	0xbf9318da	-1.1491959
57	0x3d98a88f	0.07454025
58	0x3f7806e4	0.96885514
59	0xbf971f9f	-1.1806525
60	0xbf26555e	-0.6497401
61	0x3f971447	1.1803063
62	0x3f20963d	0.62729245
63	0xbfad016f	-1.3516062
64	0xbf1147e9	-0.5675035
65	0xbf207a99	-0.6268707
66	0xbf8da404	-1.1065679
67	0x3f83bd48	1.0292139
68	0x3fb02f51	1.376444
69	0xbe24924b	-0.16071431
70	0x3f52b330	0.8230467
71	0x3eaaca63	0.33357534
72	0x3b97bdd9	0.004630786
73	0x3f4de9ab	0.80434674
74	0xbf34a4df	-0.70564073
75	0x3f917752	1.1364539
76	0xbf90b5ca	-1.1305478
77	0xbd864e2d	-0.065578796
78	0xbec28e5e	-0.37999243
79	0x3f47d552	0.78059876
80	0xbf113573	-0.5672218
81	0xbf97fd06	-1.1874092
82	0xbfbb5efe	-1.4638364
83	0xbfaa3765	-1.3298155
84	0xbf97c50b	-1.1857008
85	0xbef4bcd7	-0.47800323
86	0x3f7913d8	0.97295904
87	0x3f831632	1.0241148
88	0xbcca7115	-0.024712125
89	0x3f2ef1b1	0.6833754
90	0x3f4d31b1	0.8015395
91	0x3f31d274	0.6946175
92	0x3f027998	0.5096679
93	0xbe848a10	-0.25886583
94	0xbf57bd47	-0.8427319
95	0x3fb153a3	1.3853649
96	0x3f223bda	0.63372576
97	0x3f56b383	0.83867663
98	0x3f56bbbe	0.8388022
99	0xbcc83826	-0.024440836
100	0x3f709890	0.9398279
101	0x3e880a75	0.26570478
102	0xbebb3f2a	-0.36571628
103	0xbf9d23c7	-1.2276543
104	0x3f9f29b1	1.2434598
105	0x3f78ab80	0.9713669
106	0xbee77541	-0.45206645
107	0xbfa89ecf	-1.3173465
108	0xbefbfd4d	-0.4921669
109	0x3f232482	0.6372758
110	0xbf82c1c4	-1.0215383
111	0xbedeb9f3	-0.43501243
112	0x3cc6dae7	0.024274303
113	0xbf4b5867	-0.79431766
114	0x3f9267f9	1.143798
115	0x3f9f4e11	1.2445699
116	0x3f4d5460	0.8020687
117	0xbe0b08e8	-0.13577616
118	0xbe87fa53	-0.2655817
119	0xbfbac15a	-1.4590256
120	0xbf99cf44	-1.2016377
121	0x3fc3d7f1	1.5300275
122	0x3f857019	1.0424834
123	0x3eb91918	0.36151958
124	0x3f7bc885	0.98352844
125	0x3f2d7029	0.6774927
126	0x3e459797	0.19296108
127	0x3f9b7a95	1.2146784
128	0xbf8dc985	-1.1077124
129	0xbfbeec19	-1.4915801
130	0xbe8fbaff	-0.28072354
131	0x3f5fe217	0.8745436
132	0x3f0c9f14	0.54930234
133	0xbf33e7fa	-0.70275843
134	0x3f97e05c	1.1865344
135	0x3ef6adb6	0.48179406
136	0xbf7c253e	-0.9849433
137	0xbd594efa	-0.053053834
138	0x3f5204ad	0.82038385
139	0x3f272e1a	0.6530472
140	0xbf9587d1	-1.1682073
141	0x3fa00531	1.2501584
142	0x3df336c7	0.11875682
143	0xbf9a00ab	-1.2031454
144	0xbec5e3da	-0.386504
145	0xbe350fc3	-0.17681794
146	0xbf9ef704	-1.2419133
147	0x3fbd9ce7	1.4813508
148	0x3f3c80da	0.7363411
149	0x3f9207ab	1.140859
150	0x3f310b43	0.6915781
151	0xbf540755	-0.8282369
152	0xbf9e15fb	-1.2350458
153	0xbeff6e29	-0.49888733
154	0x3f220124	0.6328299
155	0x3f8bc487	1.091935
156	0xbe99a112	-0.300057
157	0xbf363734	-0.71177983
158	0xbebf5820	-0.37371922
159	0x3f119bc8	0.5687833
160	0xbf22cddc	-0.63595366
161	0x3ecff34f	0.40615317
162	0xbf2dad8f	-0.67842954
163	0xbfa5438a	-1.2911236
164	0x3e397383	0.1811047
165	0x3fafcf1c	1.373508
166	0x3e171bc2	0.14756683
167	0xbe106c52	-0.14103821
168	0x3fbd4562	1.4786799
169	0xbf595cf8	-0.84907484
170	0x3f7de3b4	0.9917557
171	0xbe364a2d	-0.17801733
172	0x3e1ad4dc	0.15120262
173	0x3fb8332c	1.4390616
174	0x3f9a71db	1.2065996
175	0xbf87dc35	-1.0614077
176	0xbfb52d00	-1.4154358
177	0x3e33a7c1	0.17544462
178	0x3f6807ed	0.90637094
179	0xbd6144ee	-0.054997377
180	0x3f504d86	0.8136829
181	0xbf684142	-0.90724576
182	0x3f99677d	1.1984707
183	0x3f90415f	1.126995
184	0xbf6f1190	-0.93386173
185	0xbf90530d	-1.1275345
186	0x3e41f6a6	0.18941745
187	0xbcb9fa0b	-0.022702238
188	0x3f445eaf	0.76706976
189	0x3f7dfc64	0.9921324
190	0xbfba5318	-1.4556608
191	0xbdcce277	-0.10004132
192	0xbf58c53e	-0.8467597
193	0x3ea0fb35	0.31441656
194	0x3f5a8243	0.85355014
195	0x3f780154	0.96877027
196	0xbfb53a38	-1.4158392
197	0x3f9a79b4	1.2068391
198	0x3f453a7e	0.77042377
199	0xbfab2798	-1.3371458
200	0x3b7d7d1c	0.0038679307
201	0x3e9a541e	0.301423
202	0xbf494fa0	-0.78637123
203	0x3fa42bef	1.2825907
204	0x3ef0a1b4	0.4699837
205	0x3f399d16	0.7250532
206	0x3fb16a95	1.3860651
207	0x3eba4375	0.3637959
208	0x3db55f84	0.08856109
209	0xbf06a221	-0.5259114
210	0xbf4e5a6c	-0.8060672
211	0xbf08e04e	-0.5346726
212	0x3f4e49ce	0.80581367
213	0xbf7f9f9c	-0.9985292
214	0x3fc036cd	1.5016724
215	0xbfbb3621	-1.4625894
216	0x3f4e7aa3	0.8065588
217	0x3e82c427	0.25540277
218	0xbeb9210c	-0.36158025
219	0x3d38aa63	0.04508437
220	0xbec6ee48	-0.3885367
221	0xbfbf4773	-1.494368
222	0xbf2dfe4f	-0.6796617
223	0x3f7a3aa8	0.9774575
224	0xbf50ee0f	-0.8161325
225	0x3f7d0e17	0.98849624
226	0x3f84d458	1.0377302
227	0xbf7fab9b	-0.99871224
228	0xbf907fa9	-1.1288959
229	0x3f78ea01	0.9723206
230	0x3fb6b530	1.4274044
231	0xbf85e08d	-1.0459152
232	0xbef6737d	-0.48134986
233	0x3e5737f6	0.21017441
234	0xbf710771	-0.9415198
235	0xbedd371a	-0.43206102
236	0x3fa861f0	1.3154888
237	0xbf94bdea	-1.1620457
238	0x3f83b996	1.0291011
239	0x3fb7c2f3	1.4356369
240	0xbf792446	-0.97320974
241	0x3f447b1d	0.76750356
242	0x3fa650bb	1.2993387
243	0x3ed7cda2	0.42149073
244	0x3e3fef23	0.18743567
245	0xbebb79da	-0.36616403
246	0x3f868ea2	1.0512278
247	0x3f71eb11	0.9449931
248	0xbfc2df7c	-1.5224452
249	0x3debf21f	0.1152079
250	0xbe3965db	-0.18105261
251	0x3fb0672c	1.3781486
252	0x3f6f5767	0.9349274
253	0x3fb0d83a	1.3815987
254	0x3f187d7d	0.5956648
255	0x3fb60a44	1.4221883

layers.0.attention.Q_2.weight f4 [32, 32]
0	0x3f981754	1.1882119
1	0x3faf1e23	1.3681072
2	0xbf14ae91	-0.5807887
3	0xbe8ed577	-0.27897236
4	0xbf910a77	-1.1331319
5	0xbecfcc26	-0.4058544
6	0x3f5b1734	0.8558228
7	0x3f6ba366	0.920462
8	0xbeb74b3b	-0.35799584
9	0xbfac2d0b	-1.3451246
10	0xbf07f570	-0.5310888
11	0xbe9cd28d	-0.30629387
12	0x3f1a5516	0.6028608
13	0xbef9b4ff	-0.48770902
14	0x3fc148d3	1.5100349
15	0x3d189cfb	0.037259083
16	0x3f0993cd	0.5374115
17	0xbb8ea6d5	-0.004353384
18	0x3f15436b	0.58305997
19	0x3f968dca	1.176202
20	0x3fb57374	1.4175858
21	0xbe0a9457	-0.1353315
22	0x3eff87c7	0.49908277
23	0xbe0b5162	-0.13605264
24	0x3fb30e4c	1.3988738
25	0xbec80039	-0.3906267
26	0x3f61c14c	0.8818557
27	0x3ed1eebd	0.41002455
28	0x3f76f59e	0.9646853
29	0xbdd5715f	-0.104220144
30	0xbf594827	-0.8487572
31	0xbf259e45	-0.64694625
32	0x3ea93f7b	0.33056244
33	0xbf937b2f	-1.1521968
34	0x3f92d1f3	1.1470321
35	0x3f88a66e	1.067579
36	0xbe3e0f81	-0.18560602
37	0x3f00032c	0.5000484
38	0x3e9bde6e	0.30443138
39	0xbeb9cabe	-0.36287493
40	0x3de99e97	0.11407202
41	0xbfa34980	-1.2756805
42	0xbf76fc80	-0.96479034
43	0xbe8b42af	-0.27199313
44	0xbe0b9015	-0.13629182
45	0x3fb50e6f	1.414503
46	0x3e77f447	0.24214278
47	0xbfb33dea	-1.400327
48	0xbfaf742a	-1.3707325
49	0xbf543610	-0.8289499
50	0xbfb7e380	-1.4366302
51	0x3f78288f	0.9693689
52	0xbf0e571d	-0.55601674
53	0xbfb9f24a	-1.4527066
54	0xbe4f5f6e	-0.20251247
55	0x3fbfad3d	1.4974743
56	0xbf9fc5d2	-1.2482245
57	0x3f97d3a2	1.186146
58	0x3f30b633	0.69028014
59	0xbf6f2f59	-0.9343162
60	0x3f614038	0.87988615
61	0x3ed32fda	0.41247445
62	0x3e4fbf5a	0.20287839
63	0x3fb7605f	1.4326285
64	0x3f170368	0.5898957
65	0x3f19e1df	0.60110277
66	0xbfbd8885	-1.4807287
67	0xbda5feeb	-0.08105262
68	0xbf9981e3	-1.1992763
69	0xbee05017	-0.43811104
70	0x3f497394	0.78691983
71	0x3f67f651	0.90610224
72	0xbf19bb5f	-0.6005153
73	0x3f0220f4	0.5083153
74	0xbf760239	-0.9609714
75	0xbf17888a	-0.5919272
76	0xbf484158	-0.78224707
77	0x3f36b68d	0.713723
78	0xbe8ac23b	-0.2710131
79	0xbd065226	-0.032793187
80	0x3f0eceaf	0.55784124
81	0xbc3afc63	-0.011412713
82	0xbf803b81	-1.0018159
83	0x3ba6a985	0.0050861263
84	0x3ee46b53	0.44613132
85	0xbf227400	-0.6345825
86	0xbf7233f0	-0.946105
87	0x3f41632b	0.75541943
88	0x3fc31842	1.5241778
89	0x3e0e7df9	0.13915242
90	0xbfbc011d	-1.468784
91	0xbfc07037	-1.5034245
92	0xbf58e315	-0.847215
93	0xbf9673c7	-1.1754082
94	0xbfb19646	-1.3873985
95	0xbfb3c953	-1.4045814
96	0xbf75fc90	-0.96088505
97	0xbf39b827	-0.7254662
98	0xbf95fa3b	-1.1716989
99	0xbf98011f	-1.1875342
100	0x3fbd2d4a	1.4779446
101	0xbf27b676	-0.6551279
102	0x3f3be29d	0.7339266
103	0xbf82dcae	-1.0223596
104	0xbf75d1eb	-0.96023434
105	0xbd5fa840	-0.054603815
106	0x3dfeffc4	0.12451127
107	0xbd54a8de	-0.051918857
108	0x3eb2cdbd	0.3492259
109	0x3f42fb0d	0.76164323
110	0x3f0f5154	0.5598347
111	0xbf0eb32e	-0.55742157
112	0x3fb26f1c	1.3940158
113	0x3f8e678b	1.1125349
114	0x3f9013e9	1.1256076
115	0x3f0fbb46	0.5614513
116	0x3fa8f3c1	1.3199388
117	0xbd239732	-0.039939113
118	0x3f049247	0.517857
119	0x3f7b41c6	0.9814724
120	0xbe864b80	-0.26229477
121	0xbe4e89a0	-0.20169687
122	0xbd3b429f	-0.04571783
123	0xbf80c801	-1.0061036
124	0x3fb67296	1.4253719
125	0xbf82f38c	-1.0230575
126	0x3ee1843a	0.44046193
127	0x3f942c46	1.1576011
128	0xbfba6aaf	-1.4563807
129	0x3e691bbe	0.22764489
130	0x3dc61475	0.096718706
131	0xbf1ca70a	-0.6119238
132	0xbf2f00b1	-0.6836043
133	0xbfc12c79	-1.5091697
134	0x3faeac12	1.3646262
135	0xbee0dde8	-0.439193
136	0x3e69d60a	0.22835556
137	0xbfa7a087	-1.3095864
138	0xbf4806eb	-0.78135556
139	0x3efc4287	0.49269506
140	0x3faf935e	1.3716848
141	0x3eb451b0	0.35218573
142	0x3f595823	0.8490011
143	0xbf7cc89c	-0.98743606
144	0x3f51f5b9	0.8201557
145	0xbfb68508	-1.4259348
146	0x3f5b6520	0.8570118
147	0x3f173456	0.59064233
148	0xbf20f4a7	-0.6287331
149	0x3fac4674	1.3459
150	0xbf43f55e	-0.76546276
151	0x3e8957e4	0.26824868
152	0x3c608f3b	0.013706024
153	0x3fb5d073	1.4204239
154	0xbf698284	-0.91214776
155	0xbe239416	-0.15974459
156	0xbed6fd3a	-0.41990072
157	0xbfb4c9d5	-1.4124094
158	0xbf966384	-1.174912
159	0xbfc12d5b	-1.5091966
160	0xbf881641	-1.0631791
161	0xbf45a765	-0.7720855
162	0x3f297a1c	0.6620195
163	0x3f999d61	1.2001153
164	0xbf4dd767	-0.804068
165	0xbfc27d26	-1.5194442
166	0x3fb6fcd1	1.4295903
167	0xbf059dd2	-0.5219394
168	0xbe5ce8e8	-0.21573222
169	0x3fae7032	1.3627989
170	0x3e75b027	0.23992978
171	0xbfaae872	-1.3352187
172	0x3f977681	1.183304
173	0xbd845b24	-0.06462696
174	0xbfb1058f	-1.3829821
175	0xbfb0aafe	-1.3802183
176	0xbfb6f1ff	-1.4292601
177	0xbea946df	-0.33061883
178	0x3f862086	1.0478675
179	0xbef09479	-0.46988276
180	0x3ed5ed79	0.4178274
181	0x3faf30d2	1.3686774
182	0x3d82f562	0.06394459
183	0xbfa08554	-1.2540689
184	0x3fb8b514	1.4430261
185	0x3e58dfa6	0.21179065
186	0x3fb2169a	1.3913147
187	0x3f3c4d94	0.73555875
188	0x3f645d1b	0.8920457
189	0xbefb586a	-0.49090892
190	0x3fba603f	1.4560622
191	0xbf4352a6	-0.76297987
192	0x3f0e50ca	0.55592024
193	0xbd9528ea	-0.07283194
194	0xbf2a67c0	-0.6656456
195	0x3f5d4e8f	0.86447996
196	0x3f44ebef	0.76922506
197	0xbea25fde	-0.31713766
198	0xbf7efc1d	-0.99603444
199	0xbf7f0dd7	-0.9963049
200	0xbadcbdbb	-0.0016841212
201	0xbf6027ad	-0.8756054
202	0x3fbb8356	1.4649456
203	0xbfa03008	-1.2514658
204	0x3fada6dc	1.3566546
205	0xbedf62fd	-0.4363021
206	0x3d7a969b	0.061178785
207	0x3e76daec	0.2410695
208	0x3f24954e	0.6429032
209	0xbd91feb8	-0.07128662
210	0x3ee27642	0.4423085
211	0xbf49cff6	-0.7883295
212	0xbfb78c41	-1.4339677
213	0x3f7cbe45	0.9872783
214	0xbf7407a3	-0.9532415
215	0x3e4e30d5	0.20135815
216	0x3fa93760	1.3220024
217	0x3f81d4d6	1.0143077
218	0xbe6fc4e4	-0.23414952
219	0x3ecbbb0b	0.3979114
220	0x3eeaa828	0.45831418
221	0xbf894474	-1.0724015
222	0xbf48c084	-0.78418756
223	0xbf842e42	-1.0326617
224	0xbf4ba8f1	-0.7955466
225	0x3ef5f4f3	0.48038444
226	0xbf758df7	-0.95919746
227	0x3d7f78ff	0.06237125
228	0xbf7b163b	-0.98080796
229	0x3f5843a3	0.84478205
230	0x3f8bab23	1.0911602
231	0x3f26f427	0.65216297
232	0x3f7ade1e	0.97995174
233	0xbf2e8351	-0.6816912
234	0x3fa89e5c	1.3173327
235	0xbfbe7726	-1.4880111
236	0xbf08e987	-0.53481334
237	0xbf58ee8f	-0.8473901
238	0xbf8f489e	-1.1194036
239	0xbf842c66	-1.0326049
240	0xbf1a6d58	-0.60323095
241	0xbe8e6ca8	-0.27817273
242	0x3f8188cb	1.0119871
243	0x3f1f392c	0.6219661
244	0xbef43fe4	-0.47704995
245	0xbfabcc5f	-1.3421744
246	0xbf1d8bce	-0.6154145
247	0xbfb18f5c	-1.3871875
248	0xbf7b8c7d	-0.98261243
249	0x3ee6abe3	0.45053014
250	0xbfbcfc55	-1.4764506
251	0xbf8acba6	-1.0843399
252	0xbece901e	-0.40344328
253	0x3f906d15	1.1283289
254	0xbe2d1012	-0.16900662
255	0xbf37e6ab	-0.71836346
